rnn_twc/saved_model/diff_rates/K1_K2_N(6_6_18)/bi_sigmoid/SNR1(-5dB)SNR2(-5dB)/model.pth (torch, 717621 bytes, 58 tensors)

weight_power1 f4 [18]
000000 84 a4 cd 3f a1 35 d8 3f 67 ec cf 3f 1c 5c 91 3f
       1.6065831 1.6891366 1.6244019 1.1356235
000010 a7 5b 99 3f 88 d0 90 3f cc 22 32 3f 45 22 31 3f
       1.1981095 1.1313639 0.69584346 0.69192916
000020 c8 34 48 3f 4a 17 55 3f 28 3b 66 3f 22 aa 5a 3f
       0.7820554 0.8323866 0.89934015 0.8541585
000030 bf f7 37 3f 01 9b 29 3f 27 a0 40 3f 9b b6 5a 3f
       0.71862406 0.6625214 0.75244373 0.85434884
000040 df b9 69 3f 0c ee 80 3f
       0.9129924 1.0072646

weight_power2 f4 [18]
000000 1a d1 d8 3f 8a 4c d5 3f 8c 06 b3 3f d6 e8 84 3f
       1.6938813 1.6663983 1.3986373 1.0383556
000010 66 50 93 3f a0 e3 9b 3f 53 4b 18 3f dd 8e 36 3e
       1.1508911 1.2178841 0.59489936 0.17827936
000020 4b dd 5e 3e 41 8f d8 3e f7 71 36 3f d2 33 6f 3f
       0.21764104 0.42296794 0.71267647 0.93438447
000030 db b6 56 3f 6e 93 2b 3f 91 1f ca 3e 27 5a 78 3d
       0.83872765 0.67021835 0.39477208 0.06063285
000040 07 95 c7 3e b0 eb d3 3f
       0.38980886 1.6556301

weight1_merge f4 [18, 2]
000000 84 a6 83 3c 70 fc 1a 3a 11 fb b5 3f 1e 9d f7 ba
       0.016070612 0.000591225 1.4217244 -0.0018891429
000010 73 a0 9c 40 fe f5 0d bc 4a 2e 08 40 2b a1 8e ba
       4.894586 -0.008664606 2.1278253 -0.0010881772
000020 bd 1d e4 37 c6 72 a3 b9 f2 33 4d 3d 3e 84 a6 bc
       2.7193566e-05 -0.00031175296 0.050098367 -0.02032673
000030 9b ba 07 bb b0 bd 9a 3a e8 e3 7f bc e9 55 57 3f
       -0.002071059 0.0011805799 -0.015618302 0.84115463
000040 1e 16 73 b9 c7 6b 08 40 2a 31 90 39 77 49 26 40
       -0.00023182525 2.1315782 0.0002750245 2.598234
000050 b7 e0 a7 3b 26 30 2f 40 5e d9 97 3c ac 2a 3b 40
       0.0051232236 2.7373137 0.018536266 2.9244795
000060 58 a9 f2 39 4b b8 a4 3f c1 b8 de 39 de 7c 12 3e
       0.00046284008 1.2868742 0.00042480792 0.14305446
000070 01 f3 a2 39 e3 fa 41 3e d5 a2 73 3a e5 e5 5d 39
       0.000310801 0.18943362 0.0009293978 0.00021161845
000080 1c 16 32 3c 85 4b 5b 3f 82 c3 8c b8 1b bf cc 3f
       0.010869529 0.8566211 -6.7121364e-05 1.5995821

weight2_merge f4 [18, 2]
000000 04 21 54 3e d7 7d ac 38 2e 8d 50 3e b6 8e c3 b9
       0.2071572 8.2250386e-05 0.20366356 -0.00037299626
000010 43 12 fb 3f 20 9b ac 3b f4 55 91 40 55 2d c8 39
       1.9614948 0.005267516 4.5417423 0.00038180748
000020 1f 98 29 40 70 56 8c bd 72 f4 70 3f a6 55 89 b9
       2.6499097 -0.06852424 0.94122994 -0.0002619449
000030 02 34 26 ba 91 61 bd 3d fb ce 9b 3c c5 2e 86 3f
       -0.0006340147 0.09247125 0.019019594 1.0483023
000040 58 ab 32 bb 47 fe 2d 40 65 b4 b1 39 a6 42 45 40
       -0.0027262773 2.7186449 0.00033894475 3.082193
000050 3c 65 00 bc 33 13 06 40 aa e9 4e 3a 76 52 8f 3f
       -0.007836636 2.0949218 0.0007893095 1.119704
000060 25 11 8a 39 d3 1f cf 3e 11 1c ab bb 62 12 d8 bc
       0.00026334185 0.40453967 -0.0052218516 -0.026375953
000070 87 4b cf bc 4c 3a 31 bd 2e 3e 91 3c 95 21 90 b9
       -0.025304569 -0.043268487 0.017729845 -0.0002749084
000080 3a a7 4f 3c ae 00 fd 39 b5 4e 16 3a dd 54 2e 40
       0.012674147 0.00048256427 0.0005733774 2.7239296

encoder1_RNN.weight_ih_l0 f4 [150, 7]
000000 a8 ee 32 3c f1 a3 3d bd d4 78 ca 3c 16 af 20 bf
       0.010921158 -0.046298925 0.024715818 -0.6276716
000010 7b 25 b3 be 6b d1 3c 3d fa 07 c1 bd e3 0c e8 3e
       -0.34989533 0.046098154 -0.094253495 0.45322332
000020 22 d5 6b 3d 84 65 84 bd ea 69 54 be eb fa 11 be
       0.057576306 -0.06464675 -0.20743528 -0.14255874
000030 f4 64 99 3e 31 64 82 bc eb 8f 0c 3f 07 01 1f 3d
       0.29959834 -0.015916916 0.549071 0.03881934
000040 6f 29 2b 3e 4c d4 fb 3e c9 85 0e be a8 d4 37 3f
       0.16715024 0.49185407 -0.13918222 0.7180886
000050 75 d9 16 3c eb 53 9e 3d 84 9e 24 be 8e f3 a5 3d
       0.009207119 0.0773085 -0.16076094 0.08103095
000060 5a 2b be bf b1 d6 21 3e bb 46 7d bd 90 db 96 ba
       -1.485698 0.15804555 -0.061835032 -0.0011509527
000070 d5 11 85 3e a7 ef 7f 3e f7 40 c8 3d 77 66 e0 bd
       0.25990167 0.24993764 0.09778016 -0.109570436
000080 ae f9 2b 3e 1c 6d e0 bc 84 65 15 3d 88 d4 30 3d
       0.16794464 -0.027395777 0.036473766 0.043171436
000090 df e9 26 3e 7f 6c 19 bd 41 3e 65 be 09 83 79 be
       0.16300152 -0.037456986 -0.22387029 -0.24366392
0000a0 e6 03 e8 3e a0 ae 5a bc 7c 2f ac bf 1b be a2 3e
       0.45315474 -0.013347298 -1.3451991 0.31785664
0000b0 ed 7a 6e 3e 0e 81 af 3e 35 d7 be 3d 18 bb 22 3e
       0.2328908 0.34278148 0.09318391 0.15891683
0000c0 f5 1f c9 bb 46 50 a5 3d 9a 9c 81 3e 69 fb 1b bd
       -0.006137843 0.080719516 0.2531479 -0.03808156
0000d0 09 86 34 3e 43 93 55 3f 2b df 91 be c5 46 67 bb
       0.17629255 0.8342783 -0.28490576 -0.0035289985
0000e0 1b 9b 3a 3f fc f3 fd 3d ef 42 1f 3f 32 85 0d ba
       0.7289292 0.12400052 0.6221151 -0.0005398571
0000f0 28 bc 12 3f a1 f4 ee 3d 1e 21 58 3a 2f a4 00 bf
       0.57318354 0.11667753 0.0008244681 -0.50250524
000100 92 46 50 3e 6e 74 2a 3d d0 1c 8e 3e f9 17 4a 3e
       0.2033942 0.041614942 0.27756357 0.19735707
000110 39 70 da be 04 c7 f0 bd 60 6d 20 3e 97 79 97 be
       -0.42663744 -0.11756709 0.15666723 -0.29584953
000120 bc fb 3d bf 50 c3 5c bf d4 fd ea 3e 0d 5f d5 bd
       -0.7421224 -0.86235523 0.4589678 -0.1041852
000130 f2 4e 2b 3c 23 b5 b5 3e 5b e1 72 3e 80 df f9 3c
       0.010455834 0.3548976 0.23718779 0.03050208
000140 8c 2b 2a bd 4f 60 0b 3d 0c 11 8f 3e 54 7d 12 3d
       -0.041545436 0.034027394 0.27942693 0.035764053
000150 3e 84 68 bd c0 c5 ee 3e a4 56 ef 3e e6 80 b9 bd
       -0.05676674 0.46635246 0.4674579 -0.090577886
000160 45 f0 a1 3e 5a c3 40 3f 22 93 e7 3a 25 ae 03 bf
       0.31628624 0.7529808 0.001766775 -0.514376
000170 30 24 96 3d e5 3c 64 3d b0 24 88 bf 73 a1 0a 3e
       0.07331121 0.055722136 -1.0636196 0.1353815
000180 0f c7 aa 3c d1 ab d9 bb 41 7e e7 be 05 da 57 bd
       0.020846872 -0.0066427966 -0.45213512 -0.052698154
000190 52 1b 22 3e 17 52 f9 bc 38 41 ac 3d 74 c0 0a 3f
       0.15830734 -0.030434651 0.08410877 0.5419991
0001a0 82 34 d6 3b 76 99 b4 3f bf 8c 19 3e 85 55 1e 3e
       0.006537021 1.4109333 0.14995097 0.1546231
0001b0 2f ae 5c 3e fb bc 05 be bd 31 39 3e 72 72 c9 bb
       0.21550821 -0.13060372 0.1808538 -0.006147676
0001c0 5a e5 ef be 10 1d 0b 3f f5 c7 fc bd e5 82 4b 3e
       -0.4685467 0.5434122 -0.12342826 0.19874151
0001d0 79 f8 70 3e 63 aa 99 3e 12 6a 3d bd ad ba 15 3e
       0.23532285 0.30012807 -0.046243735 0.14621992
0001e0 5c 40 5a 3e 75 9b 40 be 59 2e c9 be 95 ca 9b bc
       0.21313614 -0.18809302 -0.39293173 -0.019017497
0001f0 bd c3 c5 3d e3 64 11 3b 63 93 27 3d 0f 2d 2b 3c
       0.09656475 0.0022185377 0.040912043 0.0104477545
000200 62 c8 02 3f 16 5d 6a 3c 94 13 a8 3e 0c d4 2a 3f
       0.5108701 0.01430442 0.32827437 0.6672981
000210 ab 00 31 bb 63 0c 07 3f 16 3c 60 3f c5 0c 97 be
       -0.0027008455 0.52753276 0.87591684 -0.2950193
000220 de 68 50 be c1 1e 52 be 6f 6e 03 3e 40 37 0f 3e
       -0.20352504 -0.20519544 0.12835096 0.1398592
000230 d8 bb 6b 3e d7 7e 2f be 91 25 59 3e 43 d5 88 3e
       0.23020875 -0.1713823 0.21205737 0.26725206
000240 80 61 19 3f 53 b0 27 3e 97 7e 17 3c 15 60 b9 3d
       0.599144 0.16375856 0.00924649 0.09051529
000250 32 40 d9 bc 9c 96 ce 3e d7 af 88 3e e0 fe 34 3f
       -0.026519869 0.4034928 0.26696655 0.7070141
000260 08 21 f8 3b 39 b0 b6 bb 24 03 76 3e 0d 05 de bd
       0.007572297 -0.0055752066 0.24024636 -0.10840807
000270 fc b1 00 3d 20 7a 58 be 93 2c ca 3e b9 21 37 3f
       0.03141974 -0.21140337 0.39487132 0.7153583
000280 36 89 14 bc a2 9b 19 3f 51 77 db 3e 55 45 86 3e
       -0.009065917 0.600031 0.4286447 0.2622477
000290 88 86 07 3f 6d 25 2d be 40 4d c8 3e 8a 49 2a 3c
       0.52939653 -0.16908808 0.39121437 0.01039351
0002a0 d7 44 bc 3e 63 2e 20 3f cb a1 9c 3e 54 7e a4 be
       0.3677127 0.6257078 0.30592188 -0.3212763
0002b0 5d 4b 78 bd 6f 50 e3 3d 34 69 b4 bb 00 a7 6f be
       -0.060618747 0.11099326 -0.0055057053 -0.23403549
0002c0 4e 24 93 3e 78 bb 4e 3e 74 97 46 3e 8f da 7a 3e
       0.28738636 0.20188701 0.19393712 0.24497436
0002d0 19 53 d4 3e a6 69 fe 3b 90 e2 55 bd 0d 6e 5b 3f
       0.41469648 0.007764059 -0.05221802 0.857148
0002e0 77 24 c2 3e 51 44 40 3f 67 f9 80 bf b5 a0 20 3f
       0.37918445 0.7510424 -1.0076112 0.6274522
0002f0 d6 de c9 bc 93 0e 60 3e 08 86 aa bd 7b cb 65 3c
       -0.02464239 0.2188056 -0.08326346 0.014025564
000300 c3 9a 9f bf 13 12 37 3c 8a be 95 be df fc 5c 3d
       -1.2469105 0.011173743 -0.29246932 0.053952094
000310 c0 54 8e 3d 62 68 b1 3e fe 16 c3 3d e5 60 6b bd
       0.069497585 0.3464995 0.0952587 -0.057465453
000320 a6 61 4a 3d c4 ce f4 3e ed 76 b3 bc ec 74 c3 3e
       0.04940953 0.47814 -0.021907294 0.38175142
000330 d6 47 95 3e 22 f6 7f 3e c2 dd bb 3d 97 2a fe 3c
       0.2915637 0.24996236 0.09173156 0.031026168
000340 aa 23 3c 3e 9a f9 08 3c 75 7e e2 3d c1 15 d6 bd
       0.1837298 0.008360291 0.11059276 -0.10453368
000350 35 2b 7e bc 43 6d 95 3d a4 d8 45 bf b8 cb c2 3e
       -0.015513231 0.07296231 -0.7728369 0.3804605
000360 8c d3 89 3b 66 a5 84 3e e6 b7 6a 3e 46 62 24 be
       0.0042061266 0.2590744 0.22921714 -0.16053113
000370 79 30 29 3e af 1c 67 be 5f 5a 82 3e 6d 5c d5 bb
       0.16522397 -0.22569536 0.25459573 -0.006511262
000380 37 a6 d8 bd 81 4d b2 3d 58 70 1c 3f 0b f4 69 3e
       -0.10578578 0.08706189 0.6110892 0.22847001
000390 1b bf c0 be 29 28 be be 03 f6 81 3c 2b e5 42 3e
       -0.37645802 -0.37140015 0.015864378 0.19032733
0003a0 0f 3c 0c 3f 66 48 2c bd 4c 9d 02 bd ac ac f5 3e
       0.5477914 -0.042061232 -0.03188829 0.479833
0003b0 ee a7 69 3d b1 f4 d2 bb 0c 9b f4 3e 81 97 ec bd
       0.057044916 -0.006437861 0.4777454 -0.115523346
0003c0 9f 39 70 be a6 87 1f bc 2c 4f 38 be 72 e9 ef 3e
       -0.2345948 -0.009736931 -0.17998952 0.46857792
0003d0 39 23 99 3b 82 ec 00 3f 2a 1d 22 3e cc b2 50 3d
       0.0046733883 0.5036088 0.15831438 0.050951764
0003e0 b0 d2 c9 be e2 78 06 3d 89 1d c7 3d 9c 1b 7c 3d
       -0.39418554 0.032830127 0.0972243 0.061549768
0003f0 f9 2d 0c bf bd a7 6f 3e 87 58 27 3e 37 0a ad bd
       -0.5475765 0.23403831 0.16342364 -0.08449214

encoder1_RNN.weight_hh_l0 f4 [150, 50]
000000 e2 8c d6 3e f4 ff 8c be fc 06 c5 be 47 5d a3 bd
       0.4190436 -0.27539027 -0.3848189 -0.079767756
000010 13 27 ae be f3 45 93 3d 35 cf 00 3f f3 5a 82 3e
       -0.34014186 0.07191076 0.5031617 0.25460014
000020 1a aa db be e6 3d 58 3e a9 72 31 3e d4 38 dd bd
       -0.42903215 0.21117362 0.17328896 -0.10801855
000030 da e4 2b be d3 55 91 bd f5 a7 af 3e 8d a0 84 3e
       -0.16786519 -0.07096448 0.3430783 0.2590374
000040 57 91 f5 bc a0 ad 47 be 58 e2 ee 3e e8 06 dc 3d
       -0.02997653 -0.19499826 0.46657062 0.10743505
000050 07 83 26 be fd 0a 00 3f f7 a3 41 3e a8 10 3b bf
       -0.1626092 0.50016767 0.18910204 -0.7307229
000060 6a 1a 16 be 17 85 54 3c 45 51 92 be 63 68 9b 3e
       -0.14658514 0.012971184 -0.2857763 0.30353078
000070 79 d3 33 be b1 cc 07 be 9e 28 97 be f5 18 66 be
       -0.17561139 -0.13261677 -0.29523176 -0.22470458
000080 af 4c e5 3e ab 39 4d be dd 6a 21 3e c9 a6 ba be
       0.44785067 -0.2004153 0.15763421 -0.36455372
000090 1b b4 f3 3d 6f 9d 04 3f fa 3c 32 3d eb bb 91 3d
       0.11899587 0.51802725 0.043515183 0.07115921
0000a0 48 cd 91 3e 44 de 8e 3d 34 2d f6 3e ae 3c 71 bc
       0.2847693 0.069759876 0.48081362 -0.01472394
0000b0 c2 29 a4 be bb 52 e2 be fb 15 22 3e a4 97 84 3e
       -0.3206311 -0.44203743 0.15828697 0.25896943
0000c0 eb 4d 97 be 76 34 be 3e e2 12 ad bd 4a e0 c0 3d
       -0.29551634 0.371494 -0.08450867 0.0941778
0000d0 41 33 ca 3d 53 4c ac be f9 23 cd 3d b5 93 ce bd
       0.09873057 -0.3365198 0.10016627 -0.10086767
0000e0 ba a0 5b 3e fb fb 14 bd 27 c3 03 be d0 f2 bc 3c
       0.21448031 -0.03637312 -0.12867413 0.023065
0000f0 51 74 80 3e 15 82 1d be 95 91 a2 3e 8b ab 04 3f
       0.25088742 -0.15381654 0.31751695 0.51824254
000100 ff ad 6c be 17 f6 1b be 35 f1 16 bf d5 50 ce 3d
       -0.23113249 -0.15230595 -0.589618 0.10074011
000110 b7 3e 20 be a7 92 6d 3e 6d b1 79 be ce 54 bf be
       -0.15648924 0.23200475 -0.24384089 -0.37369388
000120 42 8d 77 3e eb f0 c9 3e 3f 6a ad be 66 df aa 3d
       0.2417498 0.39441618 -0.33870122 0.08343391
000130 6c 8a 62 be 61 95 19 be ba 4e 5d be 90 cc 1a be
       -0.22123116 -0.1499839 -0.21612063 -0.15117097
000140 dc f6 48 3e 2f db 89 3e 28 21 85 be 97 cc 85 bd
       0.1962542 0.26925036 -0.2600186 -0.06533163
000150 7f 12 85 be 48 88 85 3e 6d 6b bd bd f7 45 c5 3d
       -0.25990674 0.26080537 -0.092490055 0.09632485
000160 a9 ab 5a 3e 0d 30 f1 bc 71 70 53 bd 71 f6 4d 3e
       0.21354546 -0.029441858 -0.051620904 0.20113541
000170 e4 b4 0b be 8d 48 0d 3e 12 7d 0d 3f d6 5a 1d be
       -0.13643223 0.13797207 0.5526897 -0.15366682
000180 4f 91 a7 be a1 01 5c 3e da 3f dc 3d 1b 47 02 3e
       -0.3272805 0.21484996 0.10754366 0.12722437
000190 ed e3 c0 3c a7 57 31 be 0b af 31 be d7 af b3 bd
       0.023546183 -0.17318593 -0.1735193 -0.08773773
0001a0 86 28 b0 be 2d f3 0f 3d cf 76 8c 3d 38 96 a3 be
       -0.34405917 0.03514402 0.068585984 -0.31950545
0001b0 1c 45 7b be 2e d2 02 be 1e 12 92 be 6d 3b 0e 3c
       -0.24538082 -0.1277549 -0.28529447 0.00868116
0001c0 1c 1d 63 be 09 92 b9 3e 0f a2 7b 3e 51 0c c2 be
       -0.22179073 0.36244228 0.24573539 -0.37900022
0001d0 48 a9 5f 3e e2 ad a0 3e 58 54 0a 3e d2 c7 5c 3e
       0.2184192 0.31382662 0.13508737 0.215606
0001e0 be b4 b0 3b 9d 4a a8 bd ab 7d 94 3d 05 60 64 bd
       0.00539264 -0.08217356 0.07250532 -0.055755634
0001f0 8b 20 f5 3c 04 02 a3 3e 69 e8 a6 3e ed a8 c1 bd
       0.029922744 0.31837475 0.3259919 -0.09456048
000200 39 de 54 be 36 a9 a1 3e e0 c9 64 3d 1b b1 3d 3e
       -0.20787896 0.3157441 0.055856586 0.18524592
000210 6a 24 9d be 67 b2 11 3f 1c c9 3a be bd 1b 56 3e
       -0.30691844 0.56912845 -0.1824078 0.20909019
000220 d3 ea 84 be c9 7d 25 3e d3 fd f2 3e 84 fa 8b be
       -0.25960407 0.16161264 0.47459278 -0.27339566
000230 45 11 db be f7 9d 91 3e 93 02 e5 3d f6 85 9b be
       -0.42786613 0.2844083 0.111821316 -0.30375642
000240 7f 59 ec bd c5 eb b8 bd 2f d7 f0 3d 19 9c 03 3e
       -0.115405075 -0.090293445 0.11759793 0.12852515
000250 c3 61 cd 3d ef 18 28 bd 7a 7b 24 be 5e 13 01 be
       0.10028412 -0.041039404 -0.16062728 -0.12605044
000260 1d 4a d3 3e 06 cb 9e be e3 f4 b9 bc 1d 14 90 be
       0.4126748 -0.3101427 -0.022699779 -0.28140345
000270 c6 2e a8 bd 4d 36 34 be c6 e1 26 3e ad dd 27 be
       -0.08212046 -0.17598839 0.16297063 -0.16393156
000280 c8 4a 51 3e a2 74 36 be ba 46 e3 3e 25 65 09 3e
       0.20438683 -0.1781793 0.44389898 0.1341749
000290 f6 66 a1 bd e8 bc 4e bd 3a 37 c1 bd d0 6a a2 be
       -0.07880966 -0.050473124 -0.09434362 -0.31722116
0002a0 66 2e db be cc 6f 82 3e 03 97 ad bc ca cb 9d 3d
       -0.42808837 0.2547592 -0.021190172 0.07704885
0002b0 aa 6a 7d be 5a ce 7e be 92 aa 7b be c3 ce 88 bc
       -0.2474772 -0.24883404 -0.24576786 -0.016700154
0002c0 2a 84 c6 3e 96 40 81 3e bc e6 38 3e 89 5d 0e 3c
       0.38772708 0.25244588 0.18056768 0.008689293
0002d0 5e f5 06 3e 59 6f 87 be 28 3d 8f 3e d4 7c b9 be
       0.13179538 -0.2645214 0.27976346 -0.3622805
0002e0 e6 26 9d bd a2 dd d1 3c 76 ea 3c 3d d5 3b 93 3d
       -0.07673435 0.025618378 0.046122037 0.071891464
0002f0 2a 98 3f 3d 57 2c aa be 9b 7e d3 bd 29 1b 12 3e
       0.046775974 -0.33236954 -0.103268825 0.14268173
000300 32 dc 8b be 0e ee 45 bd 8f 7a ab be 60 18 cb bc
       -0.27316433 -0.04832273 -0.33491942 -0.024791896
000310 99 6f 9a 3e 1e 39 11 3d bc b4 8e be 01 16 40 be
       0.30163267 0.03545486 -0.27872264 -0.18758394
000320 3c 2f 67 be 7c 16 d8 bd 67 37 84 3d fa be a4 be
       -0.22576612 -0.105511636 0.0645588 -0.32176954
000330 97 1e 5d be 42 83 b1 3e da e6 e8 3c be e9 1b be
       -0.215937 0.34670454 0.028430391 -0.15225884
000340 9b fe 05 3e 71 35 ae 3d 03 df c9 bd e5 5b 09 be
       0.13085406 0.08506287 -0.09856989 -0.13413961
000350 93 68 c7 3c 23 a6 85 3d 0a 70 b5 be d4 72 b1 be
       0.024341857 0.06525829 -0.35437042 -0.3465792
000360 dc f3 43 b9 70 d4 d6 3e a0 ba ed bd 45 1e 77 3e
       -0.00018687494 0.41958952 -0.116078615 0.2413264
000370 83 ef 6e 3e 78 af bb be fc 3f fd 3c 68 a7 1a 3e
       0.23333554 -0.3665731 0.0309143 0.15102923
000380 93 1e 40 be 1e da 85 bc 7a 17 97 3d 0f 59 b5 bd
       -0.18761663 -0.016339358 0.07377525 -0.08854877
000390 cd 96 eb bd fe 30 a0 bd 08 f6 87 3e cb ea 7c 3e
       -0.11503372 -0.078218445 0.26554894 0.24698941
0003a0 37 dc 02 3e 55 d2 7f 3d 02 ec 9e be ec f1 7c bd
       0.12779318 0.062456448 -0.31039435 -0.061754152
0003b0 b6 83 10 3d a2 84 1e be c4 d8 82 3e 89 42 1b be
       0.03528186 -0.15480283 0.25556004 -0.151621
0003c0 9b 64 56 be 51 5b 97 3e 6d ad 8b be 9d 24 a2 bd
       -0.20936815 0.29561856 -0.2728075 -0.0791714
0003d0 96 f6 6b 3e 5a db d0 bd fa f7 fc bd d7 97 0c 3e
       0.23043284 -0.10198088 -0.12351985 0.13729797
0003e0 c5 8c a9 bd 09 9f 9d be 77 3d 38 be f5 35 1d be
       -0.08278803 -0.30785397 -0.17992197 -0.15352614
0003f0 0b bd 45 be 21 da 83 be 8d d7 f5 bd 9c 15 50 3e
       -0.19310395 -0.25752357 -0.12004004 0.20320743

encoder1_RNN.bias_ih_l0 f4 [150]
000000 07 76 c2 be 88 5c 8d 3d 52 93 33 3d f3 61 2b be
       -0.37980673 0.069024146 0.043841667 -0.16736583
000010 91 e5 cc 3d 40 b4 e0 3c 9a 21 df 3e 7b ee 70 3f
       0.10004724 0.0274297 0.43580323 0.9411389
000020 9b 9b a1 bc a7 33 a8 bd 95 43 90 be 41 55 ef bd
       -0.019727519 -0.08212977 -0.2817656 -0.11686183
000030 33 09 9b 3e 9b a7 08 be a2 8f 87 bd bb 94 eb 3d
       0.30280456 -0.13345186 -0.06619193 0.115029775
000040 b1 d4 12 3f bc 30 d1 3d 86 aa 90 bd f0 2f a2 be
       0.5735579 0.102143735 -0.07063775 -0.31677198
000050 f9 02 ad 3d 8b 2a 63 3e b6 b2 b8 bd 17 41 84 3e
       0.084478326 0.22184198 -0.090184614 0.2583091
000060 a7 78 a2 3c d3 fc 6c 3e 2c cd 05 3f 52 dd 02 be
       0.019832922 0.2314332 0.5226619 -0.1277974
000070 17 d3 aa bd e4 88 30 3e 4f 99 87 bd f5 18 5c bd
       -0.083410434 0.1723972 -0.06621038 -0.05373474
000080 53 4d 8b 3e 4e 17 ea bd 68 9a 5f be 61 59 18 bd
       0.2720743 -0.11430226 -0.21836245 -0.037194613
000090 c0 00 8d be b1 d4 5a 3e 3f 8c 24 3e 5c 73 99 3e
       -0.27539635 0.21370198 0.16069125 0.29970825
0000a0 48 1e 20 bf ea 4d b9 3c 38 c3 17 bd 03 93 97 3e
       -0.62546206 0.02262016 -0.03705141 0.2960435
0000b0 bd 76 82 bd 47 68 8b 3d 95 b0 4d 3d c3 5b 78 3e
       -0.06370304 0.06806999 0.05021723 0.24253754
0000c0 cb d9 3a bd 04 cc e2 bd 39 d0 f7 3e e1 d9 ba 3e
       -0.04561786 -0.11074069 0.4840105 0.36494353
0000d0 57 9c 4f bd cf 5d 4f 3f af 38 29 3f b4 0f bd 3e
       -0.050686207 0.81002516 0.6610212 0.36926043
0000e0 4f 92 f7 be e1 d7 5c bf db f5 66 3e 8a 31 3f 3f
       -0.48353812 -0.86266905 0.22554724 0.74684966
0000f0 36 75 1c 3f e7 e3 85 3e 8a b9 e6 be 97 61 03 3f
       0.6111635 0.26150438 -0.4506343 0.51320785
000100 ac cb ab 3e 13 62 23 3e 37 5c 2e 3e fe bf 5c 3e
       0.33553827 0.15955381 0.17027365 0.21557614
000110 ce d3 10 3e dd 58 17 3f e6 16 34 3e 46 10 4d 3e
       0.14143297 0.5911997 0.1758686 0.20025739
000120 b6 dd 31 3e e2 c3 84 be 45 3d 85 3e e4 73 26 3d
       0.17369732 -0.25930697 0.26023307 0.040637866
000130 7f a9 92 bc 52 42 0e 3f 58 70 a4 3e 37 15 c8 3e
       -0.017903088 0.55569947 0.3211696 0.39078686
000140 58 1e f5 3e d6 af 75 3e 8d 15 32 3e 63 1b b6 3e
       0.47874713 0.23992857 0.17391033 0.3556777
000150 f1 bd 43 3e a8 b6 c9 3e 5e eb 0f 3f 40 8b 19 3f
       0.19115426 0.39397168 0.56218517 0.59978104
000160 73 ea 96 3e 78 e1 4a 3e f7 2b 4a 3f 5a f7 87 3e
       0.29475746 0.19812572 0.78973335 0.26555902
000170 50 17 5a 3e 17 52 70 3e 37 82 cc 3e 69 08 d9 3e
       0.21297956 0.23468815 0.39943096 0.4238923
000180 fb c4 20 3e 09 15 4c be 67 be a1 3e 17 85 2e 3f
       0.15700142 -0.199299 0.31590578 0.6817183
000190 19 99 41 be a0 14 e1 bd c7 bb bb be 19 ad 94 be
       -0.18906058 -0.10990262 -0.366667 -0.29038313
0001a0 c1 b7 14 be 09 dd 42 be ba 45 8b 3e 71 47 04 bf
       -0.14523222 -0.1902963 0.27201635 -0.5167151
0001b0 3a 33 0d 3e 04 5d 48 be 70 ea 15 be d2 53 38 3e
       0.13789073 -0.19566733 -0.14640212 0.18000725
0001c0 f8 ac f2 be 49 8c 96 3e 7b 42 51 be 74 d5 92 be
       -0.4739759 0.29403904 -0.20435517 -0.28678477
0001d0 4f fd b3 3e 6e 99 4f 3e 5a 77 09 3e b0 2c 6b 3c
       0.35154197 0.20273373 0.13424435 0.014353916
0001e0 ed 7a 73 3e e2 a6 a9 be fa 5b c6 3d ae 18 dc bd
       0.23777361 -0.33135134 0.09685512 -0.10746895
0001f0 41 50 db 3e 98 2a de bd 6a b5 ee 3e 9f 76 85 3d
       0.42834666 -0.10847968 0.46622783 0.06516766
000200 29 6d a5 bd 11 35 7a 3e 62 39 47 3e aa c5 59 3b
       -0.08077461 0.24434306 0.19455484 0.003322939
000210 d6 d7 6a 3e b7 2c ac 3e 20 15 a1 3e 29 35 c0 3d
       0.22933897 0.33627865 0.3146143 0.093851395
000220 24 9b 05 3e d0 52 a6 be 68 e7 89 3e 26 34 7f 3e
       0.13047463 -0.32485056 0.2693436 0.24922237
000230 d3 f1 0f be 37 a9 60 bb d1 46 bc be 36 9a ee 3d
       -0.14057092 -0.0034280547 -0.3677278 0.11650507
000240 fd 7b 19 be 41 92 1b be 71 06 28 3e 55 f5 d8 3e
       -0.14988704 -0.1519251 0.16408707 0.42374673
000250 cd ac 21 3d 32 af 41 be
       0.039471436 -0.18914488

encoder1_RNN.bias_hh_l0 f4 [150]
000000 9d 26 fa bd 22 02 ad 3d c4 fd f9 3d 3b 89 d7 bd
       -0.12214396 0.084476724 0.12206605 -0.105242215
000010 29 e9 1c 3e b0 9a 65 3d a3 62 04 3f ea 46 46 3f
       0.15323319 0.056055725 0.5171301 0.77451956
000020 e0 de 47 bd 0a 3f 5f be 2c b7 6d be 2a e4 33 be
       -0.048796535 -0.21801391 -0.23214406 -0.17567506
000030 2a ee 64 3e 0e d9 f4 bd 5b 08 61 bd 44 16 91 3e
       0.22356477 -0.119554624 -0.05493961 0.283373
000040 e0 47 d7 3e a9 1d 6a bd a8 0f f4 3d c7 41 fe bd
       0.42047024 -0.057157192 0.11917049 -0.1241489
000050 ab db dc 3d 1d 3a 20 3e ea 0c 94 bb 89 4f 34 3e
       0.10784086 0.15647168 -0.004518141 0.17608465
000060 41 d8 72 3d eb 52 69 3e 1a 1b df 3e aa 6e 0e bd
       0.059288267 0.22785537 0.43575364 -0.034773506
000070 7c 06 b1 3d 06 c1 81 3d ec 64 ac bd 55 59 87 3d
       0.08643815 0.063356444 -0.08417687 0.066088356
000080 54 af 04 3e d3 65 0c 3e f8 f6 86 be fb 68 14 3e
       0.12957507 0.13710718 -0.26360297 0.14493172
000090 54 54 2f be 88 19 4c 3e 2e ae ca 3e dd 9e a8 3e
       -0.17122012 0.19931614 0.39586014 0.32933703
0000a0 01 88 0f bf a0 ee 27 3d 76 6e 4b bd 81 15 22 3e
       -0.560669 0.040999055 -0.04966589 0.15828516
0000b0 1e fc b7 3d ab 38 81 3d de 15 64 3b 84 73 5b 3e
       0.089836344 0.06309637 0.0034803073 0.21430784
0000c0 8b 32 f2 3d b9 23 a5 bc d3 c1 2d 3f 2b 8d 1b 3e
       0.118260466 -0.020158635 0.6787388 0.1519057
0000d0 2d 56 72 3c ee ce 6c 3f 0c 01 0f 3f 94 68 c3 3e
       0.014791054 0.9250325 0.5586097 0.38165724
0000e0 98 7c c6 be 22 4d 20 bf c7 94 8e 3e b7 15 1d 3f
       -0.38766932 -0.62617695 0.27847883 0.6136126
0000f0 cb ca 43 3f fd 6a cc 3e 29 44 a1 be 9e 19 17 3f
       0.7648131 0.39925376 -0.31497315 0.59023464
000100 6a 2c aa 3e 6f cb c1 bd 10 23 93 3e ab 55 d2 3e
       0.3323701 -0.0946263 0.28737688 0.41080984
000110 4e d1 21 3e 56 63 3e 3f 7b 67 7c 3e f4 78 9e 3e
       0.158025 0.74370325 0.2464885 0.30951655
000120 7e c9 df 3e cb 7d 79 be 3a ca 75 3e fe d0 f7 3a
       0.43708414 -0.24364392 0.24002925 0.0018906889
000130 db 68 f0 3b 1d fa ce 3e b7 fa fb 3e 26 bd d1 3e
       0.0073367185 0.40425196 0.49214718 0.4096462
000140 ec 1b c2 3e fd eb 31 3e ab eb c2 3e 2a c2 4f 3e
       0.37911928 0.17375179 0.38070425 0.20288911
000150 d2 b3 89 3e bb 3b 08 3f dd cf 0c 3f 92 f3 06 3f
       0.26895005 0.5321614 0.55004674 0.5271541
000160 da 11 9c 3d 7e a6 72 3e 49 2b 52 3f f1 63 be 3e
       0.076205924 0.23696324 0.820973 0.37185624
000170 e2 f3 ab 3e e8 9f 0d 3e b5 1b bd 3e 78 33 a6 3e
       0.33584505 0.1383053 0.369352 0.32461143
000180 86 ba 25 bd 95 9f 4f be 44 0a af 3e b5 4f 0c 3f
       -0.040461086 -0.2027572 0.3418752 0.54809123
000190 89 06 50 be f8 37 ea bd 61 b1 a0 be b5 68 c9 bd
       -0.20314993 -0.114364564 -0.3138533 -0.098344244
0001a0 8e 68 51 3b 0e 04 fd 3d 8d f9 e4 3e 40 60 c1 be
       0.0031953189 0.12354289 0.44721642 -0.37768745
0001b0 cc a5 b0 3c 0b 9a 03 be cb 84 04 bd ea 2b e5 3d
       0.021563433 -0.12851731 -0.032353204 0.111900166
0001c0 62 e5 cc be 50 dd f9 3d bf ce 98 bd 0f 35 bd be
       -0.40018755 0.12200415 -0.07461309 -0.36954543
0001d0 bf 25 02 3f 36 ef 1b 3f 33 49 29 3e 8b e4 52 be
       0.50838846 0.6091188 0.1653183 -0.20594995
0001e0 21 c1 1a 3e f9 98 0b be 5c 16 a3 3d c0 0a 39 be
       0.15112735 -0.13632573 0.07963249 -0.18070507
0001f0 aa 5d a0 3e 7c cb f1 bc b4 b3 e2 3d a9 7e ae bd
       0.3132146 -0.029515974 0.11069432 -0.08520252
000200 b9 42 4f be bb 76 53 3e 5c 27 ea 3d 26 48 56 bd
       -0.20240296 0.20650761 0.114332885 -0.0523149
000210 e9 db 32 3e 05 00 81 3e 9e 94 c7 3d fd f3 55 3e
       0.17466702 0.25195327 0.09745143 0.20893855
000220 73 46 c8 3d 31 04 91 be df f1 1b 3e 06 a6 38 3d
       0.09779062 -0.2832351 0.15228985 0.045080207
000230 54 94 59 3e f4 7a 95 3d a9 e5 9d be b0 2f df 3d
       0.21247989 0.07298842 -0.3083928 0.108977675
000240 b4 c7 9e be a9 93 7a be 4f 61 8a 3d 4d b1 34 3e
       -0.31011736 -0.2447039 0.067568414 0.1764576
000250 b4 38 11 3d 81 9a 27 be
       0.035454467 -0.16367532

encoder1_RNN.weight_ih_l1 f4 [150, 50]
000000 89 f6 29 bd 98 10 be be fc 7e 9e be 50 ff 22 3e
       -0.04149488 -0.37122035 -0.30956256 0.15917706
000010 58 da 73 be 12 6a d4 3e d0 a6 ab 3e e1 6a 0f 3f
       -0.2381376 0.41487175 0.33525705 0.5602246
000020 50 a7 56 b9 09 4a 21 be 9a e2 9f 3d 34 fd cd 3d
       -0.00020470959 -0.15750898 0.07806893 0.1005806
000030 f9 7e 9b be 1d 54 a9 3d 11 7b 8c 3d 06 af 6d ba
       -0.3037031 0.082679965 0.068594106 -0.0009066913
000040 e7 cc d3 3c a9 25 45 3e a6 6b 4e 3e 73 d9 d2 3e
       0.025854541 0.19252647 0.20158252 0.41181526
000050 ae 9b 39 be 82 3a 32 bd 38 28 2d bf a8 2f e5 bd
       -0.18125793 -0.04351283 -0.67639494 -0.1119073
000060 57 0a 11 3e 02 7c c1 3d 41 3d 28 3e 84 ae b4 3d
       0.141641 0.09447481 0.16429617 0.08822349
000070 a4 68 97 be 87 6c aa be 12 37 61 3d 58 5f 17 3e
       -0.29572022 -0.33285925 0.05498416 0.14782465
000080 b4 c9 46 3e e6 28 05 bf 6f 9a 12 be 77 87 91 be
       0.19412881 -0.5201553 -0.14316724 -0.28423664
000090 ef 6d 01 be e4 99 09 3e 26 93 78 be 62 99 b1 bd
       -0.12639593 0.13437611 -0.24274883 -0.086718336
0000a0 33 2f f5 be 62 53 3e bc c7 b5 23 3e ce 04 14 be
       -0.47887573 -0.01161656 0.15987311 -0.14454958
0000b0 fd 70 bb 3c 2d 78 36 be 47 44 e1 bd 1f c4 1b bd
       0.022881025 -0.17819281 -0.10999351 -0.038028833
0000c0 35 05 41 3e 17 e2 85 bd 33 f4 b5 3e 3c 85 2e 3e
       0.18849643 -0.06537264 0.35537872 0.17043012
0000d0 26 e9 c9 bd bc 50 78 3e 0a 84 6d 3d af 53 87 3c
       -0.09858923 0.24249548 0.05798725 0.016519396
0000e0 85 2c 83 be 0d 96 1a 3e 53 55 7b be 80 19 f0 bd
       -0.25619903 0.15096302 -0.24544267 -0.11723614
0000f0 ec c9 bf 3e 72 c5 11 3e d3 7b 5e be c1 a0 f9 bc
       0.37458742 0.14235476 -0.21726923 -0.030472161
000100 38 6c 26 be 33 80 28 be f8 9a eb 3d 92 9b de 3e
       -0.1625222 -0.16455154 0.11504167 0.43478066
000110 31 10 97 3e 53 76 4a 3d e0 10 35 be 45 7d aa 3e
       0.2950454 0.04942925 -0.17682219 0.33298698
000120 09 3a 0f 3e a6 bf 9e be 09 e7 99 3e 73 6e e1 3c
       0.13986982 -0.3100559 0.30059078 0.027518487
000130 05 f0 4b 3e 1b 94 6a 3e eb 45 28 be ec db 02 bd
       0.19915779 0.2290806 -0.16432922 -0.031948015
000140 6a 99 b4 3d 41 6e 51 be 94 b2 e5 3d dc 93 55 3e
       0.08818324 -0.20452215 0.11215702 0.20857185
000150 e7 65 72 3e da 8b bd bc 89 ca d6 bd f5 58 61 3e
       0.23671685 -0.023137975 -0.10487849 0.2200659
000160 0b 42 49 3d 32 f0 de 3d f4 f6 19 3e 54 da 63 bd
       0.04913525 0.10885657 0.15035611 -0.055628136
000170 4e a4 8b 3e 8d 41 b0 bd 12 7c fe bc b7 8b 57 3d
       0.27273792 -0.08606253 -0.03106502 0.052623477
000180 57 1b 61 be 5e a4 bc 3d ba c4 be 3e 2e e2 81 3d
       -0.21983086 0.09211038 0.37259465 0.063419685
000190 26 40 9e be 24 5e 92 be 61 aa ef 3d 2a 86 81 bd
       -0.30908316 -0.2858745 0.11702419 -0.06324418
0001a0 0b 9a 11 3e 65 9c 27 3e 51 03 11 be a7 66 de bc
       0.14218919 0.16368254 -0.14161421 -0.027148558
0001b0 85 48 07 3e 18 dd 0e 3e 4c 21 ce bc 1d ed 0f be
       0.13211258 0.13951528 -0.025162362 -0.14055295
0001c0 c2 ad ab 3e f5 25 c1 3c 43 11 85 be e3 a7 80 bd
       0.33531004 0.02357767 -0.25989732 -0.06282022
0001d0 72 f9 8a bc a5 15 54 3d 69 5e 86 be 07 05 82 3d
       -0.016964648 0.051778454 -0.26243904 0.06348615
0001e0 02 6d 2b bd a3 13 3b be 7e 74 1a 3d bf 8d ea bd
       -0.041852005 -0.1826921 0.03770875 -0.11452817
0001f0 c3 de be be 69 55 4d 3e eb 90 f4 bc e5 e4 75 3c
       -0.3727933 0.20052113 -0.029854259 0.015008186
000200 7a dd 90 be b1 aa 5c be 95 29 78 3e c4 be be 3e
       -0.28293973 -0.21549489 0.24234612 0.37254918
000210 78 b0 03 3e cb 55 00 bf 36 d6 e2 bd 7d 2b 80 be
       0.12860286 -0.5013091 -0.11076014 -0.2503318
000220 12 9b a6 be db c5 16 3e 59 58 51 bd bd 06 d6 be
       -0.32540184 0.14723913 -0.051109646 -0.41802016
000230 cb 2a 88 be c7 bb 73 3e 9e 09 d8 bc ad 55 4b be
       -0.26595148 0.238021 -0.026371773 -0.19856901
000240 58 2a f1 3d 25 d8 35 be be 4b ec 3c de 29 78 3e
       0.117756546 -0.17758234 0.02884471 0.24234721
000250 c8 c3 a5 be 0c 38 8b bd 0b ab 40 be 7a e8 8a be
       -0.32375932 -0.067977995 -0.18815248 -0.2713049
000260 f8 1f 09 bf f0 be 50 be 4f b5 30 3d b1 fd 79 be
       -0.53564405 -0.20385337 0.04314166 -0.24413182
000270 7a 01 5d be 84 94 6b be 07 7d 4f bd 67 19 08 be
       -0.21582595 -0.23005873 -0.050656345 -0.1329094
000280 59 d9 86 be 34 3b 49 be ea 16 ca 3c 11 d4 2e 3e
       -0.26337698 -0.1965149 0.02466913 0.17073084
000290 8d a8 03 3d 07 cd 76 3c f3 e2 27 be 0a 62 0c bd
       0.032143164 0.015063531 -0.16395168 -0.034273185
0002a0 5d 67 c1 bd c7 b8 f3 3e 4a c5 fb bd ce f7 9e 3d
       -0.09443543 0.4760191 -0.12293489 0.07762109
0002b0 2b be 2f 3c a9 15 af be 24 d6 2f 39 84 37 53 3e
       0.010726492 -0.34196213 0.00016769074 0.20626646
0002c0 53 d1 2c 3e 5b 45 4f 3d 3b 69 8b be 45 96 29 3d
       0.16876726 0.050603252 -0.27228722 0.041403074
0002d0 57 74 40 3e fc 50 f2 3e 9a 67 2a 3d 03 6d ac be
       0.1879438 0.4732741 0.04160271 -0.3367692
0002e0 f4 94 ee bd e0 7c d9 3c 19 4d 3d be 2e e0 cb bc
       -0.11649504 0.026548803 -0.18486442 -0.02488717
0002f0 b6 39 a4 bd 09 27 6a be 2c 43 f9 bc 63 28 51 3e
       -0.0801882 -0.22866453 -0.030427538 0.20425563
000300 44 26 76 be 93 de a2 be 24 30 84 3e 0f 7d 17 3e
       -0.24038035 -0.31810436 0.25817978 0.147938
000310 e1 dc 7a 3d 29 42 d1 3e e8 fe 1e be 46 8f b7 be
       0.061245803 0.4087079 -0.15526927 -0.35851496
000320 56 49 e9 be c0 3c 20 bc c3 c0 41 3e 98 d8 be bb
       -0.45563763 -0.009780109 0.18921189 -0.00582416
000330 0a 33 07 3d b7 8e c0 3d 7a b8 c0 be 8a f7 7b bf
       0.03300766 0.09402221 -0.37640744 -0.9842459
000340 8d 2b a9 3e 9c 1a 56 3e 73 39 f0 be 2c 4e ed 3b
       0.3304104 0.20908588 -0.4691883 0.007241985
000350 27 60 28 be 68 41 9c 3d 67 87 3d bd f5 bb 39 be
       -0.16442929 0.07629663 -0.046271708 -0.18138106
000360 e1 f9 57 3f c2 d5 d6 3d ab e8 5d be 6a 2d d1 3d
       0.8436566 0.1048999 -0.21670787 0.1021374
000370 02 c0 37 3d 8b a6 85 bd 9e ea 85 bd 3e a8 1e 3d
       0.044860847 -0.06525906 -0.0653889 0.038734667
000380 29 4b ac 3d 83 d4 c9 be c2 72 03 3f e7 8b c6 ba
       0.08412773 -0.39419946 0.5134698 -0.0015147895
000390 fb 5d 0b 3e 17 99 99 3d f1 39 0d 3e bf a0 10 3e
       0.1361007 0.07499903 0.13791634 0.1412382
0003a0 28 8b 2d 3f 78 b6 9e bd 49 a2 df bd 74 c6 9b 3d
       0.6779046 -0.07749647 -0.10919625 0.07606211
0003b0 46 17 7d 3e 43 13 5d be 01 87 33 3e d1 e4 a6 be
       0.2471591 -0.21589379 0.17531969 -0.32596448
0003c0 0c a8 82 be a8 46 5c be 2f e3 91 be 49 a3 4e be
       -0.25518835 -0.21511328 -0.2849364 -0.20179476
0003d0 04 5a b5 be 40 5c 9b be 07 5e e3 3e 01 66 1e 3f
       -0.3542024 -0.3034382 0.44407675 0.61874396
0003e0 41 b8 63 bf e5 1b 57 be d2 6f 53 be d4 69 80 be
       -0.88953024 -0.21006735 -0.20648125 -0.2508074
0003f0 27 67 54 bc c8 6a 20 be 08 2c bf 3d 3a 9d 57 3d
       -0.012964047 -0.15665734 0.0933457 0.052640177

encoder1_RNN.weight_hh_l1 f4 [150, 50]
000000 92 43 03 3f 1a 0c 0d be fd bf 97 3e c3 af f6 be
       0.5127498 -0.13774148 0.29638663 -0.4818097
000010 a5 c9 d6 3d c1 44 23 3f 73 6d e5 3d b8 3c 81 3e
       0.104876794 0.63776785 0.112025164 0.25241637
000020 36 85 b3 3e 1f 92 e2 bd 6e af 2c be 22 9c dc be
       0.3506257 -0.11063027 -0.16863796 -0.4308787
000030 e0 64 bd 3d 76 9d a6 bd 77 82 97 3d 57 c0 9c 3d
       0.09247756 -0.08135502 0.07397931 0.076538734
000040 4e 37 1f bf 7f 6a 35 3e ed 52 8b be 47 27 a0 be
       -0.62193763 0.17716406 -0.27211705 -0.31279966
000050 80 81 47 be 8a 13 66 3d 94 70 ad be cf e0 af 3d
       -0.19482994 0.056170978 -0.33874953 0.08587801
000060 c0 c4 fd be 7d ba 61 3e 01 cd a2 3e 04 d3 b4 3e
       -0.4956417 0.22043796 0.3179703 0.35317242
000070 81 59 3a 3e 86 5f 8d 3d 9e 18 a5 bd b3 da 02 bf
       0.18198206 0.06902985 -0.08061336 -0.5111496
000080 01 e4 8c bd 5c 83 95 be fb ef 28 be 5a c9 3f be
       -0.06879426 -0.29201782 -0.16497795 -0.18729153
000090 51 71 2c 3d 81 5a ad 3e f1 9d f0 3c 3a 7f 78 3e
       0.042100254 0.33858112 0.029372187 0.24267283
0000a0 8d 5f 04 3e ee f1 79 be 53 52 6f 3b d2 14 bd 3d
       0.12927075 -0.24408695 0.0036517575 0.09232487
0000b0 37 1b 85 3e 63 9c 14 3f bc 7f 73 3e e2 c3 8f 3e
       0.25997326 0.5805113 0.23779196 0.28079134
0000c0 9e 03 8f bd 8d 83 be 3d 19 29 4f 3c ac 0d 25 3c
       -0.06983112 0.09302435 0.012644076 0.01007406
0000d0 e3 01 fb bd 7c f7 1b 3e 3c 29 64 3d fe 28 9a bd
       -0.12256219 0.15231127 0.055703387 -0.0752735
0000e0 82 03 f1 bd ed f6 02 be 0f 9e 3d bd 08 8a 16 be
       -0.11768247 -0.12789507 -0.046293315 -0.14701092
0000f0 d4 69 ca bd e2 0c 80 3e 64 18 6a be d9 65 d6 3d
       -0.09883466 0.2500983 -0.22860867 0.10468645
000100 15 17 dd 3d a1 91 0a be d1 68 8d be 87 58 69 3e
       0.10795418 -0.13532116 -0.2761903 0.22787677
000110 9d ff 46 3e 88 01 c2 ba cc 44 9d 3d 64 4f 81 3d
       0.19433446 -0.0014801482 0.076791376 0.06313971
000120 c8 c3 3d 3e ee d8 59 be e1 c0 98 bc b2 5d 67 bb
       0.18531716 -0.21274158 -0.01864666 -0.003530365
000130 f8 90 48 be 03 ef 48 be 3f 4e ab be 5e 61 15 be
       -0.19586551 -0.19622426 -0.33458135 -0.14587924
000140 c7 8c f0 3d c9 d9 f8 3d 69 f9 cf bd 0a 86 64 bb
       0.11745601 0.12150914 -0.10154993 -0.0034869933
000150 c4 79 6e 3e c6 ee 34 3e d0 f8 8f 3e 36 d9 85 be
       0.23288637 0.1766921 0.28119516 -0.2614228
000160 8d 73 84 bd 1c 9c 18 3e d2 72 e4 bd 03 28 b6 3e
       -0.06467352 0.14903301 -0.11154713 0.35577402
000170 64 4a 44 3e e9 05 40 3e 10 91 77 be 65 d1 06 be
       0.19169003 0.18752255 -0.2417643 -0.13165815
000180 e9 50 97 bd 71 ba 55 bd ab d3 f4 bd 37 a8 0e be
       -0.07388479 -0.052179758 -0.11954435 -0.13931356
000190 10 50 05 3c fc 0d 32 3e f8 e6 b0 3e 63 54 98 bd
       0.008136764 0.17388147 0.34551215 -0.074379705
0001a0 bb fb fb 3d aa 24 7b 3d 1a 07 9a bd 17 d5 dc 3d
       0.12303873 0.061314262 -0.07520886 0.10782831
0001b0 fe f9 8b 3e 06 c5 07 be 5e 16 a7 bd 26 76 1c 3d
       0.27339166 -0.13258752 -0.08158563 0.038198613
0001c0 d3 9a 82 3d a3 9a 3f be f7 7c 62 be d0 db 3e 3e
       0.063771866 -0.18711333 -0.22117983 0.1863854
0001d0 14 20 d1 be d9 e7 a9 bd 44 43 2d be 16 e0 2d be
       -0.40844786 -0.082961746 -0.16920191 -0.16980013
0001e0 e9 99 be bd d6 2e 2c be 6b e7 09 bd dd 84 c4 3e
       -0.093067 -0.16814741 -0.033667963 0.38382617
0001f0 b9 31 c3 be 8c 4a 70 bd e7 9a 04 be 25 b8 76 3e
       -0.38123873 -0.058664843 -0.12949716 0.24093683
000200 5d fa 3f 3e 3e 93 65 bd 90 9f 74 be 7c 5f e5 be
       0.1874785 -0.056048624 -0.23888993 -0.4479941
000210 30 4f fb bd 45 0a 57 3e 5b 39 87 bd 7d 5e 66 be
       -0.12270963 0.21000011 -0.066027366 -0.22496982
000220 8f 58 49 be f8 4d 17 3c 0d 82 9c 3d 2b cb 1e 3d
       -0.19662689 0.009234898 0.07641993 0.038767975
000230 d6 0b 1a bd f9 c9 c0 be 96 4e ce be 10 bf 35 ba
       -0.037608944 -0.37654093 -0.4029433 -0.00069330726
000240 e4 da 90 3e 9f 0c 23 3e df f8 a4 3e b9 91 e8 bd
       0.28292 0.15922783 0.32221124 -0.113559194
000250 34 fb 09 3e 4e 82 e0 3d 54 b2 ed bc a8 8b 3e 3e
       0.13474733 0.10962354 -0.029015698 0.18607962
000260 84 6f 59 3e cf a6 b5 be 8f b9 ad 3e 4f b8 53 3e
       0.21233946 -0.35478827 0.33930632 0.20675777
000270 0a 11 af 3e 9c 85 d0 bc 43 ec a4 3e 28 42 a7 3e
       0.34192687 -0.025454335 0.32211503 0.3266766
000280 a1 b3 dc bd 4d 1d 1e be d8 d6 69 3e 28 53 88 be
       -0.10776449 -0.15440865 0.22835863 -0.26625943
000290 bb 89 76 be b1 42 fe bb 60 9c 90 be 75 39 2a be
       -0.24075978 -0.007759415 -0.28244305 -0.1662348
0002a0 90 20 67 be 7a 10 d3 be 22 63 ea 3d 1e 5b 91 be
       -0.22571015 -0.41223508 0.11444689 -0.2838983
0002b0 b3 b4 2b be 1c fd a2 3e 45 ad c5 be a7 d7 a0 3d
       -0.1676815 0.31833732 -0.38608757 0.078536324
0002c0 2e e9 bb 3d 8d 9e d1 3e e4 bc b2 3e fe d8 ba bb
       0.09175335 0.40941277 0.34909737 -0.005702137
0002d0 be 3b 76 be 8a 42 21 bf 1b 8b 69 3e dd 52 03 be
       -0.24046227 -0.62992156 0.22806971 -0.12824579
0002e0 88 41 c0 3d 83 72 09 bf f4 2a 85 bd a4 25 1e 3e
       0.09387499 -0.53690356 -0.06502333 0.15444046
0002f0 66 12 d1 3d af cf db 3d 32 2d 3e 3d 48 cf d4 be
       0.10208587 0.10732972 0.04642982 -0.41564393
000300 d3 62 c5 be ea 22 06 be 1d 8b a4 3e 31 8d 56 3d
       -0.3855196 -0.13099256 0.32137385 0.052380744
000310 76 df 74 bd 0f 17 c8 3d e7 7e c9 3e e8 07 be 3d
       -0.05978342 0.09770023 0.3935463 0.09278852
000320 1e 14 27 bf 5a a0 28 be 24 18 23 be ba d0 e8 3d
       -0.6526507 -0.1646742 -0.15927178 0.113679364
000330 e2 94 22 bf f0 03 16 be 70 91 4c 3e 8e e0 92 3e
       -0.6350843 -0.1464994 0.19977355 0.28686947
000340 af be 90 3e a5 13 2f 3e e1 21 af 3e 67 b2 5c be
       0.2827048 0.17097338 0.34205535 -0.2155243
000350 c1 e6 28 be d0 ae 7a 3e ae 6e d7 3d 19 1a 8a 3d
       -0.16494276 0.24480748 0.10519157 0.06743259
000360 21 d2 2a 3e f2 d4 25 be 90 9b b9 bd 79 fc aa 3d
       0.1668172 -0.16194513 -0.09062874 0.083489366
000370 e7 e1 74 3c 16 50 1e 3f 9c 36 ae bd 97 2e 8f be
       0.014946437 0.6184095 -0.0850651 -0.27965233
000380 43 92 dd 3e c5 1f 50 ba 92 26 a4 be 54 5d 60 be
       0.4327565 -0.00079393043 -0.32060677 -0.21910602
000390 36 74 b2 be 06 88 7b be 38 96 b9 3e e3 ad 6f be
       -0.34854287 -0.24563608 0.3624742 -0.23406176
0003a0 e8 3c 11 3d ca 98 cf 3e dc e2 c3 bd 2c e4 88 be
       0.035458475 0.40546256 -0.09564754 -0.2673658
0003b0 27 48 d2 3b 2a 65 88 bf a5 d9 c0 bd e2 dd 85 be
       0.0064172926 -1.0655873 -0.094165124 -0.26145846
0003c0 9d 20 ab bd 6b 05 a5 3e 82 95 d0 3d d8 ef 12 bf
       -0.0835583 0.32230696 0.10184766 -0.5739722
0003d0 6c a9 b0 3d eb 10 d3 3e 40 a1 08 3e e3 a6 23 be
       0.08626065 0.41223845 0.13342762 -0.15981631
0003e0 c6 95 de 3e 71 04 83 3e 2f 5e 67 be ec d5 d9 3c
       0.43473643 0.25589326 -0.22594522 0.026591264
0003f0 05 1d a6 bd 4b 30 85 3d 6a 2a bf 3e 0d b6 94 3d
       -0.08111004 0.06503352 0.37337047 0.07261286

encoder1_RNN.bias_ih_l1 f4 [150]
000000 e3 56 6e be f8 89 e0 bd a8 ed 4f bc 1f 35 6a 3d
       -0.23275332 -0.109638155 -0.012690939 0.057179566
000010 7d 83 d3 3d bf 85 81 3e ca 53 04 bf 7d 22 dd 3d
       0.10327814 0.25297353 -0.5169035 0.10797594
000020 fd 5b e0 3d c9 da a0 3e d4 eb dd bc fe 16 87 be
       0.10955045 0.3141692 -0.02708999 -0.2638473
000030 f5 07 4b be cf a0 7b 3e 69 c1 13 3e f1 d2 58 be
       -0.19827254 0.24573062 0.14429249 -0.21174218
000040 a9 33 21 bf 28 6f a3 be 4c 2e 2b 3e 0d e3 81 bc
       -0.6296945 -0.31920743 0.1671688 -0.015855337
000050 09 d7 37 be 33 0e 8f 3e cd 9d ff bc b3 52 6a bd
       -0.17953123 0.2794052 -0.031203175 -0.057207774
000060 fa 3c 8f 3d f3 b3 e6 bc 74 32 37 3d a0 c2 94 3d
       0.06994052 -0.028161978 0.04472585 0.07263684
000070 9e 50 1a 3d 6b 5e a9 3c 63 87 1b bd a7 ed de be
       0.03767454 0.020674905 -0.03797091 -0.4354069
000080 5b 37 74 bd b3 a2 b1 be 0e af 0e bf b5 34 5c be
       -0.059623104 -0.34694442 -0.5573586 -0.21504481
000090 8a 31 a3 3d a9 2c ed 3d 05 79 44 3e 77 15 75 3c
       0.07968433 0.11580784 0.1918679 0.014958731
0000a0 cb 2d 66 be dd f9 56 bd dd 47 08 be 31 13 38 be
       -0.22478406 -0.052484382 -0.13308664 -0.17976071
0000b0 5c e1 1f ba 03 5e 20 3e ed 17 94 bd 69 73 a1 bd
       -0.000609895 0.15660863 -0.07231126 -0.07883341
0000c0 61 86 0f 3e 3d c4 88 bd 27 b7 d0 3d 91 74 50 3f
       0.14016105 -0.066780545 0.101911835 0.81427866
0000d0 da a1 78 3f 52 b0 f6 3e 84 7b 36 bd ab fd 50 3e
       0.97121966 0.48181397 -0.044551387 0.20409267
0000e0 f7 24 02 3f 51 7b b7 3e 94 31 0c 3f fa 2a 4c 3d
       0.50837654 0.3583627 0.5476315 0.049845673
0000f0 17 c9 e3 3e 5c ff 93 3f 92 2a fe bd 5e a5 3f 3d
       0.44489357 1.1562304 -0.124104634 0.046788566
000100 fd 4a 26 3d 8c 73 8d 3f 5b 65 7f 3f 72 07 4e 3f
       0.04059886 1.1050887 0.9976403 0.8048011
000110 19 ff 91 3e 11 8c 3b 3f 3a 67 97 3f c4 d4 8a 3c
       0.28514937 0.732606 1.1828377 0.016947158
000120 cb 6a 70 3f f8 11 9f 3e 07 6b 67 3e ab ef 1b 3f
       0.93912953 0.31068397 0.22599421 0.6091258
000130 5d 28 c8 3e 37 42 6c 3e d9 65 58 3e b3 11 7f 3f
       0.39093295 0.23072134 0.21132602 0.9963638
000140 15 d6 7b 3e f1 ee b9 3e 1b 07 fb 3e 49 59 03 3e
       0.24593385 0.3631511 0.4902886 0.12827028
000150 61 05 71 3f 0c e6 e6 3e 6f 64 b3 3c 4e a9 aa bb
       0.9414883 0.45097387 0.021898476 -0.005208171
000160 a4 f1 f0 3e dd 9c b5 3e 50 af a3 3f 3d 41 90 3e
       0.47059357 0.3547124 1.2787876 0.28174773
000170 4c 42 3c 3f 75 a4 52 3f bf 08 ca 3e 4c b9 24 3f
       0.7353866 0.8228219 0.39459798 0.6434524
000180 e9 7c 62 3f 9b eb 80 be 2d 88 d6 3e 49 eb 31 3f
       0.8847185 -0.25179753 0.4190077 0.6949964
000190 59 0b 30 be 5e 88 0d 3c 0e 8d 84 bc 8d 58 68 3d
       -0.17191829 0.0086384695 -0.016180541 0.056725074
0001a0 dd 0e 22 3e 16 4d c6 3d 43 70 6e be 13 a1 28 3e
       0.15825982 0.09682672 -0.23285012 0.16467695
0001b0 9e 3e 32 bd f9 47 c0 be 9e af 78 bd b6 0d e6 bd
       -0.043516748 -0.3755491 -0.060714357 -0.11233084
0001c0 d3 fb 01 3f 9c 97 f0 bd b2 38 21 bc 5d 1a 26 3d
       0.5077488 -0.11747667 -0.009840177 0.040552486
0001d0 e2 cc 40 3e bd 9e 19 be 2b af af 3d 82 11 04 3d
       0.18828157 -0.1500196 0.085783325 0.03224326
0001e0 22 cc 91 3d c6 70 e2 be d6 84 68 3e ff 59 0c bc
       0.07119013 -0.44226664 0.22706923 -0.008566379
0001f0 c4 d8 59 be 7a fc a9 bd 2a 17 15 be 3f 04 90 be
       -0.21274096 -0.08300109 -0.14559618 -0.2812824
000200 34 d2 aa bc 7f 6b 0c be ca ea 87 3d 37 6a 89 3e
       -0.020852186 -0.13712882 0.06636579 0.26838848
000210 2d 9c ab bb f9 62 3a 3e b6 ca 18 3b 40 12 3c 3d
       -0.0052371235 0.18201818 0.0023314185 0.045915842
000220 2d 44 85 be aa 42 8f bb 73 e4 ae 3d 11 fb c3 3d
       -0.26028576 -0.0043719606 0.08539667 0.095693715
000230 61 c1 a5 3d 1b f8 d5 bd ab 4b 24 3e 2d f5 59 be
       0.08093525 -0.10447713 0.1604449 -0.21284933
000240 c8 f9 a1 bc 94 81 01 3e 0d 31 eb bd e8 de 0e bf
       -0.019772425 0.12647086 -0.11483965 -0.5580888
000250 5c 07 0a 3e 38 79 f8 bd
       0.1347937 -0.12132496

encoder1_RNN.bias_hh_l1 f4 [150]
000000 91 84 5b bd 3e 4e e7 bd 31 5f 4f bc fd 33 b7 bc
       -0.053593222 -0.112942204 -0.012656973 -0.022363657
000010 fa 27 b7 bc 40 39 6e bb a3 da 01 bf 32 ea 1c 3d
       -0.02235793 -0.0036350042 -0.5072424 0.038309284
000020 a3 2f f5 bd 2f 52 a8 3e 47 7d 90 bd 96 c0 17 be
       -0.119719766 0.328752 -0.07055145 -0.1481956
000030 e8 cb 95 be d8 ac 2f 3e 93 13 ac 3d b9 8d 29 be
       -0.2925713 0.17155778 0.08402171 -0.16557969
000040 d5 1e 21 bf 0b 5a a0 be d7 9e 3c 3e 9e e4 0b 3e
       -0.6293767 -0.31318697 0.18419968 0.1366143
000050 c6 d7 7d be 9f 81 a2 3d 0e 98 82 be e7 b7 0b 3e
       -0.24789342 0.079348795 -0.25506634 0.13644372
000060 9f 2c 44 3d 0c af 26 3e 3b 9c 30 3e 8e 82 1f 3e
       0.047894116 0.16277713 0.17247097 0.15577146
000070 40 ea 1b 3c 97 41 de 3c 9b 3d 29 3d 53 62 ba be
       0.009516299 0.027130885 0.041318517 -0.3640314
000080 30 bc 44 bd b9 3e b8 be 73 aa d8 be 6f 1f f5 bd
       -0.048031032 -0.35985354 -0.42317542 -0.11968886
000090 8a 2a cf 3d 55 e7 1e 3e a4 d4 41 3d 1b 06 d1 bd
       0.101155356 0.15517934 0.04732193 -0.10206243
0000a0 2c de a1 bd 8d 01 02 3e ba 14 66 3d 9d 88 b3 bd
       -0.07903704 0.12695904 0.05617211 -0.08766291
0000b0 4b 72 75 3e 46 da 2a 3e 67 c4 f2 bd fc 7a d7 3c
       0.2396938 0.16684827 -0.11853867 0.02630376
0000c0 91 a8 3a bc b7 1f c0 bd b3 6d b8 3d 50 f7 20 3f
       -0.011392728 -0.09381049 0.090052985 0.6287737
0000d0 bd 69 58 3f 74 ea ef 3e 50 d1 c5 bc ee d2 7b 3d
       0.84536344 0.4685856 -0.02414766 0.061480455
0000e0 2b 4c 11 3f fa 3d 4c 3e 3e 06 12 3f 34 9a 41 3e
       0.5675685 0.19945517 0.57040775 0.1890648
0000f0 ac 04 d8 3e 6f 0e 8f 3f e7 52 13 be 7f c7 25 3d
       0.42191064 1.117628 -0.14387093 0.040473457
000100 2a 1f c3 3c 91 33 88 3f a5 9b 3d 3f 37 33 43 3f
       0.023818571 1.0640737 0.7406562 0.7625002
000110 51 ca a9 3e 11 29 e9 3e 39 ba 94 3f d7 1c 2a be
       0.33162168 0.45539144 1.1619331 -0.16612564
000120 60 90 78 3f 51 46 87 3e bf bd 29 3e 7f 7b 53 3f
       0.970953 0.26420835 0.16576289 0.82610315
000130 19 41 04 3f a7 56 a6 3e fb 26 7e 3e 60 e6 4b 3f
       0.5166183 0.32487985 0.24819557 0.796484
000140 73 4a a8 3e 71 00 88 3e 2a 3b 14 3f 3d 9c 0d bc
       0.328693 0.26562837 0.5790278 -0.008643207
000150 ca 8d 7b 3f a3 46 f3 3e b2 ec 52 3e 93 df 25 3e
       0.9826323 0.4751483 0.20598105 0.16198568
000160 88 4d 03 3f da 7a 7f 3e 7f 14 ab 3f 45 8a 5d 3e
       0.5129018 0.24949208 1.336563 0.21634777
000170 b3 bd 21 3f d3 0f 54 3f b6 c9 a3 3e 01 29 38 3f
       0.63180083 0.82836646 0.3198983 0.71937567
000180 97 90 56 3f d0 bd 6b be e6 70 27 3f e2 aa 25 3f
       0.83814377 -0.23021626 0.65406644 0.6471387
000190 14 6c 81 be fc 6d 28 bb 4c 6c 7e bd d1 8d d1 bc
       -0.2527777 -0.0025700321 -0.062115 -0.025580319
0001a0 0d 3d f1 3e 2c 90 07 be 61 2f 94 be f0 98 ea bc
       0.4711689 -0.13238591 -0.28942397 -0.02863738
0001b0 3e 0f 22 be 27 42 8b be ab a9 11 3e d4 7c d8 3d
       -0.15826127 -0.27198908 0.1422488 0.10570684
0001c0 5e ac 53 3e 60 7f f7 3c 18 87 eb 3b cd 9e 7e bd
       0.20671222 0.030212104 0.0071877353 -0.062163163
0001d0 69 0c 40 be 54 cc 3d 3e cd 49 90 3d 81 ba c0 3b
       -0.18754734 0.18534976 0.070453264 0.005881608
0001e0 fd 09 0e bd 8e 41 3d be 33 6b 2b 3e 5b 29 92 3d
       -0.034677494 -0.18482038 0.16740112 0.07136794
0001f0 4d 1a ac bd 01 cb f2 bd 76 2d b2 ba c9 0e f0 bd
       -0.08403454 -0.11855126 -0.0013593871 -0.1172157
000200 c6 12 ee bd 9b c6 20 be f1 33 49 be ac 8e b1 3d
       -0.116246745 -0.15700762 -0.1964872 0.086697906
000210 b4 a5 16 be 73 ad 2a bc 4c ab a9 3e c2 e7 c0 bd
       -0.14711648 -0.01041733 0.33138502 -0.09419204
000220 74 4d 85 be f4 a2 19 3d e7 5d 94 bd a0 40 c8 3d
       -0.26035655 0.03750892 -0.07244473 0.09777951
000230 2e 33 90 3d cf 89 ba 3d ec 5d 15 3e a9 1c 28 be
       0.07041012 0.09108316 0.1458661 -0.16417183
000240 46 33 b0 bb a0 c2 d4 bc d8 e8 58 bd b0 6c e5 be
       -0.005377206 -0.02597171 -0.052956432 -0.44809484
000250 b3 73 72 3d 2d 6d ef bc
       0.05919237 -0.029226864

encoder1_linear.weight f4 [1, 50]
000000 3a c4 7b 3d c7 eb 43 bb a1 1b df 3c aa 38 39 bd
       0.061466433 -0.0029895173 0.027234854 -0.045220055
000010 63 89 ba 3d 95 96 dc 3c 2d 93 8c bd c8 ab 63 3d
       0.09108236 0.026927272 -0.06864009 0.055583745
000020 f0 4b 75 ba 28 c4 9f 3d b9 d6 ab bc f9 93 a6 bc
       -0.0009357324 0.07801086 -0.020976411 -0.02033423
000030 33 a4 e2 3d 77 9b 18 bd ef 30 c6 bd a4 4b b9 3c
       0.11066475 -0.037257638 -0.09677302 0.022619076
000040 4f 0e 3f 3d db 58 d6 bd 5b 76 e4 bc f0 02 11 bc
       0.046644505 -0.104661666 -0.027888468 -0.008850798
000050 06 08 f5 bb b7 b0 11 be 0a dd 21 bc 41 70 1c 3d
       -0.007477763 -0.14227568 -0.00987936 0.03819299
000060 82 1f 04 be 15 8a d1 3b 4d fc 61 3c ba dc 1d 3d
       -0.12902644 0.0063946345 0.013793063 0.03854058
000070 89 d9 db 3c b8 11 81 bc 79 76 12 bd a7 c8 5a 3b
       0.026837127 -0.01575552 -0.035757516 0.0033383758
000080 12 85 42 bd eb a2 8c bd 25 82 a5 bd 1a 97 31 bd
       -0.047490187 -0.06867012 -0.08081464 -0.043356992
000090 95 4a 3c bd 30 00 82 3d 72 8a 9b 3c 8d 97 75 3d
       -0.045969564 0.06347692 0.018986914 0.059958983
0000a0 ee ab c4 3b 00 ac 15 bd 6f 83 b5 3c c0 65 b4 bc
       0.006001941 -0.036540985 0.022157399 -0.022021174
0000b0 54 67 e2 3c ab 02 ad 3d 0e 39 9a 38 36 a3 10 3e
       0.027637161 0.084477745 7.3539195e-05 0.1412476
0000c0 c7 64 3d 3d 2d c7 8f bc
       0.046238687 -0.01755103
