rnn_twc/saved_model/info/bi(5)_null_null/model.pth (torch, 762101 bytes, 58 tensors)

weight_power1 f4 [18]
1.1920999 1.1193043 1.1430786 1.1111389 1.1272565 1.1188829 1.1002289 1.095901
1.1194576 1.1274387 1.1496674 1.1328576 1.1338367 1.1287777 1.1417345 1.1357305
1.1345118 1.1273093
00000000: bb96 983f 5d45 8f3f 6650 923f cd39 8e3f
00000010: f149 903f 8e37 8f3f 4dd4 8c3f 7c46 8c3f
00000020: 634a 8f3f e94f 903f 4d28 933f 7a01 913f
00000030: 9021 913f ca7b 903f 5b24 923f 9e5f 913f
00000040: af37 913f ac4b 903f

weight_power2 f4 [18]
1.4110548 1.1839038 1.0089464 0.87506366 0.9741035 1.0714505 1.0092978 0.98933756
0.9389459 0.94672906 0.86906284 0.82568383 0.6547849 0.4777736 0.35077626 0.24624312
0.50668114 1.2851884
00000000: 729d b43f 298a 973f 2825 813f 2c04 603f
00000010: d95e 793f 4a25 893f ac30 813f 3a45 7d3f
00000020: c25e 703f d65c 723f e77a 5e3f 0460 533f
00000030: fc9f 273f be9e f43e f298 b33e 2827 7c3e
00000040: dbb5 013f 0e81 a43f

weight1_merge f4 [18, 2]
2.7987335 -0.00093779055 1.6195532 0.0032223477 2.0607378 -0.0016783379 2.1076374 -0.011401652
2.3030217 0.00066390884 1.276546 0.0004205393 1.3295379 1.4630746 1.0355134 3.605475
0.23870185 3.7522507 -0.16275376 0.9455235 -0.035401672 0.6459663 0.001565754 0.3919022
0.00019215784 0.039397947 -0.00018496299 -0.00084445416 0.00019787776 0.13775074 -0.00022024811 0.43183962
-0.00034191154 0.73664623 -0.0008573354 1.7156776
00000000: 731e 3340 0fd6 75ba 854d cf3f 062e 533b
00000010: 21e3 0340 adfb dbba 88e3 0640 ffcd 3abc
00000020: b564 1340 2b0a 2e3a dc65 a33f d47b dc39
00000030: 4c2e aa3f 0746 bb3f b48b 843f 1ac0 6640
00000040: 426e 743e e024 7040 eca8 26be d40d 723f
00000050: 5801 11bd 0c5e 253f fc39 cd3a 68a7 c83e
00000060: fa7d 4939 be5f 213d a0f2 41b9 5c5e 5dba
00000070: 687d 4f39 880e 0d3e 67f2 66b9 151a dd3e
00000080: 9742 b3b9 d994 3c3f cebe 60ba 539b db3f

weight2_merge f4 [18, 2]
0.75175685 0.01909334 1.2859305 -0.027058324 0.6730043 -0.0012583943 0.15575367 -0.043622427
1.8134282 0.030382784 5.2119026 0.0609921 1.0494137 0.021935917 0.05140132 -0.00012275312
-0.00028324462 8.685245 0.019839933 0.019572148 -0.00064633397 -0.039773345 -0.0004244701 -0.022846183
-0.0003408924 0.033070676 0.014235434 -0.05364779 0.01126841 -0.05135939 0.0005637314 -0.00016473286
0.01893332 -0.035635006 0.014819778 0.00032977868
00000000: 2373 403f a369 9c3c 5f99 a43f 6ba9 ddbc
00000010: 034a 2c3f b5f0 a4ba e47d 1f3e 6ead 32bd
00000020: 6a1e e83f 51e5 f83c e8c7 a640 dad2 793d
00000030: 3053 863f f4b2 b33c 318a 523d 4ab7 00b9
00000040: 7380 94b9 c3f6 0a41 5b87 a23c c555 a03c
00000050: bd6e 29ba 60e9 22bd 6a8b deb9 eb27 bbbc
00000060: ceb9 b2b9 1e75 073d bd3b 693c c9bd 5bbd
00000070: 239f 383c 395e 52bd 60c7 133a 24bc 2cb9
00000080: 0d1a 9b3c 03f6 11bd a7ce 723c 25e6 ac39

encoder1_RNN.weight_ih_l0 f4 [150, 7]
-0.25064424 -0.1964212 0.34282562 -0.012303814 0.58515906 -0.13295202 -0.1998743 -0.032013647
0.44247958 -0.1642205 -0.29446423 0.09432395 -0.12348596 -0.29143804 -0.0827487 -0.027958278
-0.23772125 -0.066984355 0.3201346 -0.027706213 -0.07986808 0.17743857 0.5463072 -0.15110011
-0.3311571 -0.03848706 0.023396835 -0.44827083 0.032253068 -1.1750342 -0.08734283 -0.17380594
-0.32578057 0.06486223 0.0050406284 -0.36192828 -0.12889735 0.27730685 -0.28054318 0.64708114
0.026438063 0.18185556 -0.4679827 -0.17358188 0.259403 -0.43126366 0.12545216 -0.643742
-0.19070698 0.13709858 -1.7665284 -0.9854599 -0.3237669 -0.32779557 -0.15566722 0.8453449
0.11750548 0.05636297 -0.30616185 -0.055342276 0.5451256 0.30943218 -0.26077956 -0.35516647
-0.18116122 0.09106534 -0.43536246 -0.1059365 0.0042395634 0.14489734 0.49159372 0.06652761
0.3803188 -0.13932574 1.4438776 0.8063953 -0.08663215 -0.44442603 -0.19206198 0.061285213
0.03852241 0.35529253 0.0422097 0.17617747 -0.17044258 -0.4451507 -0.2368926 -0.8170924
0.12311814 -0.15391582 -0.46006528 0.011286488 -0.22254667 0.4315316 -0.53852254 0.014067813
-0.1285742 -0.15245171 0.015552356 -0.23089603 -0.33723238 -0.14433216 0.22975874 -0.13394122
-0.054207787 0.31124735 -0.17881668 -0.20102476 0.077693045 -0.2975386 -0.19206493 -0.19991226
-0.47841406 0.27750385 1.5502307 -0.51587164 0.1724332 0.31389597 -0.06897793 -0.35323763
-0.28986785 -0.3286396 -0.33616576 -0.535987 -0.261638 0.086067446 -0.5489873 -0.74898636
0.102524154 -0.42711213 0.16824898 -1.4853337 0.12256268 -0.15409783 0.1998185 -0.008724245
0.09688288 0.27855432 -0.22712173 0.26494935 0.15056576 0.69800425 0.60795903 0.87584645
0.49071556 -0.29551288 0.17600127 -0.29905853 -0.68129086 -0.4149938 0.12009857 0.38054833
0.42286775 0.015456983 -0.03281341 0.01812111 -0.22882609 -0.5415978 0.25607967 0.115391694
0.08891637 -0.07462126 -0.29946274 0.026657822 -0.15901934 0.42636156 0.42250347 -0.038773224
-0.04802603 -0.5108399 -0.17256941 0.14798085 0.3303663 0.15996623 -0.506594 0.1621123
-0.15390013 -0.12238193 -0.26527113 0.89939547 -0.06391491 0.13060668 0.07503596 -0.3212292
-0.11440123 -0.32144812 0.22693959 -0.5344043 -0.42592067 0.3404657 0.45501098 -0.056592006
-0.14295636 0.1669198 0.039577868 -0.15857512 -0.15052572 -0.35881495 -1.2069918 -0.21939681
-0.13845865 -0.29390502 0.0005330069 -0.44965965 0.030146599 0.79093325 -0.3221432 -0.13071445
-0.3289804 0.021028258 -0.18370548 -0.057178997 -0.10893626 0.14503303 0.64435893 -0.3065858
-0.20998465 0.22411792 0.2516321 -0.08317561 0.330768 0.28265572 -0.031004667 0.3704017
-0.50978297 -0.41554666 0.7823603 -0.24176745 0.42839178 -0.3157572 -0.066962115 -0.27044144
0.05727449 -0.8429296 -0.36327645 -0.15034233 -0.25364473 0.061547548 -0.030210484 0.043677878
0.08195873 -0.24821648 -0.13999718 -0.19769135 -0.097414 0.73083687 0.3553181 0.40227112
-0.16041641 0.30027705 0.26553142 -0.20577016 -0.3496036 -0.26553816 -0.038802072 0.34994805
00000000: 7154 80be a422 49be d786 af3e f095 49bc
00000010: fccc 153f 9324 08be d9ab 4cbe be20 03bd
00000020: af8c e23e 6b29 28be 04c4 96be ea2c c13d
00000030: 35e6 fcbd 5e37 95be 2778 a9bd c208 e5bc
00000040: 336d 73be 182f 89bd afe8 a33e 24f8 e2bc
00000050: e091 a3bd 75b2 353e cada 0b3f fdb9 1abe
00000060: 6c8d a9be 9ca4 1dbd b8aa bf3c c183 e5be
00000070: cb1b 043d 8567 96bf cce0 b2bd 2ffa 31be
00000080: b6cc a6be 7dd6 843d db2b a53b aa4e b9be
00000090: abfd 03be 2afb 8d3e 5ba3 8fbe 1ca7 253f
000000a0: a394 d83c 5838 3a3e 6e9b efbe 73bf 31be
000000b0: 78d0 843e 97ce dcbe 8876 003e 47cc 24bf
000000c0: b148 43be 9263 0c3e 9a1d e2bf 1a47 7cbf
000000d0: c6c4 a5be d2d4 a7be 3a67 1fbe 8668 583f
000000e0: b7a6 f03d dcdc 663d 3fc1 9cbe 95ae 62bd
000000f0: 5a8d 0b3f e56d 9e3e e684 85be 61d8 b5be
00000100: 5482 39be 7780 ba3d d4e7 debe 3cf5 d8bd
00000110: 09ec 8a3b f85f 143e 2cb2 fb3e a13f 883d
00000120: 25b9 c23e 68ab 0ebe fbd0 b83f ec6f 4e3f
00000130: 326c b1bd cf8b e3be e5ab 44be 3406 7b3d
00000140: adc9 1d3d e7e8 b53e 14e4 2c3d de67 343e
00000150: 8088 2ebe cbea e3be f993 72be f82c 51bf
00000160: 5d25 fc3d 1c9c 1dbe ad8d ebbe f6ea 383c
00000170: 46e3 63be b6f1 dc3e 9ddc 09bf af7c 663c
00000180: f5a8 03be 4d1c 1cbe 4fcf 7e3c 0270 6cbe
00000190: b9a9 acbe cfcb 13be e045 6b3e e327 09be
000001a0: fc08 5ebd d05b 9f3e b81b 37be 6fd9 4dbe
000001b0: 881d 9f3d fb56 98be abac 44be cdb5 4cbe
000001c0: b0f2 f4be fc14 8e3e f66d c63f 2a10 04bf
000001d0: 5492 303e f9b6 a03e 4d44 8dbd 90db b4be
000001e0: 8f69 94be 7343 a8be eb1d acbe 7236 09bf
000001f0: 6af5 85be 2144 b03d 6f8a 0cbf 92bd 3fbf
00000200: 2ff8 d13d 71ae dabe 7649 2c3e 6a1f bebf
00000210: 2402 fb3d d2cb 1dbe 399d 4c3e 23f0 0ebc
00000220: 886a c63d ac9e 8e3e 9992 68be 71a7 873e
00000230: e92d 1a3e 68b0 323f 34a3 1b3f 7937 603f
00000240: 123f fb3e 774d 97be ad39 343e 331e 99be
00000250: 1469 2ebf 117a d4be 3df6 f53d 3bd7 c23e
00000260: 1f82 d83e 493f 7d3c 5b67 06bd b972 943c
00000270: 6351 6abe 27a6 0abf e01c 833e 7b52 ec3d
00000280: c919 b63d 08d3 98bd 2e53 99be 8161 da3c
00000290: f7d5 22be 104c da3e 6052 d83e acd0 1ebd
000002a0: f1b6 44bd 67c6 02bf 09b6 30be 4b88 173e
000002b0: c625 a93e 30ce 233e 25b0 01bf c400 263e
000002c0: ff97 1dbe 61a3 fabd 9ed1 87be c83e 663f
000002d0: d2e5 82bd c2bd 053e 74ac 993d 2778 a4be
000002e0: 314b eabd d994 a4be da62 683e b8ce 08bf
000002f0: 4612 dabe 8551 ae3e 33f7 e83e 05cd 67bd
00000300: 2763 12be 06ed 2a3e 671c 223d 8461 22be
00000310: 6a23 1abe 98b6 b7be b57e 9abf 8fa9 60be
00000320: 1bc8 0dbe b87a 96be 7db9 0b3a ca39 e6be
00000330: 00f6 f63c 9a7a 4a3f f4ef a4be 02da 05be
00000340: 1e70 a8be 7443 ac3c 4a1d 3cbe 8634 6abd
00000350: f919 dfbd 8a83 143e b5f4 243f d0f8 9cbe
00000360: 3706 57be 2b7f 653e ecd5 803e f957 aabd
00000370: 6c5a a93e 40b8 903e 80fd fdbc 4ba5 bd3e
00000380: 2381 02bf 88c2 d4be c448 483f e391 77be
00000390: 2b56 db3e edaa a1be 6f23 89bd 4d77 8abe
000003a0: a898 6a3d 3cca 57bf 5fff b9be 57f3 19be
000003b0: b9dd 81be 4819 7c3d fa7b f7bc 93e7 323d
000003c0: fbd9 a73d 762c 7ebe 6c5b 0fbe 9a6f 4abe
000003d0: fe80 c7bd 2018 3b3f 41ec b53e 7bf6 cd3e
000003e0: 3344 24be eabd 993e bcf3 873e 6ab5 52be
000003f0: 3eff b2be 9ef4 87be ecee 1ebd 642c b33e

encoder1_RNN.weight_hh_l0 f4 [150, 50]
0.21264836 -9.752373e-05 0.2433773 0.19987392 0.37750298 0.11938966 0.2540852 -0.31699273
-0.24854983 -0.44643807 0.294384 0.3814834 -0.107790455 0.3223813 0.17424905 0.16964252
0.070871085 -0.048759114 0.6767124 0.10814219 0.20137186 0.08096052 0.02178364 0.18139319
0.4586582 -0.063016474 -0.0414029 0.5475616 -0.30803096 -0.18812566 0.36942548 0.42921776
-0.55768937 0.03414764 -0.3061587 0.4717618 0.085257895 -0.26727125 0.2771418 -0.30266356
-0.2694508 -0.45942456 0.28409716 -0.005396595 0.1096571 0.14006874 -0.44220445 -0.38699093
0.27512902 0.38014662 0.068481274 -0.70546067 0.028458612 -0.13781908 -0.15732339 -0.03848843
-0.20695178 -0.056410026 -0.34473142 0.14749432 -0.6461548 0.17492895 0.031065 -0.3246227
-0.079280965 0.048388746 -0.57204705 0.58291084 -0.71562445 0.20607433 0.69243526 -0.18751988
0.17306261 -0.018508637 0.32182106 -0.45511284 0.51415306 0.20503908 -0.077072926 0.004709541
-0.52274966 0.12536645 -0.4754074 -0.5440914 0.5741217 0.052591115 0.302166 -0.14706759
-0.14109562 -0.324068 0.42085123 -0.37479955 -0.009434197 0.047792356 0.33061215 0.6024733
-0.12664442 0.4144667 0.28498784 -0.5900058 0.14695625 -0.26599535 0.7069612 -0.76299566
-0.22391585 0.3553201 0.012860699 0.20417464 0.016016912 0.32450792 0.5086242 0.28844818
-0.3239991 0.24014328 0.5488439 0.39277583 0.85394955 -0.052385673 0.37213302 0.24471888
0.6694292 0.48676604 0.4934052 0.6179634 0.14035274 -0.32064337 0.35685238 -0.21376751
-0.35979113 0.046008535 -0.6837324 -0.22525528 -0.58900416 0.3487064 0.37701273 -0.650167
0.2117187 -0.46965006 -0.06651156 -0.27242807 0.16266468 -0.06479652 -0.059871066 -0.30629238
0.22843206 0.093885526 -0.12269695 0.38043067 0.3502895 -0.6807098 0.13256356 0.023001948
-0.19862953 0.6012451 0.1342692 -0.26516223 -0.1649195 0.63103825 -0.11858017 -0.40366796
-0.67612255 -0.13031344 -0.5266941 -0.29354382 0.06558801 0.23069432 -0.30362612 -0.7388623
-0.39320055 0.4010789 -0.028693486 -0.5104536 0.46927175 0.06870963 0.019846812 0.032754175
0.35247228 0.13169709 -0.15404694 0.3463988 -0.07209428 -0.4924697 0.46778545 -0.19272937
0.042949494 -0.072546124 0.23070176 0.08686464 -0.517327 -0.04703687 -0.16132557 0.008780089
0.28758934 0.25048986 -0.3044803 0.4460795 -0.2665566 0.26147038 0.20519365 -0.37310833
-0.5252414 0.8038045 0.2839644 1.4469068 0.7230375 0.13776612 -0.046437584 0.18978201
-0.25071776 -0.61419755 1.0308592 0.77132064 0.25700656 -0.2634701 0.3397402 -0.84681886
0.14602114 0.28402224 0.40207672 -0.20297717 -0.33543858 0.2493182 0.21409608 0.8135355
0.462575 -0.16023113 0.15812296 0.94517356 -0.5110077 0.7376285 0.37619674 0.4932862
-0.17739104 -0.008231068 -0.28151417 0.55392826 -1.1979105 -0.5130894 0.703578 -0.07372221
-1.299079 -0.46345323 0.78555304 -0.30308017 -0.2343954 -0.014478884 -0.14848287 -0.5384181
0.11729647 -0.011271722 0.058360018 -0.5997829 0.59219724 -0.058995716 0.84094185 0.7144125
00000000: 7ec0 593e a785 ccb8 e637 793e c0ab 4c3e
00000010: 1248 c13e 9182 f43d 7517 823e df4c a2be
00000020: d983 7ebe 8893 e4be 80b9 963e cb51 c33e
00000030: 3ec1 dcbd 290f a53e 586e 323e c5b6 2d3e
00000040: dc24 913d a3b7 47bd 063d 2d3f a779 dd3d
00000050: 6d34 4e3e a1ce a53d 9b73 b23c 23bf 393e
00000060: 3fd5 ea3e c80e 81bd 1696 29bd ff2c 0c3f
00000070: 3cb6 9dbe 03a4 40be 5625 bd3e 6ec2 db3e
00000080: bbc4 0ebf 65de 0b3d d5c0 9cbe c38a f13e
00000090: b19b ae3d c7d7 88be 88e5 8d3e b8f6 9abe
000000a0: 75f5 89be b239 ebbe 2f75 913e ecd5 b0bb
000000b0: e793 e03d 2e6e 0f3e 9f68 e2be ad23 c6be
000000c0: b6dd 8c3e 94a2 c23e e93f 8c3d 1299 34bf
000000d0: 0922 e93c 7220 0dbe 6219 21be 0ba6 1dbd
000000e0: 2beb 53be 330e 67bd a380 b0be c008 173e
000000f0: 676a 25bf 9320 333e 077c fe3c f234 a6be
00000100: 0f5e a2bd 4733 463d ad71 12bf a539 153f
00000110: 2a33 37bf 2605 533e 7043 313f 3605 40be
00000120: 5337 313e 6d9f 97bc bbc5 a43e 8d04 e9be
00000130: 899f 033f c4f5 513e 69d8 9dbd 7e52 9a3b
00000140: ecd2 05bf 1060 003e 9968 f3be 9349 0bbf
00000150: a4f9 123f c869 573d 80b5 9a3e e398 16be
00000160: 5f7b 10be 3eec a5be d079 d73e bae5 bfbe
00000170: e491 1abc ebc1 433d ff45 a93e b13b 1a3f
00000180: 13af 01be fb34 d43e ede9 913e 9f0a 17bf
00000190: b37b 163e 8b30 88be 69fb 343f af53 43bf
000001a0: 324a 65be 84ec b53e aeb5 523c 2813 513e
000001b0: e635 833c e725 a63e 3235 023f 7baf 933e
000001c0: 36e3 a5be 1fe8 753e 0981 0c3f ea19 c93e
000001d0: 709c 5a3f 5c92 56bd 3888 be3e 9697 7a3e
000001e0: b65f 2b3f 6639 f93e 9b9f fc3e d932 1e3f
000001f0: a1b8 0f3e 5e2b a4be 5bb5 b63e dfe5 5abe
00000200: 8b36 b8be 7273 3c3d 1609 2fbf 52a9 66be
00000210: fac8 16bf a589 b23e d007 c13e 5871 26bf
00000220: c9cc 583e f975 f0be 3637 88bd b17b 8bbe
00000230: 9291 263e 0ab4 84bd 5d3b 75bd 5bd2 9cbe
00000240: 18ea 693e 0e47 c03d 8a48 fbbd cfc7 c23e
00000250: 2559 b33e ff42 2ebf bebe 073e 956e bc3c
00000260: 8a65 4bbe 33eb 193f dd7d 093e 58c3 87be
00000270: a8e0 28be b98b 213f 29da f2bd 91ad cebe
00000280: 5e16 2dbf e370 05be 6dd5 06bf 604b 96be
00000290: 0253 863d 223b 6c3e e274 9bbe 1426 3dbf
000002a0: 9551 c9be 375a cd3e 9a0e ebbc 16ad 02bf
000002b0: 6344 f03e a2b7 8c3d c895 a23c 3e29 063d
000002c0: 3f77 b43e 9adb 063e 7bbe 1dbe 2f5b b13e
000002d0: 2aa6 93bd fd24 fcbe 9381 ef3e d95a 45be
000002e0: cfeb 2f3d 1093 94bd 153d 6c3e 17e6 b13d
000002f0: 8b6f 04bf bca9 40bd 8832 25be 5dda 0f3c
00000300: e93e 933e 3540 803e d8e4 9bbe 8864 e43e
00000310: 1b7a 88be 72df 853e 491e 523e 0e08 bfbe
00000320: 3876 06bf 22c6 4d3f c863 913e 3e34 b93f
00000330: fc18 393f 9012 0d3e 5635 3ebd 3756 423e
00000340: 145e 80be 0d3c 1dbf 32f3 833f 4575 453f
00000350: 5d96 833e 8ee5 86be 6df2 ad3e 1fc9 58bf
00000360: 9186 153e 5d6b 913e 00dd cd3e 3fd9 4fbe
00000370: 9bbe abbe 454d 7f3e 013c 5b3e dd43 503f
00000380: a1d6 ec3e a113 24be fcea 213e e5f6 713f
00000390: 67d1 02bf 39d5 3c3f dc9c c03e 0290 fc3e
000003a0: ffa5 35be 9adb 06bc a022 90be 3ece 0d3f
000003b0: 2255 99bf d459 03bf b01d 343f acfb 96bd
000003c0: 3848 a6bf be49 edbe 011a 493f 532d 9bbe
000003d0: 5905 70be d738 6dbc e50b 18be c5d5 09bf
000003e0: 2239 f03d 07ad 38bc ea0a 6f3d 5f8b 19bf
000003f0: 3d9a 173f 7ea5 71bd f747 573f bde3 363f

encoder1_RNN.bias_ih_l0 f4 [150]
0.10074278 -0.11382234 0.07901364 0.007484283 -0.24626246 -0.13211708 -0.20428896 -0.19735368
-0.12611985 -0.25034598 0.31759724 0.010586277 -0.31204495 -0.38305804 -0.27803272 -0.33151415
-0.13619854 -0.39263657 -0.19489695 0.21325277 0.30794457 -0.1715786 0.05912961 0.19965807
-0.27293506 -0.5011668 -0.03278073 -0.14761508 -0.20663397 0.03680805 0.13111182 -0.16963848
0.16919059 -0.24025987 -0.2673702 -0.16173226 -0.083416656 -0.28267756 -0.7647307 0.10986335
-0.052433252 0.05422044 0.05018853 -0.47199574 -0.28611276 -0.08160534 0.037547275 -0.568761
-0.07377832 0.23336664 0.251485 0.19496736 -0.013780159 0.04839349 0.43720844 -0.15027845
-0.18916234 0.47647113 0.3786562 -0.048534013 -0.008978837 0.049766753 0.47197357 0.46880746
0.22649752 0.49135765 0.017452788 0.27087495 -0.32052687 0.3743275 0.1169191 0.110981956
0.11884223 0.16913354 0.37369084 0.50580657 0.32567662 0.3443486 0.41332632 0.38624188
0.28911388 0.53966206 0.3336009 -0.025294952 0.40988952 0.13476864 0.15748063 0.06881041
0.3681141 0.13891777 0.2873631 0.39617646 -0.047471046 0.27498335 0.5369264 0.2549879
0.14609194 0.44920453 0.34603336 0.3465581 -0.19515234 0.07823522 -0.1488497 0.0038181925
0.024791637 -0.18328252 -0.3171745 0.18066469 -0.02535988 0.110807754 0.67799866 0.25927845
-0.005705124 -0.07416579 0.114273086 0.09635609 0.024375368 0.05904521 0.21452965 0.09757425
-0.019920375 0.30440414 0.11705457 0.51784515 0.29070726 -0.26415494 -0.10969641 -0.06642139
0.023056008 -0.20667236 -0.21890712 0.10274568 -0.178162 0.3257617 -0.4246303 -0.25590548
-0.06917026 0.2547855 -0.22573057 -0.086564414 -0.1456028 -0.060076263 0.031101836 0.15149379
0.03737833 -0.2993062 0.26660886 0.14182018 0.17639658 -0.09030849
00000000: 3b52 ce3d b01b e9bd e7d1 a13d b73e f53b
00000010: 3a2c 7cbe b349 07be 2031 51be 1517 4abe
00000020: 9025 01be 592d 80be 1b9c a23e 1072 2d3c
00000030: 5bc4 9fbe 2f20 c4be 4e5a 8ebe 39bc a9be
00000040: a177 0bbe a907 c9be 1193 47be ef5e 5a3e
00000050: e9aa 9d3e 4db2 2fbe e431 723d 2a73 4c3e
00000060: 25be 8bbe 784c 00bf 1645 06bd 6828 17be
00000070: db97 53be 0ac4 163d 2d42 063e b6b5 2dbe
00000080: 4c40 2d3e af06 76be bfe4 88be 249d 25be
00000090: 5ad6 aabd 1dbb 90be 64c5 43bf 0900 e13d
000000a0: 40c4 56bd 4116 5e3d 7d92 4d3d 6da9 f1be
000000b0: 5f7d 92be b320 a7bd 2ccb 193d 529a 11bf
000000c0: 1619 97bd aaf7 6e3e a4c2 803e 86a5 473e
000000d0: 2dc6 61bc 4138 463d c9d9 df3e 98e2 19be
000000e0: c6b3 41be 06f4 f33e 3adf c13e 9acb 46bd
000000f0: f91b 13bc 39d8 4b3d 85a6 f13e 8807 f03e
00000100: f7ee 673e 3b93 fb3e 26f9 8e3c 1fb0 8a3e
00000110: 191c a4be dba7 bf3e 4873 ef3d 824a e33d
00000120: 8e63 f33d 5831 2d3e 6854 bf3e 8a7c 013f
00000130: 16bf a63e 764e b03e 829f d33e 7fc1 c53e
00000140: bc06 943e 4b27 0a3f bdcd aa3e 5c37 cfbc
00000150: 0add d13e ca00 0a3e 9a42 213e 79ec 8c3d
00000160: 7479 bc3e 7640 0e3e 4221 933e a4d7 ca3e
00000170: 0071 42bd 9eca 8c3e 0274 093f c68d 823e
00000180: 2099 153e 23fe e53e 492b b13e 1070 b13e
00000190: 04d6 47be c939 a03d 0e6c 18be a43a 7a3b
000001a0: d517 cb3c 6aae 3bbe b264 a2be 2a00 393e
000001b0: 86bf cfbc 2def e23d 5291 2d3f 25c0 843e
000001c0: 0cf2 babb 3ce4 97bd 0208 ea3d 5756 c53d
000001d0: daae c73c 64d9 713d a9ad 5b3e 02d5 c73d
000001e0: 0e30 a3bc dcda 9b3e 4eba ef3d 8091 043f
000001f0: 95d7 943e 513f 87be 83a8 e0bd f007 88bd
00000200: f4df bc3c eba1 53be 3029 60be 546c d23d
00000210: 1970 36be 3dca a63e 2569 d9be 0b06 83be
00000220: 23a9 8dbd 3f73 823e ea25 67be af48 b1bd
00000230: e718 15be 8712 76bd 47c9 fe3c 3021 1b3e
00000240: 051a 193d aa3e 99be f580 883e 4f39 113e
00000250: 4ea1 343e a8f3 b8bd

encoder1_RNN.bias_hh_l0 f4 [150]
-0.09393771 0.0039089615 0.12027573 -0.045324605 -0.17533523 -0.11240068 -0.20774516 -0.29562488
-0.2021021 -0.3279654 0.223926 0.24371321 -0.4819202 -0.25919196 -0.21832079 -0.4142137
-0.25757203 -0.22252202 -0.13666806 0.1421584 0.23464452 -0.08069024 0.13135828 -0.057967134
-0.17054276 -0.5710105 0.010239307 -0.07301135 -0.41506007 -0.041495115 0.17232868 -0.20432654
0.11868175 -0.015523128 -0.30942369 0.047601733 0.0042728567 -0.07347626 -0.5892912 0.07463409
-0.13935679 0.11460848 -0.10722381 -0.36451748 -0.25460327 0.033862162 -0.14817479 -0.4742387
0.10779203 0.20610937 0.090195335 0.21471365 0.048766077 0.062516145 0.3347282 0.052211035
-0.15279284 0.4630304 0.31636497 -0.060007863 -0.09928603 0.1780686 0.25393793 0.5173139
0.12906487 0.35141683 0.16400449 0.08069568 -0.34426606 0.4152382 -0.066425785 0.12925951
0.23119654 0.22541566 0.61010677 0.54495126 0.17312932 0.31337184 0.16999318 0.18089217
0.11621641 0.4177215 0.29877508 0.12417972 0.27150592 0.1248423 0.21633235 -0.040878866
0.45376068 0.090346925 0.0786444 0.24103113 0.08717497 0.2435768 0.45434368 0.18317026
0.0044027776 0.32305554 0.18361306 0.29528037 0.02126636 0.024439137 -0.09212741 -0.1852258
-0.28567082 0.08475825 -0.12939219 0.28787482 -0.12687364 0.14852542 0.32860962 0.30900332
-0.12417212 0.0075701233 0.20620263 -0.070320226 0.044220775 0.19966139 0.42632234 0.25561956
0.033417087 0.36082524 0.36670688 0.41419816 0.32555702 -0.13187224 0.08993892 -0.06382468
-0.17245597 -0.05574546 -0.19337648 -0.06766419 -0.28923386 0.4083491 -0.14098126 -0.28211892
-0.11621348 0.22863808 -0.1969073 -0.006896436 -0.051704705 0.061944842 0.05455454 0.0333176
-0.044250596 -0.172889 0.10280752 -0.08274518 0.30567545 -0.02179158
00000000: 6a62 c0bd bf16 803b 1f53 f63d 4ba6 39bd
00000010: 148b 33be 5432 e6bd 26bb 54be 255c 97be
00000020: daf3 4ebe 15eb a7be db4c 653e f58f 793e
00000030: 3fbe f6be cfb4 84be 7c8f 5fbe d113 d4be
00000040: 7be0 83be d0dc 63be b6f2 0bbe f991 113e
00000050: a746 703e ed40 a5bd c982 063e f26e 6dbd
00000060: c3a2 2ebe be2d 12bf c4c2 273c fa86 95bd
00000070: c182 d4be c8f6 29bd ee76 303e fa3a 51be
00000080: 6b0f f33d b854 7ebc c86c 9ebe 09fa 423d
00000090: 5203 8c3b b97a 96bd cadb 16bf c2d9 983d
000000a0: 8cb3 0ebe dab7 ea3d 2898 dbbd 09a2 babe
000000b0: 5c5b 82be 0db3 0a3d 22bb 17be 6acf f2be
000000c0: 11c2 dc3d 560e 533e 55b8 b83d e5dd 5b3e
000000d0: f0be 473d 7708 803d 7f61 ab3e 3ddb 553d
000000e0: ba75 1cbe 5212 ed3e 97fa a13e ceca 75bd
000000f0: 7956 cbbd 9d57 363e 2704 823e af6e 043f
00000100: 9529 043e e8ec b33e cbf0 273e c743 a53d
00000110: a443 b0be 1a9a d43e 3e0a 88bd 9b5c 043e
00000120: c9be 6c3e 5dd3 663e f52f 1c3f ed81 0b3f
00000130: d048 313e 4672 a03e b112 2e3e cc3b 393e
00000140: df02 ee3d 98df d53e 0cf9 983e f051 fe3d
00000150: d302 8b3e 52ad ff3d 3a86 5d3e 9970 27bd
00000160: 5253 e83e cf07 b93d 5110 a13d ddd0 763e
00000170: ca88 b23d 326c 793e bc9f e83e fc90 3b3e
00000180: 2d45 903b 8967 a53e 1005 3c3e fd2e 973e
00000190: ca36 ae3c 9634 c83c 4cad bcbd d5ab 3dbe
000001a0: 7243 92be bc95 ad3d 637f 04be 5464 933e
000001b0: 2aeb 01be 0c17 183e 853f a83e af35 9e3e
000001c0: f44d febd cc0e f83b c826 533e 0d04 90bd
000001d0: d820 353d 0974 4c3e ec46 da3e 91e0 823e
000001e0: 5be0 083d 16be b83e 01c1 bb3e c811 d43e
000001f0: 69af a63e 8409 07be e631 b83d 84b6 82bd
00000200: 4c98 30be 5a55 64bd 7c04 46be 8693 8abd
00000210: 7616 94be 2213 d13e 645d 10be e471 90be
00000220: 5501 eebd 1a20 6a3e 11a2 49be 80fb e1bb
00000230: 50c8 53bd e0b9 7d3d 9574 5f3d 0978 083d
00000240: 1d40 35bd d009 31be c08c d23d 4e76 a9bd
00000250: 7e81 9c3e 4184 b2bc

encoder1_RNN.weight_ih_l1 f4 [150, 50]
-0.09630014 0.45973733 0.8523025 0.4383363 1.5055175 0.8994615 0.8163321 0.14264101
-1.5054362 -0.14292373 0.46439758 0.39525595 0.19985506 -0.32833007 0.5967254 0.5589172
0.15943076 0.87691075 0.20502946 0.29047632 0.0061815665 0.6978667 -0.035754908 0.298571
0.9002448 0.25949615 -0.47013134 1.3362914 0.64157796 0.49283057 0.11081429 1.3099282
0.575446 1.3779558 -0.31280807 1.2754171 -0.30564773 -0.09403851 -0.049318638 -0.15213642
-0.6183853 -1.2473378 0.17111245 0.46291897 -1.4253229 -0.35382906 -0.36429206 -0.441975
-0.36272922 -0.004949366 -0.09492957 -0.18153293 -0.12041014 -0.30981866 -0.45838445 0.28279865
0.13412647 0.001037309 0.6163319 -0.43627352 0.2223742 0.13352199 -0.5077861 0.30313146
-0.7014737 0.13724898 -0.6119565 -0.47772005 0.2559386 -0.2896056 0.26551804 -0.3335216
0.51283795 -1.0522615 -0.9971451 1.5990582 0.0164754 -0.65103996 -0.333296 0.35953194
0.24687615 -0.3257179 1.166496 -0.6560203 -0.27558056 0.09746173 0.7399944 0.28072134
0.44293332 -0.19820876 1.1439095 0.47101253 -0.84577847 -0.13603689 0.75186485 0.041423783
0.5007328 -0.7851386 -0.09604459 -0.49703228 0.32888454 -0.64431703 -0.68657136 -0.51633424
0.49983922 -0.90073174 -1.0378859 -0.45249394 1.6912168 0.19305275 0.8999623 0.4282543
-0.1788181 -0.1618057 -1.2117202 0.83303446 0.41893995 -0.26318046 -0.68297213 0.24144146
0.2848532 -0.005331366 0.9159807 -0.01735163 -0.35330266 -0.70544344 -0.22849257 -1.7414683
-0.26247776 0.163238 -0.2632804 -0.39972973 0.8052985 -1.8296282 0.43015593 -1.3756378
1.2972848 -0.64075005 -0.54825217 0.28077227 -0.9122817 0.81642276 0.6703452 -0.072788626
-0.1908887 -0.08881582 0.672857 0.57426345 0.15423368 -0.08846441 1.3097385 -1.0081475
0.22325796 0.24384724 -1.1415517 1.0090469 0.6303288 0.36934885 0.771589 -0.5238468
-0.5483403 -0.22503696 -1.0147604 0.6552527 -0.74411947 1.0459343 0.816011 -0.32170603
-1.484493 -0.25487697 1.178104 -0.5093824 0.02043943 -0.73310906 -0.14202312 0.04263874
-0.038499918 -0.9227047 0.08165833 -0.11059386 -0.4928309 -0.48691162 0.946986 -0.83512896
1.1851028 0.51786786 0.82741827 0.37744525 1.226624 -0.12372866 -0.023606388 0.46877438
-0.25157583 -0.81905764 0.25924963 0.44503966 -0.694301 -0.3023695 -0.4139293 -1.422403
-0.35682437 -0.32424107 -0.008882767 1.0472757 -0.73267585 0.27853835 0.998242 0.110505246
-0.3501919 -0.21141168 0.24976186 0.2057638 -0.11697379 0.08504306 0.53326905 0.72963685
-0.686705 -0.20253102 0.24542265 0.028878052 0.025339752 0.75254774 1.2027051 0.13431385
0.43033 0.7147515 -0.3086685 0.83411586 -0.2741542 0.06702286 -0.09694874 0.18344697
0.62671345 0.19358566 -0.45299295 0.7108582 0.122887224 -0.29867285 0.23466606 -0.64299506
0.44181573 -0.28536525 -0.34543526 0.4873504 -0.5709259 0.28188726 -0.63297015 -0.8723554
-0.1346 -0.18652594 0.42187986 -0.083105616 0.08654519 -0.45824948 0.07455845 0.03422785
00000000: 0239 c5bd b162 eb3e 7f30 5a3f 9e6d e03e
00000010: ccb4 c03f 1c43 663f 24fb 503f 7c10 123e
00000020: 22b2 c0bf 995a 12be 85c5 ed3e fd5e ca3e
00000030: cea6 4c3e e11a a8be ffc2 183f 3315 0f3f
00000040: d141 233e 397d 603f 3ef3 513e 50b9 943e
00000050: bd8e ca3b 64a7 323f bd73 12bd 4cde 983e
00000060: 7176 663f aedc 843e 0eb5 f0be 990b ab3f
00000070: 743e 243f 4a54 fc3e 9af2 e23d baab a73f
00000080: 6e50 133f db60 b03f 6128 a0be de40 a33f
00000090: dc7d 9cbe 4397 c0bd 5702 4abd a6c9 1bbe
000000a0: 804e 1ebf c4a8 9fbf 1a38 2f3e b703 ed3e
000000b0: fb70 b6bf 1529 b5be 7d84 babe 8c4a e2be
000000c0: a5b7 b9be 4b2e a2bb 6f6a c2bd c5e3 39be
000000d0: 9799 f6bd 8da0 9ebe 5eb1 eabe fcca 903e
000000e0: 7358 093e 50f6 873a edc7 1d3f 3e5f dfbe
000000f0: 10b6 633e fdb9 083e 45fe 01bf 0c34 9b3e
00000100: c893 33bf ff8a 0c3e 2ea9 1cbf b997 f4be
00000110: 620a 833e 2f47 94be fbf1 873e 58c3 aabe
00000120: 5949 033f 81b0 86bf e744 7fbf f0ad cc3f
00000130: 6bf7 863c 8eaa 26bf c6a5 aabe 9214 b83e
00000140: 1acd 7c3e 7fc4 a6be be4f 953f f2f0 27bf
00000150: e518 8dbe 049a c73d 4670 3d3f b5ba 8f3e
00000160: 28c8 e23e 3df7 4abe a06b 923f 8e28 f13e
00000170: f084 58bf 414d 0bbe 377a 403f fcab 293d
00000180: 0630 003f d8fe 48bf 07b3 c4bd 047b febe
00000190: 8e63 a83e f6f1 24bf 24c3 2fbf 7b2e 04bf
000001a0: edea ff3e 5b96 66bf 72d9 84bf 49ad e7be
000001b0: cb79 d83f 9faf 453e ee63 663f 2644 db3e
000001c0: 181c 37be 65b0 25be a619 9bbf bf41 553f
000001d0: 4c7f d63e 97bf 86be 43d7 2ebf 6e3c 773e
000001e0: 47d8 913e bdb2 aebb b67d 6a3f 0125 8ebc
000001f0: 16e4 b4be f197 34bf f5f9 69be 6fe8 debf
00000200: 7c63 86be dd27 273e b0cc 86be 60a9 ccbe
00000210: 0b28 4e3f 4231 eabf 663d dc3e e614 b0bf
00000220: 6e0d a63f 3208 24bf 415a 0cbf 62c1 8f3e
00000230: 4b8b 69bf 1501 513f be9b 2b3f 3412 95bd
00000240: 5478 43be 12e5 b5bd 5b40 2c3f ee02 133f
00000250: 6fef 1d3e d42c b5bd 83a5 a73f fa0a 81bf
00000260: bc9d 643e 17b3 793e 5e1e 92bf 7328 813f
00000270: 3a5d 213f 4b1b bd3e db86 453f d31a 06bf
00000280: 0860 0cbf 1770 66be abe3 81bf a4be 273f
00000290: 9d7e 3ebf 2de1 853f 19e6 503f a7b6 a4be
000002a0: de03 bebf 3c7f 82be 1dcc 963f e366 02bf
000002b0: 9770 a73c 09ad 3bbf 826e 11be f6a5 2e3d
000002c0: 17b2 1dbd 6036 6cbf 7c3c a73d 097f e2bd
000002d0: 5554 fcbe 7b4c f9be ad6d 723f 03cb 55bf
000002e0: 73b1 973f fd92 043f afd1 533f 8140 c13e
000002f0: 0402 9d3f 7465 fdbd 2f62 c1bc 3203 f03e
00000300: 8cce 80be c3ad 51bf 5ebc 843e 3ddc e33e
00000310: b6bd 31bf 2dd0 9abe 8bee d3be 4d11 b6bf
00000320: afb1 b6be ed02 a6be 0689 11bc 210d 863f
00000330: a590 3bbf 949c 8e3e ca8c 7f3f 9350 e23d
00000340: 5a4c b3be 4e7c 58be 93c1 7f3e bfb3 523e
00000350: f48f efbd 0e2b ae3d 5284 083f 7bc9 3a3f
00000360: e6cb 2fbf 4b64 4fbe 1350 7b3e aa91 ec3c
00000370: 5095 cf3c f8a6 403f 3ef2 993f 9289 093e
00000380: 3754 dc3e f4f9 363f cc09 9ebe 9e88 553f
00000390: f05d 8cbe 4843 893d 108d c6bd 86d9 3b3e
000003a0: 4b70 203f 523b 463e b1ee e7be cefa 353f
000003b0: 4cac fb3d a6eb 98be 4d4c 703e 539b 24bf
000003c0: ac35 e23e 651b 92be e4dc b0be fe85 f93e
000003d0: 3328 12bf 8753 903e 550a 22bf af52 5fbf
000003e0: 95d4 09be a800 3fbe a300 d83e 4733 aabd
000003f0: 9b3e b13d ad9f eabe 1ab2 983d 8132 0c3d

encoder1_RNN.weight_hh_l1 f4 [150, 50]
-0.2532058 0.34321883 -0.15686283 0.10164712 -0.17501661 -0.10922411 -0.41318357 0.03157458
-0.26283455 0.39223647 0.16309743 -0.20470956 -1.3284502 0.3842972 0.61596304 -0.7764543
-0.33979085 -0.27927908 0.3080599 -0.65067244 1.1057497 0.34277922 -0.13765468 0.5424129
-2.7976665 1.7699307 0.45067596 0.994903 -0.832808 -0.28718638 -1.0492775 0.7234816
-0.1256679 0.5111735 -0.14189862 -0.33871156 -0.3634333 -0.2302679 -0.0243943 0.80649346
0.22006546 -0.65025777 1.3331643 0.19309486 -0.3787002 0.25340572 -0.08105876 0.7344107
0.35279253 0.7491103 0.20694011 0.481821 0.051016852 0.99731266 -0.12061024 0.7565495
0.27122352 0.26969972 -0.052118137 -0.58875024 0.30278924 0.6872578 -0.12177157 -1.0963143
0.16923551 0.46917963 0.30090806 0.467754 -0.30959538 -1.8037475 -0.80045813 -0.47227147
-0.5045069 -0.4516585 0.7404872 -0.15909038 0.20663962 -0.12100524 0.83572006 0.34776458
0.5927532 -0.5875167 0.34863997 -0.30850428 1.269579 0.4990865 0.14770643 -0.28588104
-0.44289157 -0.75734615 0.4655835 0.43421367 -0.70369875 -1.126291 1.0651786 0.79528046
0.33920965 0.38664064 0.3317724 1.0606699 -0.48203874 0.11238322 1.1110369 0.42279014
-0.14441651 0.32815674 -0.6005543 1.3867153 -0.507862 -0.262782 0.44871566 0.09821333
0.32731068 -0.32394537 -0.19806302 1.2432424 0.4809134 -0.004344673 -0.02858049 0.12649006
-0.29225096 -0.5780875 -1.2294506 -0.16244136 -0.09730992 -0.042481925 -0.16937503 0.08374588
0.6515617 2.1250637 0.5711918 -0.24811614 0.52215415 0.3004595 0.30242735 0.90548474
0.0448407 -0.06035372 0.01733692 -0.3002134 1.185143 0.82831585 -0.31313646 -0.038280312
-0.4310734 0.23396659 0.07425955 -0.1772089 0.2572298 -0.21236743 0.31099394 0.32344702
-0.034702618 -1.0097959 1.4918575 0.69021386 -0.51515776 0.14943959 -1.1493667 0.69735587
0.5403438 2.3856928 0.4864698 0.7010975 -0.031430557 -0.004677517 -0.18093196 -1.627515
0.28291848 0.655172 -0.61880535 -0.142606 -1.6759222 0.70456344 -1.036483 0.14896187
-0.2997112 0.5622094 -1.0052042 1.0426022 0.23928787 -0.003573442 0.14732967 0.35993358
0.8284982 0.76878965 0.91980016 0.17833836 1.4198096 -1.3060797 -0.7490223 -0.44402745
0.74033666 0.09155256 -0.7092819 0.8746169 1.2712591 0.3224693 -0.22446601 0.035762493
1.4756523 0.049185563 0.5590901 -0.17712955 0.64532 0.15339574 -0.53221273 -0.4948867
0.5170493 0.19489686 -0.69827175 -0.82467705 -0.024184698 0.8208033 -0.23016599 -0.5667361
-0.33424926 -0.38110453 0.9079946 -0.4209619 -0.26168284 0.96097106 0.33657953 0.29831204
-2.366273 0.96259207 -0.42537087 -0.97263694 -0.88817966 0.55444103 -0.3519921 0.7353384
-0.36820558 0.13190447 0.26368284 -0.44949088 0.55099446 0.4171648 -0.20802984 1.0770037
-0.35850874 -0.81054515 0.047632795 0.56150895 -0.40563476 -0.20483196 0.11527698 1.2747372
0.09876807 1.1249769 -0.44545612 0.4745562 -0.307019 0.36786273 -0.59098107 -0.76602
00000000: 31a4 81be 61ba af3e a6a0 20be 5e2c d03d
00000010: 8e37 33be e4b0 dfbd cc8c d3be 5954 013d
00000020: 4092 86be 38d3 c83e 0303 273e 629f 51be
00000030: a80a aabf 9ac2 c43e c1af 1d3f b6c5 46bf
00000040: 11f9 adbe abfd 8ebe 07ba 9d3e 7892 26bf
00000050: 3589 8d3f c280 af3e 59f5 0cbe 92db 0a3f
00000060: f80c 33c0 178d e23f 00bf e63e f7b1 7e3f
00000070: e832 55bf 180a 93be ba4e 86bf 1736 393f
00000080: 16af 00be 44dc 023f df4d 11be 9a6b adbe
00000090: ee13 babe 59cb 6bbe 8ed6 c7bc 5b76 4e3f
000000a0: d758 613e 4b77 26bf 21a5 aa3f a9ba 453e
000000b0: fee4 c1be 65be 813e 2302 a6bd 5702 3c3f
000000c0: 39a1 b43e b1c5 3f3f 1ce8 533e 3eb1 f63e
000000d0: 0cf7 503d e24f 7f3f 8002 f7bd 3aad 413f
000000e0: cfdd 8a3e 1516 8a3e d479 55bd 56b8 16bf
000000f0: 3107 9b3e 21f0 2f3f 5f63 f9bd 0754 8cbf
00000100: 134c 2d3e 5038 f03e 9f10 9a3e 747d ef3e
00000110: 4983 9ebe 33e1 e6bf d3ea 4cbf 91cd f1be
00000120: 5d27 01bf c83f e7be 9290 3d3f 97e8 22be
00000130: 5699 533e 98d1 f7bd c0f1 553f 330e b23e
00000140: acbe 173f 7f67 16bf f080 b23e 46f4 9dbe
00000150: 9181 a23f 4488 ff3e 5b40 173e 005f 92be
00000160: afc2 e2be 70e1 41bf f660 ee3e 4151 de3e
00000170: 9a25 34bf 4e2a 90bf c657 883f 8097 4b3f
00000180: e3ac ad3e c3f5 c53e 12de a93e 08c4 873f
00000190: c8cd f6be 2c29 e63d 7536 8e3f f377 d83e
000001a0: ece1 13be 2904 a83e edbd 19bf e37f b13f
000001b0: 3e03 02bf 5d8b 86be 0fbe e53e 1224 c93d
000001c0: 4495 a73e 2bdc a5be 08d1 4abe 9122 9f3f
000001d0: 483a f63e c25d 8ebb a221 eabc 9c86 013e
000001e0: eba1 95be 8bfd 13bf a35e 9dbf 0757 26be
000001f0: 6c4a c7bd 8701 2ebd a670 2dbe f682 ab3d
00000200: bfcc 263f 0b01 0840 a039 123f 2812 7ebe
00000210: e5ab 053f d4d5 993e c2d7 9a3e d9cd 673f
00000220: e2aa 373d 7635 77bd 2806 8e3c 92b5 99be
00000230: c4b2 973f 820c 543f 6c53 a0be d1cb 1cbd
00000240: a7b5 dcbe f094 6f3e 6415 983d 4076 35be
00000250: a0b3 833e d976 59be 993a 9f3e d99a a53e
00000260: 5524 0ebd fe40 81bf 30f5 be3f dbb1 303f
00000270: 61e1 03bf b106 193e 731e 93bf ea85 323f
00000280: f953 0a3f 31af 1840 9212 f93e 207b 333f
00000290: 54bd 00bd db45 99bb 3a46 39be 6952 d0bf
000002a0: b1da 903e 5ab9 273f 076a 1ebf 4f07 12be
000002b0: 9e84 d6bf 455e 343f 7aab 84bf 7689 183e
000002c0: bf73 99be f5ec 0f3f 88aa 80bf fd73 853f
000002d0: e107 753e 6930 6abb 97dd 163e 3749 b83e
000002e0: 7518 543f 66cf 443f 0678 6b3f 559e 363e
000002f0: 52bc b53f 9f2d a7bf edbf 3fbf 9157 e3be
00000300: b486 3d3f e97f bb3d 8093 35bf e5e6 5f3f
00000310: 9eb8 a23f b21a a53e 6bda 65be b17b 123d
00000320: 2de2 bc3f cd76 493d 8720 0f3f 7361 35be
00000330: b133 253f c613 1d3e 183f 08bf ca61 fdbe
00000340: 585d 043f 0b93 473e f0c1 32bf 091e 53bf
00000350: fd1e c6bc 2a20 523f a2b0 6bbe 9e15 11bf
00000360: b822 abbe 2220 c3be 5672 683f 5188 d7be
00000370: 4bfb 85be 3302 763f 2754 ac3e 5bbc 983e
00000380: 0471 17c0 6f6c 763f 36ca d9be bcfe 78bf
00000390: be5f 63bf d9ef 0d3f 4f38 b4be 233f 3c3f
000003a0: 7185 bcbe f711 073e 7001 873e ab23 e6be
000003b0: f90d 0d3f a096 d53e c605 55be 42db 893f
000003c0: 758e b7be e37f 4fbf 9b1a 433d 0dbf 0f3f
000003d0: 5caf cfbe 78bf 51be 5616 ec3d 972a a33f
000003e0: ea46 ca3d 3eff 8f3f d312 e4be 08f9 f23e
000003f0: 9831 9dbe 8158 bc3e 894a 17bf e319 44bf

encoder1_RNN.bias_ih_l1 f4 [150]
0.0732393 -0.4342479 0.09243604 0.043714445 -0.40761447 0.23610075 0.08028457 0.2661817
0.22786303 0.18539935 0.07395333 -0.1317849 -0.5838222 -0.74258286 -0.108324334 -0.3076221
-0.23572867 0.16845167 -0.2884216 -0.5550452 0.34400517 0.30193555 -0.016933462 -0.6361023
-0.5236295 0.096516706 -0.15454204 0.2133612 0.05139699 0.13717361 -0.24691066 -0.004884895
0.24029215 -0.027374044 -0.14431934 -0.16762567 0.70778054 0.6346228 -0.1428355 -0.32602647
0.25098872 0.47820434 -0.24984786 -0.25282076 0.1987549 0.08353793 -0.2786921 -0.32104734
0.5483595 0.37525356 0.87280893 0.18317705 0.39425936 -0.65066224 0.59831005 0.1046256
0.04062763 0.21690255 -0.009408581 0.18491173 0.2096995 0.3159276 0.86529684 0.09491692
0.2112291 -0.018508134 0.15312193 0.3271053 0.20912158 -0.06793867 0.33580673 0.059584033
0.32906985 0.72695863 0.40816915 0.29940933 0.09495688 -0.09539068 0.18636483 0.84587103
0.39404353 -0.065678276 0.25303775 0.06445469 0.054892525 0.02750287 0.071554124 0.5344144
0.47933525 0.9055951 -0.63145673 -0.0006440027 0.8103067 0.44100803 0.081683725 -0.07934015
0.20249885 0.32191432 -0.24436495 0.2488806 -0.22420742 -0.14502901 -0.59701073 0.18106359
-0.15403563 -0.15600447 0.117385745 -0.3593173 0.14779942 0.01641955 0.30767778 0.027474036
-0.35299954 0.67083615 -0.04083224 -0.5109421 -0.1921411 0.2610847 0.18206145 0.38578793
0.20498705 0.035115078 0.3925585 -0.029849544 0.16527097 -0.21174462 0.6038999 -0.0012426624
-0.37890708 -0.09708748 0.24857311 0.5046996 -0.45497683 0.14624733 -0.62099123 -0.31193548
0.6826536 -0.25725028 -0.33979446 0.2274847 -0.43318784 -0.051941033 0.47185484 -0.14150676
-0.09657349 0.3067232 -0.23875022 -0.110627614 -0.5656315 -0.14051276
00000000: 7cfe 953d be55 debe 1b4f bd3d eb0d 333d
00000010: d8b2 d0be 65c4 713e 3d6c a43d f848 883e
00000020: ed54 693e 54d9 3d3e d874 973d 9ff2 06be
00000030: 5f75 15bf e919 3ebf 26d9 ddbd a580 9dbe
00000040: db62 71be 987e 2c3e ffab 93be 7117 0ebf
00000050: 7221 b03e 4c97 9a3e 0bb8 8abc 9ad7 22bf
00000060: 950c 06bf 8daa c53d 4540 1ebe 5c7b 5a3e
00000070: a685 523d 3d77 0c3e 26d6 7cbe 7811 a0bb
00000080: 250f 763e 883f e0bc 73c8 13be 10a6 2bbe
00000090: 1b31 353f a476 223f 7843 12be f1ec a6be
000000a0: 9881 803e 33d7 f43e 1ed8 7fbe b971 81be
000000b0: 6886 4b3e ef15 ab3d bbb0 8ebe 5160 a4be
000000c0: 4a61 0c3f 3c21 c03e 6870 5f3f c492 3b3e
000000d0: 5ddc c93e cd91 26bf d92a 193f f245 d63d
000000e0: 2869 263d b41b 5e3e 7326 1abc 8059 3d3e
000000f0: 77bb 563e 43c1 a13e 1884 5d3f cd63 c23d
00000100: 714c 583e 5f9e 97bc ffcb 1c3e 597a a73e
00000110: f823 563e 6e23 8bbd dcee ab3e 630e 743d
00000120: d87b a83e f619 3a3f 8cfb d03e 2e4c 993e
00000130: c178 c23d 305c c3bd 6cd6 3e3e 018b 583f
00000140: 13c0 c93e 5582 86bd 2a8e 813e d200 843d
00000150: fcd6 603d b34d e13c f88a 923d 62cf 083f
00000160: 6e6b f53e 15d5 673f 26a7 21bf 4ad2 28ba
00000170: 4370 4f3f cecb e13e cc49 a73d 177d a2bd
00000180: dc5b 4f3e f4d1 a43e ce3a 7abe 8eda 7e3e
00000190: a196 65be 7c82 14be b2d5 18bf bc68 393e
000001a0: 84bb 1dbe a3bf 1fbe f067 f03d 70f8 b7be
000001b0: bb58 173e 4b82 863c f187 9d3e 3b11 e13c
000001c0: 5bbc b4be ebbb 2b3f b53f 27bd 1acd 02bf
000001d0: a3c0 44be e5ac 853e 516e 3a3e ff85 c53e
000001e0: 20e8 513e d4d4 0f3d 6dfd c83e 0887 f4bc
000001f0: cb3c 293e 95d3 58be 2f99 1a3f d5e0 a2ba
00000200: 1c00 c2be cdd5 c6bd f389 7e3e fe33 013f
00000210: b9f2 e8be dcc1 153e 48f9 1ebf 02b6 9fbe
00000220: 63c2 2e3f 4fb6 83be 8af9 adbe c0f1 683e
00000230: ccca ddbe 1fc0 54bd f596 f13e 26e7 10be
00000240: 52c8 c5bd d30a 9d3e f07a 74be bb90 e2bd
00000250: 3acd 10bf 94e2 0fbe

encoder1_RNN.bias_hh_l1 f4 [150]
0.12919222 -0.36697975 0.08697211 0.29031646 -0.26609752 0.26624534 0.10933351 0.2292592
0.1277714 -0.025444046 -0.09011393 -0.07642148 -0.49634147 -0.64159185 -0.029830763 -0.28020057
-0.17593963 0.18153417 -0.20716538 -0.46613473 0.18215595 0.31476805 0.019833615 -0.46167287
-0.46253026 0.27206793 -0.1377772 0.22394226 0.017391756 0.1431559 -0.21470846 -0.12349006
0.43863833 -0.090915464 -0.2589339 -0.002616669 0.58305717 0.6323199 -0.090344526 -0.45127755
0.22487728 0.39279133 -0.18605472 -0.39555484 0.27102765 0.23568562 -0.05222819 -0.23345913
0.47637063 0.36539623 0.87528545 0.1864367 0.6377699 -0.633386 0.6100376 0.19944201
0.07970498 -0.007399066 0.16192673 0.3171514 0.12536277 0.2101263 0.798977 0.03593704
0.0920198 0.14830583 0.1004797 0.35764992 0.38680476 -0.13968138 0.47974935 0.008740602
0.5206658 0.89685446 0.50850594 0.20648621 0.12816617 0.04793991 0.17891607 0.8965712
0.17150947 -0.005896378 0.14246802 -0.007881428 0.051165905 -0.06448566 0.0294119 0.27084252
0.23644471 0.9870307 -0.6010677 0.08643202 0.58955604 0.47797558 -0.17226516 0.13254043
0.28833628 0.5042295 -0.18744726 0.3699414 -0.28536394 -0.34617767 -0.774209 0.43827897
0.20775165 -0.3537719 0.076055765 0.08323332 -0.09806066 0.007155098 0.041604403 -0.017468195
-0.25693431 0.5644381 -0.22594954 0.31636307 -0.47254452 0.032649975 0.11183143 0.27462497
0.25798753 -0.17740409 0.111735 -0.19938464 -0.09559424 -0.0012217233 0.23289137 0.19968295
-0.37972116 0.18230185 0.23096429 0.34756714 0.07672695 -0.5068092 -0.4126604 -0.23250258
0.73990124 -0.2049196 0.06505116 0.17519626 0.1460627 0.09697564 0.43002743 -0.1427667
-0.081847675 0.20379299 -0.24963427 -0.13168943 -0.49619514 -0.46961832
00000000: f74a 043e c5e4 bbbe 6f1e b23d 5ca4 943e
00000010: ef3d 88be 4f51 883e 3fea df3d ecc2 6a3e
00000020: 82d6 023e 0870 d0bc a78d b8bd dd82 9cbd
00000030: 7820 febe 5d3f 24bf a55f f4bc 7376 8fbe
00000040: 8529 34be 18e4 393e 2923 54be 36a9 eebe
00000050: 1787 3a3e 4729 a13e 1b7a a23c 6360 ecbe
00000060: c4d0 ecbe 7d4c 8b3e 7715 0dbe 1f51 653e
00000070: 2879 8e3c 7697 123e 89dc 5bbe 5be8 fcbd
00000080: 3495 e03e e331 babd fc92 84be 6c7c 2bbb
00000090: 3c43 153f b8df 213f 8d06 b9bd da0d e7be
000000a0: 3b46 663e f21b c93e 2185 3ebe 2a86 cabe
000000b0: 23c4 8a3e 9257 713e 3aed 55bd e90f 6fbe
000000c0: dae6 f33e 3715 bb3e b512 603f 43e9 3e3e
000000d0: e344 233f 9625 22bf 6d2b 1c3f 873a 4c3e
000000e0: 5d3c a33d dd73 f2bb 1fd0 253e ab61 a23e
000000f0: 195f 003e 592b 573e c289 4c3f b832 133d
00000100: e074 bc3d 7cdd 173e 4dc8 cd3d e41d b73e
00000110: 460b c63e a308 0fbe b5a1 f53e be34 0f3c
00000120: 5b4a 053f 4198 653f 722d 023f 1f71 533e
00000130: fe3d 033e a45c 443d c635 373e b185 653f
00000140: 2ea0 2f3e 6736 c1bb 23e3 113e 1b21 01bc
00000150: 5793 513d 0f11 84bd 3af1 f03c dfab 8a3e
00000160: 901e 723e 0bae 7c3f 93df 19bf 4503 b13d
00000170: 25ed 163f 37b9 f43e 4766 30be aeb8 073e
00000180: d0a0 933e 2f15 013f 2df2 3fbe f668 bd3e
00000190: 391b 92be 333e b1be 9032 46bf 1a66 e03e
000001a0: d9bc 543e 9721 b5be 20c3 9b3d 3b76 aa3d
000001b0: 07d4 c8bd 5075 ea3b 6169 2a3d 7619 8fbc
000001c0: e58c 83be 047f 103f 515f 67be 57fa a13e
000001d0: 5bf1 f1be fbbb 053d e007 e53d a59b 8c3e
000001e0: f116 843e 6ba9 35be 52d5 e43d 7d2b 4cbe
000001f0: eac6 c3bd 3b22 a0ba 137b 6e3e b079 4c3e
00000200: d06a c2be 56ad 3a3e e781 6c3e 52f4 b13e
00000210: 0523 9d3d 3fbe 01bf 3948 d3be 2815 6ebe
00000220: 2b6a 3d3f 72d6 51be 8b39 853d a666 333e
00000230: 7691 153e 2a9b c63d 8e2c dc3e 6f31 12be
00000240: c19f a7bd 1caf 503e 20a0 7fbe 98d9 06be
00000250: 4a0d febe d071 f0be

encoder1_linear.weight f4 [1, 50]
0.06437281 0.062171053 0.15689887 -0.12792607 0.07782187 -0.13634901 -0.11179613 -0.06455982
-0.14574675 -0.017280646 0.10397346 0.1985157 -0.12698928 -0.16846284 -0.038079627 -0.16521528
0.11739493 -0.054523125 0.14397696 -0.07848228 0.10451285 -0.14817668 -0.036195427 0.020877715
0.060218323 -0.098833315 -0.04218619 0.1283059 -0.050541878 0.11753215 -0.12083241 0.036008213
-0.13645701 0.064373426 0.107016474 -0.07465636 -0.067207694 0.12746061 -0.09758273 -0.11783182
-0.12978245 0.1384 0.07589994 0.12746955 0.0932075 -0.07429707 -0.07964706 -0.12875043
0.1923762 -0.016244557
00000000: e4d5 833d 13a7 7e3d 19aa 203e 0dff 02be
00000010: 1361 9f3d 139f 0bbe 5ff5 e4bd f037 84bd
00000020: a33e 15be 2490 8dbc 0af0 d43d b347 4b3e
00000030: 7a09 02be 8681 2cbe 62f9 1bbd 322e 29be
00000040: c16c f03d a453 5fbd b26e 133e 51bb a0bd
00000050: d50a d63d a1bb 17be a841 14bd be07 ab3c
00000060: 7da7 763d 1f69 cabd 6dcb 2cbd 9f62 033e
00000070: 0005 4fbd b2b4 f03d fc76 f7bd 597d 133d
00000080: 63bb 0bbe 37d6 833d 742b db3d 6fe5 98bd
00000090: 30a4 89bd 0985 023e 74d9 c7bd cf51 f1bd
000000a0: b1e5 04be bbb8 0d3e 6e71 9b3d 6187 023e
000000b0: 93e3 be3d 1029 98bd ff1d a3bd 27d7 03be
000000c0: 44fe 443e 4e13 85bc

encoder2_RNN.weight_ih_l0 f4 [150, 7]
-0.3940421 0.015777482 -0.13505642 0.14608164 0.36015204 0.40500224 -0.21914718 0.011968059
0.011617865 -0.13734192 -0.57354033 0.69103223 0.2933251 -0.08687233 -0.32122812 -0.05937201
-0.038257517 -0.05888091 -0.6421285 0.50671446 0.35039538 0.1636709 0.059303004 -0.14152993
0.16320086 0.4988638 0.14122528 -0.3476702 0.23999214 -0.100449294 -0.29695532 0.29389173
-0.01916029 -0.12959743 -0.060844287 0.5880936 0.13348117 -0.46882623 0.2877894 0.41019192
-0.34201717 0.07488419 0.14329846 0.0883436 0.030818623 0.090450875 -0.4466797 0.19956939
-0.042514365 0.18326283 0.35937974 0.38275406 0.026619092 0.17568196 -0.11239373 -0.023350693
-0.011932499 0.20480427 -0.028671864 0.27209204 0.2980039 0.2146251 0.5259488 0.18613228
-0.1849489 0.0952788 -0.4564395 0.034341082 0.68841356 -0.48912707 -0.5168056 0.12557237
0.07321792 0.12090864 0.6872848 0.23774481 0.20414107 0.040445283 -0.099009246 -0.7781806
0.3138706 -0.05165475 -0.36915627 -0.0187284 -0.15520933 0.022413159 -0.14710821 -0.1944401
-0.25621954 0.060449973 -0.18745184 0.026206713 0.17784698 -0.35847703 0.1957408 0.22767271
-0.26179636 -0.38483974 0.12973338 0.34111944 -0.4250739 0.11428386 0.3770892 -0.04404807
-0.0052241646 -0.19977714 -0.014663413 0.1856149 -0.0030137014 -0.39642242 0.106641896 -0.16865645
-0.10556273 -0.002664871 -0.3441512 -0.021289105 -0.53633636 0.21498697 0.17414403 0.6371929
-0.2094845 0.046988886 0.33658504 0.89505804 1.0701938 0.16843538 -0.01415317 -0.29263338
0.013735071 0.21640357 -0.19475348 -0.27938294 -0.5565782 0.19033939 -0.18474968 -0.041279614
0.17298618 -0.8236574 0.7336135 -0.0027723855 0.14665449 -0.14794207 0.06336103 0.18109576
-0.051186625 0.49335822 -0.07716317 0.034272566 0.08422447 0.008694264 0.1961681 -0.28641292
0.3458905 -0.070707686 0.013479506 -0.24363263 -0.24423486 -0.00963065 -0.20747697 -0.110563345
-0.18156208 -0.16529627 -0.13344285 1.5042621 -0.1939341 -0.10060567 0.12806931 0.0068564634
-0.131098 0.015182791 0.013360468 0.08452547 -0.48652866 0.5856241 -0.19349179 -0.20378052
0.20651017 -0.3998203 0.3646395 0.07997287 0.07933448 0.0068384036 0.13424161 0.04027338
-0.029218111 0.40269586 0.33364022 -0.04176413 0.0032670314 0.38189685 0.6947916 -0.1090736
0.3944159 0.8535682 0.14236413 -0.08878256 0.23465991 -0.50443107 0.55502 -0.04147116
-0.24428426 0.30168116 0.24021251 -0.2540409 -0.24169649 -0.31188458 -0.37430707 1.0157017
0.4433693 -0.07180112 0.052973025 0.127477 0.03543927 0.17906326 -0.4221626 0.5117195
-0.060948137 0.020902513 0.0930146 -0.16797782 0.14756691 0.09801507 0.08868122 0.6617338
-0.26348576 0.076812744 0.5854216 0.041780535 0.058074567 0.5790211 0.16889165 -0.24286336
-0.10565169 -0.12504041 -0.2730638 0.024077194 -0.07775128 0.40718612 -0.06882069 -0.16567376
0.3432053 0.3844494 0.48219436 0.5027349 0.1988225 -0.022961468 -0.1772687 -0.092633724
0.027648883 0.4210248 -0.11367485 0.08142961 0.019138731 0.14435835 0.07154009 -0.22005804
00000000: e3bf c9be c73f 813c 3b4c 0abe 6d96 153e
00000010: d965 b83e 745c cf3e 1e68 60be ae15 443c
00000020: dc58 3e3c 5ca3 0cbe 8ad3 12bf 7de7 303f
00000030: b52e 963e 1fea b1bd 0378 a4be 1130 73bd
00000040: eab3 1cbd 1c2d 71bd 8962 24bf 0ab8 013f
00000050: 0667 b33e 5899 273e b5e7 723d 39ed 10be
00000060: 201e 273e 136b ff3e 5c9d 103e d401 b2be
00000070: 80c0 753e 5cb8 cdbd 870a 98be fa78 963e
00000080: 0af6 9cbc 30b5 04be dc37 79bd 4d8d 163f
00000090: 4aaf 083e fe09 f0be 2259 933e ad04 d23e
000000a0: e01c afbe e25c 993d d5bc 123e 7ded b43d
000000b0: 5677 fc3c 4f3e b93d 34b3 e4be eb5b 4c3e
000000c0: 8b23 2ebd 40a9 3b3e 9f00 b83e 57f8 c33e
000000d0: 4810 da3c f9e5 333e af2e e6bd f449 bfbc
000000e0: 8780 43bc 36b8 513e 42e1 eabc a64f 8b3e
000000f0: f893 983e afc6 5b3e 95a4 063f 7699 3e3e
00000100: 3f63 3dbe 8821 c33d 70b2 e9be 3ca9 0c3d
00000110: df3b 303f dd6e fabe 5f4d 04bf 0b96 003e
00000120: 47f3 953d f39e f73d e6f1 2f3f 6073 733e
00000130: 5b0a 513e f4a9 253d 5cc5 cabd d836 47bf
00000140: a6b3 a03e ee93 53bd 0d02 bdbe 4d6c 99bc
00000150: 32ef 1ebe cd9b b73c 89a3 16be 4e1b 47be
00000160: 352f 83be 649a 773d 60f3 3fbe 76af d63c
00000170: 851d 363e 4d8a b7be 4770 483e 0923 693e
00000180: 2c0a 86be b709 c5be d4d8 043e 35a7 ae3e
00000190: 49a3 d9be a80d ea3d d611 c13e c06b 34bd
000001a0: 782f abbb 6192 4cbe d03e 70bc d511 3e3e
000001b0: 8581 45bb e1f7 cabe 1167 da3d 47b4 2cbe
000001c0: 4631 d8bd 1ea5 2ebb 9634 b0be 7d66 aebc
000001d0: 574d 09bf 8b25 5c3e d052 323e 131f 233f
000001e0: 1b83 56be 6b77 403d e054 ac3e 8622 653f
000001f0: 1cfc 883f 537a 2c3e b3e2 67bc 0bd4 95be
00000200: 1009 613c e698 5d3e 756d 47be 480b 8fbe
00000210: e97b 0ebf 54e8 423e 052f 3dbe d014 29bd
00000220: 4a23 313e 36db 52bf 18ce 3b3f e9b0 35bb
00000230: 982c 163e 207e 17be 6dc3 813d 2b71 393e
00000240: 11a9 51bd 7399 fc3e b907 9ebd 6461 0c3d
00000250: e17d ac3d 6372 0e3c 4ae0 483e b7a4 92be
00000260: 8f18 b13e 31cf 90bd 25d9 5c3c d57a 79be
00000270: b418 7abe e0c9 1dbc d874 54be 096f e2bd
00000280: 69eb 39be 6d43 29be 3ea5 08be a98b c03f
00000290: a996 46be 580a cebd 9a24 033e 2fac e03b
000002a0: 8e3e 06be 3ec1 783c dde5 5a3c b11b ad3d
000002b0: 491a f9be 76eb 153f b622 46be d7ab 50be
000002c0: 6777 533e 3fb5 ccbe 07b2 ba3e d1c8 a33d
000002d0: 1e7a a23d b014 e03b a276 093e b3f5 243d
000002e0: d25a efbc 272e ce3e e4d2 aa3e dd10 2bbd
000002f0: b11b 563b fc87 c33e dddd 313f fb61 dfbd
00000300: e1f0 c93e 7283 5a3f e7c7 113e a1d3 b5bd
00000310: b04a 703e 6522 01bf ca15 0e3f aadd 29bd
00000320: a725 7abe f475 9a3e 45fa 753e a611 82be
00000330: 497f 77be 56af 9fbe 2da5 bfbe 8302 823f
00000340: 4d01 e33e 770c 93bd 3efa 583d 5589 023e
00000350: c528 113d 5c5c 373e b225 d8be 0d00 033f
00000360: c1a4 79bd bf3b ab3c 707e be3d 6102 2cbe
00000370: c81b 173e 20bc c83d 809e b53d 6367 293f
00000380: 9be7 86be 0050 9d3d 31de 153f 1122 2b3d
00000390: 99df 6d3d ba3a 143f eff1 2c3e 2cb1 78be
000003a0: ea5f d8bd 980a 00be 05cf 8bbe 893d c53c
000003b0: 103c 9fbd b37a d03e ddf1 8cbd 62a6 29be
000003c0: 9bb8 af3e 8dd6 c43e 2ee2 f63e 3cb3 003f
000003d0: 2098 4b3e b019 bcbc ed85 35be c0b6 bdbd
000003e0: e97f e23c 9090 d73e 5cce e8bd 91c4 a63d
000003f0: d4c8 9c3c add2 133e 9c83 923d e556 61be
