rnn_twc/saved_model/diff_rates/K1_K2_N(6_54_18)/bi_sigmoid/SNR1(1dB)SNR2(20dB)/model.pth (torch, 823413 bytes, 58 tensors)

weight_power1 f4 [18]
00000000: 4048 de3f 06c9 3abc 2734 d23f 94fc 71b8
00000010: 13f8 b23f 305f a1b9 9625 c93f d471 bbb7
00000020: 423c b33f bd6a 9d39 7fe1 a23f 064e 123b
00000030: 24a8 9f3f 095a 92bb 8309 803f d6af b739
00000040: e367 6e39 ad2a d33f
1.7365799 -0.011400467 1.6422166 -5.769411e-05 1.3981956 -0.00030779233 1.5714595 -2.2345142e-05
1.4002764 0.000300249 1.2725066 0.0022324338 1.2473187 -0.0044662994 1.0002903 0.00035035488
0.0002273615 1.6497399

weight_power2 f4 [18]
00000000: 56e6 db3f 74b5 9d3f e602 d73f fe18 823f
00000010: 69cd 9a3f 59f9 7e3f 6439 b83f 113d 7e3f
00000020: 30a4 b43f c601 8b3f a1ad 3b3f da10 a43f
00000030: b4b1 8e3f 5515 743f 011d 963f 8451 9a3f
00000040: c06c 993f 8406 40bf
1.7179668 1.2321 1.679776 1.0163877 1.2093936 0.99599224 1.4392514 0.9931193
1.4112606 1.0859916 0.7331181 1.2817643 1.1147981 0.9534505 1.1727601 1.2056127
1.1986313 -0.7500994

weight1_merge f4 [18, 2]
00000000: 2959 cfbc 1b9e 313d e965 ad3f 749f d13d
00000010: 9f43 aa40 c55b ffbe a1b9 b73f 45af d2bf
00000020: 392a e43b 0724 6240 5b8d 22bc 5e4f e2bf
00000030: dc6a c2b9 addc 0040 f0c2 0b3b a26d 783f
00000040: 35d6 e63a 2995 e13e 2b0b c739 3d94 cb3e
00000050: 045b ccb8 3375 e83e 137a 073a 767b 7c3e
00000060: ad29 a2b9 05de 9c3e 62af 4fb9 4f61 8d3e
00000070: 7298 6c3a 5e29 d4bd c2b0 7e38 f828 40ba
00000080: 16e9 a939 867f 47ba 6108 b6b9 57eb 8939
-0.02531107 0.04336367 1.3546726 0.102354914 5.3207545 -0.49874702 1.4353524 -1.6459738
0.006963041 3.533449 -0.009921397 -1.7680471 -0.0003708218 2.013469 0.0021325909 0.97042286
0.0017611446 0.44059113 0.0003796456 0.39761534 -9.744431e-05 0.45401916 0.0005168032 0.24656472
-0.000309301 0.30638137 -0.00019806394 0.27613303 0.00090254017 -0.10359453 6.0722938e-05 -0.00073303236
0.00032407854 -0.000761025 -0.00034719988 0.00026306018

weight2_merge f4 [18, 2]
00000000: 3226 093f 2414 6dbc ee91 2c3a 8154 8fb9
00000010: 3126 303b 6b1b 53b9 0385 c23c 61d7 2739
00000020: 51cf ca3b 5326 30bc b454 a33f 3ae5 f8b8
00000030: 1a11 bd3f 459c 1838 3075 1a40 c39f 553f
00000040: a986 1d40 bdb9 d540 11bf 8340 ff4e 2a40
00000050: dffb 7f3f e67f e23d acca bb36 9597 78b9
00000060: cf3f 01b9 7b62 97bd c968 b23d 5361 1639
00000070: 4af6 343c 7406 f339 eccf 96b8 55ae b438
00000080: 736f 00b9 a750 abbc 555b fab9 13fe ef3c
0.53573906 -0.014470134 0.00065830245 -0.00027338046 0.0026878233 -0.00020132742 0.023745066 0.00016006596
0.006189265 -0.010751325 1.2760224 -0.00011868258 1.4770844 3.638516e-05 2.4134026 0.834469
2.461344 6.678923 4.1170735 2.6610715 0.999937 0.11059551 5.5966284e-06 -0.00023707592
-0.00012326169 -0.073918305 0.087113924 0.00014341371 0.011045048 0.0004635338 -7.191286e-05 8.615541e-05
-0.0001224855 -0.020912481 -0.00047751763 0.029295957

encoder1_RNN.weight_ih_l0 f4 [150, 7]
00000000: d76a 523d 432f 8d3e ef5e 543d 54da b33d
00000010: 5b79 a33e b019 593e 3465 823e 09ad 993d
00000020: dbb7 00be 8db5 2e3f a548 003e 0f9b 8e3d
00000030: 263a 48bf 81c0 3abd 6b73 16be bf93 0c3e
00000040: fc62 97be d45f 6d3e f9bc 0fbe 28c5 7b3e
00000050: 8d6f b9bd f5f6 833e 378c 743f 0870 2fbf
00000060: 123c 2dbf 32ae c73e 657a 8dbe cdf5 36be
00000070: 6e9b 403e ec58 04be 6a76 6bbd 742e 473e
00000080: 2851 993e 399a d63d 9fa5 98bd fab7 a9bd
00000090: 0125 023e 1198 7a3d e17f 4abe c73c 5fbd
000000a0: cd3c aebe bb06 323f 379d 85be acca 103d
000000b0: beb0 343d ac3d 6fbe e672 04be 8f61 82be
000000c0: 5327 1d3e d1ae 653e aa36 54be 2372 a7be
000000d0: 834d 3c3e a99c ad3e 4383 b03e 25b3 51be
000000e0: 69f6 2bbf 77cb abbe b010 443e 3358 1dbe
000000f0: 9c5c 27bf 7ebf 7ebd aa15 8fbe 40dd 09be
00000100: 0e4a 2d3e 4996 a5bc 5cfc 2ebf 2876 1ebe
00000110: 7caa b6be e871 793f eba0 6e3e 1164 5a3e
00000120: b300 c03e 27f6 68be 14ba 873e b370 3d3d
00000130: 670c a43e 9bb2 e7bc 8f80 953e 7dc0 113d
00000140: 7a73 d1be ed12 fb3d 2391 8dbe 3320 6b3e
00000150: fefe 3f3c 8067 bdbd 5b5b b9bd 9fdc 213e
00000160: b2e7 afbe 4b82 79bd 1582 83bf 9af7 2c3e
00000170: 9fb2 47be b819 3e3e e52e 703e 8a21 64be
00000180: e275 993d e34e 3c3e 06c1 c23e c33a 683d
00000190: 4a8e 2e3e d225 bdbe e1f7 46bd 1f55 053f
000001a0: 4d11 7ebd 288b 933e a722 92be 9463 5c3e
000001b0: 185c 1ebd d9da 533f 8046 34be 9335 bbbc
000001c0: 60fa b83e 09b6 13bb 3e3e 733e 6a42 b93c
000001d0: ec8e 893e 5618 a1be 2060 9b3d 2dff af3e
000001e0: 9582 d5bf 39bf 863f 56d4 7c3d 5bfa 0f3d
000001f0: 40bd 99be 9ac3 323e 5e27 10bd e681 0f3f
00000200: f51a 6bbe cc47 6abe 9343 8c3d c45b e93e
00000210: 9efd ee3e 2c29 3b3f f067 a93d 3df6 e839
00000220: 47f8 073e 48d5 9b3e 6b43 adbd 3fdc 43bb
00000230: 9a65 c73e 9fda 133d 0483 adbd b9d6 3fbe
00000240: dadc ac3e c4c4 173f e28d c3bd 3990 b6bd
00000250: 4727 15be 6dd7 713e 72f8 02bd 4c3a 96be
00000260: 7fbd ab3e d293 eabd 12b2 1a3e ced9 96bd
00000270: 145b e7bc 47e0 6a3e 8410 573e 7be2 1cbe
00000280: 3500 04bf 4cc9 2dbf 94f0 7f3e e212 1d3f
00000290: ec0c 543f ecfc f5bc 78fc 0ebf 280b b33e
000002a0: d3c0 b43e f0ef b83e 5618 3e3e 0585 903e
000002b0: d536 013e 4550 0ebd 1087 8e3c 84ec 3e3e
000002c0: e5c1 36be e0fa 7a3d 572d bebd accb 353e
000002d0: 1c7f 9d3d 3333 883d 8011 573e e4d3 113e
000002e0: e76f 8f3d e10a 743e aaea 033d 95f7 cb3e
000002f0: 6700 15be b9e9 003e 4570 0ebe 1a09 363f
00000300: c506 b8bd 951b 683e 7a02 063e 4d40 a83e
00000310: b0ad 77bd d6ea 563d d252 423d 4042 613e
00000320: ae79 603e cccf a73e 59d9 b1bd 365f ac3e
00000330: d1a9 e6bc 1f0f 56be e1fa 7fbc 0646 883d
00000340: 0434 09bf 9da5 86bc 9181 5fbd 647b 61be
00000350: 54e1 43bb 141c a53c a749 c6bd 306e efbd
00000360: 985f d2be e3d7 143e 82fa cbbd 9e3c ab3d
00000370: e5b0 cd3e 6738 4b3e 2bd6 723e cd07 373d
00000380: 32f8 253c 3ca3 62bd d738 92ba bd41 e23d
00000390: 8af3 1cbe a0cf fa3d cf25 01bf fb3b 0d3f
000003a0: 6362 273e 00ec da3d f690 ecbe 6d8a b63e
000003b0: 4026 1e3f f61a 4a3e f81c 363d 775f 913e
000003c0: 6276 413e 0ee9 4f3e a465 9abd 4188 25bd
000003d0: 28ac 0a3f 7793 383e 99ae e33d e34e 3ebd
000003e0: 7a1c e9be f12a 6f3d 8d94 aabe 51ee f73e
000003f0: b89c 18be 8ad4 9bbd ac89 00bf fe31 57bb
0.05137142 0.2757512 0.05184835 0.08781877 0.31928524 0.21201205 0.25467837 0.07503707
-0.12570135 0.68245775 0.12527712 0.06963169 -0.7821373 -0.045593742 -0.14692466 0.13728236
-0.29567707 0.23181087 -0.14036931 0.24586928 -0.0905448 0.2577435 0.9552645 -0.6853032
-0.67669785 0.39000088 -0.27632442 -0.17867203 0.18809292 -0.12924546 -0.057485975 0.19451314
0.2994473 0.104786344 -0.07453465 -0.08287044 0.12709428 0.061180178 -0.19775344 -0.05450132
-0.34030762 0.6954152 -0.26096508 0.035349533 0.044113867 -0.2336337 -0.12934455 -0.25465056
0.15347032 0.22429968 -0.20723978 -0.32704267 0.18388943 0.33908585 0.34475145 -0.20478494
-0.6717287 -0.3355367 0.19146991 -0.15365677 -0.65375686 -0.06219434 -0.27946216 -0.13463306
0.16922781 -0.020213263 -0.6835382 -0.1547476 -0.35676944 0.9743943 0.23303573 0.21327235
0.37500533 -0.2275015 0.26509154 0.046250056 0.32040712 -0.028283408 0.29199645 0.03558396
-0.40908414 0.12259469 -0.27649793 0.22961502 0.01171851 -0.09248257 -0.09050628 0.15806817
-0.34356457 -0.060915273 -1.0274073 0.16891328 -0.19501732 0.18564498 0.23455389 -0.22278419
0.074931875 0.18389468 0.3803789 0.056696665 0.17046466 -0.36942917 -0.04857624 0.5208301
-0.062028218 0.28817105 -0.28542063 0.21522361 -0.038662046 0.8275581 -0.17605019 -0.022852695
0.3612852 -0.0022538921 0.23754212 0.022614677 0.26866853 -0.3146388 0.07586694 0.3437437
-1.6680475 1.0527107 0.061725937 0.035150867 -0.300272 0.17457429 -0.035193793 0.56057584
-0.22959502 -0.22878951 0.06848826 0.45577824 0.4667787 0.731097 0.08271778 0.0004443395
0.13278304 0.30436158 -0.084601246 -0.0029885916 0.38944703 0.036097165 -0.08472255 -0.18734254
0.33762246 0.59284616 -0.095485464 -0.08914227 -0.14565764 0.23617335 -0.031975217 -0.29341352
0.33543012 -0.11453976 0.15106991 -0.07365762 -0.028241672 0.22937118 0.21002394 -0.1532077
-0.51562816 -0.6788528 0.24994117 0.6135694 0.8283222 -0.03002783 -0.55853987 0.3496945
0.35303363 0.36120558 0.18563971 0.28226486 0.12618573 -0.03474452 0.017398387 0.18644911
-0.17847402 0.06127441 -0.09285992 0.17753476 0.0769026 0.066503905 0.2100277 0.14240986
0.070037656 0.23832275 0.032206215 0.39837328 -0.14550935 0.12589158 -0.13910015 0.7110764
-0.08985666 0.22666772 0.13086882 0.32861558 -0.060468376 0.05247005 0.047442265 0.21997929
0.21921417 0.32775724 -0.08684034 0.3366639 -0.028157147 -0.20904206 -0.015623779 0.06653981
-0.53594995 -0.016436392 -0.054566924 -0.22019726 -0.0029888945 0.02015499 -0.09682017 -0.116909385
-0.41088557 0.14535479 -0.0995989 0.08361171 0.40174022 0.19845735 0.23714511 0.044685174
0.010129975 -0.055331454 -0.0011155856 0.11047695 -0.15327278 0.122466326 -0.50448316 0.5516965
0.16346125 0.10689545 -0.46204346 0.35652485 0.61777115 0.19736847 0.04446122 0.28393146
0.18892816 0.20303747 -0.07538918 -0.040413145 0.5416894 0.18025003 0.11117286 -0.04646195
-0.45529538 0.05839056 -0.3331646 0.48424008 -0.14903533 -0.07608898 -0.5021007 -0.0032836194

encoder1_RNN.weight_hh_l0 f4 [150, 50]
00000000: 1520 58ba 8ebd a7be 393c f83e 2e2e 8f3e
00000010: 4e2e 6abd c64f 243e b3a5 94bd 834d c9be
00000020: 6a26 d1bd 90b9 bdbd 4994 013e 8f62 a2bc
00000030: 38eb 9c3d 21b6 413e 954f 443d 9a6a 16be
00000040: b247 3ebe 9354 d03d b9be 103e b0fd 6dbe
00000050: 7c96 d63d dbc6 8abd 1022 9c3d 95bf 023e
00000060: 4eab 6fbc 1d1b 203e a28c b3bd a11e 07bf
00000070: bafc 61be bd3e 51be 2c6c febd a40e 223d
00000080: c55e afbd 0ab1 16bd 95ae d33e 70dc 7c3e
00000090: 98b1 21be 795d 5cbc 8503 7b3d 3425 773e
000000a0: c2f2 80be 45f1 02bd 1249 05bd 5fcd 2a3e
000000b0: d4f7 86be 22dd 98bc 39f2 363e 765f 0cbf
000000c0: bb33 7dbd c5e8 53be 8f10 973c 418a db3a
000000d0: ff44 dabe 3cf5 813f c75a 1dbe 3d9e fcbe
000000e0: c08f 48bd 6491 d83d 4ba5 4cbd e3ab 31be
000000f0: d36a 383f e0fb c4be 28f5 643e b315 253f
00000100: 278b 4dbf 821c 45be 440a 79be ebb8 06bf
00000110: d459 b73e 19ce 1e3f 5f63 bbbe 9b9b 603e
00000120: c59b 853e d116 513f 72c8 583e df08 acbe
00000130: 79ac 583e 27c2 3cbf 5695 05be 4796 823e
00000140: a32b 793e 6d32 053f 5251 a83d 3623 57be
00000150: 995e 3d3d 11c0 ca3d 62a3 473e 544a 5d3f
00000160: 3f88 85bd a371 563f 69dc f33e 7122 d2bb
00000170: ac64 653e 8c9e 8e3d da95 873f 9412 ba3e
00000180: 9bc7 0e3f 5435 4dbe 14de aabe 469b 0ebe
00000190: 6b58 383e e2e9 2d3f ef42 4ebe 457d 3ebe
000001a0: 8995 0abe 302b 953d 38d5 c0be 7d89 c33e
000001b0: 676e 85be fb93 1cbd cb1c e7be c682 b13d
000001c0: 751a 363e 7be9 cbbe abbd 7d3d a09e c8bd
000001d0: ea79 3a3d b1fe d03e adb8 f13d 29d5 a3be
000001e0: d262 a93e 6643 933e a82c 28be 3b67 93be
000001f0: d5da 2e3e 08b7 90be 763f 66be b3a0 9a3f
00000200: e72b 883e 6826 8f3d cecb 983e 30bc 5fbd
00000210: df44 3cbf af9e a8be 5b58 523e b47d 9a3e
00000220: 52e9 29be a0f5 10be 79e9 313e bbca febe
00000230: baa1 9fbd 612f 6c3c 833d 5e3e 6aa5 ab3e
00000240: 703c 21be fec3 873c 3f57 aabe 5abd c33e
00000250: eb52 873d 183d 8dbf 926a 73be b016 e03c
00000260: e97d cd3e d7e6 d63e e301 db3e 92da e8be
00000270: 3cc9 8f3e 974a c73e 142c 703d e882 c83d
00000280: b45e 1cbe 127c 0abf 28d9 de3e 4ddf bebd
00000290: 0fc7 dbbe 37a3 8fbe a295 983e e638 d0be
000002a0: 1eb5 c73e 0a5e 5c3e 0a75 15be 818f e33d
000002b0: 9ec4 173e 3b30 043f efe0 5e3e 3402 843e
000002c0: 55c2 4e3f 8d47 ebbe 325a 3b3d 044d c5bd
000002d0: 01b7 933e b5ec 623d 1e94 823d c442 98be
000002e0: 9598 c6be 3e74 d13d 5a16 7cbe 5965 3b3e
000002f0: d90a 603d c724 8f3e b3aa 4e3f 4329 343f
00000300: 6a20 d2be c187 95bf ffed 96be 73ab febc
00000310: 7a01 513f 3f9e 433f 8c45 a43e 383f 653e
00000320: d795 143a 8282 b3be c64f 8e3e 2f6b d73e
00000330: 151b 783e ec72 413d 9ade 77bd cfc1 cdbe
00000340: 65c2 80be 1102 19bd 2261 493a 97cb 93be
00000350: ef6b f03a 7e77 abbe 13f5 a8bc 00d8 1a3e
00000360: 6804 c53e 67c8 8b3d d2da 9d3e 2000 eebd
00000370: 1eb1 52bd 84a1 8ebe b75c 173e b020 983e
00000380: 7b1d 11be d809 56bd 1f09 8bbe bf52 f2be
00000390: cc5c dabe d5cd dcbd 58e6 bfbc c081 e23e
000003a0: a263 c73c bdcd 02be ca14 343e eb6a 89bc
000003b0: a453 483e 6c79 133e 7e83 353c 494a 0e3e
000003c0: 7f58 a03d e480 303e 5ff9 97bd a86d 2e3e
000003d0: aebb f23e e79e b0bd dbf8 43bd 2c06 d13c
000003e0: 5dda dfba a793 f4be 3bb9 9fbe fd90 1e3e
000003f0: af0e 8ebe 8e7f 243f 3e27 f4bd 3aab 6fbe
-0.00082445267 -0.32761806 0.48483446 0.2796492 -0.057173066 0.16046056 -0.07258167 -0.3931695
-0.10212405 -0.09263909 0.12654223 -0.019822387 0.07662052 0.18917133 0.047927458 -0.14689103
-0.18582037 0.10172381 0.14135255 -0.23241305 0.10477921 -0.0677621 0.076236844 0.12768395
-0.014628245 0.15635343 -0.08767058 -0.5278111 -0.22069064 -0.20434089 -0.12422976 0.039564744
-0.08562998 -0.03678993 0.41344133 0.24693465 -0.15790403 -0.01345002 0.061282653 0.24135286
-0.2518521 -0.031968374 -0.03254039 0.16679905 -0.26360953 -0.018660132 0.17865838 -0.5483316
-0.061816912 -0.20694263 0.018440513 0.0016749577 -0.42630765 1.0152965 -0.1536666 -0.49339476
-0.048965216 0.10574606 -0.049962323 -0.17350726 0.72038 -0.38473415 0.22359145 0.64486235
-0.80290455 -0.19249156 -0.24320322 -0.5262591 0.3581072 0.6203323 -0.36599252 0.21934359
0.26095405 0.8167544 0.21170214 -0.33600518 0.21159543 -0.7373375 -0.13045248 0.25505278
0.24333052 0.5203007 0.082186356 -0.21009526 0.046232793 0.09899915 0.1949592 0.8644154
-0.065201275 0.83767146 0.47629097 -0.006412797 0.22401685 0.06963834 1.0592606 0.363423
0.55773324 -0.20039874 -0.33372557 -0.1392642 0.18002479 0.67935 -0.2014272 -0.18602474
-0.13533606 0.07283628 -0.37662673 0.38190833 -0.26060793 -0.038227063 -0.45139155 0.08667521
0.1778353 -0.3982657 0.06194846 -0.0979588 0.045526423 0.40819314 0.11802802 -0.31998566
0.33083206 0.28762358 -0.16423285 -0.28789696 0.17075665 -0.28264642 -0.22485146 1.2080292
0.26595995 0.06989747 0.2984299 -0.05462283 -0.7354259 -0.32933566 0.20541517 0.3017403
-0.16592911 -0.14156199 0.17374219 -0.49764046 -0.07794519 0.014415593 0.21703152 0.33524638
-0.15745711 0.016572949 -0.33269688 0.382304 0.06607612 -1.1034269 -0.23771122 0.027354568
0.40135124 0.41972992 0.42774877 -0.45479256 0.28083217 0.38924095 0.058635786 0.097905934
-0.15270501 -0.54095566 0.43525052 -0.09319935 -0.42925307 -0.2805421 0.2980166 -0.4066841
0.3900537 0.21520248 -0.14595428 0.111113556 0.14821097 0.51636094 0.21765493 0.2578293
0.8076528 -0.45953026 0.045740314 -0.0963383 0.28850558 0.055401523 0.06375907 -0.29738438
-0.38788286 0.102272496 -0.24617901 0.1830038 0.054697845 0.27957746 0.80729216 0.7037546
-0.41040355 -1.1682054 -0.29478452 -0.031087613 0.8164288 0.7641334 0.3208431 0.22387397
0.000566808 -0.35060507 0.27795237 0.42073962 0.24229081 0.04722874 -0.060515024 -0.40186927
-0.2514831 -0.037355486 0.00076820154 -0.28866264 0.0018342714 -0.33489603 -0.020624673 0.1512146
0.38479924 0.06825333 0.3083101 -0.116211176 -0.051438443 -0.27857602 0.14781462 0.2971244
-0.14171402 -0.05225548 -0.27155396 -0.47328755 -0.42648923 -0.10781447 -0.023425266 0.44239616
0.0243395 -0.12773795 0.17586055 -0.016774615 0.19563156 0.14401788 0.011078713 0.13895525
0.07829379 0.17236668 -0.07420611 0.17034018 0.47408813 -0.08624058 -0.04784475 0.025515638
-0.0017078627 -0.477689 -0.31196007 0.15484996 -0.27745578 0.64257133 -0.11921547 -0.23405161

encoder1_RNN.bias_ih_l0 f4 [150]
00000000: 9fc5 d7bd aa2e a6be f0d7 1bbe b0d3 efbd
00000010: 02dc 31be c521 77be b985 bbbe 9bb6 04bf
00000020: a8c7 5dbe db7e 40bd 8711 7bbd efd2 7bba
00000030: cfc9 b4bd f991 993d 581c 573c e477 1cbe
00000040: 3c34 e1bd c179 bfbe b5e6 70be 5797 e13b
00000050: eebc 923d 9f03 2dbe 11a5 66be efde babe
00000060: c99e b9bd 7c30 72be 4d50 95bd 4a19 01be
00000070: 1cee 683e 573d a4bd 4773 9ebd 9163 8d3d
00000080: edc7 7dbe a97f c9bd 99cb f8bd dd91 adbe
00000090: f2be 27be 66d6 8bbb 25e0 e6be 32ad ea3d
000000a0: a9a1 e8bd 772f 72be da23 80bd dbb9 ca3d
000000b0: f3c8 7fbe 6166 1abe 5a53 5f3e 64d2 e6bd
000000c0: f986 51bd 03dd b7be 82cd 4dbd 9a45 0b3f
000000d0: 6af5 113f b4ca 0a3f 2194 e43e a9ba 203f
000000e0: 49a6 123f 736e b33e 28ef 053f 01c6 e23e
000000f0: 9bf3 223f e61a d93e 96c3 e6bc fa91 373f
00000100: 26ff 0d3f 3977 b5bf e917 f03e fd8f 213f
00000110: 031c cb3e 2efb 9d3e adbf fa3e 7cc5 4c3f
00000120: bed6 163f e34b 383f 256f 1f3f 748e f03e
00000130: b499 173f 6c8b c63e 0be0 ce3e f54d 0e3f
00000140: 37eb e8bd 74c0 053f 73d8 913e d73c 593d
00000150: 1dbf 063f 8395 f2be 450f c43d 0ba8 313f
00000160: f605 313e 5186 533f aaa1 003f b5fa 93be
00000170: 6b25 1c3f 87d2 f53e 8a89 eb3e af04 353f
00000180: 6c0b e03e e0c0 aa3e ac2b a53e 4609 703e
00000190: 54e1 92bd 2151 02bd 1b1a 43be 5e99 9e3d
000001a0: ab4d d2bb f06f dabc 5e42 59be 85c7 603d
000001b0: 06b8 0ebe 1e62 38be 72a0 f7bc 3baa 66bd
000001c0: e86e a93e 65ea 7d3e 400a ddbd acce 7e3d
000001d0: 2dbd 653e 9682 383e 7a9a 663e f24b ce3e
000001e0: c80b abbe 9838 64be 3580 85be 4f6a 09be
000001f0: 7c15 3fbd 8521 4ebd 63ad 363e 409e b9bd
00000200: eb07 d73d 7b6c aebe 29d4 f2bd 9168 b53d
00000210: 02f6 bbbc ca91 75be a95b 653e 4b8c 02be
00000220: 1def 8d3e ea8d c9bc ba69 b1be ffc2 003e
00000230: 7379 123e 7a18 34bd 0dfe 72bd ad6a 643e
00000240: 8a14 493c 1470 a8bd b81b 843e 7e13 82bd
00000250: d76e 943e cd17 84be
-0.1053574 -0.32457477 -0.15219092 -0.11710298 -0.17369083 -0.24133976 -0.3662546 -0.51841134
-0.21658194 -0.04699598 -0.061296012 -0.00096063217 -0.088275544 0.07498545 0.013129316 -0.1528011
-0.10996291 -0.37397578 -0.23525508 0.006884496 0.07164942 -0.16895913 -0.22523905 -0.3649821
-0.09063489 -0.23651308 -0.07290707 -0.12607303 0.22747082 -0.08019512 -0.07736831 0.069037564
-0.24783297 -0.09838802 -0.12148208 -0.33900347 -0.16381434 -0.0042675016 -0.45092884 0.11458816
-0.11358959 -0.23650919 -0.06256838 0.0989873 -0.24979 -0.15078117 0.2180914 -0.112705976
-0.05115411 -0.35910806 -0.050244816 0.5440308 0.570151 0.5421555 0.44644263 0.6278482
0.5728498 0.35045204 0.5231805 0.4429169 0.6365296 0.42403334 -0.028169435 0.7170712
0.5546745 -1.4177009 0.46893242 0.63110334 0.3966981 0.30855697 0.48974362 0.7998884
0.5892142 0.71990794 0.6227897 0.46983683 0.5921891 0.38778245 0.40405306 0.55587703
-0.11372989 0.52246785 0.2848545 0.053036537 0.52635366 -0.47379693 0.09573225 0.6939704
0.1728743 0.82626826 0.5024668 -0.28902212 0.60994595 0.48012182 0.4600337 0.7071027
0.43758714 0.33350277 0.32259881 0.23441038 -0.07171884 -0.03181565 -0.19052927 0.07744096
-0.00641795 -0.026664704 -0.21216723 0.054877777 -0.13937387 -0.18006179 -0.030227873 -0.05631469
0.33092427 0.24796446 -0.10792971 0.062208816 0.22435446 0.18018565 0.22519866 0.40292317
-0.33407426 -0.22287214 -0.26074377 -0.1341946 -0.04665135 -0.050324935 0.1783958 -0.09063387
0.10499557 -0.3406714 -0.118568726 0.08857835 -0.022944454 -0.23981395 0.22398247 -0.1274883
0.2772149 -0.024603803 -0.34650975 0.12574385 0.14304142 -0.043968655 -0.059324313 0.22306319
0.012272963 -0.08224502 0.25802398 -0.06351374 0.28990814 -0.2579941

encoder1_RNN.bias_hh_l0 f4 [150]
00000000: 8883 c4bd ba58 2abe bd73 e6bd e01c 82be
00000010: ed05 93be 14df 9abe 77d3 e2be f5eb cfbe
00000020: 42b2 73be 7aec bdbd 6987 50bd 3e0d 8ebc
00000030: 303a 00be 5682 bebd f1a9 fe3d 037c 57bd
00000040: 091f b63d fd63 b1be 07de 8fbe d9d7 813c
00000050: c2f9 5dbb e724 44be 2c36 6abe 3941 afbe
00000060: 482c abbc 2d53 7fbe c9b5 493d 8372 673d
00000070: 7077 563c 8540 c3bd fc8d 73be 1b8d ecbd
00000080: c1d9 bebe ea3e babd f5b8 d7bd a654 b8be
00000090: 7aea b7be 2cdb 903d f1e6 91be 42ac 003e
000000a0: 61e6 c53d e6e3 c3be 2de3 55bd 6433 07be
000000b0: 4201 a0be 58fe 49be 935c b43e 00dd febd
000000c0: abea c0bd 1ab1 babe 9a7b a6bd 7fd7 193f
000000d0: 13a4 0b3f 97da 093f 7dd5 123f 6bec 2e3f
000000e0: 570f 0d3f 4b07 923e 6ceb 043f 739e 1a3f
000000f0: 39fd 093f aeb0 113f 4e2f 603c 8358 433f
00000100: e1ac fd3e f4d9 b8bf 8cf4 ca3e 4439 233f
00000110: 6188 bd3e 92cc a93e 069d ce3e f584 1e3f
00000120: 696c 1d3f 73bc 0e3f 30d2 1e3f 027f de3e
00000130: 6e68 303f 800b 213f 04ff d63e 3384 e83e
00000140: 27b9 b2bd ec21 073f 3bf6 c23d 8968 cd3d
00000150: 24ef ef3e af26 e7be 79cd f53d 8303 173f
00000160: a59c 4c3e b620 6d3f 63ff 003f c77a ddbe
00000170: 3042 1c3f e015 bb3e ce9c aa3e 8542 2a3f
00000180: 3daa cd3e d324 413e f7e2 b93e 1e56 703e
00000190: 77b8 80be 68a4 b93c 60e4 bbbe 7730 683d
000001a0: 2fd2 70bd 7c46 663e 504c 4cbe a849 4f3d
000001b0: 1794 863e 6cd0 b7be c528 d0bb 8094 0cbe
000001c0: d75a dd3e 994f cfbd 256d 81bd 9ce3 1bbd
000001d0: 013b d63d e0bf ddbc 2915 853e 3566 ca3e
000001e0: 2405 9ebe c14b 29be ed2f 65be 15bc cd3d
000001f0: eca6 523d 08de a43d 313b 593e 9de3 a03d
00000200: adfc 043e 34a1 d2bd 2e11 0f3c 5c94 e2bd
00000210: d35e 36bc fac1 ddbe 00bd d33d bfd9 233d
00000220: 68c3 4dbc 9005 853e be14 c5be baf6 afbc
00000230: 7ed5 823d b512 5a3e fe73 2abe 0e70 a2bc
00000240: 405c 3c3e 7057 64be eb05 593e 0e32 1b3d
00000250: f867 963e 97d5 653d
-0.095954 -0.16635409 -0.11252544 -0.25412655 -0.2871546 -0.3024832 -0.4430196 -0.40609708
-0.23798469 -0.0927362 -0.050910387 -0.017340299 -0.12522197 -0.09302203 0.124347575 -0.0526085
0.08892638 -0.34646598 -0.2809908 0.015849994 -0.003387079 -0.19154702 -0.22872227 -0.34229448
-0.020895138 -0.24934073 0.04924563 0.05650569 0.01309 -0.095337905 -0.23784631 -0.11550351
-0.37275508 -0.09094031 -0.10533325 -0.36002082 -0.3592108 0.07073054 -0.28496507 0.12565711
0.09663082 -0.3825981 -0.052218605 -0.13203198 -0.3125096 -0.1972593 0.3522688 -0.12444496
-0.09419759 -0.36463243 -0.08129044 0.60094446 0.5454723 0.53849167 0.5735701 0.68329495
0.5510153 0.2852119 0.51921725 0.60398024 0.5390201 0.56910217 0.013683153 0.76306933
0.4954596 -1.4441514 0.396397 0.63759255 0.3701811 0.33163887 0.40354174 0.61921626
0.61493546 0.557563 0.6203947 0.43456274 0.6890935 0.6290817 0.41991436 0.4541336
-0.08726721 0.52786136 0.09519621 0.10029704 0.46862137 -0.451467 0.120020814 0.58989733
0.1998163 0.9262804 0.5038969 -0.43257734 0.61038494 0.36540127 0.33322757 0.6650775
0.40168944 0.18861704 0.36305973 0.23470351 -0.25140736 0.022661403 -0.36697674 0.056686845
-0.058794197 0.22487825 -0.19950986 0.050607353 0.2628486 -0.359012 -0.0063525164 -0.13728523
0.43233368 -0.10122604 -0.06319646 -0.038058862 0.10460473 -0.027069032 0.25992706 0.39531103
-0.30863297 -0.16532804 -0.22381563 0.100456394 0.05142872 0.080501616 0.21213986 0.07855914
0.12987013 -0.10284653 0.008732123 -0.110634536 -0.011131006 -0.43312055 0.10338783 0.04000258
-0.0125587955 0.25980806 -0.38492388 -0.021479953 0.06388377 0.21296199 -0.1664581 -0.019828822
0.18394566 -0.2229898 0.21193664 0.037889533 0.29376197 0.0561119

encoder1_RNN.weight_ih_l1 f4 [150, 50]
00000000: cf02 783e 3b0d 243e 024f 363e 85e9 cebd
00000010: 52d2 16be fe84 233e e9bc cbbe ba11 b1bd
00000020: dfc1 babc f732 bc3d 0c79 1dbe fdcb 16bf
00000030: 9d6d bdbd 339f 653e 77d1 6d3b a411 e4be
00000040: 04ab a1bd 11ac 983f 4d98 9abe ed90 ecbc
00000050: d5af ce3d 4754 123f 3aa0 9f3b bdc4 35be
00000060: f9ff 173f f4dc d3be fd84 283f 4583 2f3e
00000070: a937 6cbd 6100 20be 0aaf 3bbe 2691 fd3e
00000080: b93d 103f 284c a4be 7b85 e93d 2b7c a7be
00000090: 7882 833e 73d8 1bbe 540c 2fbe 82e8 7e3e
000000a0: 8ff2 96be 2bd8 b53d 16a4 143e 1112 103f
000000b0: 8dec 103f f8dd c43e 8fb7 d5bc 3f73 ccbe
000000c0: 7b16 40be 83bb 62be d16c 6abf f7b0 823e
000000d0: 6511 68be e0f6 47bf b210 863e ce2b 833d
000000e0: 30b5 c73d 1ec7 28be 777c 61be 1370 bdbe
000000f0: 0a46 1d3e c9da 9dbd 9f9e 2fbe 3776 7cbe
00000100: c41b 163f d9a1 053f 6e6f 7d3d 7342 0e3e
00000110: 8252 063e ae11 febd 2f62 48be a54e 9fbe
00000120: 6d45 b2bd 0a2e 84be 84e9 f83e 015a c23e
00000130: cd40 a23e 68b6 54bd 003b 533e a951 18bd
00000140: 4c71 01bf 0197 a3be 51a8 f1bb ef6a 403d
00000150: 64dc 2dbe 87f5 c03e 424b f63d 8c09 15be
00000160: bf1f 2bbf 18f2 10bf 840f 1b3e b865 3cbf
00000170: 09ff a8be fb6f 42bc d983 6cbe d7a0 0e3f
00000180: 161b debe 439c b43e 0906 8b3e 6e6f 813e
00000190: d9d7 b7be 8e91 b4bd 2edd 783d 7e2f a13e
000001a0: 37d7 aa3d cc12 9d3d 7dfe 9d3e 4cdc 4abe
000001b0: 23e8 213e 552d 03be b1bb 0e3d fa2c 21bd
000001c0: 672a 7fbd 4d28 9a3e f954 d0be de94 64be
000001d0: 2ee2 2d3e 206e ed3e 5b85 003e 07f8 af3e
000001e0: 8d6f 8ebe 3221 d13e 4e10 dabd 8271 733f
000001f0: 0129 333d 290a 6abe f98a 18bc 87d7 17be
00000200: 0b9d 673e 7da0 3f3e ad8e f23e 9aa4 e73c
00000210: db8a d8be fa72 92be f61d 20be d08d b6bd
00000220: aa46 013e b8a3 14bd 976f 7b3e 81ce c53d
00000230: fcdc 4b3d a2c2 983e 1efc 63bd 6d6b dfbd
00000240: 4436 483e 13fb cdbd b33b 773e 4248 6c3d
00000250: b9b1 42be 0d10 4e3e 3a68 7dbf 893b c73e
00000260: 13d1 0ebf f8bc 9e3e 32bb 73be 28c0 673e
00000270: 45f6 4dbf 7771 7d3e ed80 b3be a766 6c3d
00000280: 9177 203e 2e3f 59bf 9385 053d 711c 0ebf
00000290: aa56 473e 8202 c9bd 9032 e4bd be49 533d
000002a0: fdfa a03f 3433 3c3f 68c9 92be bd2f 6b3e
000002b0: b1e1 453e 294c a83f 6065 023d 1ec3 27bf
000002c0: 673a 443f 8f44 d63e 521d f83e b6c2 8c3e
000002d0: a77d 2abe 6e78 d43c cf75 153f 179c d3be
000002e0: a11a d83d b2f3 58be 10ce 1cbd c3d3 3e3d
000002f0: e4d1 c53e 82d0 1f3f 8691 d8be a5ac 153f
00000300: d861 4d3e e5a7 e53d 13f2 983e efa0 c1be
00000310: 3258 8d3f c346 323f fb46 e63e e0c5 22be
00000320: ac74 743e 9841 5c3c 0975 50be 4dab bb3e
00000330: 622c e43d d7fd 45be d719 613e b680 34be
00000340: cf37 8e3e 2402 3bbe 17f6 973e f619 50be
00000350: 8978 8fbc 9dda 2a3e 2aa3 89be 32aa 79be
00000360: 0016 a6be 1fcc 3e3f 8bda 1d3d 5145 51be
00000370: 61c9 99be 9826 f33d c0d8 ca3e de9f 563f
00000380: a683 efbd 66c1 5f3e fdcf df3e bab5 2abe
00000390: dbde 893e 8ff2 6d3e 3875 fa3e 68c9 2f3d
000003a0: a013 8d3d 8803 e83d f560 123e d522 9ebe
000003b0: bf1f d5bd 123e 45be b522 c73e 6c06 e1bd
000003c0: 9a4f 643d 1ed2 383e 3f9a d73d 3d6d c0bd
000003d0: 886c 8d3e 42b2 b63e d2e6 2a3e 9768 56be
000003e0: e17f babc 8c72 663e 4abd a4bf bad9 6dbc
000003f0: b961 973d d446 76be 9d91 623e 084b 14bf
0.24219821 0.16020672 0.17803577 -0.10103134 -0.14728668 0.15968701 -0.39792565 -0.08645959
-0.022797523 0.09189408 -0.15378207 -0.5890501 -0.09249423 0.22424011 0.003628818 -0.4454471
-0.07893947 1.192751 -0.3019432 -0.0288777 0.10092131 0.5715985 0.0048713954 -0.17750831
0.5937496 -0.4137951 0.65827924 0.17139919 -0.05767027 -0.15625145 -0.18328491 0.49524802
0.5634418 -0.32089353 0.114024125 -0.3271192 0.25685477 -0.15219288 -0.17094547 0.24893382
-0.29481933 0.088791214 0.14515719 0.5627757 0.5661095 0.384506 -0.026088504 -0.39931676
-0.18758576 -0.22141843 -0.9157229 0.25525638 -0.22662885 -0.78111076 0.26184613 0.064048395
0.09751356 -0.16482207 -0.22020136 -0.36999568 0.15358749 -0.077077456 -0.17150353 -0.2465447
0.58636117 0.52200085 0.061873846 0.13892536 0.13117412 -0.12405716 -0.19568704 -0.3111469
-0.08704648 -0.25816375 0.48615658 0.37959293 0.31690064 -0.05193177 0.20627975 -0.037187252
-0.505635 -0.31951144 -0.007374801 0.04697698 -0.16978604 0.37687322 0.12026073 -0.14554423
-0.66845316 -0.56619406 0.15142637 -0.7359271 -0.33007076 -0.011867519 -0.23097171 0.5571417
-0.4338004 0.35275468 0.27153042 0.25280327 -0.35906866 -0.08816825 0.06075781 0.31481546
0.0834183 0.07669601 0.30858222 -0.19810599 0.1581121 -0.12810262 0.034846965 -0.039349534
-0.062296297 0.30108872 -0.4068983 -0.22322413 0.16980812 0.4637308 0.12550871 0.34368917
-0.27819481 0.4084564 -0.10647641 0.95095074 0.043740276 -0.22855438 -0.009310477 -0.14828311
0.22618501 0.18713565 0.47374478 0.02827673 -0.42293438 -0.28603345 -0.15636429 -0.08913767
0.12624612 -0.036288947 0.24554287 0.09658528 0.049771294 0.29835993 -0.05566036 -0.10909162
0.1955195 -0.10057654 0.24143867 0.057686098 -0.19013108 0.2012331 -0.9898716 0.3891261
-0.5578777 0.31003547 -0.23801878 0.22631896 -0.804539 0.24750315 -0.350593 0.057715084
0.15670611 -0.8486203 0.03259809 -0.5551215 0.19466653 -0.098149315 -0.111424565 0.051583998
1.2576596 0.7351563 -0.28669286 0.2296743 0.19324376 1.3148242 0.03183496 -0.655321
0.76651615 0.4184918 0.4845987 0.27492303 -0.16649495 0.025936332 0.58382887 -0.41330025
0.10551954 -0.21186712 -0.038282454 0.04658867 0.38636696 0.6242753 -0.42298526 0.5846656
0.20056856 0.11213664 0.29872188 -0.37818095 1.104254 0.69639224 0.4497603 -0.15895796
0.23872632 0.013443373 -0.20357145 0.3665413 0.11141278 -0.19335113 0.21982513 -0.17627224
0.27776954 -0.18262535 0.2967994 -0.20322403 -0.01751353 0.16684957 -0.26882297 -0.2438133
-0.3243866 0.74530214 0.038538497 -0.20436598 -0.30036452 0.118725955 0.39618492 0.8383769
-0.11695032 0.2185112 0.4371337 -0.16670886 0.26927838 0.2323706 0.48917556 0.042916685
0.06888509 0.113287985 0.14294799 -0.3088595 -0.10406446 -0.19261959 0.38893667 -0.10987553
0.055739976 0.18048903 0.10527467 -0.093958355 0.27621865 0.35682875 0.16689613 -0.20938335
-0.022766056 0.22504634 -1.2870266 -0.014517242 0.07391686 -0.24050456 0.2212586 -0.5792699

encoder1_RNN.weight_hh_l1 f4 [150, 50]
00000000: 1299 49be 950a 393d fa31 993e 1499 803d
00000010: f9a1 89bf a4e6 e4be 24fe b2be 822b b9be
00000020: efb5 21bd b8af 223f fbe2 163e 4e5c 78be
00000030: 78d8 2fbe 9fe6 223f d175 f6be d5dd 113f
00000040: f036 b13e 7128 edbd bdda 593d 3575 b6be
00000050: c490 ea3d 99e0 30be bf9c 543e 1a0a 473e
00000060: 676d 74bf 2267 35be 2eab d4be 2fd3 d53c
00000070: beb3 b23e 792a 063e b234 df3b 6634 603f
00000080: f766 12be 7fa6 593f 1435 24be 53ea 4cbf
00000090: f3ad bb3f d528 1d3e 8d3d d7be 1652 aebe
000000a0: d42f bcbe 08ce 3abd aea7 d7bd 4853 993e
000000b0: e581 043d 3c17 aa3f e215 38be 91c4 cebe
000000c0: 5638 a5be 3fa7 d9bb db63 8a3e 97e4 f63d
000000d0: d130 1abe 31ae 6fbe 810a 413f ed2c abbe
000000e0: f5c7 deba cddc 533e 4481 89be ca15 65bf
000000f0: 8d68 1c3e 7803 6dbf 6f87 46bf a660 15be
00000100: f070 7ebe 9ae5 dd3e 356f 283e 2da8 37be
00000110: 84e2 1bbd b71e 25bf 924a 22be 36c0 87bd
00000120: 3cad a33e 2e64 d3bd e964 343d 0c90 e03d
00000130: de0e 12bf 6848 8abe 9127 4a3e ae33 843c
00000140: f95d 5a3e 8efd 63be b606 64bd a33d a0be
00000150: 549b 0bbf c431 5ebc b863 663e a9af 1d3e
00000160: ed1c 07bf a5e1 4e3c df37 8a3e 13bb cbbe
00000170: 58a2 8ebd 756a a43e 6c91 b3bc 209d c9bd
00000180: 4046 c03d e406 9abd 4cc3 33be 37f4 f7bd
00000190: 00f2 993d 487a 113f 2023 96bc f2b6 34be
000001a0: f0a6 03be ddcb 6e3d 5626 8bbe d163 213c
000001b0: 88b3 443e 1efb 41be 56e7 2bbe 31e6 adbd
000001c0: da82 07be 6803 7e3d 56c4 833e 8776 743e
000001d0: 9c54 a0be 2f86 a6be ba40 c5be 29c1 babe
000001e0: 95ad a6bd 58e3 b13e c531 c53d c881 4cbe
000001f0: 79c9 883e 2e5a e3bd 6085 96be 13b8 673e
00000200: a02c 89be c7e7 773c 6eab 1bbd 5b14 ec3e
00000210: c9be 023e 76e9 49bf dd25 653e 3b04 c1be
00000220: 163f b83e 4235 833e 9487 debe 5583 d6bd
00000230: ec07 b63c 9d20 153f 1b75 c3bd 9ffc 1fbf
00000240: a92c 2bbe 64f7 ac3e 1465 103f 4d05 78be
00000250: 1739 533e b133 70be 08a8 b6bd 726a 92be
00000260: 0007 213f 2dde ef3d a1e1 fbbe 7baf bd3f
00000270: 882e 20be a9e0 27be e98b ef3e fc6e 2a3b
00000280: cd8a 56bb 3b38 0bbf e19a 953e 7e6e 2f3c
00000290: 66da adbd f64a 15bf 9f89 d63e 4405 583e
000002a0: 57b2 8c3c cc9a bebe a502 28be 914d 2abd
000002b0: d01b fe3e de6c cd3e f2f3 913e c103 bf3e
000002c0: b340 093f 23c8 73be 6505 5ebf 2c2e d1be
000002d0: bc1d c6bf c264 803c e441 a2bf 237b 2b3f
000002e0: e450 b43f 9d04 cf3d d1f3 353f dc40 323f
000002f0: e2ea 443d f1ea 333f cc04 d13e 778f ebbd
00000300: c9d0 da3d 265e 133e c656 b2bf 03a3 88be
00000310: 3748 77bf ed6a e43d e2a4 cdbe d957 673f
00000320: e172 913e 7ad1 f33e 483c 8d3e 5f04 923d
00000330: 8579 d63b 2aee 263f 715e be3d 09fe 7c3e
00000340: e987 93bd 1714 013e b38e be3d a799 3ebe
00000350: 587f 90be cac7 fabc 8fb2 523e c151 0abf
00000360: 95a8 333e 0921 33be 768c 61be 1dcd abbe
00000370: 69a7 473e 3a18 2abe cdaa e53e 93f1 b13e
00000380: 948b 8fbf 5611 a0bc 94c5 cd3c 0b57 8ebd
00000390: f022 4ebe 1a87 31bc 664b efbd 6dbe 86bc
000003a0: e436 73be 36cb 893c 8d4a 683e 54ee d03d
000003b0: ba85 a13f fb15 e9bd 29dd 103e df62 49bd
000003c0: 7ef4 16be cb13 42be dc67 c33d 3615 fbbd
000003d0: ef9f 43be 3d60 343f b250 9d3d 3aa2 d9be
000003e0: ffbf a63e 71d3 f93e 8533 bc3e 6643 85be
000003f0: 3232 41be f9b9 4abf 7a17 9f3c a348 16bf
-0.19687298 0.045176107 0.29920942 0.06279197 -1.0752555 -0.44707215 -0.3495952 -0.36166006
-0.039480146 0.63549376 0.14735024 -0.24253961 -0.1717242 0.6363315 -0.48136762 0.56979114
0.34612226 -0.11579979 0.05318712 -0.35636297 0.11453393 -0.17273177 0.20762919 0.19437447
-0.95479435 -0.17715123 -0.4153685 0.026101677 0.34902757 0.1310214 0.0068117017 0.87579954
-0.1429709 0.8501968 -0.16035873 -0.8004505 1.466246 0.15347607 -0.42039147 -0.34047002
-0.3675524 -0.045606643 -0.10530029 0.2994635 0.03235044 1.328834 -0.17977098 -0.40384343
-0.32269543 -0.0066422517 0.2702931 0.12055319 -0.15057684 -0.23406292 0.7540665 -0.33432713
-0.0016996848 0.20689698 -0.26856434 -0.8948637 0.15274258 -0.9258342 -0.77550405 -0.1458765
-0.2484777 0.43339235 0.16448672 -0.17935248 -0.03805782 -0.6449999 -0.15848759 -0.06628458
0.31968105 -0.10321842 0.044041548 0.10964975 -0.57053936 -0.27008367 0.19741656 0.016137924
0.2132491 -0.22264692 -0.055670463 -0.31297025 -0.54533887 -0.01356167 0.22498977 0.1539904
-0.5277851 0.01262704 0.2699575 -0.39791164 -0.06964558 0.3211247 -0.021919928 -0.09844422
0.09388399 -0.075208455 -0.17554969 -0.12107127 0.07516861 0.5682721 -0.018327296 -0.17647913
-0.1285665 0.058299888 -0.27177685 0.009850458 0.1920911 -0.1894345 -0.16787466 -0.08491171
-0.1323351 0.062014967 0.2573573 0.2387334 -0.31314552 -0.3252425 -0.38525945 -0.36475495
-0.08138577 0.34743762 0.096286334 -0.19971383 0.2671621 -0.11101185 -0.29398632 0.22628812
-0.2679186 0.015130944 -0.038005285 0.4610928 0.12768091 -0.7887186 0.22377725 -0.3769854
0.3598563 0.2562657 -0.43462813 -0.10474268 0.022220574 0.5825289 -0.095438205 -0.62494844
-0.16716255 0.33782494 0.5640423 -0.24220772 0.20627247 -0.23457219 -0.08918768 -0.28596836
0.62901306 0.117122985 -0.4919558 1.4819177 -0.1564275 -0.16394295 0.4678643 0.0026006093
-0.003273654 -0.54382676 0.29219726 0.010707496 -0.08488922 -0.58317506 0.41901872 0.21095759
0.017174883 -0.37227476 -0.16407259 -0.04157788 0.49630594 0.40122122 0.28506428 0.37307552
0.5361435 -0.23806815 -0.8672698 -0.4085554 -1.5477824 0.015673045 -1.2676358 0.66984767
1.4087186 0.10108302 0.7107516 0.6963022 0.048075564 0.7028037 0.40823972 -0.11501973
0.10684354 0.14391384 -1.3932731 -0.26686868 -0.96594566 0.11153207 -0.40164858 0.9036842
0.28407958 0.47620755 0.27585053 0.0712974 0.006545248 0.6520716 0.09295357 0.24706282
-0.07203657 0.1260532 0.093045615 -0.18613301 -0.28222156 -0.030612845 0.20575927 -0.54030997
0.17544778 -0.1749307 -0.22026238 -0.33554927 0.19497456 -0.16610804 0.44856873 0.3475462
-1.1214471 -0.019539516 0.025118627 -0.06950196 -0.20130515 -0.010835433 -0.11684303 -0.016448224
-0.23751408 0.016820531 0.22684689 0.102017075 1.2618935 -0.113811456 0.14146866 -0.049166556
-0.14741704 -0.18952863 0.09541294 -0.12259905 -0.19103979 0.7045935 0.07681407 -0.42506582
0.32568356 0.4879413 0.36758056 -0.26027983 -0.18866804 -0.7919002 0.019420374 -0.58704585

encoder1_RNN.bias_ih_l1 f4 [150]
00000000: 36b9 713e e88d 093c 383d 323e 5aae dfbc
00000010: ff6e 51be dc48 763e 8810 bb3e 77cc 48be
00000020: cdfd 603e 2b4f 6ebe bff3 8f3d 3601 6a3e
00000030: c02f 7ebe db28 ca3e 19b2 153e fc8c 59be
00000040: e810 a7bd 000f c63e 480e 0dbe a7c2 773d
00000050: 23a0 8a3d 9574 0dbe eef6 83be 923d 15be
00000060: 56d5 883e 8eb0 eabd 97bd 833e abb1 7b3e
00000070: c9aa fbbd dba1 7e3e 14b7 e33e b78d 3abc
00000080: 6ccd 243e a214 03be cc4e 073f 897c 823e
00000090: fa77 abbe ed9e ce3e 2790 c3be 4544 71bd
000000a0: 018d 5c3e 4f4e 4e3d 7bc7 fc3e 009e 273e
000000b0: 0cc4 403f 759e 8cbe b199 843d dc49 abbd
000000c0: 96cd 5e3e 041e 103f 07f7 203f 7c56 d33e
000000d0: a062 463e f4e5 4ebe c310 153f 0801 56be
000000e0: dbeb 6dbe 0914 323f 6a45 0e3f b2ec 533f
000000f0: 1e47 2d3e 9dbe 633e f8ed 193f ff3b c93e
00000100: 5f22 003f 91ee 5c3f 4187 bb3d 741e bb3e
00000110: 12d2 80be 79e4 d23e 41d4 2f3e 225f 713f
00000120: 5a65 f63e 5253 f83c f713 b03e ec48 823e
00000130: 14a4 963e 8d4c 963e 99f3 363e 2c6a ec3e
00000140: a4f2 1fbf cbc6 643e 3cc1 a53e aa2c fa3d
00000150: aa1e 27bd 2c9e fbbd 354c 693f 28ab 303f
00000160: 0b0e 4e3f cc16 fa3e 7acc b9be 1159 e23e
00000170: 1448 07bf 02d9 c93e 1321 f8be e9ce 323f
00000180: 578a 5b3e 9bde 2d3f 3ed4 27bf 1928 a7bd
00000190: e0c5 d9be d415 8c3e 0932 5fbe 3669 9d3d
000001a0: 54cc 6f3e 2697 243f 5036 77bf 4199 873e
000001b0: 03a9 893e 395b ec3e 823c 97be 3ba3 28be
000001c0: 7b31 89be c296 453e ebdb 37be 9511 833e
000001d0: 0e99 ef3d f685 5ebc 07f5 b7be f05b babc
000001e0: 9248 6d3d 12cf 973e f91f 83be b45e e5be
000001f0: 8185 c53d a11d d8be a4cc ea3e a484 3d3e
00000200: 3c31 b13e 626e f73d cbfa 3fbf c2d3 423e
00000210: c539 933d 10d0 d3be d1c3 293f 3fbf 96be
00000220: 181c babb 0c2f 2abe e0bb 75be 2dff e8be
00000230: c690 263e 8319 7a3e 3ba6 28bf 9a7a 8bbd
00000240: b770 0abf 9251 7ebe 3939 8e3e 1a8d 7fbd
00000250: c39e 1fbf a457 b63e
0.23605809 0.0083956495 0.17406166 -0.027304817 -0.20452498 0.24051231 0.3653605 -0.19609247
0.21971817 -0.23272388 0.07028913 0.22852024 -0.24822903 0.39484295 0.1461872 -0.21245188
-0.081575215 0.3868332 -0.13774979 0.06048837 0.06768825 -0.13814004 -0.2577433 -0.14574268
0.26725262 -0.114594564 0.25730583 0.24579494 -0.12288434 0.2486643 0.44475615 -0.0113863265
0.16093987 -0.1280084 0.5285461 0.25485638 -0.33489972 0.40355626 -0.38195917 -0.058902998
0.21538164 0.05036765 0.49370942 0.16368866 0.75299144 -0.27464643 0.06474627 -0.08363697
0.21758112 0.562958 0.62876934 0.4127692 0.1937356 -0.20204908 0.582287 -0.20898831
-0.23234503 0.6956182 0.5557467 0.82783043 0.1692166 0.22240682 0.60128736 0.39303586
0.50052446 0.86301523 0.09156657 0.3654667 -0.2516027 0.41189936 0.17170812 0.94285786
0.481242 0.030313168 0.34390232 0.2544626 0.29422057 0.2935528 0.17866363 0.46174753
-0.62479615 0.22341458 0.3237399 0.1221555 -0.040800728 -0.12286028 0.9113191 0.69011164
0.8049018 0.48845518 -0.36288816 0.44208577 -0.5284436 0.39423376 -0.48462734 0.6984697
0.21439491 0.67917794 -0.6555823 -0.08161945 -0.4253378 0.27360404 -0.2179643 0.07686083
0.23417789 0.64293134 -0.9656725 0.2648411 0.26886758 0.46163347 -0.2953835 -0.16468517
-0.26795563 0.19295791 -0.17954986 0.25599352 0.11699115 -0.013581743 -0.3592913 -0.022748917
0.057930537 0.2965017 -0.2561033 -0.44798815 0.096446045 -0.42210105 0.45859253 0.1850763
0.34607875 0.12081601 -0.74992055 0.19026092 0.07188753 -0.41369677 0.6631442 -0.29442784
-0.0056796186 -0.1661951 -0.2399745 -0.45507184 0.16266164 0.24423794 -0.6587865 -0.06810494
-0.5407824 -0.24835804 0.27778032 -0.062390424 -0.62351626 0.3561374

encoder1_RNN.bias_hh_l1 f4 [150]
00000000: 8969 653e 6de1 60bc 830f 1dbd 6177 5a3e
00000010: c1a0 17be bbb5 f13e ca5b 133e cc48 2bbd
00000020: aab0 253e dcc2 78be a1a8 923d df2f 863d
00000030: 8d0c 8cbd 9d6f cd3e 4201 3dbd 46fc 3fbe
00000040: dda4 a73d 2b46 af3e edc9 32be 07e8 8cbd
00000050: 5b60 1d3d 9ff0 b4be 6d99 bbbe 664f b0bc
00000060: 0003 883d 3653 993d 8fd7 213e 0058 653e
00000070: fd6c 3fbe ce07 303d 7668 f63e 157b f4bd
00000080: 68c1 f03d 0f6c 4cbe a898 0e3f fa34 8c3e
00000090: 65ea 82be d775 c63e ab76 60be 1b8f a0bd
000000a0: 6daa ba3e baf7 f13d cd7e 2a3f c158 063e
000000b0: 13bf 283f daf4 7dbe 5ae0 603e 0f57 15be
000000c0: 234d fe3d f4b2 c63e 3378 333f 0630 013f
000000d0: ddee 133e 3459 f5bd 5078 c23e c820 8abe
000000e0: 8c45 d5be 1d4f 3c3f 15ca f13e 53f4 533f
000000f0: b5a5 903e dc84 733e e178 f93e a347 cc3e
00000100: 75dc c43e 7d41 683f e2ee d43d 6ce8 0d3f
00000110: ca8b c4be 2597 de3e 3ad9 ae3e 6d0e 643f
00000120: 92ff 013f 85b8 5ebe 0416 c33e 7906 393e
00000130: 8a5e e73e 2bac a03e 31a0 863e e125 153f
00000140: a114 40bf 99f0 923e 6af6 983e 1050 a33e
00000150: a543 88be 5095 ad3c c4cd 4c3f 6b61 023f
00000160: 7483 563f f977 d63e 79b4 b6be 9617 c63e
00000170: 1ba1 0ebf 39f1 023f ecc0 c9be 645b 4d3f
00000180: a3a1 2f3e 9096 e53e e720 54bf 9be4 96be
00000190: 54a7 d9bc a6e5 493e 3793 57bd 2a12 dabe
000001a0: fb1a 363e 3160 bf3e e35b 42bf b2fd 683e
000001b0: e285 063e e63c 14bd 5fd4 a1bd e1e5 ddbd
000001c0: 9c77 cb3c 3a0e 093f 726f 1d3d e40d 9e3d
000001d0: 4ea8 98bc 0e89 b2be c3b6 3f3d 5f65 84bd
000001e0: ac07 33bd 9297 323e 00a4 0cbe 7027 50be
000001f0: 66fb 573e 7e17 53be e119 bb3e 4795 cf3e
00000200: f5c8 8c3e ec68 8a3e 4cc1 42bf 1f78 c13d
00000210: 958d cf3e 82e9 5bbe 2ee9 0a3f c6d7 cbbd
00000220: f4da cd3d 6f08 84be b76a ad3e b0cb 0e3c
00000230: d53e b73e 9d37 f13d a965 66bf 52ec a6bd
00000240: a004 50bf ada1 b43b 91a5 883e 81c1 f93d
00000250: 5065 f0be b2fe ff3e
0.2240354 -0.013725621 -0.03834487 0.21334602 -0.14807416 0.47208962 0.14390483 -0.04181747
0.16180673 -0.24293083 0.0716107 0.065520994 -0.06838331 0.40124217 -0.046143778 -0.18748578
0.08185742 0.3423322 -0.17459841 -0.06880193 0.03842197 -0.3533983 -0.36640492 -0.021522235
0.06641197 0.07486574 0.15804885 0.2239685 -0.1869392 0.042976193 0.48126572 -0.119375385
0.11755639 -0.19963096 0.55701685 0.27384168 -0.25569454 0.3876178 -0.21920268 -0.07839795
0.3645815 0.11814828 0.6659973 0.13119794 0.65916556 -0.24800435 0.21960583 -0.14583991
0.124170564 0.38808405 0.70105284 0.504639 0.14446588 -0.11979905 0.37982416 -0.26978135
-0.41654623 0.7355822 0.4722449 0.82794684 0.28251424 0.2378115 0.48725036 0.39898404
0.38449445 0.9072493 0.10397126 0.5543277 -0.383879 0.4347469 0.34150106 0.8908451
0.50780594 -0.21750076 0.38102734 0.18068875 0.45189315 0.31381354 0.2629409 0.58260924
-0.7503148 0.28699186 0.298755 0.3189702 -0.2661411 0.021189362 0.80001473 0.509299
0.8379433 0.41888407 -0.35684565 0.3868987 -0.5571458 0.51149327 -0.39405 0.80217576
0.17151503 0.44841433 -0.82862705 -0.29471287 -0.026569046 0.1971651 -0.05263063 -0.42591983
0.1778373 0.37378076 -0.7592146 0.22753027 0.1313701 -0.03619089 -0.07901835 -0.108348615
0.024837308 0.53537333 0.03843636 0.07717493 -0.018634941 -0.3487019 0.046805155 -0.064646475
-0.04370849 0.17440632 -0.13734436 -0.20327544 0.21091995 -0.2061443 0.36543182 0.40543577
0.27497068 0.27033174 -0.760762 0.094467394 0.40537706 -0.21475795 0.54262054 -0.09953265
0.100515276 -0.25787684 0.3387048 0.008715555 0.35790125 0.117781855 -0.8999887 -0.08150543
-0.8125706 0.0055124373 0.26688817 0.12195111 -0.46952295 0.49999005

encoder1_linear.weight f4 [1, 50]
00000000: 6296 f33c bd3b 13be ed59 63bc 490e 633d
00000010: e2e1 6bbb c697 a43d 2798 3b3e 4f56 97bc
00000020: a4e2 afbc 7f79 193e 5c19 13bd 0a4a d53d
00000030: 89c7 283e 3cc6 e0bd 22fd 993d 4bf7 a5bd
00000040: abf4 0d3d 3b2c b23d 14fc d8bd 13cd 76bd
00000050: 34c4 16be 8c6f 42bc bb74 97bd 355e 95bd
00000060: bf83 76bc e564 8fbd 2f22 b13d 5196 8bbd
00000070: 2c38 d0bd 8c0b fbbd ed49 0cbd 4045 2f3e
00000080: 205b 2abd b316 4dbd d9b3 46bd 93e5 f1bd
00000090: 3dc8 32bd 3c4b 92bd db29 173e 4233 0a3e
000000a0: 32d7 53be fb18 7d3d 5bb3 8ebe 1cf4 b93d
000000b0: 67db 963d 5366 583d 0d43 cf3d 1419 7e3d
000000c0: eed5 ea3d 299d 683d
0.029734794 -0.14378257 -0.01387642 0.055433545 -0.003599279 0.08036761 0.1831976 -0.018473772
-0.021470375 0.14987753 -0.035912856 0.104145125 0.16482367 -0.1097531 0.075189844 -0.08103808
0.03465716 0.086998425 -0.10594955 -0.060254168 -0.14723283 -0.011867415 -0.073953114 -0.07293359
-0.015046059 -0.07001666 0.08649098 -0.0681578 -0.10166964 -0.12258062 -0.03425019 0.1711626
-0.04159081 -0.050070476 -0.04851136 -0.11811366 -0.043647993 -0.07143256 0.1476206 0.13496116
-0.20687559 0.0617914 -0.27871212 0.09079763 0.073660664 0.05283196 0.10120211 0.062035635
0.11466585 0.056790505

encoder2_RNN.weight_ih_l0 f4 [150, 55]
00000000: abb5 5d3d 58e2 8a3e 5b77 65bf 159e 9a3e
00000010: 79ea 62be 080d 343e 2ece 11be b4a0 ed3c
00000020: 63b4 a93d 9379 04bf 40b7 c3bd cf67 f73d
00000030: 6166 12be ff42 efbd c257 9bbc ad12 563e
00000040: 0894 a33c a90e 9f3e f29d 863c f967 b33e
00000050: a3d9 353e 9afd abbe 1ae0 373e 6424 1cbe
00000060: 7a62 b83d 3226 ff3e ac0f 0abe b735 8e3e
00000070: 5427 a93d 3851 04bf a076 91bd 47d5 ce3e
00000080: 4f89 60be a3e1 573e 54c3 fb3d d8fa b6be
00000090: 8cfa a63e d6b9 3c3e 49b7 cf3f 6816 5f3e
000000a0: c1e2 db3e 2447 833e 2450 d1be 596f 70bf
000000b0: 4128 f7be f232 913e ce94 70bd 1acd 853e
000000c0: 7e00 8c3e 9604 c2be d3f1 873e 22d9 afbc
000000d0: 3eea e8be aeed 6e3d ac51 49be 226d 873e
000000e0: de30 203e 6bdf d23e 1b92 3dbe 2ad0 f03d
000000f0: 1f19 97be 673e de3d 3ec3 3c3e 3a26 9e3e
00000100: 3b6e 54be 33f2 7e3e 1c06 a63e 0c21 073e
00000110: b14d c03e 7afe c73c 7f48 923e 6af1 bf3e
00000120: a9ce d1be 8a94 b93e 2c61 2f3e 640f 76be
00000130: e83c da3e a27d bdbe aa74 fabd 4929 86be
00000140: fed5 c1bc c80b 0c3e dbd2 1e3e 90f1 d43d
00000150: fd60 c73d 8651 16be 0bbb d23e c15c c1bd
00000160: 89a1 a9bc 8f03 233d 339c 3bbe b1fa ecbd
00000170: ccc6 bab8 230f 5a3c f6db 9a3d bdaa 753e
00000180: f968 493e f042 84bd da4c b53e f644 e63e
00000190: e29c f43d 8e4e 423e 257a 8fbd fb8d 95be
000001a0: 29eb ed3e 1dda 913e e831 873d 9d83 11be
000001b0: 4fbb 4a3e 924d cebe 4244 42be f1d3 5fbe
000001c0: ae84 8f3e 47c2 1ebe 4442 4b3e ba87 0e3e
000001d0: fc55 4e3f 0381 ea3e 693e ba3c 47bc db3d
000001e0: b8b4 81be a973 c3be 6a20 173e 0698 b43e
000001f0: 34e4 90be aae5 883d 4c37 acbe f2ff 1bbe
00000200: 5e98 ccbe 1645 a6bd c18d 83be cb6f 6e3e
00000210: ba33 46bc 9a1e c23d 5c09 50bf 7c3a ccbe
00000220: 18db 49be bb93 1d3f 30d2 dc3d 3285 edbc
00000230: 5b15 f4bd 4da0 dfbe 2d36 dabd 2eec 0abe
00000240: 0c7e 6c3d 8f81 87be 0cc3 fe3d 3d9d 4fbe
00000250: 3c03 41be ae4e 6fbe b5a8 58be e2ea 16bf
00000260: 7841 993d 449c 673e 2749 683e 6dff 24bf
00000270: 4a10 30be ba80 95be 43fd 9bbe b44f b3be
00000280: bdbe bbbd 36e7 073e bf8a 80be 78a5 16be
00000290: b406 db3d 3878 ecb8 16b7 db3b 1133 f63b
000002a0: 1950 0dbd 1421 823c d011 ed3a 7db6 47bd
000002b0: 94e6 fabd 8043 37bb 1c76 cb3a 925e f1bd
000002c0: 2817 d7bb 98b0 a03b 31e5 13bc aa94 23c0
000002d0: fb1d 36bd d69b c9bb e781 69bb 3696 aabb
000002e0: b1d7 9eba f507 2bbb 9cc1 0fbc 7a89 afbc
000002f0: bb09 a6bd 6c72 363b c9a1 933d fb66 863b
00000300: 5a9b d4bc fedc 9e3b 6d83 62bb 24cf 90c0
00000310: cbbe 0f3a 100a a1bd 749b f83b 8e58 31bc
00000320: f832 7fbc b610 0dbd 8a59 8b3c c809 93bf
00000330: 1e3b 18bb de14 433c 3dcd 243b 0eba 9fba
00000340: 1fd2 b23f f2a0 333c 2ae7 12bb a059 4bbb
00000350: 5aae 0039 49b3 b3ba 539d 6dbd 69ad 393d
00000360: 65aa cebb e4b4 0d3a 9f8e a93d f32f cfbc
00000370: bf1f 983c b2eb a03d fd3c e33c 312e 483d
00000380: 25bc 1b3d 5261 893c 1df0 843d 6cb9 f2bc
00000390: 82f8 b83c d608 f93c f309 d4bd d15f c53c
000003a0: b33d 953c 117e 933c 7bfb ad3c 73fa a83c
000003b0: c8c7 cd3c 9527 343d c6de d43c 07ba 973c
000003c0: 3fa3 033d 6611 35bf 857f a1c0 4556 103d
000003d0: 3f6b a53d 13cd c43d f6de bb3c 20c7 f63c
000003e0: d545 d33c 9980 653d 7590 0a3d 3474 5d3b
000003f0: 02a7 e53b 4dee 033d 7623 67bc a420 2abd
0.05412833 0.27125812 -0.89635247 0.30198732 -0.22159757 0.17583096 -0.14238808 0.029007293
0.08286359 -0.5174801 -0.095564365 0.12080347 -0.14296867 -0.116827 -0.018962745 0.20905562
0.019968048 0.31065872 0.016432736 0.35040262 0.17758803 -0.3359192 0.17956582 -0.15248257
0.09003158 0.49833828 -0.13482541 0.27775356 0.08259454 -0.5168643 -0.07102704 0.40397093
-0.21927379 0.21082167 0.12293115 -0.35738254 0.32613027 0.18430266 1.6227809 0.21785891
0.42946437 0.25640213 -0.40881455 -0.93919903 -0.482729 0.2835918 -0.05873566 0.26133043
0.27344126 -0.37894124 0.26551685 -0.021465842 -0.45491213 0.058332138 -0.19660062 0.2645045
0.15643641 0.4118608 -0.18512766 0.11758454 -0.29511353 0.10851746 0.18433854 0.3088854
-0.20745175 0.24897079 0.32426536 0.131962 0.37559274 0.024413336 0.28570935 0.37488872
-0.40977982 0.3624614 0.17126912 -0.24029309 0.42624593 -0.37009913 -0.12229283 -0.26203373
-0.02366161 0.13676369 0.15510122 0.10397637 0.09735296 -0.14679536 0.41158327 -0.094415195
-0.020706909 0.039798316 -0.18321304 -0.11571253 -8.9062e-05 0.013309273 0.075614855 0.23990913
0.1966895 -0.0645808 0.35410196 0.44974488 0.119439855 0.18975279 -0.07005719 -0.29209885
0.46468475 0.2848672 0.06601316 -0.14210363 0.19798015 -0.40293556 -0.18971351 -0.21858193
0.28030914 -0.15503798 0.19849497 0.13918963 0.8059995 0.45801553 0.022734838 0.107292704
-0.2533319 -0.3817418 0.14758459 0.35272235 -0.28299105 0.0668443 -0.33635938 -0.15234354
-0.39959997 -0.08118646 -0.25694087 0.23284833 -0.0120972935 0.09478493 -0.8126428 -0.3988837
-0.19712484 0.61553544 0.107822776 -0.028994177 -0.11918136 -0.43676987 -0.106548645 -0.13566658
0.057737395 -0.26466033 0.12439546 -0.20274825 -0.1884889 -0.23369858 -0.21158107 -0.5895215
0.0748319 0.22618204 0.22684155 -0.6445225 -0.17193714 -0.29199773 -0.3046666 -0.35021746
-0.0916724 0.13271794 -0.25105855 -0.14711559 0.10694638 -0.000112757494 0.006705175 0.007513412
-0.034500215 0.015884914 0.0018086974 -0.04875802 -0.122510105 -0.0027963817 0.001552287 -0.11785616
-0.0065640397 0.004903864 -0.009026811 -2.5559487 -0.044462185 -0.0061526103 -0.0035630406 -0.005205895
-0.0012118724 -0.0026097272 -0.008774187 -0.021427859 -0.08107325 0.0027839197 0.072085924 0.0041016317
-0.025952984 0.0048481217 -0.00345632 -4.5252857 0.00054834475 -0.078632474 0.007586891 -0.010824336
-0.015576117 -0.034439765 0.017010469 -1.148736 -0.0023228596 0.011906831 0.0025146746 -0.0012186186
1.3970374 0.010963665 -0.0022415617 -0.0031028762 0.00012271982 -0.0013710047 -0.058011364 0.045331392
-0.0063069337 0.0005405678 0.08279156 -0.025291419 0.018569825 0.07857455 0.027739042 0.048872177
0.038021225 0.016770039 0.064911105 -0.029629432 0.022579435 0.030399721 -0.1035346 0.02409354
0.018217897 0.01800445 0.02123808 0.020627236 0.025119677 0.04398306 0.025985133 0.018521322
0.032138105 -0.7072967 -5.0468163 0.035238523 0.08077096 0.09609427 0.022933464 0.030124247
0.025790134 0.056030843 0.03382917 0.0033791186 0.0070084343 0.032209683 -0.014107576 -0.041535035
