rnn_twc/saved_model/diff_rates/K1_K2_N(3_3_9)/bi_sigmoid/SNR1(5dB)SNR2(15dB)/model.pth (torch, 704053 bytes, 58 tensors)

weight_power1 f4 [9]
0	0x3faf7ff9	1.3710929
1	0x3f91f0cf	1.1401614
2	0x3f82dbd5	1.0223337
3	0x3f6e9e66	0.93210447
4	0x3f6529dd	0.89517003
5	0x3f694314	0.9111798
6	0x3f3703d5	0.7149022
7	0x3f53e569	0.8277193
8	0x3f87f61e	1.0621984

weight_power2 f4 [9]
0	0x3fe0e0c7	1.7568597
1	0x3f6450fe	0.89186084
2	0x3f279fd0	0.6547823
3	0x3f30df91	0.69091135
4	0x3f40cc7f	0.75312036
5	0x3f08f28a	0.53495085
6	0x3f03bd97	0.51461166
7	0x3d58f09e	0.052963845
8	0x3f4f89aa	0.81069434

weight1_merge f4 [9, 2]
0	0x3f9db258	1.2320051
1	0x3f0cb727	0.5496697
2	0x3fc371cd	1.5269104
3	0x3eead6f5	0.45867124
4	0x3fca0624	1.5783124
5	0x3efc68d7	0.49298736
6	0x3f7c1484	0.98468804
7	0x3ed1e06a	0.40991527
8	0x3f38b399	0.72149044
9	0x3ee4a275	0.44655195
10	0x3f3d3c08	0.73919725
11	0x3f344937	0.70424217
12	0x3f268cb5	0.6505845
13	0x3fbe2a07	1.4856576
14	0x3eff441c	0.4985665
15	0x3fc64c01	1.5491945
16	0x3f0626b8	0.5240283
17	0x3fbc36f8	1.4704275

weight2_merge f4 [9, 2]
0	0x3f6e341c	0.9304826
1	0x3f3a774b	0.72838277
2	0x3f9b991e	1.2156103
3	0x3f8a5a03	1.0808719
4	0x3fcc98bb	1.598411
5	0x3fba4c15	1.4554468
6	0x3fc3f97a	1.5310509
7	0x3fdf29ef	1.7434672
8	0x3fbc0e15	1.4691797
9	0x3fa5fc06	1.2967536
10	0x3f7f1be7	0.9965195
11	0x3f30be83	0.690407
12	0x3f385759	0.7200828
13	0x3f54a7e0	0.83068657
14	0x3f15723e	0.58377445
15	0x3f770991	0.9649897
16	0x3e7a0294	0.24415046
17	0x3ef62f1c	0.48082817

encoder1_RNN.weight_ih_l0 f4 [150, 4]
0	0xbd6ac3ae	-0.05731552
1	0x3e3907a2	0.18069318
2	0x3eb38602	0.35063177
3	0xbe84d1df	-0.2594137
4	0xbdacfefd	-0.08447073
5	0x3d588e72	0.05287022
6	0x3e8bf65d	0.27336398
7	0xbe983532	-0.29728085
8	0x3dc838a9	0.09776432
9	0xbd59446b	-0.053043764
10	0x3ecc693c	0.39924037
11	0xbd684121	-0.056702737
12	0x3e3761d7	0.17908417
13	0x3e19ca54	0.15018588
14	0xbaf05b3c	-0.0018337737
15	0x3e5d4193	0.21607046
16	0xbcf2bfd4	-0.029632486
17	0x3e796094	0.24353248
18	0xbd830c0e	-0.063987836
19	0xbed900ae	-0.4238333
20	0xbe49bb98	-0.19700468
21	0xbe53465c	-0.20632309
22	0xbe8a59d7	-0.27021667
23	0x3ea0fc9e	0.31442732
24	0x3e1e61fd	0.15467067
25	0x3d2e1754	0.042502716
26	0xbe354181	-0.17700769
27	0xbe41581e	-0.1888127
28	0xbf04a3c6	-0.518124
29	0x3ebc2e2a	0.3675397
30	0x3e79fbd4	0.24412471
31	0x3f005f0d	0.50145036
32	0x3ee50a72	0.44734532
33	0x3dfd7eb4	0.12377682
34	0x3ec05a0b	0.37568697
35	0xbd3ab8de	-0.04558646
36	0x3e3b1216	0.18268618
37	0x3c7b8c08	0.01535321
38	0xbd8e5844	-0.06950429
39	0xbd7a57f8	-0.06111905
40	0x3e99452b	0.29935583
41	0xbdbfc704	-0.09364131
42	0x3f084103	0.532242
43	0xbf3cac53	-0.73700446
44	0x3bdb416b	0.006691148
45	0x3e3338a0	0.1750207
46	0xbda89660	-0.08231807
47	0x3e2acc1e	0.16679427
48	0x3e8592c0	0.26088524
49	0x3e0b86aa	0.13625589
50	0x3e87e766	0.2654373
51	0x3e84bc4c	0.2592491
52	0x3cc1822e	0.023621645
53	0x3ea880ca	0.32910758
54	0x3e08813c	0.13330549
55	0xbe813256	-0.25233716
56	0xbc098107	-0.008392579
57	0x3eadd789	0.33953503
58	0x3c74e8c3	0.014948073
59	0xbeaa1067	-0.3321564
60	0x3be40624	0.00695874
61	0x3e84793d	0.25873747
62	0x3e09eedc	0.13470024
63	0x3d69aa0a	0.057046928
64	0x3d9c9797	0.07646101
65	0x3e86a3dd	0.26296893
66	0x3d92eca5	0.071740426
67	0xbf42f415	-0.7615369
68	0x3e6751eb	0.22589843
69	0x3da3e284	0.08002189
70	0x3d19368c	0.037405536
71	0xbb486c46	-0.0030582114
72	0x3e4e56a3	0.20150237
73	0x3dd67b2f	0.10472714
74	0x3d413cf1	0.04717726
75	0xbe79f064	-0.24408108
76	0xbe09b901	-0.1344948
77	0xbe456793	-0.19277792
78	0x3e8f8d2f	0.28037402
79	0xbd2278b4	-0.039665893
80	0xbe485af1	-0.19565941
81	0x3e290a84	0.16507918
82	0xbe6d1d67	-0.23155747
83	0x3f631afd	0.88713056
84	0xbd9e0fd2	-0.07717861
85	0x3e790123	0.2431684
86	0x3ddf22a7	0.10895281
87	0x3dffc3cb	0.124885164
88	0xbf06eaaa	-0.5270182
89	0x3ce0f9bb	0.02746283
90	0x3d4b8fd2	0.049697705
91	0x3fc81add	1.5633198
92	0x3d31b477	0.043384995
93	0xbe788ac6	-0.24271688
94	0x3ea35788	0.3190272
95	0x3d0fedee	0.035139017
96	0xbe334379	-0.17506208
97	0x3bec5f06	0.007213476
98	0xbdec5a15	-0.11540619
99	0xbd3387b0	-0.043830574
100	0x3b9a4298	0.0047076456
101	0x3cf13152	0.029442463
102	0xbe75c99f	-0.24002694
103	0xbea48c80	-0.32138443
104	0x3e8a2323	0.26979932
105	0x3e98bdd9	0.29832342
106	0x3c65d3ed	0.014027578
107	0x3c23e33b	0.010002906
108	0x3e648e90	0.22320008
109	0xbe9278c9	-0.28607777
110	0xbe87d336	-0.2652833
111	0xbeba6e8c	-0.36412466
112	0xbdc508b4	-0.096208006
113	0xbd37d481	-0.044880394
114	0x3e383edc	0.17992729
115	0xbcefc2bf	-0.029267667
116	0x3d04914c	0.03236513
117	0x3e180555	0.14845784
118	0x3e1c20d1	0.15246893
119	0x3d0285c2	0.031865843
120	0x3ee6426a	0.44972545
121	0x3ee672bd	0.45009413
122	0x3e041c35	0.12901385
123	0x3ce7a333	0.028276062
124	0x3e96c300	0.29445648
125	0x3ea2d35e	0.31801885
126	0x3d97406e	0.07385336
127	0xbebb0ac0	-0.3653164
128	0xbea6b184	-0.3255731
129	0xbebea3a3	-0.3723422
130	0xbea8cd17	-0.3296897
131	0x3e15b9db	0.1462168
132	0xbea23ec4	-0.3168851
133	0xbd96a8fe	-0.073564515
134	0xbc78487c	-0.015154
135	0x3d94806a	0.072510555
136	0xbd84e549	-0.06489045
137	0xbd63bf34	-0.055602267
138	0xbddcf8c8	-0.10789639
139	0xbd4a95d7	-0.049459305
140	0x3dc6bc68	0.097039044
141	0x3ec008d3	0.37506732
142	0x3e71813d	0.23584457
143	0x3eccff56	0.40038556
144	0x3dda253c	0.10651633
145	0x3e69a1c9	0.22815622
146	0x3e21a443	0.15785317
147	0xbf02f7a8	-0.51159143
148	0xbe1cde4b	-0.15319173
149	0xbddfb727	-0.109236054
150	0xbe996ddc	-0.2996663
151	0x3ea05cf6	0.31320924
152	0x3d7bb01c	0.061447248
153	0xbc36dae2	-0.011160584
154	0xbdc568be	-0.096391186
155	0x3ea24df7	0.31700107
156	0xbe35970d	-0.17733403
157	0xbe0fc9ab	-0.14041774
158	0xbd6ca0f9	-0.057770703
159	0x3e49090b	0.19632356
160	0x3e414973	0.18875675
161	0xbe17abf5	-0.1481169
162	0x3de913a8	0.11380702
163	0xbebf6448	-0.37381196
164	0xbe970e36	-0.2950303
165	0x3e4023c3	0.18763642
166	0xbe513a7a	-0.20432463
167	0xbe050ee9	-0.12993969
168	0xbe6ed979	-0.23325147
169	0xbe1e9830	-0.15487742
170	0xbd8dcb1f	-0.06923508
171	0x3f53d3cd	0.8274506
172	0x3e80e06e	0.25171226
173	0x3ef96608	0.48710656
174	0x3e8252fd	0.2545394
175	0xbe6e052a	-0.23244157
176	0x3d3a444c	0.04547529
177	0x3e17db96	0.14829859
178	0x3e2ac62d	0.1667716
179	0xbe875a25	-0.26435962
180	0xbe91346e	-0.28360313
181	0xbe1d7518	-0.15376699
182	0x3d20728f	0.03917175
183	0x3e6d9f8d	0.23205395
184	0xbdb0c0c1	-0.08630515
185	0x3e983ae8	0.29732442
186	0xbd185d9c	-0.037198648
187	0x3e9cab00	0.30599213
188	0xbe4fa703	-0.20278554
189	0x3e419ee0	0.18908262
190	0xbeab887e	-0.33502573
191	0x3dcc8de0	0.09987998
192	0xbec2e566	-0.38065642
193	0x3d864c53	0.065575264
194	0x3d2f160a	0.042745627
195	0x3d08f110	0.03343302
196	0x3db4b850	0.08824217
197	0xbee1ae08	-0.44078088
198	0xbe72eea5	-0.23723848
199	0x3ebe8f16	0.3721854
200	0xbdcb3fed	-0.09924302
201	0xbbe102bb	-0.0068667806
202	0xbe7c5bbf	-0.24644373
203	0x3efaab05	0.48958603
204	0x3e7728d9	0.24136676
205	0x3e36c85b	0.17849867
206	0x3eb890fb	0.3604811
207	0x3d06881d	0.03284465
208	0xbd37308a	-0.044724025
209	0x3e4974dd	0.19673486
210	0xbe7f817f	-0.24951743
211	0x3e95cb42	0.29256636
212	0x3d0d78ee	0.034539156
213	0xbd3f6ff4	-0.046737626
214	0x3e6ee961	0.23331214
215	0x3e2cedc8	0.16887581
216	0x3e7e40ff	0.24829482
217	0xbe5e2473	-0.21693592
218	0x3d1c5787	0.03816941
219	0xbd0c28b0	-0.03421849
220	0x3e89fcb6	0.26950616
221	0x3ecfeb10	0.40609026
222	0x3d3286b7	0.043585505
223	0x3e3fc2ca	0.1872665
224	0x3ee37ef4	0.44432795
225	0x3f0aa8f3	0.54164046
226	0x3eedce84	0.4644662
227	0x3cc300c5	0.023804078
228	0x3f0792b2	0.52958214
229	0xbedc80c9	-0.43067005
230	0xbf4d1402	-0.80108654
231	0x3cece440	0.028917432
232	0xbd646c6e	-0.05576747
233	0x3d739479	0.059467766
234	0xbe4ebb5c	-0.2018866
235	0xbe1d0cbe	-0.15336892
236	0x3e5f0502	0.21779254
237	0x3e4ea029	0.20178284
238	0x3d40fae0	0.047114253
239	0xbdc98793	-0.09840312
240	0x3e81c3fc	0.25344837
241	0xbd30b86c	-0.04314463
242	0xbdc077c7	-0.09397846
243	0xbc05855c	-0.008149471
244	0x3e8df303	0.27724466
245	0xbe0301cc	-0.12793654
246	0xbd88b3fd	-0.06674955
247	0x3e35e935	0.17764743
248	0x3e71983f	0.23593234
249	0x3ed648b7	0.41852352
250	0x3ea42558	0.3205974
251	0xbd7ed276	-0.06221243
252	0xbc4f1f43	-0.012641731
253	0x3e158562	0.14601663
254	0x3c362f97	0.011119745
255	0x3e28fbbc	0.16502279

encoder1_RNN.weight_hh_l0 f4 [150, 50]
0	0xbce296f9	-0.02765988
1	0xbcc4413b	-0.023956886
2	0xbe8bb8ed	-0.27289525
3	0x3beba43c	0.007191209
4	0xbe380af6	-0.17972931
5	0xbdf6cbf3	-0.12050619
6	0x3e4e32df	0.20136593
7	0xbd6b5ed5	-0.057463486
8	0x3c79e90a	0.015253315
9	0xbe9e3709	-0.30901363
10	0xbe1a90eb	-0.15094344
11	0x3de08513	0.10962882
12	0x3e71bddc	0.23607582
13	0x3e8170a5	0.25281253
14	0x3d7fe14a	0.06247071
15	0xbd953343	-0.07285168
16	0x3df0bee9	0.11755163
17	0x3c77a7e0	0.015115708
18	0x3cf9a2d2	0.030473147
19	0x3d282442	0.041050203
20	0xbe274270	-0.16333938
21	0xbd81edcd	-0.06344185
22	0x3ca7901d	0.02045446
23	0x3ef10ccb	0.47080073
24	0x3e839870	0.25702238
25	0x3e4303e4	0.19044453
26	0xbd7f42fb	-0.062319737
27	0xbcf05a4c	-0.029339932
28	0x3e941702	0.28923804
29	0xbd9d6422	-0.076851144
30	0xbe660744	-0.22463709
31	0xbe8c37a0	-0.27386189
32	0x3e2e0a09	0.16996016
33	0xbe8e822f	-0.27833697
34	0xbe547e03	-0.20751195
35	0x3ecc1749	0.39861515
36	0x3e5dabd4	0.21647578
37	0x3e316ddd	0.17327066
38	0x3e492d6b	0.19646232
39	0x3dbc33ab	0.091895424
40	0xbdde5bcf	-0.10857355
41	0xbe26ea70	-0.16300368
42	0x3cc731b7	0.024315698
43	0xbdebde0e	-0.11516963
44	0xbe8147e2	-0.25250155
45	0x3de2b618	0.11069888
46	0xbdf037b8	-0.117293775
47	0x3e8bdd57	0.27317306
48	0xbcad042c	-0.021120153
49	0xbd88d619	-0.06681461
50	0xbe33cdd0	-0.1755898
51	0x3f3d9d4b	0.74068135
52	0xbee089ed	-0.4385523
53	0xbe6f61ad	-0.23377104
54	0xbd944708	-0.07240111
55	0x3e2f1c81	0.17100717
56	0x3e6cff27	0.23144208
57	0xbe981d7d	-0.29709998
58	0xbd8d01c5	-0.06885103
59	0xbec9e5c7	-0.3943312
60	0x3eab88ab	0.33502707
61	0x3e744a1d	0.23856397
62	0x3df3fac7	0.11913066
63	0x3f01824e	0.50589454
64	0x3e6804b9	0.22658052
65	0x3cf68164	0.030090995
66	0x3c87e8dd	0.01659053
67	0xbb842200	-0.0040323734
68	0xbd8a5312	-0.06754126
69	0x3e83cfae	0.25744385
70	0x3dcdab43	0.10042431
71	0x3d53c82c	0.05170457
72	0xbed481fe	-0.41505426
73	0x3ed7d6bb	0.42156014
74	0x3e8509ce	0.25984043
75	0x3e3fc946	0.18729123
76	0x3de34409	0.11096961
77	0xbdd0693a	-0.101763204
78	0x3e7f60bf	0.2493925
79	0xbe17a5fa	-0.14809409
80	0xbe873da8	-0.26414227
81	0x3e52b8e4	0.20578343
82	0x3ddcaa55	0.10774676
83	0x3e4e2abd	0.20133491
84	0xbde4ac73	-0.111657046
85	0xbde8b06c	-0.11361775
86	0x3ee31f5d	0.44359866
87	0x3ece63ec	0.4031061
88	0xbd95814f	-0.07300054
89	0xbe93d328	-0.28872037
90	0xbd43d367	-0.04780903
91	0xbe516729	-0.20449509
92	0xbd03f8a7	-0.032219555
93	0x3e17ffb8	0.14843643
94	0xbded5ba9	-0.115897484
95	0x3e019eb5	0.12658198
96	0xbf0ded0f	-0.5543985
97	0x3d5ed365	0.05440082
98	0xbe12359b	-0.14278261
99	0x3d999713	0.07499518
100	0x3dc57cb3	0.09642925
101	0xbdcd2475	-0.10016719
102	0xbda71caa	-0.08159764
103	0xbe623f24	-0.22094399
104	0x3df7e4d6	0.12104194
105	0x3de24f96	0.11050336
106	0x3e90e462	0.28299242
107	0xbd5d0ab4	-0.053965285
108	0x3e3f80cc	0.18701476
109	0xbe89b993	-0.26899394
110	0xbde95af1	-0.11394299
111	0x3e016619	0.12636603
112	0x3de00b0b	0.10939606
113	0x3dd369ed	0.10322938
114	0xbcb4a7e9	-0.022052722
115	0xbe457869	-0.19284214
116	0xbcd53f8b	-0.026031276
117	0x3e1b8dac	0.15190762
118	0xbc3f7863	-0.011686417
119	0xbb583a22	-0.0032993634
120	0x3e03168d	0.12801571
121	0xbcb6206e	-0.02223226
122	0x3d51d04d	0.05122404
123	0x3e750726	0.23928508
124	0xbdf5b6d4	-0.11997762
125	0x3c941944	0.018078454
126	0xbc2a3bf7	-0.010390273
127	0xbdfdbc05	-0.123893775
128	0xbce61223	-0.02808482
129	0xbdebf6d8	-0.11521691
130	0xbe170c62	-0.14750817
131	0x3e2223cb	0.15833966
132	0xbd472352	-0.04861767
133	0xbd238338	-0.03992006
134	0xbc8445f1	-0.016146632
135	0x3e3c6250	0.18396878
136	0x3b36c96f	0.002789106
137	0x3e849b41	0.258997
138	0x3e260324	0.16212136
139	0xbe6403b0	-0.22267032
140	0xbe296c84	-0.16545302
141	0xbdd5ac67	-0.10433274
142	0x3db2c712	0.08729376
143	0xbcbef5b5	-0.023310522
144	0x3d8bb8b4	0.06822339
145	0x3cd91e71	0.026503773
146	0x3d952ee1	0.07284332
147	0xbe4c5bef	-0.19956945
148	0x3d1f2e65	0.038862605
149	0xbc89bfc5	-0.016815076
150	0xbe24a2ca	-0.16077724
151	0xbe85e78b	-0.26153216
152	0x3e37407d	0.17895694
153	0x3e633fc1	0.22192289
154	0x3e2fa1db	0.17151587
155	0x3dc8f3d8	0.098121345
156	0x3d9e1f5f	0.07720827
157	0x3d884bae	0.0665506
158	0x3e9a2262	0.30104357
159	0x3cc01933	0.023449516
160	0xbea7f8f2	-0.32807118
161	0xbc9a9c8f	-0.018873481
162	0xbed9a164	-0.42505944
163	0xbd46ae34	-0.048505977
164	0x3e5349ff	0.20633696
165	0xbc468ff5	-0.012119283
166	0x3d61ae8f	0.055098113
167	0x3d6019f2	0.054712243
168	0xbe50e268	-0.20398867
169	0xbe6a2e7c	-0.22869295
170	0xbbe04d86	-0.006845179
171	0xbee9f94b	-0.45698008
172	0x3e91b65f	0.2845945
173	0xbed682e6	-0.41896743
174	0xbf0dbbb1	-0.5536452
175	0xbcd4190c	-0.02589085
176	0xbe1e3faf	-0.15453981
177	0xbd942c01	-0.072349556
178	0xbe96b42d	-0.29434338
179	0xbcc32d50	-0.023825318
180	0x3e3a73a4	0.18208176
181	0xbe0b6a3f	-0.13614748
182	0xbeb2ddc3	-0.34934816
183	0xbebf0aa8	-0.37312818
184	0x3b2c12c9	0.0026256314
185	0xbea4a896	-0.3215987
186	0xbde83e54	-0.11340013
187	0xbe58fde8	-0.21190608
188	0x3eb68c93	0.35654125
189	0x3ef81e89	0.48460796
190	0xbd1c1d7d	-0.03811406
191	0x3dca0cc5	0.09865717
192	0x3e4894c5	0.19588001
193	0x3c442c66	0.011973476
194	0x3e5e524e	0.21711084
195	0xbe72d026	-0.23712215
196	0x3ebb09f0	0.3653102
197	0xbe389790	-0.18026567
198	0x3d75202b	0.05984513
199	0x3e65e4f6	0.22450623
200	0xbc663d7e	-0.014052747
201	0xbe759fc2	-0.23986724
202	0xbca6caaa	-0.02036031
203	0xbddbe5cf	-0.10737192
204	0xbd485cac	-0.048916504
205	0xbe09aee3	-0.1344562
206	0x3d93611c	0.071962565
207	0xbb833cf3	-0.0040050684
208	0xbe0e49d6	-0.13895354
209	0x3c892c60	0.016744792
210	0x3bf5625c	0.007488532
211	0x3dd6b664	0.10484007
212	0x3d2541d3	0.040345978
213	0x3db11a4a	0.08647592
214	0xbd131f93	-0.035918783
215	0xbcf563a0	-0.029954731
216	0x3d0fbdb2	0.035093017
217	0x3de682d1	0.1125542
218	0xbe2f5286	-0.17121324
219	0x3d254baa	0.040355362
220	0xbd5aac15	-0.053386766
221	0x3b3c9db5	0.0028780524
222	0xbdf0fe2f	-0.11767232
223	0xbd9d3923	-0.076769136
224	0xbc4a34bc	-0.012341674
225	0x3dc6b71e	0.097028956
226	0x3cfb7fcc	0.030700587
227	0x3d3e8581	0.046514038
228	0x3dc06e51	0.09396041
229	0xbdc357fd	-0.09538267
230	0xbccf56a0	-0.02530986
231	0x3d5acc01	0.05341721
232	0x3ee66f0f	0.45006606
233	0x3d339fe8	0.04385367
234	0x3e8db53e	0.2767734
235	0x3d1dc413	0.03851707
236	0x3eb75b70	0.3581195
237	0xbcb82788	-0.022479787
238	0x3d864463	0.065560125
239	0x3e0e5d31	0.13902737
240	0x3a90decf	0.001105273
241	0xbe05e8cd	-0.13077088
242	0xbe8c3d09	-0.27390316
243	0x3de1bbf1	0.11022175
244	0xbe0d81b5	-0.1381901
245	0xbd721816	-0.059105
246	0xbc5498e7	-0.012975908
247	0xbe0e1919	-0.13876761
248	0xbde6c5e8	-0.11268216
249	0x3d3df4c8	0.04637602
250	0x3ec9518d	0.3932003
251	0x3e204c45	0.15654095
252	0xbd99aae8	-0.07503301
253	0x3e8d00d1	0.27539685
254	0xbea19362	-0.31557757
255	0xbedb4773	-0.4282795

encoder1_RNN.bias_ih_l0 f4 [150]
0	0xbd615529	-0.055012856
1	0xbd239165	-0.03993358
2	0x3d08511f	0.033280488
3	0x3e2a1fd8	0.1661371
4	0xbe01fa76	-0.126932
5	0xbf2593b1	-0.64678484
6	0xbed1f3b0	-0.4100623
7	0x3f19f74e	0.6014298
8	0x3e6cfc91	0.23143221
9	0xbc84bb38	-0.016202554
10	0xbe3385c9	-0.17531504
11	0xbddbad49	-0.10726411
12	0xbc99dffd	-0.018783564
13	0x3c012430	0.007882163
14	0xbdd3e945	-0.10347227
15	0xbd061b23	-0.032740723
16	0xbef799a9	-0.4835942
17	0x3e380237	0.17969595
18	0xbd60a018	-0.054840177
19	0xbee0b3ed	-0.43887272
20	0x3d2ec7e6	0.042671107
21	0xbe136397	-0.1439346
22	0x3d845bae	0.06462799
23	0xbe331a75	-0.17490561
24	0xbc8dd277	-0.017312272
25	0xbe555469	-0.20832981
26	0xbd47237f	-0.048617836
27	0xbb975e8d	-0.0046194256
28	0xbe9b2713	-0.3030325
29	0xbc95eab6	-0.018300395
30	0x3e1be97d	0.15225787
31	0x3d80f296	0.062962696
32	0xbf047400	-0.517395
33	0xbded2343	-0.11578991
34	0xbedbfe37	-0.42967388
35	0xbe04f128	-0.12982619
36	0xbe1c6aaa	-0.15275064
37	0xbe69c146	-0.22827634
38	0xbdb0a74b	-0.086256586
39	0x3e4da8bb	0.20083897
40	0xbe6a91b0	-0.22907138
41	0xbe92b189	-0.28651074
42	0x3ea9d036	0.33166665
43	0xbd144aa3	-0.03620399
44	0xbb7b6c06	-0.0038363948
45	0x3b7869a1	0.0037904757
46	0xbcf4bbd1	-0.029874714
47	0xbea3aa70	-0.3196597
48	0xbe7cb8dc	-0.24679893
49	0x3a9260c5	0.0011167756
50	0x3e56fb90	0.20994401
51	0x3eaac295	0.3335158
52	0x3e299872	0.1656206
53	0x3e99a65b	0.30009732
54	0x3e676dcb	0.22600476
55	0x3eb8f730	0.3612609
56	0x3f41e88c	0.75745463
57	0xbf3ca4a5	-0.7368873
58	0x3d8bc90a	0.068254545
59	0x3e804788	0.25054574
60	0x3e246786	0.16055116
61	0x3ec57aba	0.38570195
62	0x3e627b04	0.22117239
63	0x3e30399f	0.1720948
64	0x3e40698d	0.18790264
65	0x3f52e827	0.82385486
66	0x3e3084df	0.17238186
67	0x3e19876a	0.14993063
68	0x3e7524a4	0.23939759
69	0x3f10f217	0.566194
70	0x3e7d83da	0.24757329
71	0x3e5a46e1	0.213161
72	0x3d6f6195	0.05844267
73	0x3e40950c	0.18806857
74	0x3e3f5521	0.18684818
75	0xbd7b79b6	-0.06139537
76	0x3f176e82	0.59152997
77	0x3ee0e08f	0.43921325
78	0x3e9fd1f7	0.31214878
79	0x3ee947cd	0.45562592
80	0x3e0f7f5d	0.14013429
81	0x3e750660	0.23928213
82	0x3d0bf598	0.034169763
83	0x3eb5d845	0.35516563
84	0x3efc20c4	0.49243748
85	0x3ece86a1	0.4033709
86	0xbdfc9618	-0.123333156
87	0x3e3efed0	0.18651891
88	0x3eb10d31	0.34580377
89	0xbe08fa4e	-0.13376734
90	0x3e8e9b17	0.278527
91	0x3eea3085	0.45740142
92	0x3e65ce72	0.22442034
93	0xbe67eb4c	-0.22648352
94	0x3ebec4a8	0.37259412
95	0x3e7d84b0	0.24757648
96	0x3ee25273	0.4420353
97	0x3e64a5af	0.22328828
98	0x3f62c6b8	0.8858447
99	0x3e35f8e5	0.17770727
100	0xbe4d1fd0	-0.20031667
101	0x3b203b2a	0.0024449327
102	0x3ed35492	0.4127546
103	0x3e15c9c1	0.14627744
104	0x3ea66c1f	0.32504365
105	0x3e0e3bba	0.13889971
106	0xbd9a1911	-0.07524312
107	0xbec93b43	-0.39303026
108	0xbe76478d	-0.24050732
109	0x3ea1d3c2	0.3160687
110	0x3e120e40	0.14263248
111	0xbe09e681	-0.13466837
112	0xbeb39a36	-0.3507859
113	0x3dff3171	0.12460602
114	0x3e478e1a	0.19487801
115	0x3d9441cc	0.07239112
116	0x3d2cf7ed	0.042228628
117	0x3dc8acf4	0.09798613
118	0xbbe2b8c2	-0.0069189975
119	0xbe83f83c	-0.25775325
120	0x3e420cc9	0.1895019
121	0xbe769dd6	-0.24083647
122	0xbe0a82ef	-0.1352651
123	0xbec3c989	-0.38239697
124	0xbe817a72	-0.2528873
125	0xbde3070d	-0.11085329
126	0x3e5c161d	0.2149281
127	0x3d71abfe	0.059001915
128	0xbed89438	-0.42300582
129	0x3ce74aad	0.02823385
130	0x3e45de5e	0.19323108
131	0xbd37241e	-0.04471218
132	0xbe93bb4c	-0.28853834
133	0x3b3129bc	0.0027032932
134	0x3e32e205	0.17469032
135	0xbecb6e2b	-0.3973249
136	0xbed79ff9	-0.42114237
137	0xbe9d7c0d	-0.30758706
138	0x3d3c8b5d	0.046031345
139	0xbdc68f62	-0.09695317
140	0x3e1e09ed	0.15433474
141	0x3d0a08d7	0.033699837
142	0xbda309c4	-0.07960847
143	0xbe9d37f8	-0.30706763
144	0x3f0baf66	0.5456451
145	0xbe9851a3	-0.29749784
146	0x3ea7ea38	0.32795882
147	0xbe424936	-0.1897324
148	0x3d20be30	0.039243877
149	0x3e07b017	0.13250767

encoder1_RNN.bias_hh_l0 f4 [150]
0	0xbe88e6f5	-0.26738706
1	0xbdf7dd7d	-0.121027924
2	0x3d5c5d64	0.0538
3	0x3df9ca56	0.12196796
4	0xbe2a44ce	-0.1662781
5	0xbf156081	-0.5835038
6	0xbe5054a3	-0.20344786
7	0x3eef8e51	0.46788266
8	0x3e563a6e	0.20920727
9	0xbe3dde10	-0.18541741
10	0xbe078e65	-0.13237913
11	0xbd932f07	-0.07186704
12	0xbe028764	-0.1274696
13	0xbd8298da	-0.0637681
14	0xbbb06b5a	-0.005383891
15	0xbdbdf43c	-0.092751
16	0xbedaea76	-0.42757004
17	0x3e15486b	0.14578407
18	0xbe5ea8dd	-0.21744104
19	0xbe91ab44	-0.28450978
20	0x3de7971c	0.11308119
21	0xbdea29f2	-0.11433782
22	0xbdc045d2	-0.09388317
23	0xbe36d1e1	-0.178535
24	0xbe37f12e	-0.17963096
25	0xbdd60b87	-0.104514174
26	0x3e605d19	0.21910514
27	0xbe091fd9	-0.13391055
28	0xbe810f80	-0.25207138
29	0x3d6abad0	0.057307065
30	0x3e1e7b1d	0.15476651
31	0xbe2a5650	-0.16634488
32	0xbef925af	-0.48661563
33	0x3d98dc6f	0.07463919
34	0xbe856282	-0.26051718
35	0xbdb59b22	-0.0886748
36	0xbe418f04	-0.18902212
37	0xbe94e885	-0.29083648
38	0xbe20878b	-0.15676706
39	0x3c916904	0.01775027
40	0xbd5282fc	-0.051394448
41	0xbeaebe40	-0.34129524
42	0x3e9e2fff	0.30895993
43	0xbd5b9040	-0.053604364
44	0xbce885a0	-0.02838403
45	0xbe2583f4	-0.16163617
46	0x3c0e5464	0.0086871125
47	0xbe41b91b	-0.18918268
48	0xbe484e58	-0.19561136
49	0xbe3eca5c	-0.18631881
50	0x3e76dc78	0.2410754
51	0x3eb2d182	0.34925467
52	0x3e178d63	0.14800029
53	0x3e9d2630	0.30693197
54	0x3ea52b63	0.32259664
55	0x3eb4e87c	0.35333622
56	0x3f45a249	0.7720075
57	0xbf764fdf	-0.96215624
58	0x3dcd15ea	0.100139454
59	0x3ebbe844	0.36700642
60	0x3eaf132a	0.3419431
61	0x3eb9b444	0.36270344
62	0x3e16df36	0.14733586
63	0x3de8c340	0.11365366
64	0x3e75b444	0.23994547
65	0x3f49fd6a	0.78902304
66	0xbc9edc61	-0.019392194
67	0x3e851e4b	0.25999674
68	0x3d1b63e5	0.037937064
69	0x3f106338	0.56401396
70	0x3dcbf5c8	0.099589884
71	0x3eae9a49	0.34102085
72	0x3d471027	0.04859939
73	0x3e957399	0.29189757
74	0x3e299d6d	0.1656396
75	0x3d425021	0.047439698
76	0x3f19edf1	0.60128695
77	0x3e8ac608	0.2710421
78	0x3ed0b2af	0.40761325
79	0x3ec71c5b	0.3888882
80	0x3e35df3e	0.17760941
81	0x3eb9f276	0.36317796
82	0xbe066309	-0.13123716
83	0x3ed2bd7f	0.411602
84	0x3f326d73	0.69698256
85	0x3ecb430d	0.39699593
86	0xbe0deaef	-0.13859151
87	0x3ece49af	0.4029059
88	0x3efc08a9	0.49225357
89	0xbe085162	-0.13312295
90	0x3ee79e5d	0.4523801
91	0x3ea20708	0.3164599
92	0x3e8c14f8	0.27359748
93	0xbe692339	-0.22767343
94	0x3ebf95eb	0.37419066
95	0x3eb01be7	0.34396288
96	0x3ebf11a1	0.37318137
97	0x3e8616f9	0.26189402
98	0x3f43a48a	0.7642294
99	0x3dd24b53	0.10268273
100	0xbe436872	-0.19082811
101	0x3d93a103	0.07208445
102	0x3e1f8b4d	0.15580483
103	0xbd612c90	-0.05497414
104	0x3d984202	0.07434465
105	0x3c9e4ddb	0.019324234
106	0x3e2476d4	0.16060954
107	0xbefadd53	-0.48996982
108	0xbe5f3a29	-0.2179953
109	0x3c845ea9	0.016158419
110	0x3e966be4	0.2937919
111	0xbca16730	-0.019702524
112	0xbe6ec303	-0.23316579
113	0x3dcd073d	0.10011146
114	0x3e8bfa98	0.27339625
115	0x3e5cc7db	0.21560614
116	0x3dc9890b	0.09840592
117	0xbdd69623	-0.10477855
118	0x3d1bb0ab	0.03801028
119	0xbe7f548c	-0.24934596
120	0x3dba6792	0.09101786
121	0xbcd633d5	-0.026147762
122	0xbbdc79b0	-0.0067283735
123	0xbeabb7b1	-0.33538583
124	0xbe5a9c30	-0.21348643
125	0x3d6276d0	0.05528909
126	0xbd9ba1f7	-0.07599252
127	0x3df7dec8	0.12103039
128	0xbe4a3a01	-0.19748689
129	0x3d410e60	0.04713285
130	0x3ea23d1f	0.31687257
131	0x3daa5c7a	0.0831842
132	0xbe578ff7	-0.21051012
133	0xbcf63738	-0.030055627
134	0x3da67de5	0.08129481
135	0xbec9a593	-0.39384136
136	0xbe9cd4b4	-0.3063103
137	0xbe20da33	-0.15708236
138	0x3ce4029d	0.027833277
139	0xbc9c0b07	-0.019048227
140	0x3e0f71e1	0.14008285
141	0xbcc292cd	-0.02375164
142	0xbe9632cb	-0.29335627
143	0xbdbcde51	-0.09222091
144	0x3e4b74e6	0.19868812
145	0xbe857206	-0.26063555
146	0x3db25aed	0.08708749
147	0xbd9dada4	-0.07699135
148	0x3d2343b5	0.039859492
149	0x3ebaea77	0.36507007

encoder1_RNN.weight_ih_l1 f4 [150, 50]
0	0x3e313326	0.17304668
1	0x3e0487fa	0.12942496
2	0xbe0323c1	-0.12806608
3	0xbc9702d9	-0.018433975
4	0xbd169b7f	-0.036769386
5	0xbe569013	-0.20953397
6	0x3dabb3ff	0.08383941
7	0xbe638986	-0.2222043
8	0x3e927f72	0.28612858
9	0xbc9b39d8	-0.01894848
10	0x3e3ec1a1	0.18628551
11	0xbd242ebe	-0.04008364
12	0x3e24b426	0.16084346
13	0xbd53949f	-0.051655408
14	0x3dd98bd3	0.106223725
15	0x3e5e5ae6	0.21714363
16	0x3df28b14	0.11842933
17	0xbe07e58f	-0.13271163
18	0x3e0d78de	0.13815638
19	0x3e8fcb58	0.28084826
20	0x3cebad62	0.028769199
21	0x3e3523cb	0.17689435
22	0x3e042e92	0.1290839
23	0xbcfa8dc3	-0.030585175
24	0x3e19d49b	0.15022509
25	0xbe2e16a4	-0.17000824
26	0x3dd86483	0.10566046
27	0x3e4e4d0b	0.20146577
28	0x3de1a31c	0.11017439
29	0xbdcf9ddd	-0.10137532
30	0xbd7a054c	-0.061040208
31	0xbdd22e90	-0.10262787
32	0x3d6fef1c	0.05857764
33	0x3f081bcd	0.5316742
34	0xbad272b8	-0.0016055917
35	0x3d36ecab	0.044659298
36	0xbe0933b5	-0.13398631
37	0x3dbd63ce	0.09247552
38	0xbe95335c	-0.29140747
39	0xbc9e4377	-0.01931928
40	0x3e1fe78a	0.15615669
41	0xbe718731	-0.23586728
42	0xbd3d891d	-0.04627334
43	0xbde27d3d	-0.110590436
44	0xbe1ae704	-0.15127188
45	0x3dd684f0	0.104745746
46	0xbe885b38	-0.26632094
47	0x3e8952ca	0.26820976
48	0xbddbe26e	-0.107365474
49	0xbdeb2ed4	-0.11483541
50	0xbe00ae3d	-0.12566467
51	0x3e0c5a8f	0.1370642
52	0xbe78f006	-0.24310312
53	0x3e000215	0.12500794
54	0xbde9e0bc	-0.11419818
55	0x3e20b9e7	0.15695916
56	0x3daeefc8	0.085418284
57	0x3e0b895b	0.13626616
58	0x3e05efd7	0.13079773
59	0x3d470d65	0.04859676
60	0x3ddca09e	0.10772823
61	0xbe54cc98	-0.20781171
62	0x3ec82cb9	0.3909662
63	0xbe331066	-0.17486724
64	0xbc946f22	-0.018119399
65	0x3ee4aa51	0.4466119
66	0xbed92668	-0.42412114
67	0xbd32d01b	-0.043655496
68	0x3e5917cb	0.21200483
69	0xbda1a6d6	-0.078931496
70	0x3d8f371d	0.06992934
71	0x3c68cbed	0.014208776
72	0x3e0ac1bf	0.13550471
73	0x3d05af4f	0.03263789
74	0x3c465d2e	0.012107177
75	0xbed4f2b2	-0.41591412
76	0x3dfd9f17	0.123838596
77	0x3e4ec1c7	0.20191108
78	0xbe1ba1a1	-0.15198375
79	0x3dcc5aed	0.0997828
80	0x3df1b1f4	0.1180152
81	0x3f2757ab	0.65368146
82	0xbe5d8fc5	-0.21636875
83	0x3dd9958c	0.10624227
84	0x3f10bd8a	0.56539214
85	0x3e9ee8a6	0.31036872
86	0xbf0817bd	-0.5316122
87	0xbd22790a	-0.039666213
88	0xbd6a6b67	-0.057231333
89	0x3d566f78	0.0523524
90	0x3eb8b0ee	0.36072487
91	0xbeb174de	-0.34659475
92	0xbea2eb4b	-0.3182014
93	0xbd8b83ee	-0.06812273
94	0xbc8ac753	-0.016940748
95	0xbed1259f	-0.40849015
96	0xbe421d81	-0.18956567
97	0x3e03dbf0	0.12876868
98	0xbdbd4f9d	-0.09243701
99	0xbeb14feb	-0.34631285
100	0x3d1aafbb	0.037765246
101	0x3d6e68b2	0.058205314
102	0xbea8fd8f	-0.3300595
103	0x3def0c2d	0.11672244
104	0x3d8bb008	0.06820685
105	0x3deb1f59	0.114805885
106	0x3de84fcf	0.11343347
107	0xbd52bbe4	-0.051448718
108	0x3ba28185	0.0049592876
109	0xbe6d2c9f	-0.23161553
110	0xbec18369	-0.3779557
111	0x3e39016c	0.18066949
112	0xbddb4ebc	-0.10708377
113	0xbe76cf07	-0.24102412
114	0xbd800461	-0.06250835
115	0xbe579bea	-0.2105557
116	0x3bcc51b5	0.006235326
117	0x3de88d89	0.11355121
118	0x3d189a6f	0.037256654
119	0xbcbf8148	-0.023377076
120	0xbcff2907	-0.031147493
121	0xbdd72907	-0.10505872
122	0xbd2e07c2	-0.042487867
123	0x3eb78a9d	0.3584794
124	0xbd018c45	-0.031627912
125	0x3e3c94e7	0.18416177
126	0xbc6c2828	-0.014413871
127	0xbcf8d40d	-0.030374551
128	0x3c89a707	0.016803278
129	0xbd88f1f7	-0.06686776
130	0xbde4f067	-0.111786656
131	0xbd85c565	-0.06531791
132	0x3e5a8045	0.21337993
133	0xbe3e9629	-0.18611969
134	0x3d847eff	0.06469535
135	0xbe159563	-0.14607768
136	0xbc89c492	-0.016817365
137	0x3e90b45f	0.28262612
138	0x3e898c3d	0.26864806
139	0xbb6c856f	-0.0036090275
140	0xbdf2002b	-0.11816438
141	0x3db4bbdd	0.088248946
142	0xbd81e1d2	-0.063419
143	0x3e670482	0.22560313
144	0x3dbe7655	0.09299914
145	0xbc65155b	-0.013982142
146	0x3e60a6b1	0.21938588
147	0xbe231953	-0.15927629
148	0x3e04c0c1	0.12964155
149	0x3eae5d61	0.34055617
150	0x3eabc0ef	0.33545634
151	0x3da37acc	0.07982406
152	0xbe854d35	-0.26035467
153	0xbcea4953	-0.028599417
154	0x3f4f9540	0.8108711
155	0xbc4f6644	-0.012658659
156	0x3ed50812	0.4160772
157	0xbf6bae4f	-0.9206285
158	0xbd03306a	-0.032028593
159	0xbe87be42	-0.26512343
160	0x3f05d78b	0.5228202
161	0x3ee44f9e	0.44591993
162	0x3e0c9793	0.13729696
163	0x3e9f3b89	0.3110011
164	0x3e9e8a9e	0.30965132
165	0xbece75bf	-0.40324208
166	0x3ed0d01b	0.40783772
167	0x3e6eb681	0.23311807
168	0xbebf0214	-0.37306273
169	0x3e0f263a	0.13979426
170	0xbe8024b4	-0.25028002
171	0x3c5603f3	0.013062465
172	0xbe50d0d5	-0.20392163
173	0x3ce6ffae	0.02819809
174	0x3ebcb81b	0.3685921
175	0xbefc09d0	-0.49226236
176	0x3ecfaaee	0.40560097
177	0xbddd78d8	-0.10814065
178	0xbe953c84	-0.29147732
179	0xbf04bac0	-0.5184746
180	0x3f6b9805	0.9202884
181	0x3e2002e5	0.15626104
182	0x39c55cbf	0.0003764387
183	0x3f007e0e	0.50192344
184	0x3dad108a	0.0845042
185	0xbea89018	-0.32922435
186	0xbeb90edd	-0.36144152
187	0xbbfc5f62	-0.0077018
188	0x3d9b5cea	0.07586081
189	0xbed0cbde	-0.40780538
190	0xbe861b75	-0.26192823
191	0xbe358d53	-0.17729692
192	0xbe30b111	-0.17255045
193	0x3e15ec5e	0.14640948
194	0x3e63de8a	0.2225286
195	0xbcb437fb	-0.02199935
196	0x3e2e2b39	0.17008676
197	0xbd924def	-0.07143771
198	0x3e4be268	0.19910586
199	0x3f1f92d2	0.62333405
200	0x3f062938	0.52406645
201	0xbd9a5024	-0.07534817
202	0x3d3bb3e0	0.04582584
203	0x3e73491d	0.23758359
204	0xbd10b30d	-0.035327006
205	0xbdb30d59	-0.0874278
206	0xbdf85b82	-0.12126829
207	0xbe4360f6	-0.19079956
208	0xbe0faccf	-0.14030765
209	0x3e8c0101	0.27344516
210	0xbd6aed67	-0.05735531
211	0xbdf1f233	-0.11813774
212	0xbea0fe1f	-0.3144388
213	0xbddd1fcf	-0.10797083
214	0xbe56cebe	-0.20977303
215	0xbe639ce7	-0.22227822
216	0xbd8c0920	-0.06837678
217	0xbda376bc	-0.07981631
218	0xbe7f014b	-0.24902837
219	0x3d6947c6	0.056953214
220	0x3c9916a6	0.018687557
221	0xbdc77cd8	-0.09740609
222	0xbec31b66	-0.3810684
223	0xbddf6bfb	-0.109092675
224	0xbd2c1701	-0.042014126
225	0x3e8ecfec	0.27893007
226	0xbe225c74	-0.1585558
227	0x3e18c2fd	0.14918132
228	0x3d51e2f3	0.051241826
229	0xbd268235	-0.04065152
230	0xbe6d7842	-0.23190406
231	0xbc95971c	-0.018260531
232	0x3e86d7c0	0.2633648
233	0xbdc97fe7	-0.098388486
234	0x3e8d08eb	0.27545866
235	0xbe1e6812	-0.15469387
236	0x3e80f74e	0.25188679
237	0xbede4afc	-0.43416584
238	0x3e535b1d	0.20640226
239	0xbdd9c641	-0.10633517
240	0xbeb85d96	-0.360089
241	0x3e3f06d8	0.18654954
242	0xbe7b278f	-0.24526809
243	0x3e9649a0	0.29353046
244	0x3d0f7fc7	0.035033967
245	0xbdd6bf0f	-0.1048566
246	0x3eadeef5	0.33971372
247	0x3df1ddfd	0.11809919
248	0x3c9a9a39	0.018872367
249	0x3d1ae9da	0.037820674
250	0xbe92ccaa	-0.2867177
251	0x3d052c6c	0.032513067
252	0xbda2f5e2	-0.07957055
253	0xbce6a271	-0.02815363
254	0x3d91e086	0.071229026
255	0x3e5153fc	0.20442194

encoder1_RNN.weight_hh_l1 f4 [150, 50]
0	0xbec49f22	-0.3840266
1	0xbcc0b12f	-0.023521988
2	0xbd9dd1df	-0.07706045
3	0x3e60696c	0.21915215
4	0x3ef0dcc9	0.47043446
5	0x3c980335	0.018556217
6	0x3d43913a	0.04774592
7	0xbe017378	-0.12641704
8	0xbec9c1a2	-0.39405543
9	0x3e3e2209	0.18567671
10	0xbc86df9e	-0.01646405
11	0x3d4f727b	0.050646286
12	0xbd707542	-0.058705576
13	0xbe1ad37b	-0.15119736
14	0x3e4de139	0.20105447
15	0xbe7d1e72	-0.24718645
16	0xbe501754	-0.20321399
17	0xbd46fd81	-0.048581604
18	0xbd7ac7b3	-0.061225604
19	0xbd7f79f3	-0.06237216
20	0x3e656b8f	0.22404312
21	0xbedbfe62	-0.42967516
22	0xbddc838d	-0.10767279
23	0x3d9c2da3	0.07625892
24	0x3de1b3c3	0.11020615
25	0x3e57eedb	0.2108721
26	0x3b017805	0.0019755375
27	0x3e4120dc	0.18860191
28	0xbe59303f	-0.2120981
29	0xbd7e037b	-0.062015038
30	0x3c9ad052	0.018898163
31	0x3e5f2432	0.21791151
32	0xbdeea529	-0.116525955
33	0xbe0f94ed	-0.14021654
34	0x3dc5dbf5	0.09661094
35	0x3c9f9937	0.019482238
36	0xbe0b2174	-0.1358698
37	0xbdf345fd	-0.118785836
38	0x3d78f0b3	0.060776424
39	0x3d40da16	0.047082983
40	0x3dd846fa	0.10560413
41	0x3e677a12	0.2260516
42	0xbe29ca9e	-0.16581199
43	0xbd0c923a	-0.03431914
44	0x3e70d8f0	0.23520255
45	0xbe7880d0	-0.24267888
46	0x3d4a6eb8	0.049421996
47	0xbd54e2d2	-0.051974125
48	0x3dc47898	0.09593314
49	0x3dc705cc	0.097179025
50	0x3d0e4eba	0.03474305
51	0x3d920602	0.07130052
52	0xbbb4103b	-0.005495099
53	0xbe220237	-0.15821157
54	0x3eadd062	0.33948046
55	0xbde850d3	-0.11343541
56	0xbcafe459	-0.02147119
57	0x3f1c1441	0.60968405
58	0xbf057126	-0.52125776
59	0x3d12794e	0.035760216
60	0x3f633dcc	0.8876617
61	0xbe887159	-0.26648977
62	0xbeab2681	-0.33427814
63	0x3e9ab6e2	0.30217654
64	0xbc8e747c	-0.017389528
65	0xbef0b8b5	-0.4701592
66	0xbe28d620	-0.16487932
67	0xbe4035a7	-0.18770467
68	0x3e0b1ed5	0.1358598
69	0x3e8124ca	0.2522338
70	0x3e8093cd	0.25112763
71	0xbe44e3ea	-0.19227567
72	0x3e1d8fbc	0.15386862
73	0x3e3ce4cc	0.18446654
74	0x3db3c053	0.08776917
75	0xbf3c34c6	-0.73518026
76	0xbddc45c4	-0.10755494
77	0xbe3c829c	-0.18409199
78	0xbe7f1272	-0.2490938
79	0x3eb9b1e3	0.3626853
80	0x3d2add0b	0.04171471
81	0xbc2ad0d4	-0.010425765
82	0xbce6f42c	-0.028192602
83	0xbd7b098c	-0.0612884
84	0xbd7ec8c2	-0.062203176
85	0xbde96399	-0.1139595
86	0xbddf5672	-0.1090516
87	0x3ed48a0f	0.4151158
88	0x3eaa5db8	0.33274627
89	0x3f635be0	0.88812065
90	0x3f054c9f	0.5207004
91	0x3d9c5fa3	0.07635429
92	0x3f1169b2	0.56801903
93	0xbe55da9c	-0.20884174
94	0xbe1f2ec1	-0.15545179
95	0x3ec8ddc1	0.39231685
96	0xbd8aa7d0	-0.06770289
97	0xbecd7f1f	-0.40136048
98	0x3e4826c1	0.19546033
99	0xbe759b2c	-0.23984975
100	0x3d29773e	0.041373484
101	0xbda2af0e	-0.07943545
102	0x3d766475	0.060154397
103	0xbf2e39b9	-0.6805683
104	0x3d9493ff	0.072547905
105	0x3e6e8cce	0.232959
106	0xbc788c54	-0.015170176
107	0x3eaec3f1	0.34133866
108	0x3d4c0c4d	0.04981642
109	0x3d11e213	0.03561599
110	0x3eb8ceb3	0.360952
111	0xbe428498	-0.18995893
112	0xbc931467	-0.017954065
113	0x3e72a442	0.23695472
114	0xbb0a74c8	-0.0021126736
115	0xbdb2972e	-0.087202415
116	0x3e8da78d	0.27666894
117	0x3d3b36e3	0.04570664
118	0x3c7dc2a1	0.015488298
119	0xbe89da7c	-0.26924503
120	0x3d21a322	0.039462216
121	0x3ea46df7	0.32115147
122	0x3f037c05	0.51361114
123	0xbd086627	-0.033300545
124	0xbd7a26eb	-0.06107227
125	0xbdb21d4d	-0.08696995
126	0xbd7327a0	-0.05936396
127	0x3e15f759	0.14645137
128	0x3d9f0912	0.07765402
129	0x3d5aff48	0.05346611
130	0xbeab49e7	-0.3345482
131	0x3eedf9ef	0.46479747
132	0x3dc11ecf	0.094297044
133	0x3e5afdaa	0.21385828
134	0x3ecbdd86	0.39817446
135	0x3e3ebae6	0.18625984
136	0x3e32020d	0.17383595
137	0x3d0677f0	0.032829225
138	0x3e85d320	0.26137638
139	0xbebff766	-0.37493438
140	0xbe5c65f1	-0.21523263
141	0x3e9b72d2	0.30361038
142	0x3eb2abc4	0.34896672
143	0xbe796663	-0.24355464
144	0x3eb22aec	0.34798372
145	0x3e456cb6	0.19279751
146	0x3d8b6e59	0.068081565
147	0xbe77598c	-0.24155253
148	0x3db606df	0.08888029
149	0xbe29f5a2	-0.16597608
150	0x3e9eee0b	0.31040987
151	0x3efffc7c	0.49997318
152	0x3e2a0f84	0.16607481
153	0xbf6dfcbd	-0.92963773
154	0xbd87d342	-0.06632091
155	0xbce109af	-0.027470438
156	0x3eca6314	0.39528716
157	0xbc782e7b	-0.015147801
158	0xbe0785a7	-0.13234578
159	0xbe420371	-0.18946625
160	0x3ec3d5aa	0.3824895
161	0xbf5e03fb	-0.86724824
162	0x3d83c6d3	0.06434407
163	0x3d48dfc0	0.04904151
164	0xbe2ec23a	-0.17066279
165	0xbfc23cd5	-1.5174814
166	0x3e11ace8	0.14226115
167	0x3e052df9	0.13005818
168	0x3dc9e2cc	0.09857711
169	0xbdeb65c0	-0.11494017
170	0xbe0c335f	-0.13691472
171	0xbf894bb0	-1.0726223
172	0xbdb5774b	-0.08860644
173	0x3df53edd	0.11974881
174	0x3dd8e6bb	0.10590883
175	0xbf04def0	-0.51902676
176	0xbd3f1949	-0.046654973
177	0xbeed0c7d	-0.4629859
178	0x3db0f7a8	0.08640987
179	0x3b0b66c4	0.002127097
180	0xbe918e8f	-0.28429076
181	0x3e9856a6	0.29753608
182	0x3f2a066a	0.6641604
183	0x3eab5db9	0.33469942
184	0x3dee5f54	0.11639276
185	0x3ebeafd6	0.37243527
186	0xbe2fe6c1	-0.1717787
187	0x3db54240	0.08850527
188	0xbdb3bd64	-0.08776358
189	0x3f3847ab	0.71984357
190	0x3ec03646	0.37541407
191	0x3e1bf547	0.15230285
192	0x3e59c605	0.21266945
193	0x3f1a65fa	0.60311854
194	0x3e4b2c1d	0.19841047
195	0x3e8caf9d	0.27477732
196	0xbcbfeda3	-0.023428744
197	0xbe4a3c31	-0.19749524
198	0x3da50975	0.080584444
199	0xbc5faabc	-0.013651546
200	0xbe04b272	-0.12958696
201	0x3ec7a729	0.3899472
202	0xbf3d5250	-0.73953724
203	0xbede147b	-0.43375
204	0x3eab051e	0.33402342
205	0x3e96fb39	0.29488543
206	0x3eb8ec2d	0.36117688
207	0x3ec71bc8	0.38888383
208	0xbe0d77e3	-0.13815264
209	0xbbb0e22d	-0.005398056
210	0x3f4916c6	0.78550375
211	0xbdd0a5f0	-0.101879
212	0x3ea50848	0.3223288
213	0xbc7d1d05	-0.015448813
214	0x3f0020ea	0.5005022
215	0xbe888e7d	-0.2667121
216	0x3e8a3695	0.26994768
217	0x3dfe64b0	0.12421548
218	0x3dd0e1fc	0.10199353
219	0x3e111c63	0.14170985
220	0xbdd1466e	-0.102185115
221	0xbd0a9e22	-0.033842213
222	0x3d4670e2	0.048447497
223	0xbeead937	-0.45868847
224	0x3dbbb865	0.0916603
225	0xbf884f44	-1.064919
226	0xbeffb13a	-0.499399
227	0xbdc332db	-0.09531184
228	0x3f0e5480	0.55597687
229	0x3a51fcbc	0.00080103776
230	0x3dae822e	0.085209236
231	0x3ed7b2d6	0.42128628
232	0x3ed80372	0.4219013
233	0xbe959fbe	-0.29223436
234	0x3de02e78	0.10946363
235	0x3e1d6644	0.15371042
236	0x3e7e502f	0.24835275
237	0xbe082835	-0.13296588
238	0xbeaaf429	-0.33389404
239	0x3e14d89f	0.1453576
240	0xbe359eee	-0.17736408
241	0x3e85ccf4	0.2613293
242	0x3e966f9b	0.29382023
243	0x3e9af74e	0.30266804
244	0x3d37bdd2	0.04485876
245	0x3ef9927c	0.4874457
246	0x3d2dcfdc	0.04243456
247	0x3e5e7f25	0.2172819
248	0x3e0b9fa2	0.13635114
249	0xbe93711f	-0.28797242
250	0xbeda3019	-0.4261482
251	0xbd9f235b	-0.077704154
252	0x3c6c61ae	0.0144275855
253	0xbe5c4f2c	-0.21514577
254	0x3d726910	0.059182227
255	0xbd907056	-0.070526764

encoder1_RNN.bias_ih_l1 f4 [150]
0	0xbe87ee19	-0.26548842
1	0xbe5feb46	-0.21867093
2	0xbe6f41f9	-0.2336501
3	0x3ee05862	0.4381743
4	0xbc29c88d	-0.010362756
5	0x3cced388	0.02524735
6	0x3e62dc2e	0.22154304
7	0x3d243b62	0.040095694
8	0xbe2a5546	-0.16634092
9	0xbf1b77b1	-0.6072951
10	0x3f0e77be	0.5565146
11	0x3e7fef77	0.24993692
12	0x3e70d7ea	0.23519865
13	0xbe04b9d6	-0.12961516
14	0x3e51b81b	0.20480387
15	0x3ead3048	0.33825898
16	0x3e7813e7	0.24226342
17	0xbe1f82f7	-0.15577303
18	0xbda0aaa8	-0.0784505
19	0x3e408c49	0.18803515
20	0x3e10bd59	0.1413473
21	0x3f23789e	0.6385592
22	0xbc0fc0d9	-0.008774006
23	0x3d79a345	0.06094672
24	0x3eda2935	0.42609563
25	0xbde0d313	-0.10977759
26	0xbc87d881	-0.01658273
27	0x3da9a558	0.0828349
28	0xbe81d97a	-0.25361234
29	0x3e37285e	0.17886493
30	0xbe1df3ae	-0.15424988
31	0xbd29ff88	-0.04150346
32	0xbdc67201	-0.09689713
33	0x3c2efe0d	0.010680688
34	0x3e571fd9	0.21008243
35	0x3e1b6038	0.15173423
36	0xbda88e47	-0.08230262
37	0xbe48f7c6	-0.19625768
38	0x3e084034	0.13305742
39	0x3f35b44d	0.7097824
40	0x3ec2eb03	0.38069925
41	0x3ded326c	0.11581883
42	0xbe4d76fb	-0.20064919
43	0x3eb4e2d9	0.3532932
44	0x3aa65c38	0.0012692278
45	0x3d9ccdf9	0.07656474
46	0xbebf618c	-0.3737911
47	0xbecda0ba	-0.40161687
48	0x3da6a11c	0.08136198
49	0x3c212425	0.009835278
50	0x3f5d5410	0.86456394
51	0xbd6a5f78	-0.057219952
52	0x3c35767c	0.011075612
53	0xbed783aa	-0.4209264
54	0xbccb9f66	-0.02485628
55	0x3f16a25a	0.5884148
56	0x3e12f937	0.1435288
57	0x3e4b9444	0.19880778
58	0x3eb18c11	0.34677175
59	0x3f5e5760	0.86852074
60	0xbf13c3d9	-0.57720715
61	0xbd942915	-0.07234398
62	0x3ded736d	0.11594281
63	0xbecc4fe9	-0.39904717
64	0x3eafc98b	0.34333453
65	0xbea5e6a4	-0.32402527
66	0x3d8c30f5	0.06845275
67	0x3f63bcd8	0.8896003
68	0x396dd2e0	0.00022680638
69	0x3efd335c	0.49453247
70	0x3a94d52e	0.0011355036
71	0xbd5cb671	-0.053884927
72	0xbe9efb57	-0.31051132
73	0x3ea0f0db	0.31433758
74	0x3ed6bfb6	0.4194314
75	0x3e02111f	0.12701844
76	0x3e570e6b	0.21001594
77	0x3ed9ab0b	0.42513308
78	0x3e223f55	0.15844472
79	0x3f20741d	0.62677175
80	0x3f224577	0.63387245
81	0x3e8e0c55	0.27743784
82	0xbe812cf2	-0.25229603
83	0x3ec5357b	0.38517365
84	0x3e94cd4d	0.29062882
85	0x3ed2f37b	0.41201386
86	0x3f2cd9d5	0.67519885
87	0x3ec64a4b	0.38728556
88	0xbd0007f9	-0.031257603
89	0xbd707e99	-0.058714483
90	0x3ea043f4	0.31301844
91	0x3eb3350d	0.35001412
92	0x3f3a7ff0	0.7285147
93	0xbbd9bd8a	-0.0066449093
94	0x3f2387e8	0.6387925
95	0x3e7de47f	0.24794196
96	0x3f5b54f7	0.8567652
97	0x3ed9872d	0.42485943
98	0x3ece1e47	0.40257475
99	0x3ee33161	0.4437361
100	0x3dcc48fa	0.09974857
101	0x3ebc52d2	0.36781937
102	0x3ea25bfe	0.3171081
103	0xbf1623f3	-0.58648604
104	0xbeb2e25f	-0.34938332
105	0x3dddec2b	0.10836061
106	0xba0ea281	-0.0005441085
107	0xbe8c6fb1	-0.27428964
108	0xbdc023e5	-0.09381846
109	0xbed263ef	-0.41091868
110	0x3eda9e2d	0.42698804
111	0xbf05eb15	-0.5231183
112	0xbdb374e2	-0.08762528
113	0x3f1f5f53	0.6225483
114	0xbdde6bd1	-0.10860408
115	0xbe75187b	-0.2393512
116	0xbdc21db0	-0.09478319
117	0x3d8695bf	0.065715306
118	0x3e81a5b1	0.25321725
119	0xbdf759b2	-0.12077655
120	0xbe90b62a	-0.2826398
121	0xbebc28ef	-0.3674998
122	0xbed0d166	-0.40784758
123	0xbd5f3081	-0.054489616
124	0x3e8550df	0.26038262
125	0xbd9e3d62	-0.077265516
126	0xbe384f85	-0.17999084
127	0x3d011605	0.03151514
128	0x37546658	1.2660013e-05
129	0xbd8019bc	-0.062549084
130	0xbe283381	-0.16425897
131	0xbdd0cf99	-0.10195846
132	0x3efeba56	0.49751538
133	0xbdbe6952	-0.09297432
134	0xbe008bfb	-0.12553398
135	0xbe5d1250	-0.21589017
136	0xbcbffe9a	-0.023436833
137	0x3d9a0d78	0.075221
138	0x3e691a9d	0.22764058
139	0x3bd30a84	0.0064404625
140	0x3e67fd0e	0.22655126
141	0xbdbd0baa	-0.0923074
142	0x3cf13e8d	0.029448772
143	0xbdc5f637	-0.096661024
144	0xbcb04883	-0.021518951
145	0xbdf191aa	-0.11795361
146	0x3e193f09	0.14965452
147	0x3e52534c	0.20539588
148	0xbdd57c2b	-0.10424074
149	0xbdebb9ed	-0.11510072

encoder1_RNN.bias_hh_l1 f4 [150]
0	0xbdc09489	-0.09403331
1	0xbe703834	-0.2345894
2	0x3cd20b75	0.025640229
3	0x3e7a8758	0.24465692
4	0xbcbfd4bf	-0.023416875
5	0xbded12fb	-0.11575886
6	0x3e0f5a10	0.139992
7	0xbc2929f7	-0.010324947
8	0xbdc033b2	-0.0938486
9	0xbf177ffc	-0.59179664
10	0x3f02756a	0.5096041
11	0x3e9f4eac	0.3111471
12	0xbc8ad479	-0.016947018
13	0xbd1bdd2e	-0.03805273
14	0x3df74e69	0.120755024
15	0x3f07d924	0.53065705
16	0x3f018032	0.50586236
17	0xbe051ae4	-0.12998539
18	0x3cc19a24	0.02363307
19	0x3e38b4ab	0.1803767
20	0xbd8b0288	-0.06787592
21	0x3f123e7d	0.571266
22	0x3d3a4e61	0.045484904
23	0xbdbe16da	-0.09281702
24	0x3ef08d57	0.46982834
25	0xbdbe72b1	-0.092992194
26	0xbe03bba2	-0.12864545
27	0x3e0df297	0.13862072
28	0xbd42075f	-0.04737031
29	0x3cfeaceb	0.031088313
30	0xbe6ac2b5	-0.22925837
31	0x3d61d561	0.055135135
32	0x3d39b3b4	0.045337394
33	0x3e3a4558	0.18190515
34	0xbd5a746e	-0.053333692
35	0xbba040d2	-0.0048905397
36	0xbe888c7c	-0.2666968
37	0xbe290561	-0.16505958
38	0x3e3a73ab	0.18208186
39	0x3f6972fc	0.9119108
40	0x3ef16853	0.47149906
41	0x3d60881f	0.054817315
42	0xbd56b5c3	-0.052419435
43	0x3e385ba7	0.18003713
44	0xbcef6eb6	-0.029227596
45	0xbd15ff2c	-0.036620304
46	0xbee19a0f	-0.4406285
47	0xbeb97977	-0.36225483
48	0x3d7458d5	0.05965503
49	0xbb2ee4a4	-0.0026686573
50	0x3f3dc093	0.7412197
51	0xbd23a82f	-0.039955314
52	0x3df76789	0.12080295
53	0xbef33f7b	-0.4750937
54	0x3e156921	0.14590885
55	0x3ef983e5	0.4873344
56	0x3e28c9e6	0.16483268
57	0x3db3a863	0.087723516
58	0x3e03e9a3	0.12882094
59	0x3f27a7b0	0.65490246
60	0xbf1ddb66	-0.616629
61	0xbe924453	-0.28567752
62	0x3e60e9ce	0.2196419
63	0xbe7a14b7	-0.24421965
64	0x3e76e6cb	0.24111478
65	0xbdcbcc27	-0.09951048
66	0xbdc812ee	-0.097692356
67	0x3f8126f9	1.0090019
68	0x3e50de3c	0.20397276
69	0x3f20d27f	0.6282119
70	0x3e30cb24	0.17264992
71	0xbdbe81d9	-0.0930211
72	0xbe6c6cf6	-0.2308844
73	0x3e6dec9e	0.23234794
74	0x3f1394bb	0.5764882
75	0xbe0922c4	-0.13392168
76	0x3c8c4f9e	0.017127808
77	0x3e7db85b	0.24777357
78	0x3e03ae95	0.12859567
79	0x3f1c938d	0.61162645
80	0x3ee86514	0.45389616
81	0x3e0d3e95	0.13793404
82	0xbe0d037e	-0.13770863
83	0x3ecd4779	0.40093592
84	0x3e89da49	0.2692435
85	0x3eec1968	0.46113133
86	0x3edcbebe	0.43114275
87	0x3eef0f0a	0.4669116
88	0xbd65eecf	-0.05613595
89	0xbdb12911	-0.08650411
90	0x3e61b9d3	0.22043543
91	0x3e92d99d	0.2868165
92	0x3f01f868	0.5076966
93	0x3df39e0d	0.1189538
94	0x3ed73a1f	0.4203653
95	0x3ea42ec9	0.32066944
96	0x3f4af58c	0.79280925
97	0x3ed6475d	0.4185132
98	0x3f1afe3f	0.605442
99	0x3ee1b404	0.44082654
100	0x3e2013d1	0.1563256
101	0x3ead1d50	0.33811426
102	0x3dd67650	0.10471785
103	0xbe9720be	-0.29517168
104	0xbe83a57c	-0.25712192
105	0xbc1b4ad8	-0.009478293
106	0xbdcef92f	-0.10106122
107	0xbde2ee95	-0.11080662
108	0xbe36c342	-0.17847922
109	0xbda053e2	-0.078284994
110	0x3f25e037	0.6479525
111	0xbf08d17c	-0.5344465
112	0x3c07acea	0.008280972
113	0x3f18b654	0.5965321
114	0xbda7ffcf	-0.082030885
115	0xbe954ea4	-0.2916156
116	0x3dad5555	0.084635414
117	0xbddbfdd5	-0.10741774
118	0x3ed71935	0.4201142
119	0xbe1566d2	-0.14590004
120	0xbea63fc6	-0.3247053
121	0xbe562801	-0.20913698
122	0xbe47335d	-0.19453187
123	0x3e085830	0.13314891
124	0x3e54c84a	0.20779529
125	0x3e2d9248	0.16950333
126	0xbdabc2d6	-0.083867714
127	0x3caa670c	0.02080109
128	0xbea9a950	-0.33136988
129	0xbdd844b2	-0.105599776
130	0xbe10476a	-0.14089742
131	0xbe4c7022	-0.1996465
132	0x3f2c416b	0.6728732
133	0xbcb0ad5f	-0.021567045
134	0xbd6b3c38	-0.057430476
135	0x3d455139	0.048173163
136	0x3bf2a33c	0.007404713
137	0x3e0fd10d	0.1404459
138	0xbd109418	-0.035297483
139	0x3e7e1dd4	0.24816066
140	0x3e806741	0.25078776
141	0xbe10bbb3	-0.14134102
142	0x3c6dcbcd	0.014513922
143	0xbc1a55b0	-0.009419844
144	0xbe4fdec0	-0.20299816
145	0x3e24627a	0.16053191
146	0x3bd5ec8b	0.0065284423
147	0xbd3a0717	-0.045416918
148	0xbe20be79	-0.1569766
149	0xbe3513a5	-0.17683275

encoder1_linear.weight f4 [1, 50]
0	0xbd28f481	-0.041248802
1	0xbdfb88e3	-0.122819684
2	0x3dfec785	0.12440399
3	0x3e3c05d6	0.18361601
4	0xbe3687ef	-0.17825292
5	0xbb604920	-0.0034223273
6	0xbc2616eb	-0.0101373
7	0xbd11f265	-0.035631556
8	0x3d5a59ff	0.053308483
9	0xbdafd0e3	-0.08584764
10	0x3c974d2b	0.018469414
11	0x3d4919ef	0.049096998
12	0xbca2ca97	-0.019871993
13	0x3bbedced	0.0058246762
14	0xbd6aa42f	-0.057285484
15	0x3d74ca57	0.05976328
16	0xbdf77b76	-0.12084095
17	0xbd7db64d	-0.061941434
18	0xbbde190e	-0.006777889
19	0xbc3e6912	-0.01162173
20	0x3cd0c7a4	0.025485821
21	0x3c2659dd	0.010153261
22	0x3da6c2b1	0.08142603
23	0x3d78cd00	0.06074238
24	0x3ddb915d	0.10721085
25	0x3e506e60	0.20354605
26	0x3d063b82	0.032771595
27	0x3d27fdd9	0.041013572
28	0xbcb01465	-0.0214941
29	0xbe38acae	-0.18034622
30	0xbbc9cd2f	-0.006158493
31	0xbcb4b902	-0.022060875
32	0xbe763bc2	-0.24046233
33	0x3d102ec0	0.035200834
34	0xbd361852	-0.044456787
35	0xbcceff41	-0.025268199
36	0x3d272867	0.040810015
37	0xbd140126	-0.036133908
38	0x3dd79409	0.10526282
39	0xbd93b240	-0.07211733
40	0xbd9e9b4f	-0.077444665
41	0xbc818825	-0.01581199
42	0xbc998d24	-0.018744059
43	0xbd69e0d3	-0.057099175
44	0x3d373be1	0.04473484
45	0xbdeb335b	-0.11484405
46	0x3c73d09c	0.014881279
47	0xbc8ec487	-0.017427696
48	0xbda7d607	-0.08195119
49	0x3d160670	0.036627233
