rnn_twc/saved_model/NoFeedback/K7_N21/bi_sigmoid/SNR(1dB)/model.pth (torch, 351183 bytes, 29 tensors)

weight_power f4 [21]
00000000: cf77 b83f 3f25 a93f 6979 9e3f c376 a93f
00000010: f124 8f3f 5721 8e3f 0036 9f3f 515e 893f
00000020: 6aae 7a3f 948b 7f3f ef22 873f fcda 4d3f
00000030: bfa6 7d3f 7902 633f f985 6e3f 4467 813f
00000040: fcc0 7a3f a27e 883f 6a6f 663f abf8 653f
00000050: 609c 903f
1.4411563 1.3214492 1.2380801 1.3239368 1.1183149 1.1103925 1.2438354 1.0731908
0.97922385 0.99822354 1.0557536 0.8041227 0.9908256 0.8867565 0.93173176 1.0109639
0.9795072 1.0663645 0.90013754 0.8983256 1.1297722

weight_merge f4 [21, 2]
00000000: 386f 763f 3820 b6b9 0c64 833f 1aa9 4eb8
00000010: fa6f 233f ed5c 3eba 58bf c840 8a94 4a3a
00000020: b9d8 4c3f 4a5d 833d 0c2b 9fb9 27a9 1c3a
00000030: 736e 4739 1466 c03e 82b9 ccb9 8970 df35
00000040: fb85 b7bc 328a 8640 3603 82ba 8c5a 7940
00000050: c510 e43b 61ac 9fb9 a270 cab9 5c45 213f
00000060: 57eb 11ba 5622 5f38 6ace 8b3a db2d a4bd
00000070: 9f85 733c ef09 4d39 ae04 4d3c 6b80 c5be
00000080: 9e4f 0bbc ecef 69bb 0069 d6ba 8570 68ba
00000090: 859b 30bc b68c 453a 20a2 8e3c 8825 793e
000000a0: 9e32 6aba 8d1c 8f3f
0.96263456 -0.0003473775 1.0264907 -4.9271715e-05 0.6384274 -0.0007261772 6.2733574 0.00077278225
0.8001819 0.06414278 -0.00030358916 0.00059761334 0.00019019264 0.3757788 -0.00039048126 1.6647547e-06
-0.022402754 4.2043695 -0.000991917 3.8961515 0.006960007 -0.00030455276 -0.0003861236 0.6299646
-0.00055663794 5.319932e-05 0.0010666375 -0.08016559 0.014863401 0.00019554024 0.012513323 -0.38574538
-0.008502869 -0.0035695983 -0.0016358197 -0.00088668644 -0.010779266 0.0007535921 0.017411292 0.24330723
-0.0008933934 1.1180588

encoder_RNN.weight_ih_l0 f4 [150, 8]
00000000: d541 16be 7caa 6fbe d9ee 223e 9707 20bf
00000010: 572c 81be 71f4 eabe 0274 0c3f 7632 89be
00000020: a259 e93e ce2e 253d 4a79 57be 3f16 3d3e
00000030: aed9 f53e 5317 7e3e 09f1 2bbe 2f7f 09bf
00000040: ff1d 953e 787f bd3e ebcf e9be b891 d73e
00000050: f074 eb3d 2b71 e9be 048b 95be 45bf 45be
00000060: 45dc 693e b5a9 673e 34ac a3bf f07b 00be
00000070: c3f1 0dbe 5dd6 39be 060e 763e 71cb 5c3d
00000080: ac0a ee3e b342 89be a4a9 d53d e696 a73e
00000090: ba48 ffbe 366e 593d 1d0c e93e 5508 f0be
000000a0: cfe4 b5bf 6cb2 7dbd 6cbf 9dbc 00ef 8d3e
000000b0: badc b93d 5384 babe 5a07 f53e cd68 4fbf
000000c0: c626 5c3e ed38 61be 1d58 ea3d 4b12 913e
000000d0: 04ff 17be d053 3ebf 6baf 6d3e 89a6 23be
000000e0: 76d3 62be 3a62 ed3e af7c 57be 90c1 683e
000000f0: dea5 43be fa39 ac3e 4d7d 253f ff3c 59bb
00000100: 15e5 aa3d adef 063f 34b4 65bd b0e4 0a3d
00000110: 959f 8bbe 66d6 00bf 21d3 74be 0183 d63e
00000120: 965f ec3d 7ded b6be b210 3c3e 5d26 61bd
00000130: c76a 4d3d 3e67 68be 5916 913e c7f3 9e3e
00000140: 40bd 85be 2ff0 29be edca bfbd 8d02 c43e
00000150: 200c 42bf 8366 dbbe c92c 9b3e 733b c9be
00000160: 33b8 8c3f 2dd2 153e 8853 a7be 10eb 583e
00000170: f030 eb3d 6f79 bd3e 37bd af3d c919 8ebe
00000180: cce9 edbd 9a46 03bf e4e2 053f 754f ca3d
00000190: 701b 5a3d 4bbe 6e3e adfc 09bd c48e e73e
000001a0: a7d8 133f 5589 7c3e 7ad7 053f 94ba 66bc
000001b0: 5922 953e 9a1e d0be 069e b53e 8c9c 04bf
000001c0: c9bc c63e a630 adbc b4c1 07be ca72 2c3e
000001d0: 7948 52be a842 a9bd b361 53bf a590 003f
000001e0: 79e9 2abd 3102 1e3f 5759 823e e9e8 f43e
000001f0: 4c75 0b3f fa71 60be f5cd 473e 57c8 b1be
00000200: fc8c 9a3e dd6b b9bd d015 d43d 9298 a7bd
00000210: 8480 913e c215 b1bc 116b 3f3d 8dd7 8dbe
00000220: 50e9 34bc 0450 313d 84f8 c13b 7c45 a2bf
00000230: e90e bfbd ebd5 43be a2f1 8d3e f2bd f33e
00000240: 0860 a1bd b025 2fbf 580b bd3d 22a2 683e
00000250: e8ba 943e 9cc8 6f3e 693a 9f3f a4dd 3bbd
00000260: c325 8bbe 8b94 36bf 542a 32be e55f c93c
00000270: be6b 1bbf 3f5e d0be 85b5 e03d 5123 0d3e
00000280: bdd9 97bf d717 c9be f8ec 42bf 0a21 0c3e
00000290: 40cc dbbe 253c d7be 3044 8ebe c574 aa3e
000002a0: 83e7 e13d 903c 983d 9219 b2be e452 2ebf
000002b0: 6c52 8b3e 1eb8 f83d c09c 8bbe 5f70 abbe
000002c0: 643b adbe 36ff cb3e 31fc 11be 4b04 35be
000002d0: 1b98 c13e 0c66 9e3e d79a 1f3f 478f 4fbf
000002e0: fe51 a4be 3096 1f3f 1823 12bf db22 4cbf
000002f0: 0e6e 4abf 913f 743e e38c 903d 6bc1 0e3f
00000300: 9983 65be ab42 243d f2c1 653e bb79 d2bc
00000310: 3cd2 08bd 9320 9abf ad4a a6be 4ecc ce3c
00000320: c413 223d 9567 c5bd 562c ebbe d3ef 4dbe
00000330: 6170 423e 94be aabe 7609 ea3e 0c52 09be
00000340: dcd9 263f cb7d d73e 08b2 b53d e014 603e
00000350: 2316 8f3d e71c 013d 0156 9ebd 5a8e f4be
00000360: 0ec8 39bc 50be 52be 3eb3 08be ee9b 553e
00000370: 8db2 c03d 8558 b8be 9e39 b23e d318 4d3e
00000380: 4ef1 12be aa6f d5bd 3fd9 413c 5943 c9be
00000390: 7a72 063f dcef b73f 303d 29be 87dc 113f
000003a0: 1621 4dbe 35e1 833e a084 57be a439 3b3e
000003b0: 5d59 78be b2c7 e83d f94f d93e da06 8a3e
000003c0: 1763 393e b89a 77be 23ce 3b3f 44e3 283e
000003d0: 93f8 bd3c 788a 243e b374 85bd 0e76 6f3d
000003e0: ac66 afbe 36a2 71be 22fe b73e a45d 143f
000003f0: 8bcf f33e 68bb 113f 8277 123e 3441 1bbd
-0.1467355 -0.23404878 0.15911426 -0.6251158 -0.2522914 -0.4588962 0.54864514 -0.2679631
0.45576197 0.04032784 -0.21042362 0.18465517 0.4801764 0.24813585 -0.16791166 -0.5370969
0.29124448 0.37011313 -0.4566644 0.42103362 0.114969134 -0.45594153 -0.29207623 -0.19311245
0.22837932 0.22623332 -1.2786927 -0.12547278 -0.13861756 -0.1814818 0.24028787 0.053904954
0.46492517 -0.268087 0.10432747 0.32732314 -0.49860173 0.05308362 0.45517054 -0.46881357
-1.4210452 -0.061937734 -0.019256316 0.27721405 0.090753034 -0.3642908 0.4785717 -0.8101929
0.21499166 -0.21994372 0.114425875 0.2833427 -0.14843374 -0.7434664 0.23211448 -0.15981497
-0.22150978 0.46364003 -0.21043657 0.22730088 -0.19106242 0.33637983 0.6464432 -0.0033147929
0.08344475 0.52709466 -0.05608006 0.0339095 -0.2727019 -0.50327146 -0.23908664 0.41896823
0.11541669 -0.35728064 0.18365744 -0.054968227 0.05015066 -0.22695634 0.28337362 0.31045362
-0.2612095 -0.16595529 -0.09364877 0.38283196 -0.7579975 -0.42851648 0.30307606 -0.3930317
1.0993713 0.14630957 -0.32680917 0.21183419 0.114839435 0.3700671 0.08581012 -0.27754048
-0.11616859 -0.51279604 0.5229933 0.098784365 0.053248823 0.23314779 -0.033688236 0.4522611
0.5775246 0.24661763 0.52281916 -0.01408257 0.29127768 -0.40648347 0.35472125 -0.5180137
0.38815907 -0.021141361 -0.13257486 0.16840664 -0.20535459 -0.08264667 -0.8257095 0.5022071
-0.041726563 0.61722094 0.25458786 0.47833946 0.54475856 -0.21918479 0.1951216 -0.3472316
0.30185688 -0.090537764 0.10355723 -0.08183397 0.28418362 -0.02161682 0.046732966 -0.27703515
-0.011041954 0.0432892 0.005919518 -1.2677455 -0.09329016 -0.19124572 0.27723414 0.47605854
-0.07879645 -0.6841688 0.09230679 0.22718099 0.29048848 0.2341637 1.24397 -0.04586567
-0.27177247 -0.7132041 -0.1739896 0.024581859 -0.60711277 -0.40696904 0.10972122 0.13783003
-1.1863323 -0.39276 -0.76142836 0.13684478 -0.42929268 -0.42038074 -0.27786398 0.33292213
0.110304855 0.074334264 -0.34785134 -0.6809523 0.2721132 0.121444926 -0.27268028 -0.3348417
-0.33834374 0.39843148 -0.1425636 -0.17677419 0.3781136 0.3093723 0.6234564 -0.81078
-0.32093805 0.6233854 -0.570848 -0.79740685 -0.7907418 0.23852374 0.07058122 0.5576388
-0.22413482 0.040102642 0.22437266 -0.025692811 -0.03340362 -1.2041191 -0.32478848 0.025243904
0.03956963 -0.09638897 -0.45932263 -0.20111017 0.18988182 -0.33348525 0.45710343 -0.13410205
0.6517618 0.4208816 0.088718474 0.21882963 0.06986644 0.031521704 -0.07731248 -0.47764856
-0.011339201 -0.20580411 -0.13349625 0.20860264 0.09409056 -0.36005035 0.34809583 0.20029001
-0.14349863 -0.10421689 0.011831581 -0.39309195 0.5251843 1.4370074 -0.16527247 0.56977123
-0.20032153 0.25757757 -0.21046686 0.18283707 -0.2425284 0.11366214 0.42443827 0.26958352
0.18104206 -0.24180114 0.73361415 0.16492945 0.023189818 0.16068447 -0.06516399 0.058462195
-0.3425802 -0.23597035 0.35936075 0.57955384 0.4761928 0.56926584 0.14303401 -0.03790398

encoder_RNN.weight_hh_l0 f4 [150, 50]
00000000: 15ec 0d3e d0c7 223d 92c0 79bd 530e 053e
00000010: c55d 97bf 3621 0fbf 0a60 a3be 068a 69be
00000020: 5502 563d edcc df3e 7679 dfbd c516 713e
00000030: a0b0 d53e 25e2 d2bd 7da0 36bf 7a16 463f
00000040: db2b 193d 335c c43e f012 1cbf 8114 6b3c
00000050: 0e01 173d 5819 a73d dcf4 afbe a025 16bf
00000060: fb3c 8b3b ce7e 213f c154 8dbe a2c8 70be
00000070: 0ee2 653f 3e78 a03e 7534 df3e 9568 f1be
00000080: 17a8 ab3e 4af5 4c3e 60a7 703e d0b1 d13e
00000090: 5480 9bbe c143 a1be b48e b23e bc73 01bf
000000a0: f2af 08be cd38 823e 6076 94be 74dd 88bd
000000b0: be44 a8be dc89 22be e043 083f fc0d 0e3f
000000c0: 0334 5d3e f621 2fbd 6277 783e 81f9 053e
000000d0: 8c46 f43d ac5c b7bd 6370 193f 8a2d d5be
000000e0: d0ea 31be c748 4e3e 0970 743e f6e5 1ebe
000000f0: 08e3 653e 7ca5 b53e 16eb c6be 5b67 8fbd
00000100: 8362 833e 64a0 9bbe ac37 36be d44f 3cbe
00000110: cf48 883e 2097 9a3e bf6f 75be 14f4 293e
00000120: 0759 353e 7235 af3e ddb5 9bbe e58f 853d
00000130: 9391 15be c14d a03e f31e 59bf ca1f 89be
00000140: 6902 0fbe c12c cb3e 04a6 0bbf ddb2 263f
00000150: 827f a13e 7848 3dbe 6430 9dbe 83a8 85be
00000160: 130f 30bf 2da3 de3e 8308 a5be 831e 29be
00000170: 455a ca3e bc10 173e fd73 2f3e 004e 953e
00000180: cf7b bfbe 6778 72be 507d 43bd 5578 86bd
00000190: 3a17 f3be b0e7 afbd 6321 1bb8 a1bc 8ebd
000001a0: d8ac a03d c06e 4abd 6597 c4be c508 ad3d
000001b0: 8252 df3e c324 e93e 0c80 2ebd 6e1d 8e3e
000001c0: aa8b 053e 54e2 7e3d 7bf1 d83e 7354 3dbd
000001d0: 683f 153e 127c 91be 76eb b63e 0095 1e3e
000001e0: ffc0 1f3f e9b0 e23d c4b3 0cbe 93d7 ab3e
000001f0: 6728 6cbf 09c5 503d c0e5 dbbe 0fdc 57bd
00000200: 87d8 443d 4593 213e 2755 aa3e 1842 c23e
00000210: 200b 99be 4d1a b23d b802 0c3f 4161 25be
00000220: 658f 85bd 6f1a c3be 9ddf debd c12b 03be
00000230: cc8d 253e aee9 e3be c417 5d3f c370 27be
00000240: f27d 953c fceb ac3e 7298 ad3e fa07 31bf
00000250: e363 e43e 32da a8be 1b41 823e 85c9 d83d
00000260: 57d6 26be 0539 a2be cd6b 8d3d c9d6 473e
00000270: 6ec0 3b3e 9532 cc3e 82d6 8bbd 994f 82bd
00000280: c5c6 083e 0b5b 01bd d07c 713d 723c 3a3e
00000290: f752 c7be 3ae6 80bd d5a7 24bd f5a3 2cbe
000002a0: 5741 253e 5800 3dbd 6dac 233f cd41 ff3e
000002b0: cd06 933e 76cc 11be d1f8 4fbe 2773 4abe
000002c0: e5b6 afbd c8e6 a63d a5dd a0be f098 5ebd
000002d0: e45d 3ebd e570 ba3d 146d 983e e8fe b53e
000002e0: 4210 053e e940 44be 98f6 e8be 0626 bdbe
000002f0: a623 fa3e 0f47 dc3e 2a8e 5abd 6119 973e
00000300: 21af e63e 05ab 9d3e 4bef b1be 4cc2 debd
00000310: 8589 cdbd 0880 1abe 7584 ab3e eae7 73bd
00000320: da39 83be 1e32 493f 8516 76be 2c2e a13e
00000330: 49a2 14bf 88f1 0dbe 06ab 53bd bbe9 5d3e
00000340: d11d 88be 9aad 40bd 7a9a 7b3e c364 3cbf
00000350: bca4 e5be f6f7 bb3e 0214 30be 1b31 cdbe
00000360: f8e5 d63e c4d8 883e c831 0ebf ed80 103f
00000370: de26 d5be b77d 273f 3a48 82bc 61a7 603e
00000380: 27d4 de3e 306c c33e 1b29 dbbd ba4b 803e
00000390: eed9 fdbc 616d 113f d0bc a33e 86c5 d6bd
000003a0: 9c09 413f 807d 1bbf b690 e8bd 1e07 263e
000003b0: 0f80 10be 243c 0dbf b4e6 a2bc 4d61 d8be
000003c0: e9ab 553f 7da1 cc3e d1fc 9dbe 5a33 573f
000003d0: e6ac 10bf cc89 683f 33f9 e73d 3f1a 1c3f
000003e0: 1b2f cc3e 6e8a 71be c8a3 e6be 28b2 093c
000003f0: d5ac 8e3e dc67 98bd 7542 f0bd e0e4 383f
0.1385959 0.039741337 -0.060974665 0.12993746 -1.1825491 -0.5591005 -0.3190921 -0.22806558
0.052248318 0.43711033 -0.10911839 0.23543842 0.41736317 -0.1029704 -0.71338636 0.77378047
0.03739534 0.38351592 -0.60966396 0.01434815 0.03686624 0.08159131 -0.343665 -0.5865116
0.004249213 0.63084114 -0.27603725 -0.23514035 0.8979806 0.31341738 0.4359471 -0.47150102
0.3352668 0.20015445 0.23501348 0.40955973 -0.30371344 -0.31497005 0.348745 -0.5056722
-0.13348368 0.2543396 -0.28996563 -0.06682864 -0.32864946 -0.15872902 0.5322857 0.5549009
0.21601872 -0.042756997 0.24264291 0.1308346 0.11927518 -0.08953223 0.59937114 -0.41636306
-0.1737473 0.2014495 0.23870863 -0.1551741 0.22449887 0.35477817 -0.3885123 -0.07002135
0.25661096 -0.30395806 -0.17794675 -0.18389827 0.2661805 0.30193424 -0.23968409 0.16597015
0.17709742 0.34220463 -0.30412188 0.06521586 -0.14606313 0.31309322 -0.8481285 -0.26782066
-0.13965763 0.39682582 -0.54550195 0.65116674 0.31542593 -0.18484676 -0.30700982 -0.26105127
-0.68773 0.43483868 -0.32233056 -0.16515546 0.39521995 0.14752477 0.1713409 0.29161072
-0.37399146 -0.23678742 -0.04772693 -0.0656592 -0.47478658 -0.08589113 -3.6985974e-05 -0.06969572
0.07845467 -0.049422026 -0.38396755 0.08448938 0.43617636 0.4553586 -0.042602584 0.27756828
0.13041559 0.062227562 0.42371735 -0.046223115 0.14574969 -0.2841497 0.35726517 0.15486526
0.62403864 0.11068899 -0.1374045 0.33562908 -0.9224915 0.050969157 -0.42948723 -0.0527001
0.04805806 0.15778835 0.3326809 0.3794105 -0.298913 0.08696423 0.5469165 -0.1615038
-0.06521491 -0.38106105 -0.108824946 -0.1280966 0.16167372 -0.4451422 0.8636439 -0.16351609
0.018248532 0.33773792 0.3390537 -0.69152796 0.44607458 -0.3297897 0.25440297 0.10585312
-0.16292702 -0.31684127 0.06905327 0.19515528 0.18335125 0.3988234 -0.068280235 -0.06362838
0.13357075 -0.031580966 0.05895692 0.1818712 -0.38930485 -0.06293912 -0.04019912 -0.1685942
0.16138206 -0.046142906 0.63934976 0.4985489 0.28716126 -0.14238152 -0.2030976 -0.1977049
-0.08579806 0.08149487 -0.314191 -0.05434507 -0.04647626 0.09103564 0.2977072 0.3554604
0.12994483 -0.19165386 -0.45500636 -0.36943072 0.48855323 0.43022963 -0.053358234 0.2951155
0.45055488 0.3079454 -0.3475288 -0.10876903 -0.100359954 -0.15087903 0.33499494 -0.059547342
-0.25630075 0.785921 -0.24032028 0.3148054 -0.5806013 -0.13861668 -0.051676773 0.21671192
-0.26585248 -0.04704056 0.24570647 -0.7359125 -0.44852245 0.36712617 -0.17195132 -0.40076527
0.41972327 0.2672788 -0.5554471 0.56446725 -0.41631216 0.654262 -0.015903581 0.2193885
0.43521234 0.38168478 -0.107011996 0.25057775 -0.030987706 0.56807524 0.3197999 -0.10486893
0.7540529 -0.6073837 -0.113557264 0.16213652 -0.1411135 -0.5516989 -0.019885398 -0.42261735
0.8346544 0.39966956 -0.30856946 0.8406273 -0.5651382 0.9083526 0.11326828 0.6097755
0.3987969 -0.23587963 -0.4504683 0.008404292 0.27866235 -0.074416846 -0.11731426 0.72224236

encoder_RNN.bias_ih_l0 f4 [150]
00000000: 12af dabe a78e 8f3e 94e1 96bd f2ac a2bd
00000010: e08b 87be 0e2a d23e fc43 2f3e 10a3 863e
00000020: e666 f53c 2c0a 7fbd e9d9 91be 62f4 8e3e
00000030: b2d8 893d e4b0 0d3e 9b1f cfbd c473 833d
00000040: d736 acbe 13b0 6c3e b718 f8be 6246 ecbe
00000050: b2f7 0ebe a724 8cbe 3d9d 3abd 660e 9bbe
00000060: 0fba acbe c9fa a8bd 15a8 65be c5d7 74be
00000070: 919f a13c f9bb 12bd d01c 44bd ee3b a5bd
00000080: 3985 58be deb8 00bf f255 45be 8406 183e
00000090: 85a5 86be 16c4 d5bb 4f94 29be 5b27 9a3d
000000a0: 475a 2fbd 5bd1 babe 2357 b9be 6cd9 463e
000000b0: 356b c2bd 1ae2 70be a897 c7be 0611 43be
000000c0: c4c6 d03c 3373 c1be 614e e93e 3e21 453e
000000d0: 1dfa bf3e c31a a13e fd6c ab3e dbfb 603e
000000e0: 0d31 343d 7e5b 443e 7027 dc3d 6c3b c6bd
000000f0: 8ff8 8cbe 5ae1 0e3b 01c4 cd3e bc62 043f
00000100: 3659 b13e cc8d a13e 0d4e 5a3e f46c 833c
00000110: 3ebf 8b3e c187 ba3e 03b6 163f 13aa 493f
00000120: 0796 9d3e c339 dc3e cd83 e83e 478d 873d
00000130: 3ee7 833e b21f 913e e123 dd3e a47b ce3e
00000140: 7b9c d93e 06f0 e33e 05c2 f63e f8b6 a73f
00000150: db10 143f e06c cb3d c28f 403d ac4f a93e
00000160: 3c21 893f 45f7 a43e 9197 c23e 9fb4 cc3e
00000170: 0cb5 053f 0872 bf3e e2d0 c93e af70 333f
00000180: 409a 2e3e d5e9 f93e 9a1f f13e 7932 273f
00000190: d33a 01bd e4eb f7be 3ce3 2cbe e6e9 47bd
000001a0: 453f eb3e 0ce6 6abe 148c 2b3e 96fb 723e
000001b0: b197 073e 4491 1b3a a3ad 17be d34b f8bd
000001c0: 6f56 10be 4171 e6be 187d 8c3e e6ca 83be
000001d0: 532a 80be b59c ee3e 8adf 6f3e 789f 863e
000001e0: 6d4f 9cbd 596b bfbc 348f 7cbd edcf 44bc
000001f0: 8316 b23d 3a47 8e3e e2c7 c2be bf5b a8bd
00000200: b220 b1be c446 373e f69d a43c 0aa8 743e
00000210: e371 e7bd 310a 5c3e 0896 a6bc 2bc3 da3d
00000220: 533a efbc 7c47 2dbe 8917 3dbe ec6a c53e
00000230: 55df d6bd 0cd5 9bbe 7f45 303e 8a0f 0dbd
00000240: d5de 17be 8036 55be bc23 0f3b e9ba dfbd
00000250: 3c19 573e 8188 e03d
-0.42711693 0.28038523 -0.07367244 -0.07943143 -0.26473904 0.4104771 0.17115778 0.26296282
0.029956292 -0.06226556 -0.28486565 0.27920824 0.067307845 0.1383701 -0.1011345 0.06418565
-0.3363559 0.23114042 -0.48456356 -0.46147448 -0.13961676 -0.27371714 -0.04556011 -0.30284423
-0.337357 -0.082509585 -0.224274 -0.23910435 0.019729408 -0.035823796 -0.04787904 -0.08068071
-0.2114457 -0.50282085 -0.19271067 0.14846236 -0.26298156 -0.0065236194 -0.16560481 0.07527038
-0.042810705 -0.3648785 -0.36199293 0.19418877 -0.09493104 -0.23523751 -0.38982892 -0.19049463
0.025485404 -0.37783203 0.4556761 0.19250962 0.3749551 0.3146573 0.3348159 0.21971075
0.04399209 0.19175526 0.107497096 -0.096793026 -0.27533385 0.00218018 0.40188602 0.51713157
0.34638375 0.31553495 0.21318837 0.016043164 0.27294344 0.36431697 0.5887148 0.7877514
0.30778524 0.4301282 0.45413056 0.066187434 0.2576236 0.28344494 0.43191436 0.40328705
0.42502198 0.4451906 0.481949 1.3102713 0.5783822 0.09932876 0.047012098 0.33068597
1.0713267 0.32219902 0.3800626 0.39981553 0.5222938 0.37391686 0.39417177 0.70093817
0.17051029 0.48811212 0.47094423 0.6531139 -0.03155024 -0.48422158 -0.16883558 -0.048807047
0.45946708 -0.22939318 0.16752654 0.23728785 0.1324146 0.0005934427 -0.14812331 -0.12123837
-0.14095472 -0.4500828 0.2743919 -0.25740737 -0.2503229 0.46603933 0.23425117 0.2629354
-0.07632337 -0.023366617 -0.061660007 -0.012012464 0.086957 0.27788717 -0.38043123 -0.08220624
-0.34595257 0.17898089 0.020094853 0.23892227 -0.11301019 0.21488263 -0.020335212 0.106817566
-0.029202616 -0.169218 -0.18466009 0.38558137 -0.10491816 -0.3043598 0.1721401 -0.034438647
-0.14831097 -0.20821571 0.0021841368 -0.10924322 0.2100572 0.10963536

encoder_RNN.bias_hh_l0 f4 [150]
00000000: fc3d fbbe 8a91 fa3e 4a66 fd3a 50d5 8bbb
00000010: 1b5f 6bbe 581e ef3e 3640 693e a71c aa3e
00000020: 41a7 0bbe 9211 9dbd f556 debe bd9b a73d
00000030: e34d 863e ce77 943e ddc3 37be 8f3c 753d
00000040: b98f 86be f13b 863e 7ab3 a3be c93b 0fbf
00000050: 8c77 80be fe7e 50be ef38 c83d 9526 a3be
00000060: 032a c8be 406a e53b 0cfe 25be 199b 8ebe
00000070: 2c92 0bbe 4c69 20be 4a8c 9abd 8951 e4bd
00000080: 19aa 14be d832 b3be 48e5 91be 351f 1b3e
00000090: ecef 5dbe ef04 60be b4d5 acbe 1f41 01bb
000000a0: 8b0b 08bd 8b78 88be a2f0 aebe a127 463e
000000b0: d048 a33d c75b 88be 47d7 acbe dd9f 70be
000000c0: 1b0e 2dbc 481d cbbe f7bb 033f a1b3 943e
000000d0: 1e33 be3e 0f6b 573e 0bd2 183e 4983 9a3e
000000e0: 5ba1 2b3e 4078 333e 43d0 003e 2a19 41bc
000000f0: 9f30 6bbe 2afc ba3d 9779 243f 2354 ab3e
00000100: 4597 013f 82fa 953e d56a 153e 96dc fabd
00000110: 9be4 df3d b0ee d43e 0316 143f eb3f 193f
00000120: c087 0e3e 383a da3e e317 123f 14e8 053e
00000130: aca3 203e 7adf 213e 04c3 d73e b291 563e
00000140: 7760 c73e c541 893e 464b c13e d410 ab3f
00000150: a295 b33e ebd6 373e cca9 0c3e 18c1 8a3e
00000160: ef25 633f bb14 8a3e 8b14 0f3f 83c4 a93e
00000170: 4688 013f 691e cf3e cb11 853e 631c 3e3f
00000180: 01dc 663e b657 053f 0b23 963e 81cb 0f3f
00000190: b66c c73e e23a 37be be36 84be e294 623e
000001a0: 0439 563e 393b a3be 14fe af3e 0b07 313e
000001b0: ae76 6b3e e084 7ebe fd99 c2bc 4505 81bd
000001c0: faf3 b7be 4b0b dabe 730e 80bd e954 a7bd
000001d0: 31c8 bebd 5952 c93e 35b2 a33e 4fc5 8a3e
000001e0: 1039 73be f702 653d fed1 76be 2ae4 bcbd
000001f0: 5207 743c e540 2f3e 96e5 48be bac1 3d3d
00000200: 6169 b7bd 00ea 043e 0920 3b3d 3b98 a13e
00000210: db8d 543d 3f14 3c3c a8e2 64bd b7b1 883e
00000220: 77c2 71be 9c67 33be 014a b2be 5e19 8b3e
00000230: 5d48 b2bd 0a37 6abe b9a3 9e3e 8294 cabd
00000240: ea09 1c3d 1f8d 873a 4d3e 08be 23c8 62be
00000250: b5f2 8fbd be6f 08be
-0.49070728 0.48939162 0.0019332853 -0.004267372 -0.22985499 0.46702838 0.22778401 0.33224985
-0.13638021 -0.07669367 -0.43425718 0.081840016 0.26231298 0.28997654 -0.1794581 0.059872206
-0.26281527 0.26217607 -0.31972867 -0.559506 -0.25091207 -0.20360944 0.09776484 -0.31865373
-0.39094552 0.0070011914 -0.16210192 -0.27852705 -0.13629979 -0.15665168 -0.07546289 -0.11148364
-0.14518012 -0.34999728 -0.2849524 0.15148623 -0.21673554 -0.21876882 -0.33756793 -0.0019722653
-0.033214133 -0.26654467 -0.34167963 0.19351055 0.07972872 -0.2663252 -0.33757994 -0.23498483
-0.010562445 -0.39670777 0.51458687 0.29043296 0.37148374 0.21036933 0.14923875 0.30178288
0.16760771 0.1752634 0.12579446 -0.011785785 -0.22967766 0.09130128 0.6424803 0.3346263
0.50621444 0.29292685 0.14591534 -0.12249105 0.10932275 0.41588354 0.5784609 0.59863156
0.13918972 0.42622542 0.570677 0.13076812 0.15687436 0.15807906 0.42140973 0.20954016
0.38940784 0.2680799 0.37752742 1.336451 0.35075098 0.17953078 0.13736647 0.27100444
0.8872976 0.2696894 0.5589072 0.3315774 0.5059856 0.4045289 0.25990137 0.74262065
0.22544862 0.5208696 0.2932361 0.561699 0.38950127 -0.17893556 -0.25823015 0.22127107
0.20920187 -0.3188112 0.34373534 0.17287843 0.22994491 -0.24855375 -0.023755068 -0.06299833
-0.35928327 -0.4258674 -0.06252756 -0.08170492 -0.09315527 0.3932064 0.319719 0.2710366
-0.23752236 0.05591103 -0.24103543 -0.09223206 0.014894323 0.17114599 -0.1961883 0.04632733
-0.08955646 0.12979889 0.045684848 0.31561455 0.051893096 0.011479436 -0.05588022 0.26698086
-0.23609339 -0.17519993 -0.34822085 0.2716779 -0.087052085 -0.22872558 0.30984285 -0.09891607
0.038095392 0.001034174 -0.13305016 -0.22146659 -0.070287146 -0.13323876

encoder_RNN.weight_ih_l1 f4 [150, 50]
00000000: 9c3d da3e d3cb d43c fb21 33bc 4418 873b
00000010: 051f a2bd 9701 ba3e b770 683e dd4c 17bc
00000020: c6dd 62bf 410b 1cbf d1dc 443c 86e3 4c3d
00000030: 9856 88be da64 033f bdd5 23be 5979 27bd
00000040: c84e bb3d a53f 00be af46 f9be 6e6c 233d
00000050: 6d49 d7be bbb4 443e ccc5 9c3e 4c0c 9ebd
00000060: 7166 323f 28eb b1be 3afd c53e b38d e33e
00000070: 7f26 26bf f098 413e 2b41 9cbc 7f8b 273d
00000080: 6c71 193e e1d1 21bc 1e9a b5be 4840 ecbe
00000090: fd56 1c3f 1c42 bb3c 76fb 67bf 1605 1d3e
000000a0: ca55 82bd 29d3 323f a1bf a8bd 1168 be3d
000000b0: ceca f93d 2784 093e 590a 98be ddb5 af3e
000000c0: 118c 4abe 63a4 de3e 0913 cbbc b54a e4bd
000000d0: c0b0 0b3f 0eeb d73e e7df d4be 5c86 67bf
000000e0: 66b0 033f 61f8 b2bd 1b67 90be 1a80 4d3d
000000f0: 0576 f3be c341 c23c 7b07 163f 430e 7e3a
00000100: e313 8c3e 60f5 153f 7619 24be 55ad 563e
00000110: e331 2ebe 7caf b7be 9460 31bf 258e 473e
00000120: b188 97bd c897 c13f c030 b6be 93c7 d03b
00000130: b0cc d23b 5564 14bf dba9 a63e 72b1 a7be
00000140: 8076 b1be fd22 adbe d8b0 e9bb e445 25bf
00000150: 4c2c 013e ed88 4e3c ae19 6d3e 4538 093f
00000160: 6fc3 c93e ebd6 37be a116 4c3e 7f4b 223f
00000170: 2eec 34bf 796e 35bf f385 613e 1aa4 6fbf
00000180: 5822 a23e f8ab 40bd 3b98 273e 5be4 09bf
00000190: 7fcf d43d b83a 093e 86d7 373b c315 c9be
000001a0: 13c7 1b3e 4a15 2bbd eb95 263e 61e6 73be
000001b0: dcaa dfbe cbbf 03bf 4a12 91bd d4d4 783e
000001c0: 3f44 c6be 04bd d43e 45e2 973e 3f38 8dbc
000001d0: f55c 6e3e 9f18 a33d 20cc c73d ce96 0f3e
000001e0: 009d 77be f2e5 c03e 540b 3d3e f033 b4be
000001f0: 167b 2dbe 2642 d8be 6bd5 053f 0ac2 493e
00000200: 2541 b7be 255b 483f 55e7 dd3e bb5b 71be
00000210: b84a c7bd 428a 70bd 6d99 57be 58ee 463d
00000220: 69ca c43e e4e4 aa3e ea40 2ebf c415 1bbe
00000230: 81cf dcbd b003 263e f580 073e 6ef5 3c3d
00000240: d706 d8be c0d9 453e 1c3f b43c 6df4 7c3e
00000250: e2cc 513c 134e cb3e 5862 f2be 2f01 40be
00000260: 2e69 233e e391 05bf 43be be3d 6d3d 19be
00000270: c8ac b93e c03f c43e f17a d0be d335 ecbe
00000280: d7fa b33b 532a e8be 4867 8a3d 7709 8ebd
00000290: 22c1 263e 5eb6 b2bd a35f 81bd 1a21 cc3e
000002a0: 74fe 243e 11a3 0c3b 2523 5d3e 9155 d53d
000002b0: af8b 003d 3ff5 8f3c 29b9 95bb 8f3e 0abe
000002c0: d31f af3d 96aa 173e a75c 1fbe f8ba 7bbd
000002d0: 9c1f 5dbe e699 583e 5ed3 b5bd 08bd c83e
000002e0: e15e 1e3e 7a59 24be 0123 8e3d 382d ecbd
000002f0: ffab f1be 8ead 143f a8f8 d1bd c1fb 4f3e
00000300: 28bd 9f3d 4140 bcbc 2991 0a3f 7f2d ef3d
00000310: 0aa0 38be 0430 c23d 1212 e4bd 4c77 31bd
00000320: 9ccd 8a3d caea 76be e264 0e3e d985 6abe
00000330: bcd8 b8bc e638 d33d 7870 0f3e 3d2c c6bb
00000340: dac5 22be f948 49be db97 52bd a0c3 a43e
00000350: fe90 76bd 19ce 29be 85e1 36be 890e 923e
00000360: e13a 913e fb70 b83e 3b9c dabe d24f 6b3d
00000370: 217b b0be 5269 093d faf0 813c 4344 4a3f
00000380: 539c 2bbd 1d3b 05be de8c a23e d6f2 153e
00000390: 221f 1c3c f9ed ecbd 7da8 f9bc 0c61 d1be
000003a0: d7df 483e 8805 da3d 15b3 b6be 70ee 843e
000003b0: e34d 063f 2fe2 a13e 3150 343e 44cd a1be
000003c0: c47b a0bd 2284 eb3e 70af 8a3d b2d7 31be
000003d0: 8582 15be 0332 bdbd 1be0 323e 39f7 db3e
000003e0: ad71 12be 6611 f23e 37d8 a2bf cfe0 033f
000003f0: 29eb afbd cd1a 49bd a201 7abd 581a 4c3e
0.4262513 0.025976097 -0.010933395 0.0041227657 -0.07916073 0.36329338 0.22699247 -0.009234634
-0.8861965 -0.6095467 0.012015537 0.05002167 -0.26628566 0.5132576 -0.15999503 -0.04088721
0.09145886 -0.12524278 -0.4868674 0.03989833 -0.42048207 0.19209568 0.30619657 -0.07717189
0.69687563 -0.34749722 0.3866976 0.44444045 -0.6490249 0.18905997 -0.019074043 0.04090452
0.14984673 -0.009876699 -0.35469145 -0.46142793 0.61070234 0.022858672 -0.90618074 0.15333971
-0.06364019 0.69853455 -0.08239675 0.09297193 0.12196885 0.13429318 -0.29695395 0.34318438
-0.19779994 0.43484792 -0.02478935 -0.11147062 0.54566574 0.4217152 -0.41577074 -0.9043939
0.5144104 -0.08738781 -0.28203663 0.050170995 -0.4755098 0.023712998 0.58605164 0.0009691456
0.27358922 0.5857754 -0.16025338 0.20964558 -0.17011218 -0.3587607 -0.6928799 0.19487818
-0.07399119 1.5124445 -0.35584068 0.0063714474 0.006433092 -0.57965595 0.32551464 -0.32752568
-0.3466072 -0.33815756 -0.007131677 -0.6455977 0.12614554 0.012605888 0.23154327 0.53601485
0.39406916 -0.17953078 0.19930507 0.6339645 -0.7067288 -0.7087169 0.22023754 -0.93609774
0.31666827 -0.047039002 0.16366665 -0.5386407 0.10391139 0.13401306 0.0028052046 -0.39274415
0.1521266 -0.04176835 0.16268127 -0.23818351 -0.43685043 -0.5146453 -0.070835665 0.24299937
-0.38723943 0.41550457 0.29664817 -0.017238734 0.23277648 0.079636805 0.09755731 0.14022371
-0.24180984 0.37675434 0.18461353 -0.35195875 -0.16941485 -0.42237967 0.52278775 0.19702926
-0.3579189 0.78264076 0.43340555 -0.23570149 -0.09731048 -0.058725603 -0.21054621 0.048567146
0.38435677 0.33377755 -0.680678 -0.15145022 -0.10781766 0.16212344 0.13232787 0.046132497
-0.42192718 0.19321346 0.02200275 0.24702616 0.0128051955 0.39708003 -0.47340655 -0.18750452
0.15958092 -0.5217573 0.09313633 -0.14964838 0.36264634 0.38329887 -0.40718797 -0.46134815
0.005492549 -0.4534479 0.067579806 -0.06935399 0.16284612 -0.0872619 -0.063170694 0.39869004
0.16112691 0.00214595 0.21595438 0.10416711 0.031383213 0.017572997 -0.004569192 -0.13500427
0.08550992 0.14811167 -0.15562688 -0.061457604 -0.2159409 0.21152458 -0.08878206 0.3920672
0.15465881 -0.16049758 0.0694027 -0.11532062 -0.47201535 0.58077323 -0.102525055 0.2031088
0.077997506 -0.022979857 0.54127747 0.116785996 -0.180298 0.094818145 -0.11136259 -0.04332666
0.06777498 -0.24113002 0.13905671 -0.22902621 -0.022564285 0.10313587 0.14007747 -0.006047754
-0.15895787 -0.19656743 -0.051414352 0.321805 -0.06019687 -0.16582526 -0.17859466 0.28526714
0.28365234 0.36023697 -0.4269732 0.05744917 -0.3446894 0.033547707 0.015861977 0.7901041
-0.04189713 -0.13010831 0.31748098 0.14643416 0.009528907 -0.11568827 -0.03047585 -0.40894353
0.19616638 0.10645586 -0.35683504 0.25963163 0.52462596 0.31617877 0.17608716 -0.31601918
-0.078361064 0.45999247 0.06771743 -0.17367437 -0.1460057 -0.092380546 0.17468302 0.42962053
-0.14301176 0.472789 -1.2722234 0.51514906 -0.08589775 -0.049097825 -0.061036713 0.19931924

encoder_RNN.weight_hh_l1 f4 [150, 50]
00000000: d32e 503e 5a93 86bd b417 fb3d a629 b8be
00000010: 6900 49be 6b92 99be 36c0 e3bd 1698 86bd
00000020: ea7c 54be d221 813e 4501 dabd a8d1 793b
00000030: 722a c13d 64d1 76bd ad77 85bd abc4 99be
00000040: 10bf a9be b51a 9e3d ac7c aebe 46b4 663e
00000050: 6ea5 cebd 8658 1cbe 881c 1dbe 7cda 4ebe
00000060: 653a abbd 11c3 54be 5da9 bfbc 8a9d 8c3e
00000070: 12b7 84bf 7d31 8f3e ba74 42be 3024 39bd
00000080: 0151 43bc 73bc cbbe da93 6f3e b232 c5be
00000090: 2b9b 7dbe 0b00 0cbf 586c 913e 6571 25be
000000a0: 9c46 71be aad0 22be af53 9c3d 7e46 b6be
000000b0: ebfe 223d 40de 2c3e 7f80 a3be 66d3 a4bd
000000c0: 3d44 46be cf0f e13d a521 3c3e 1ca0 703e
000000d0: 8645 423e 7918 a0be fa72 9b3d f193 873e
000000e0: 03a5 7c3b 267a ed3e 7ad5 ec3e 280f 92be
000000f0: 11bb 253d f679 56be 3a02 d6bd 6de5 943e
00000100: bfcc 48be 060b 213e f01f 913c e02e 9c3e
00000110: bbf9 3b3e 2eb2 0abe 7875 e43e ad2e fb3d
00000120: 2a44 a7be 0470 3a3d 54b4 8c3e e2e7 babe
00000130: 6776 21bf 4869 993e 6a13 e7bc eb7c 823e
00000140: b18e 0e3f 7dee 0ebf 4f4c 0f3f 14a0 adbe
00000150: f3cb 51bf 76a4 db3e 8214 a83f 9e68 28be
00000160: 6fc5 dc3e ce40 843d 80d5 453c 7b99 d83d
00000170: a712 003f 84a5 d5bc 6c14 f73e 2e67 333f
00000180: 3963 80be f792 bb3e f5e6 793e 497b 0a3f
00000190: c3a9 413e 6a54 5b3e c862 ecbd fb7c b13d
000001a0: 1842 033e 80c0 593d 13f5 ebbe 41bf aa3e
000001b0: 605a f83e 00e8 b33e b779 73be 3925 afbe
000001c0: f28b 9ebe b30c f1bd 3c59 77bf c815 b33d
000001d0: 3de8 ef3c deb4 cabe cfe8 873e e3c4 06bf
000001e0: fa7d 87bd b899 b1be 237b eebe 0080 493f
000001f0: 5456 92bb 0acd 3a3d e768 3fbe ee70 123e
00000200: 3ec9 8cbf d259 c9bd 366a 82be 20b0 81bd
00000210: 90ac 463d 1c13 bdbf 46f1 253e 5371 fbbe
00000220: 159e db3e 73e7 983d ddf4 8cbe f5ae 27be
00000230: fc05 87bb b9f3 3bbe 7653 03bf 5faa b73d
00000240: 369a da3d fa86 53be a7e2 9fbd 754a 0cbe
00000250: 6103 7cbe 9846 b8be ac7d ecbe 962a 003d
00000260: edd1 38bf caad a83d 74de 52bf 2bc5 f7bd
00000270: 51b8 6a3e 2b95 8a3d 62c5 0dbe ab97 07be
00000280: 2b8c 54bc a956 e8bd 468b 4c3d 3caa d43d
00000290: e61c 83be 2c9e 833c 989d e0be 803e 433f
000002a0: 3dce d5be ef6e 64be 24f4 1ebe 115b 8d3e
000002b0: a9a1 91be b478 de3d 5a7c eabe 4c94 bdbe
000002c0: 30ca b4be f808 53be 7142 27be 8ba0 8fbe
000002d0: 18aa 7ebe 64cf a83d 0d97 cabe d4a4 95be
000002e0: 8e31 353c c375 a0be 1e64 1e3e 5818 df3e
000002f0: 0b73 f6be 6c82 f4be 4729 aabc a524 01bf
00000300: 733f 0abf 2c6f 4ebe bddf b4be 6d8a 3cbf
00000310: d0b3 183e 5c7e 6bbe 212c de3d 0624 d83e
00000320: b2bb 0bbe b984 803e fd5d 893e 1197 073e
00000330: ac5e ca3e e333 843e 6e7e 14be 2d67 11be
00000340: b404 803e 75f1 c33e 6225 0ebe fbd6 9ebe
00000350: f0b4 48bd e71d 7a3d f130 94be c658 c83e
00000360: 5063 30be 087a 35be 078a 1f3e ff02 153b
00000370: 3d6f e1be 3ad9 f1bd f876 093c 07d9 bb3d
00000380: 6023 c3bd 514a 5f3e 2d53 46be b3d5 a4bd
00000390: e8e8 27bf 37eb 0a3f adaa ec3c bdd4 f23c
000003a0: 97d1 223e 5db3 12bf 673d c3be 09f0 31be
000003b0: 2ec9 f53e 1b19 1ebe 3961 22bc cff0 b63e
000003c0: 28a6 bf3e 5d30 a23d 43e6 31bc 94c6 cebd
000003d0: 07c8 253e 9d7d 033e f2e0 b1be 6f74 453e
000003e0: d22c 23be ac18 073e 7fa4 11be c264 453f
000003f0: f99c babe 13cc 01bd 1740 12be 7dbb a4be
0.20330362 -0.06571074 0.122603804 -0.35969275 -0.19629063 -0.2999452 -0.11120646 -0.06571977
-0.20750776 0.25221115 -0.106447734 0.003811935 0.09431924 -0.060258284 -0.06516967 -0.30032858
-0.33153582 0.07719938 -0.34079492 0.22529706 -0.10090147 -0.15268144 -0.15342915 -0.20200533
-0.08360747 -0.20777537 -0.023396188 0.27463943 -1.0368369 0.27967444 -0.1898984 -0.045200527
-0.011921168 -0.39792213 0.23396245 -0.3851524 -0.24766223 -0.54687566 0.28402972 -0.16156538
-0.23562092 -0.15899912 0.07633149 -0.35600656 0.03979389 0.16881657 -0.31933972 -0.080481336
-0.19361968 0.109893434 0.1837221 0.23498577 0.18971834 -0.3126867 0.075902894 0.26480058
0.0038550503 0.46382254 0.4625662 -0.28527188 0.040461604 -0.20944962 -0.104496434 0.29081288
-0.19609354 0.15726861 0.017715424 0.30504513 0.18356983 -0.13544533 0.44620872 0.12264762
-0.32669193 0.045516983 0.2748133 -0.36505038 -0.6307129 0.29963136 -0.0282075 0.2548593
0.5568648 -0.55832654 0.5597581 -0.33911192 -0.81951827 0.4289891 1.3131258 -0.16446158
0.4311938 0.06457673 0.012074828 0.10576149 0.5002846 -0.0260799 0.48257768 0.70079315
-0.250757 0.36635563 0.2440451 0.5409437 0.18912415 0.2141892 -0.115422785 0.08666416
0.12818182 0.053162098 -0.46085414 0.3334904 0.4850645 0.3513794 -0.237769 -0.34208086
-0.30966145 -0.1177 -0.96620536 0.08744389 0.029285545 -0.39591116 0.26544806 -0.52644175
-0.06615825 -0.3468759 -0.4657832 0.7871094 -0.0044658575 0.045605697 -0.18692361 0.14300892
-1.0998914 -0.09831585 -0.25471658 -0.06332421 0.048504412 -1.4771457 0.1620532 -0.49109897
0.42894045 0.074660204 -0.27530566 -0.16375335 -0.0041205864 -0.18354692 -0.51299226 0.089680426
0.10673945 -0.20656958 -0.078069024 -0.13700278 -0.24610664 -0.3599136 -0.4618963 0.031290613
-0.7219532 0.08236273 -0.82370687 -0.12098154 0.22921874 0.06766733 -0.13844827 -0.1324145
-0.012972872 -0.11344654 0.04993751 0.10384032 -0.25607985 0.016066633 -0.43870234 0.7626724
-0.4175891 -0.22307943 -0.1552282 0.2760854 -0.2844365 0.10862866 -0.45797998 -0.37027204
-0.35310507 -0.2060889 -0.16333939 -0.28052172 -0.24869573 0.082426816 -0.39568368 -0.29227316
0.011059178 -0.31339845 0.15467879 0.4357326 -0.48134646 -0.47755754 -0.020771636 -0.5044654
-0.54003066 -0.20159596 -0.3532695 -0.7364872 0.14912343 -0.22997421 0.10848261 0.42214984
-0.13645819 0.2510126 0.2682952 0.13241221 0.39525354 0.25820836 -0.14501354 -0.14199515
0.25003588 0.38270155 -0.13881448 -0.31023392 -0.04900068 0.061063673 -0.2894359 0.3913023
-0.17225385 -0.17722332 0.15579997 0.0022737382 -0.4403018 -0.11809011 0.008390181 0.09172254
-0.095282316 0.21805693 -0.19367667 -0.080485724 -0.6558976 0.5426516 0.028889978 0.029642457
0.15900265 -0.57304937 -0.38132784 -0.17376722 0.4800505 -0.15439264 -0.009910875 0.35730597
0.37431455 0.07919381 -0.010858121 -0.100964695 0.16189586 0.12840886 -0.34741932 0.19282697
-0.15935066 0.13193005 -0.14222907 0.7710687 -0.36447886 -0.03168876 -0.14282261 -0.32174292

encoder_RNN.bias_ih_l1 f4 [150]
00000000: de51 3dbe 17e6 22bd e796 0abf aa54 1dbe
00000010: dfca bdbe 7137 6bbe d4b0 66be b483 24be
00000020: cec8 0dbf a16a bebe e208 f03c 0513 d63e
00000030: 4895 48bd 1e00 13bf 7ebf 083d 407c 033e
00000040: e5b4 a4be ca5c 4abe abfe 0ebe 8611 8cbe
00000050: 8c1f 9fbe a097 373e c35e b0be 4598 5fbe
00000060: fc40 7bbe 920a 0dbe 8cfa eabe 498e 41be
00000070: b028 0f3f b522 0bbe da66 f0be e88d 94be
00000080: f992 debe 9640 76be 3e4d a23e e877 dabe
00000090: 19db a6bd 8740 2dbe ad03 b8be 0023 d9be
000000a0: a154 f43c 4a3f 053e c5ea b53c d102 e5be
000000b0: 2695 91bc e6cd 6ebd 7622 0abf 3c8b e63d
000000c0: 7103 223e 74b2 453d f43a 8a3f 9456 c23b
000000d0: c278 1d3f 497d 793f 12ed 083f 63b5 4f3e
000000e0: 9aaa 373f 8c95 183f 573b c03d cd80 8f3f
000000f0: 2d63 2a3d d21e 693e 791d ce3f fdbc 603f
00000100: e782 4e3f 8f56 5a3d 70bf 373f a4b4 143f
00000110: f6f9 90bd 9a91 ed3e 88d7 833f 307c 4f3e
00000120: a471 123f d274 873e 3732 033f eb57 123f
00000130: 83a8 d23e 0682 a83f 9a25 4c3f b38e 0e3f
00000140: 7fed 363e 62b0 323f dc6f 523f 8ecb d23c
00000150: 3a18 8b3e 1011 993f 73bb 363f 52bc e33e
00000160: 070f 293e c1d5 443f c67d 563f 17d9 893f
00000170: 85c1 be3e d767 713f 136c 043f b99d 503f
00000180: e7ec c23e a0c7 183e 17c2 013f 7d80 243f
00000190: b6e0 c53c b0c7 debe e9fd 9e3d 5ada 19be
000001a0: 610b 60be 3c04 c8be 0dcf f73e a60b 123e
000001b0: 96eb bc3d 7c92 13be 8556 403e 1051 d73e
000001c0: 3a62 283d ec90 bebd 389d c23e d68a de3e
000001d0: 7300 c0be 20c7 463e b6d6 51be 42dc a93e
000001e0: 206f ad3d 43ff 79be 1a09 6cbe 1504 e1be
000001f0: 3ac2 fdbd 4b23 733e 0d67 a2be d5f5 593d
00000200: 9116 193f c740 12bf 1367 cc3d a7cb 503e
00000210: 70de 88be 99af 143f c4dc a13e 5c8c cebd
00000220: 9d2e 8a3d f900 04be 03a4 8d3d c391 57be
00000230: 81dc b8be 2e3b 053e 25c9 913e e2e3 553e
00000240: caaa 8cbe c767 dbbe 1478 7b3e 56b3 a73e
00000250: 522f be3e 33d1 633e
-0.18488261 -0.039770212 -0.5413651 -0.15364328 -0.3706884 -0.22970368 -0.22528392 -0.16065866
-0.5538453 -0.37190726 0.02930111 0.41811386 -0.04897049 -0.57422054 0.033385746 0.12840366
-0.32169262 -0.19761959 -0.13964336 -0.2735712 -0.31078756 0.17928934 -0.34447297 -0.2183543
-0.24536508 -0.13773564 -0.45894277 -0.18901934 0.5592146 -0.13587458 -0.4695347 -0.29014516
-0.43471506 -0.24048075 0.31699556 -0.42669606 -0.08147258 -0.16919146 -0.35940304 -0.42409515
0.02982551 0.13012424 0.022206673 -0.4472871 -0.017771315 -0.05830183 -0.53958833 0.112570256
0.15821625 0.04826589 1.0799241 0.005930731 0.61512387 0.97456795 0.5348674 0.20284037
0.7174469 0.5960319 0.09386318 1.1211182 0.041598488 0.22765663 1.6102744 0.87788373
0.8066849 0.053305205 0.71776485 0.58088136 -0.07078926 0.46400148 1.030015 0.20262218
0.5720465 0.26456314 0.51248497 0.571654 0.4114419 1.316468 0.79744875 0.5568649
0.17864035 0.6980039 0.82201934 0.025731828 0.2716692 1.1958332 0.71379775 0.44479614
0.16509639 0.7688866 0.83785665 1.0769376 0.3725702 0.9429907 0.5172741 0.81490666
0.38071367 0.14919901 0.5068678 0.6425856 0.024155002 -0.43511724 0.07763273 -0.15024701
-0.2187934 -0.3906573 0.48400155 0.14262256 0.09224622 -0.14411348 0.18783005 0.42054033
0.0411093 -0.093049854 0.38010573 0.43465298 -0.37500343 0.19411898 -0.20492062 0.33175856
0.08468461 -0.24413781 -0.23050347 -0.43948427 -0.123905614 0.23743932 -0.31719247 0.05321296
0.5980006 -0.5713009 0.09980597 0.20390187 -0.26732206 0.5808044 0.31613743 -0.10085365
0.06747172 -0.12890996 0.069160484 -0.21051697 -0.3610573 0.13010857 0.28473774 0.20887712
-0.27474052 -0.42852613 0.24557525 0.3275401 0.37145478 0.22247772

encoder_RNN.bias_hh_l1 f4 [150]
00000000: c654 8ebc c1cd 243d 161f 0dbf d30a 37bd
00000010: b39b b3be 1aa9 95be 1cf1 0cbe 0e39 87be
00000020: de92 a5be a372 cbbe cc33 503d 4205 023f
00000030: bb30 6bbd 3a07 29bf 9b05 43be 473d 4a3e
00000040: bb67 66be b740 a0bc ff01 7dbd 9661 c8be
00000050: 3638 94bd 3208 25b9 e4a9 debe 09d8 26be
00000060: 9302 c8be ddca 4c3d acc1 0ebf 1f46 88be
00000070: df48 e93e 0e08 7cbe a6f6 17bf f14e b9be
00000080: 25cc b8be aa02 dcbd cc10 a33e 6272 abbe
00000090: 1d4d e6bd a6ae 55bd a744 3cbe 5d74 92be
000000a0: 24ef 09bd 2fe3 513e 075a d5ba 5c2b e8be
000000b0: 768e 503b ed4e 50be c521 f6be eae5 06bd
000000c0: 3c07 753e 6e1e 2dbe 0a06 833f 8172 1e3e
000000d0: 9b88 253f 5cb1 603f ce52 1a3f b6fc 333e
000000e0: acc1 213f 23c0 173f a945 cdbc a607 8e3f
000000f0: 4ce2 13be 1011 453e cd79 ce3f c591 733f
00000100: 915a 223f d0a9 4ebe 4b6f 693f 4c0d 393f
00000110: 3357 223e 79ae 043f edd9 4d3f 7aff 3c3e
00000120: 50c8 3f3f 42f3 003e 63a3 193f 5af8 063f
00000130: f32b ab3e 9193 b43f 5509 683f 9dd3 0f3f
00000140: e517 bd3e 2c6d 623f 3883 733f 1f64 57be
00000150: f8cc 2e3e faca 9c3f 3965 4f3f 97c5 263f
00000160: 7965 823e bb26 3c3f 038e 723f 35ca 973f
00000170: 90c9 873e aa50 963f 2133 d23e f5e7 3e3f
00000180: d12e 943e 06a8 d93d d3e6 1d3f 72d9 113f
00000190: c506 32be 75ec c5be 57da fdbc 3abe efbd
000001a0: 8383 1dbe b4f4 c73e 743c 623e 90b8 3cbd
000001b0: 18e5 a03c 17f0 183e cd52 cc3e acb0 183f
000001c0: ff4c aa3d b647 14bc 3618 0f3e 4708 a13e
000001d0: 8df4 e8bd c103 d03e 86cc 67be c79d 143e
000001e0: f1f0 d43b 9a70 c3be 6ec5 aebc 4680 f6be
000001f0: c56a 97bd 2290 dc3e 09d9 36be b265 f33d
00000200: 69d5 c53e 75fb 7cbe 50c6 f8bc 49f5 143e
00000210: 278e 73be 07ca 9e3e 3220 7d3e 1da0 73bd
00000220: 741f 8bbe 87ce 82be 668c 053e a5d4 893a
00000230: 879a 0ebf b18c b53d 800e 813e 62bf 713e
00000240: 0db0 7cbe 824b b5be 2053 743e 09f8 f73e
00000250: 2783 823e ddee ba3e
-0.017374408 0.040235285 -0.5512556 -0.044688057 -0.35079727 -0.29230577 -0.13763851 -0.26410717
-0.32338613 -0.39735898 0.050830647 0.5078927 -0.05741952 -0.6602665 -0.19045107 0.19749938
-0.22500508 -0.019562108 -0.06176948 -0.39136952 -0.07237284 -0.00015738679 -0.4348899 -0.16293348
-0.39064464 0.049998153 -0.5576427 -0.26615998 0.4556341 -0.24612448 -0.5936073 -0.3619304
-0.3609325 -0.10742696 0.31848752 -0.33485705 -0.11245177 -0.05216851 -0.18385564 -0.28604403
-0.033675328 0.2049682 -0.0016277441 -0.4534558 0.0031823195 -0.20342608 -0.4807264 -0.032934107
0.23928541 -0.16906139 1.0236218 0.15473367 0.6466157 0.8777063 0.602826 0.1757687
0.63186145 0.5927755 -0.02505763 1.1096084 -0.14441794 0.1924479 1.6130921 0.951443
0.63419443 -0.20181966 0.91185445 0.72285914 0.15853576 0.51828724 0.80410653 0.18456832
0.7491503 0.12592795 0.60014933 0.52722704 0.33431968 1.4107534 0.9063924 0.5618227
0.36932293 0.88447833 0.951221 -0.21034287 0.17070377 1.2249444 0.8101383 0.6514525
0.25468042 0.734966 0.9474794 1.1858584 0.26520967 1.1743367 0.41054633 0.7457269
0.28941968 0.10627751 0.61680335 0.5697242 -0.17385395 -0.38656965 -0.030987902 -0.11706205
-0.15382199 0.3905388 0.22093374 -0.04607445 0.01964049 0.14935337 0.39906922 0.5964458
0.08315467 -0.0090503 0.1397408 0.31451628 -0.11374769 0.40627864 -0.22636613 0.14513312
0.006498449 -0.38171846 -0.021334376 -0.4814474 -0.073934115 0.43078715 -0.1785623 0.11884631
0.38639382 -0.24705298 -0.030368 0.14546694 -0.23784696 0.3101351 0.24719313 -0.059478868
-0.27172434 -0.25548193 0.13041839 0.0010515644 -0.5570454 0.088647254 0.25206375 0.23608163
-0.24676533 -0.3540917 0.23859835 0.48431423 0.25490686 0.36510363

encoder_linear.weight f4 [1, 50]
00000000: f1da 063b cebc 60be baae b8bc dd44 383e
00000010: 63a3 a4bc eca8 a2be 5dcb 65bb 90fd e0bd
00000020: 081d 35be 1f98 2f3e 4e87 fb3d d94d 7a3e
00000030: f757 26bc 9836 7c3e 385c a8bc 370d e6bd
00000040: dba5 64bd 2ceb ff3b f727 fbbd 2dc3 28bd
00000050: dcfa d1bb 00ff 4dbe 1de5 3e3c 046f d93d
00000060: 9293 e0bd 5a86 743c 4aa9 753a 1c17 bbbb
00000070: 5b28 2a3e eb80 2abb 164a 63bd a101 c13c
00000080: d3c3 03bd 318c 2b3e 7452 91bd 2912 17bc
00000090: 24bf 473e a6ec 5d3d 55b8 1cbd 4517 973d
000000a0: 33a6 7dbd 9d26 86bc 50cb 1ebd 9d73 1fbe
000000b0: 723f cfbd fe91 e43b 5e3f a13d 6540 f7bd
000000c0: a6ca b03d ca37 82be
0.0020577277 -0.21947023 -0.022544254 0.1799502 -0.02009744 -0.31769502 -0.003506384 -0.10985863
-0.17686856 0.17147873 0.12281667 0.24443759 -0.010152808 0.24630201 -0.020551786 -0.11232989
-0.055822235 0.007810017 -0.12263482 -0.04120176 -0.0064080786 -0.20116806 0.011651305 0.10616878
-0.10965647 0.01492461 0.00093712343 -0.005709542 0.16616957 -0.0026016783 -0.055490576 0.023560347
-0.032169174 0.16752698 -0.07095805 -0.009220638 0.19506508 0.054180764 -0.03826173 0.07377485
-0.061926078 -0.016375834 -0.038768113 -0.15571447 -0.10119523 0.0069754114 0.078734145 -0.12072829
0.08632402 -0.2543319

decoder_RNN.weight_ih_l0 f4 [150, 1]
00000000: b3f4 783f 84ca 9fbe d59d 2f3e b1fe bc3b
00000010: d400 293f bcee dd3d d414 a73f 02d3 34bf
00000020: a110 7abf 3c39 fabc 6638 a53f 2c3d cf3f
00000030: ae8d 97be bc67 633f 6172 47bf f0fa b8bd
00000040: 5c07 5fbd a3ca 0bbf 450c 9cbf b49e 00bf
00000050: 9c06 51bf 4a2b 893f 066c 93be 07ba 983f
00000060: 542f 3ebf b035 7bbf 6f49 283f 3828 bebd
00000070: 4b8a b0be 84e6 bf3b d247 983f ff14 093e
00000080: 5777 68bf d782 94bf b2ce 6f3e bb89 36bf
00000090: 05f8 a43e ac79 6d3e 1bb4 813e 7aff 493f
000000a0: 1668 85be c341 c2bf 5073 8ebf 4c8a 89be
000000b0: 3cbe 65be 9f26 353f 0668 d4bf ef56 80be
000000c0: 711b 9e3e 2309 3bbf d941 653e 2e63 de3e
000000d0: 23b0 ddbe 67df 223d ea20 ca3e f9cc 263e
000000e0: 23b7 13be 1009 823e 9737 493e c7ec 6a3e
000000f0: 091c 8ebe 2416 9bbe 209d 23be 29f3 cfbe
00000100: ea0f d73e 9a20 00be 446d a3be 1fca c7be
00000110: 9a1a 253e bbc9 6c3f 1234 81be df9f 7d3f
00000120: 1bfd 013f 096e 34be 1e65 1b3f 81e1 833e
00000130: 27dd 70bf 41a8 f93d 794b 38bd 06dc aabe
00000140: 5ab6 473e f288 fabe c398 4c3e 0e76 983e
00000150: a750 25bc a54e 2b3f 654a 05be 10ed 723e
00000160: 8337 d7be e0b9 c53e 56ff debb 8b76 203e
00000170: 8017 d53e 5d5b e7bd 4043 28be ab58 3f3e
00000180: 628a e7be 3755 813e 9eef 2abd a959 a43d
00000190: 56ed e4bc 0a33 c1bc d6aa cabc d9c8 a7ba
000001a0: 6fa5 563e d1f1 0e3d 89b1 58bd 7e3b 4bbe
000001b0: 0404 9c3d 1d69 5f3c c3ee da3c 623d 1ebc
000001c0: f8b3 1ebd 1aca 533d c4bb fabd 8938 25bd
000001d0: 09b7 df3d 6b5f 35be 08c2 00bd d2aa 113b
000001e0: 4605 b13d dda1 d4bd d006 6bbd e1ca fd3c
000001f0: f117 c63b 5f20 ce3b 3a15 cc3d 335d 40be
00000200: 633d 9c3e bccf 13bb 8dfd 9bbd 0bec 36be
00000210: 73c5 963a 5180 ccbc c7d8 013d 96fc 9a3d
00000220: e51a bebd e47c 8dbd 8ddd b93d 869a fe3b
00000230: 73bf 2cbe 6bb9 83bc e05d ef3d 3670 68bd
00000240: 3055 e93d e6b6 353d 4f2d bcbd 0126 413e
00000250: 9770 363e 2a34 7bbb
0.9724838 -0.31209195 0.17150052 0.0057676663 0.6601689 0.108365506 1.3053231 -0.7063447
-0.97681624 -0.03054487 1.2907836 1.6190543 -0.2960028 0.8883016 -0.77908903 -0.090322375
-0.054450378 -0.54606074 -1.2191244 -0.5024216 -0.8165071 1.0716336 -0.28793353 1.1931771
-0.74290967 -0.98128796 0.6573705 -0.09285015 -0.3448051 0.005856337 1.1896918 0.13386916
-0.908071 -1.1602429 0.23418692 -0.7130391 0.32220474 0.23190945 0.25332722 0.7890545
-0.26055974 -1.5176319 -1.112894 -0.26863325 -0.2243585 0.70762056 -1.6594245 -0.25066325
0.3088031 -0.73060817 0.223884 0.43435043 -0.43298444 0.039763834 0.39478236 0.16289128
-0.1442533 0.2539754 0.19650112 0.22941886 -0.27755764 -0.3029033 -0.15977907 -0.40615204
0.4200433 -0.12512437 -0.319193 -0.39021394 0.16123429 0.92495316 -0.2523504 0.9907207
0.50776833 -0.176201 0.6070117 0.25757983 -0.9408745 0.12190295 -0.04499385 -0.3337099
0.19503155 -0.48932606 0.19980149 0.2977757 -0.01009003 0.6691688 -0.1301666 0.23723245
-0.4203454 0.38618374 -0.0068053408 0.1567022 0.41619492 -0.11296723 -0.16431904 0.18686168
-0.45222765 0.25260326 -0.041732423 0.08024914 -0.027945202 -0.023583908 -0.024739664 -0.0012800946
0.20961545 0.034898583 -0.052903686 -0.19846913 0.076179534 0.013635901 0.026725179 -0.0096581895
-0.03874585 0.05170641 -0.12242845 -0.04033712 0.10923583 -0.1771218 -0.031435043 0.002222706
0.08643584 -0.103824355 -0.057379544 0.03098053 0.0060453345 0.00629048 0.09964986 -0.18785553
0.30515584 -0.002255424 -0.0761672 -0.17863481 0.0011502936 -0.02496353 0.031700876 0.07567708
-0.092824735 -0.069085866 0.090754606 0.0077698855 -0.16869907 -0.016079625 0.11687827 -0.056747638
0.11393201 0.04436388 -0.091883294 0.18862154 0.17816387 -0.0038330653
