rnn_twc/saved_model/NoFeedback/K4_N12/bi_sigmoid/SNR(1dB)/model.pth (torch, 348047 bytes, 29 tensors)

weight_power f4 [12]
00000000: 19b6 a73f b731 aa3f 5f6c 973f 325f 923f
00000010: 117e 803f 13ca 833f fee8 703f 4246 7e3f
00000020: 22fc 873f 7e7c 823f 724d 733f 70d3 9f3f
1.3102447 1.3296422 1.1829947 1.1435301 1.0038472 1.0296043 0.9410552 0.99325955
1.062382 1.0194242 0.9504005 1.2486401

weight_merge f4 [12, 2]
00000000: 682e b23f bec4 303a 931c 303f ef59 483f
00000010: df68 c63f b39e 5a3f 177c 1240 fb72 433f
00000020: 72c3 2640 e315 313f b445 c7bb d343 1940
00000030: f47a 35ba 186a bf3f 16b8 c4bc e7a1 213a
00000040: 6430 8b3c 8d7d b63e 0d23 523c fd91 863f
00000050: 8d56 5dbb cce5 613f 1b70 94bc 3199 fe3f
1.3920412 0.0006743184 0.687936 0.7826223 1.5500754 0.85398406 2.2888238 0.7634732
2.605679 0.6917402 -0.0060813073 2.3947647 -0.00069229235 1.4954252 -0.02401356 0.0006165788
0.016990848 0.35642663 0.01282574 1.0513302 -0.0033773512 0.8824127 -0.018119862 1.98905

encoder_RNN.weight_ih_l0 f4 [150, 5]
00000000: 16df 3bbe b637 1abd a300 e93d 6f52 e9bb
00000010: 7f50 72be d137 383d afe5 fd3e 97ed 11bd
00000020: 5074 e13b 80d5 dcbe b3da 4ebf c26f 613d
00000030: de09 47bf 264a 8e3f abe3 20bf 4657 c5bc
00000040: c1ee 18be 986a 7d3e 77c6 afbe aeed 33bb
00000050: c9e1 4cbe 6ea8 bd3c a2dd ea3d 0664 15be
00000060: 34a6 4d3f abec 763d 52c7 b73e c536 3f3f
00000070: 1a8a ab3e 0677 e4be c5dc 7e3d c1dd 97be
00000080: 4042 c3be 9b9e f73d 3a0f 313e b1a7 37bf
00000090: f17e 59bd d061 d6be ace2 afbf cd61 1dbf
000000a0: 6f41 3abf 1c6f 58be 7b1c 91ba 265f 323f
000000b0: f61a 8b3e 990a 4ebe 21c6 2abf e42a 19be
000000c0: 0373 723f f1fd ad3e ba88 cd3e 423e d33d
000000d0: f34b b23d afe0 463f a5ec 643b f8b4 fe3e
000000e0: 881b 96bd 76c8 7a3e 126a 553e 34d1 393f
000000f0: 8167 dcbe 60c8 31be 5c0d ffbd aae7 3fbe
00000100: 6966 6c3e 1e6d 8f3e 9896 17be 1b6e 5bbe
00000110: 1185 96bc e8c7 653e 8055 873e 532b a33e
00000120: d30d c63e f44a 1a3f fcd9 6c3e a415 253e
00000130: e170 d63d aaa7 b23d c333 e13d 662f eebd
00000140: 5cfb 56be d2f6 e5be 77e4 9bbe 5861 dabe
00000150: 7cb6 c2bd 9bb8 c6be 76c1 2cbf e078 4ebf
00000160: f7de 2e3f 2cde 15bf 97b1 03be 5d50 3abc
00000170: a9a2 b53c e345 ad3d f9c8 bcbd 68ae 283c
00000180: 167b 183d 4466 6f3e 9edc b33e e115 dd3e
00000190: 7b4c 113f cdb4 ecbe 447d 113f bb06 b33e
000001a0: f4e0 953e 515e e23e c2da cdbd ac43 013d
000001b0: 68fb 3c3e 7c52 c33e 3595 ecbe 9764 b4be
000001c0: 742e 9bbc aa9c 3d3f e20e cc3a 8764 e03c
000001d0: 33ad bf3c c150 fe3c b57e 413e 0f2c b6bd
000001e0: 70af 3abe a215 84bf 9857 123f 28ab 87bc
000001f0: b8ca 9d3e e70c 933e 8e90 a73e 11a7 983e
00000200: 19d1 8b3e 0648 9ebf a17f a13e 0374 b23e
00000210: 61a7 8fbc 9781 273f 2af1 1a3e 91a5 22bd
00000220: c47d 99be 3096 e8be 0353 6ebe d276 07bd
00000230: b520 f3be 0b2f 0dbf e48b 26be 9e40 513d
00000240: ed4c 3fbe 8982 93bd 6127 02bf de75 00bf
00000250: 5f96 fb3e 617e 0e3f 8573 2cbf aadf 88bf
00000260: d0e7 57bf 0b64 9ebe 48c1 823f 11d1 c33d
00000270: 4b29 b43d 6f74 d03d 76c2 883d b319 7d3d
00000280: 6dfe f1bd 5d7a 0d3f a291 833e 6964 563d
00000290: 1ce8 82be c17d a13e ec47 9e3e 5d03 6cbe
000002a0: 666b 533e 4675 41bf 2920 62bd 680b e2be
000002b0: 2537 2fbe 8d67 f4bd 8264 a83e 7123 5bbe
000002c0: 3b32 eebe b322 d3be 24a0 063e e772 6c3e
000002d0: 2ef5 c9bd a38d 4b3c d27e 6cbe 706e 313f
000002e0: 6013 32be fb28 5f3e 897e 71be 7125 bebe
000002f0: 442a 7fbf 3d08 93bb 8b9b a63d 781f 58be
00000300: 9e38 35be 9541 7b3d c3c2 41bf 09f2 b9be
00000310: 7916 2cbf 7a4f f3be badd ba3e d884 b73d
00000320: f60d 04be eb4d 4bbe 6805 90be 0e0e b4be
00000330: 8879 44be ace8 88bf 630b 8cbe f834 30bf
00000340: 18bb 3c3e f31f 28bf c918 5b3e 5d39 b73e
00000350: 62b1 953d 34f1 053f 0965 a93e a409 49bb
00000360: c3ae 863c a3a5 4b3e da61 883e b685 a5be
00000370: b086 113b 9b02 5abe 47c1 1d3c 9c5e 913e
00000380: 4fff a53e 6dd1 71be 09c9 89bd e8da ce3e
00000390: f0b9 fcba 90cb 77be e660 b0be 1cec 69be
000003a0: 7408 c53e 0b65 11be 76fd 313e f112 9cbe
000003b0: b97f d7be 5723 b43d bd5b 48bc 567a 0ebe
000003c0: 854f 31bd f7dd 81be 02e0 083f f551 383f
000003d0: d500 8fbe cc8b 253e 4358 9cbd 0285 273d
000003e0: 42ca 6b3e fdce a13e 8967 953e bafc b83e
000003f0: 75fe b9bc 1339 463f 3091 e2be 633f d1bd
-0.1834682 -0.037650786 0.113770746 -0.0071204226 -0.2366352 0.044975106 0.49589297 -0.035626974
0.0068803206 -0.43131638 -0.8080246 0.05503822 -0.7774943 1.1116378 -0.62847394 -0.024089467
-0.14934827 0.24747694 -0.34331104 -0.00274549 -0.20008005 0.023151603 0.11468054 -0.14588937
0.8033173 0.060284298 0.35894257 0.74692947 0.335038 -0.44622058 0.06222226 -0.29661372
-0.38136482 0.120907985 0.17290965 -0.7174025 -0.053099576 -0.418715 -1.374105 -0.6147736
-0.72756094 -0.21136135 -0.001107111 0.69676435 0.27169007 -0.2012123 -0.6670857 -0.14957768
0.94706744 0.33982804 0.40143377 0.10314609 0.087058924 0.7768659 0.003493109 0.49747443
-0.0732947 0.24490532 0.20841244 0.72584844 -0.43047717 -0.17361593 -0.1245372 -0.18740717
0.23085941 0.28012937 -0.1480354 -0.2142872 -0.018373998 0.2243954 0.2643242 0.3186899
0.38682422 0.6027062 0.2313003 0.16121536 0.10470749 0.08723386 0.10996201 -0.11630134
-0.20994323 -0.4491487 -0.30447742 -0.42652392 -0.095074624 -0.38812718 -0.674827 -0.8065319
0.6830897 -0.5854213 -0.12860714 -0.011371699 0.022172289 0.084605955 -0.0921802 0.010295488
0.03722676 0.23378855 0.35129255 0.43180755 0.56757325 -0.4623169 0.56831765 0.34966072
0.29273188 0.44212583 -0.1005149 0.031558678 0.18455279 0.38148868 -0.46207586 -0.35232994
-0.018943049 0.74067175 0.00155684 0.027391685 0.023398018 0.031044366 0.18895991 -0.08895122
-0.18230987 -1.0319102 0.5716491 -0.016561106 0.30818725 0.2872078 0.32727474 0.29814962
0.27307966 -1.236573 0.31542686 0.34854135 -0.017535867 0.65432113 0.1513106 -0.039708678
-0.29978764 -0.45427084 -0.23273854 -0.0330723 -0.4748589 -0.55149907 -0.16264302 0.051087014
-0.18681689 -0.07202632 -0.5084134 -0.5017985 0.49138162 0.5566159 -0.6736377 -1.0693257
-0.8433809 -0.30935702 1.0215235 0.095613606 0.087969385 0.10178458 0.066777155 0.061792087
-0.11816106 0.55264837 0.25697047 0.052341852 -0.2556771 0.31541255 0.30914247 -0.23048158
0.20646438 -0.7556957 -0.05520645 -0.44149327 -0.1711088 -0.11933813 0.3288918 -0.21400239
-0.46522698 -0.4123741 0.13147026 0.23090707 -0.098612174 0.012423906 -0.23095253 0.6930914
-0.17390203 0.21792977 -0.23583426 -0.3713794 -0.9967387 -0.004487066 0.08135136 -0.21105754
-0.17697379 0.06134184 -0.7568781 -0.3631747 -0.6722179 -0.47521573 0.3649729 0.08960885
-0.1289595 -0.19853942 -0.28129125 -0.35166973 -0.19186985 -1.0696006 -0.27352437 -0.68830824
0.18430746 -0.6567375 0.21396174 0.35785952 0.07309224 0.5232117 0.33084896 -0.0030675912
0.016440755 0.19887404 0.26637155 -0.32328576 0.0022205524 -0.21290056 0.0096286 0.28392494
0.32421347 -0.23615046 -0.067277975 0.40401387 -0.0019281488 -0.24198747 -0.34448928 -0.22843975
0.38483012 -0.14198701 0.17381844 -0.304832 -0.42089632 0.08795803 -0.012228903 -0.13913855
-0.043288726 -0.25364658 0.5346681 0.72000057 -0.27930322 0.1616661 -0.07634022 0.04089833
0.23026374 0.31603232 0.29180554 0.36130315 -0.022704342 0.7743084 -0.44251394 -0.10217168

encoder_RNN.weight_hh_l0 f4 [150, 50]
00000000: e342 833d d787 1d3f 047f 03be 8b13 8abb
00000010: d5d0 603b bf84 e1bd 9a82 0f3d 8be4 fcbe
00000020: dcea fe3e 573e 08bf 90fa 1dbf cec0 2ebe
00000030: 502b fe3d a525 4abe a306 813e e156 fe3e
00000040: 5c81 cabd 66db 94bc 9f92 ad3c 1f6a 00bd
00000050: 98d3 023c 2b5f f83d 7477 253e db6f c3be
00000060: 5cfc 76be 3ea8 343f ffc8 173e 06cc 6fbe
00000070: 836a c7be 4a1a a93e c89a df3e 57de 8c3e
00000080: 371e ff3d 96f1 203f 92f9 88be 15d6 22bd
00000090: 0ff1 f3be 9ffe 9abc 7644 a1be 25bf 8e3e
000000a0: bef4 9fbe 5b3f 793d dbbc 87be a002 89be
000000b0: 11b0 813e 5a76 073e 2c6b 343e 5861 f2bd
000000c0: 640c 633d 5fcc d8be 8edb d63b 62e4 4d3e
000000d0: 9e1e 803e 21c7 a9be 8004 b03e b80d 743e
000000e0: 93ee d53d 1ee8 f33d c8be 43bf 041c ad3e
000000f0: 282b 623e bae7 803e 3c61 283b 5669 303e
00000100: f07b e03d c2c4 dc3d d04e f83e a15b a23e
00000110: b8f2 f2be a7f7 45be 75c4 d03e f0c8 15be
00000120: 5a0e b3be 24d2 0c3f 01a7 44bf 142c 01be
00000130: af5f 1ebe ac92 cebd 59f6 fc3e 311e fdbe
00000140: 890b 9b3d a765 82be 6b64 5d3e b06b 43bf
00000150: 2907 043f aa52 903e f8d5 1f3e a237 523e
00000160: eabd 003f fd70 6ebd 33dc 433d 14d3 dcbe
00000170: 11fc a33e 743e 543d fa9d 5e3d addf 09bf
00000180: 4752 c9be 6a29 3d3e 54c4 0cbe c05b d43d
00000190: 175e 2cbe 0f0c 91be df97 653e 4708 113f
000001a0: 8ed0 053f e656 3e3e 6a9d 9a3e f28e 133f
000001b0: c4b6 423f c9d2 85bf 0c13 fdbe 50e4 42be
000001c0: d1a5 0dbf 59d3 6abf 518f 763e dc3b a1bd
000001d0: 37ca b3bd da05 033e a54b 8f3e f3ae 4f3f
000001e0: e25c 403b 5a99 5c3f bcf8 7f3f 5615 babe
000001f0: 57f3 a7bf b263 ffbe b354 52bf d1e2 e6be
00000200: 1dcc 45bf 817a be3e 4c50 ff3c f236 3c3f
00000210: 6c1d bdbe e55d a23d 0c45 08bf 1a36 4ebe
00000220: a6af 14bf 4077 403f 7f1b 83be f0e3 463f
00000230: f736 6f3f f421 90be 6a50 c6bd 004a 1bbf
00000240: 9a1d 2b3c b817 c93e 4218 c03e bee2 e83d
00000250: 30e6 d53e faba 5cbf 12fd c5bd d2b6 ccbe
00000260: a385 683e 352d 263f 3226 3c3e 32af 343e
00000270: 6589 bd3d b025 1b3e 16df eabe 3629 a03e
00000280: b17e 16be 1887 013f 0fb4 6ebe 5793 763d
00000290: 4834 09bf 4bed e0be c0a8 cbbe 7c60 25be
000002a0: e6e1 8b3c e9c5 e5bd 5414 28be a080 f3be
000002b0: 7602 de3e 9425 d63d 7dbc f23c b3f0 d9be
000002c0: 7011 c1be 38ef ccbd cb3f 63be beb0 a4be
000002d0: bb33 ee3d 90e7 e3bd 16d0 6cbe a159 0fbf
000002e0: 4e47 783d a410 6bbe dd79 7c3e 603b 293e
000002f0: 87f7 023f d24e 233e 9755 853d 75e7 abbe
00000300: 7547 5abd 8a46 503f d52b 863d 882b a5bd
00000310: d4dc 1a3e 607e 173f 2621 87be 94f6 6e3f
00000320: e4b9 17bc 84e5 94be 8bef 0f3d 7247 293e
00000330: 5281 ebbe 22ad 663e 1785 6f3e 4aa0 633e
00000340: b7ee 9bbe a7fa 843e 87cf ea3e bf36 033f
00000350: 34e6 a53e 54eb e83d 1f3b 92be c512 7dbe
00000360: 868f 16be a66b 34be 465d e33e 762f 08bf
00000370: fdfc 48be 8406 aabe 5b08 f3be 3305 1c3e
00000380: d247 5abd ab6c 013d 0ae4 1c3e 4ddf 05be
00000390: 65e0 85bd 5b90 83bc fcff 2bbe f08b 703e
000003a0: aa53 443d 1224 3ebe 0bbd c43d 0164 0d3d
000003b0: d725 da3e 7079 8bbd 869e 563e 6989 09be
000003c0: 5c0e 9fbd b1df d33d a2ec e93e 5a0b 08be
000003d0: bc6a fc3d 9355 b63d f846 12be 6285 ecbd
000003e0: d72c 263e 2066 ae3e 9e3a 173f fc21 d9be
000003f0: 2194 8d3e 3f09 653d b684 f83d 80fa cfbe
0.06409242 0.615354 -0.12841421 -0.0042137555 0.003430416 -0.110116474 0.03503666 -0.49393114
0.49788558 -0.53220123 -0.61710453 -0.17065737 0.12410605 -0.19740923 0.25200376 0.49675658
-0.098879546 -0.018171024 0.021188078 -0.031351205 0.007985018 0.12127527 0.16158849 -0.38171276
-0.24119705 0.7056922 0.14822768 -0.23417673 -0.3894845 0.3302787 0.43672776 0.27513382
0.12456935 0.6286863 -0.26752907 -0.039754946 -0.4764485 -0.01892024 -0.31497544 0.27880207
-0.3124141 0.060851436 -0.26511273 -0.26759815 0.2532964 0.13228741 0.17619008 -0.11834973
0.05543174 -0.42343423 0.0065569347 0.20106652 0.2502336 -0.33159736 0.34378433 0.23833358
0.10445895 0.11909507 -0.76462984 0.33810437 0.22086775 0.25176793 0.0025692722 0.17227682
0.10961139 0.10779716 0.4849763 0.31710532 -0.47450805 -0.19332753 0.40774885 -0.14627433
-0.34971887 0.5500815 -0.7681733 -0.1261447 -0.15466188 -0.10086569 0.49406698 -0.49437097
0.075705595 -0.2546818 0.21620338 -0.76336193 0.51573426 0.28188068 0.15608966 0.20529035
0.50289786 -0.058213223 0.04781742 -0.4312979 0.3202825 0.051817372 0.054349877 -0.5385693
-0.39320585 0.1847283 -0.13746768 0.103690624 -0.16832767 -0.28329512 0.22421215 0.56653255
0.52271354 0.18587837 0.30198222 0.5763999 0.7606013 -1.0454952 -0.49428594 -0.19032407
-0.5533114 -0.9172874 0.24078108 -0.078727454 -0.08778804 0.12795201 0.279874 0.81126326
0.0029352237 0.86171496 0.99988914 -0.36344403 -1.3121136 -0.4988075 -0.8216049 -0.45094922
-0.7726458 0.37202838 0.031166218 0.7352134 -0.3693651 0.07928065 -0.5323036 -0.20137826
-0.5808052 0.7518196 -0.25606915 0.77691555 0.93443245 -0.28150904 -0.096833065 -0.6065979
0.010444069 0.39275908 0.37518507 0.11371373 0.41777182 -0.86222804 -0.0966741 -0.3998323
0.22707228 0.6491273 0.18373945 0.17644957 0.092547216 0.15151095 -0.45873326 0.3128144
-0.14696766 0.5059676 -0.23310874 0.060199108 -0.535954 -0.4393104 -0.39777184 -0.16150087
0.01707549 -0.11219389 -0.16414005 -0.4755907 0.43361253 0.10456386 0.029630894 -0.4256645
-0.37708616 -0.10006565 -0.22192304 -0.32166094 0.116309606 -0.111281514 -0.23126253 -0.5599614
0.060614876 -0.22955567 0.24655862 0.16526556 0.51158947 0.15948036 0.065104656 -0.33575025
-0.053290803 0.81357634 0.06551329 -0.080649436 0.15123302 0.5917721 -0.26392478 0.93345
-0.009260628 -0.29081357 0.035140555 0.1653116 -0.459971 0.22526982 0.23390613 0.22229114
-0.30455562 0.25972483 0.45861456 0.5125541 0.32402194 0.1137301 -0.2856073 -0.24714191
-0.14703187 -0.1761919 0.444071 -0.5319742 -0.19627757 -0.33208096 -0.47467312 0.15236358
-0.05329115 0.031597774 0.15321365 -0.13073464 -0.065369405 -0.016060045 -0.16796869 0.23490882
0.04793135 -0.18568447 0.096063696 0.0345192 0.42606995 -0.06810272 0.2095891 -0.13431324
-0.07766411 0.103454 0.4568835 -0.1328558 0.123250455 0.08903041 -0.14284885 -0.11548878
0.16228043 0.3406229 0.5907382 -0.4240874 0.27652076 0.05591702 0.121346876 -0.40620804

encoder_RNN.bias_ih_l0 f4 [150]
00000000: 3c41 cfbe 8b91 8cbd 75c0 303e a5b4 13bd
00000010: d448 99be e321 59be 54a3 febe a34c 493c
00000020: 62f6 81be 25d5 d9be 3bd7 0bbe 38bd 91be
00000030: 1635 ecbe 06d5 59bd 0080 e53d ac01 52bb
00000040: 98a8 f3be 4481 dbbe b16c 8ebe e2e2 78bc
00000050: e64f 7c3e 1660 1bbe 9f42 ddbe 18c7 a6bd
00000060: 0332 1cbe 08ea 073e ad6b 4dbe 05e7 efbe
00000070: d3e1 03bf 58c8 9dbe 8f1d 5fbf edf8 fcbd
00000080: 1349 55bb 91cd 11be 306e 0bbf 4806 5fbf
00000090: e6d4 72be 02fd 9bbe 6052 f0be bafc 0bbf
000000a0: bbb2 bbbe 06f3 0bbf 268a 83be 16cb 46be
000000b0: 62e4 84be 12da 92be aa84 93be 1643 3cbe
000000c0: 1321 22be 7937 d5bd c2ae 183f 4de1 a73e
000000d0: c81c 28bf 8523 183f 1a0f 183f 0857 8c3e
000000e0: 508d 183f 9379 eb3e fdef dc3e 8dc3 9f3d
000000f0: e10c 89bd 5874 48be b69f 0a3f 70db a73e
00000100: 0529 bd3e 57a0 163f d914 953d f791 9fbe
00000110: bf4a 263f f034 973e a253 c73e 2360 923e
00000120: 0029 ff3d bd1f 493f bf59 8c3d 141b dd3e
00000130: 536f 903e 2f03 b23d 9ac3 903e 79d8 ea3e
00000140: 5669 d03e 19bf 8f3e f160 fc3b 9154 d23e
00000150: 61c8 633f 3f5e 883e 5a2d 5abd dd0f cc3e
00000160: e901 c63e 2d75 873e 3b2f 3f3f b0b2 983e
00000170: 9430 9a3e 71a5 94bc a56c 003f 0ff5 083f
00000180: 13fa 3f3e 35e4 803e dade 2abe 7556 213e
00000190: 606a 0b3a 239f 903e 3501 f1bd ce7f bfbd
000001a0: 4e7f bb3b 1458 adbd 6abe 09be dba1 b6bd
000001b0: a39a 76be e148 d03c b4cd 9cbd 54e8 3c3d
000001c0: e2eb d43a 33ea fdbd 1fb4 4c3e ceed a9bb
000001d0: ac14 f9bd 5491 aa3e 3cbb 09be bf8b 8bbd
000001e0: 15b8 4f3e 548d db3d d497 b3be bfc9 58bd
000001f0: 224c 0cbd 4e44 ca3d b1a4 09be dcee a9be
00000200: 0713 2b3d 6da7 febd 2073 53bd 8b73 983d
00000210: 7c44 d5bd 3760 543e 8541 d93c 1a02 f63d
00000220: 594c 1bbe c2d5 a4bd 1931 e3bd 514f 36be
00000230: 38b3 eebd 4f75 473c e242 e23c a54b 21be
00000240: 40bd 0b3e 8e13 2a3d 2a55 bbbd e267 85bc
00000250: 0be3 043e 9d92 05be
-0.40479457 -0.068636976 0.17260917 -0.036060948 -0.29938376 -0.21204333 -0.49733984 0.012286338
-0.25383288 -0.4254543 -0.13656323 -0.28464675 -0.4613425 -0.05318167 0.11206055 -0.0032044454
-0.47589564 -0.4287206 -0.278173 -0.015190812 0.24639854 -0.15173373 -0.4321489 -0.08143443
-0.15253453 0.1327287 -0.20060606 -0.4685594 -0.51516455 -0.30816913 -0.8715448 -0.12352166
-0.0032544776 -0.14238574 -0.5446501 -0.8711896 -0.23714027 -0.30466467 -0.46937847 -0.54682505
-0.36659798 -0.546677 -0.25691336 -0.19413409 -0.25955492 -0.28682 -0.28812152 -0.18384966
-0.1583293 -0.10410971 0.5964166 0.32789078 -0.65668917 0.594292 0.59398043 0.2741015
0.59590626 0.4599119 0.43151847 0.0780097 -0.066919096 -0.19575632 0.5414995 0.32784605
0.36945358 0.5883841 0.07279367 -0.3116605 0.64957803 0.29532576 0.38930994 0.28588971
0.12458992 0.78564054 0.06853055 0.4318472 0.28209934 0.086920135 0.28274232 0.4586828
0.40705365 0.28075483 0.007701986 0.41080144 0.8897763 0.26634404 -0.053265907 0.39855853
0.38673332 0.26456586 0.7468144 0.29823828 0.30115187 -0.018145295 0.5016578 0.5349893
0.1874774 0.25174108 -0.16686574 0.15755637 0.00053182803 0.28246412 -0.11767808 -0.09350549
0.005721963 -0.08464065 -0.13451543 -0.0891759 -0.24082427 0.025425376 -0.07656422 0.046120003
0.0016244615 -0.123981856 0.19990586 -0.005185819 -0.12162146 0.33314002 -0.1345033 -0.06813764
0.20285065 0.107203156 -0.35076773 -0.052926775 -0.034252293 0.09876309 -0.13441731 -0.33190048
0.041766193 -0.12434278 -0.051623464 0.07443913 -0.10413453 0.20739828 0.0265205 0.120121196
-0.15165843 -0.080485836 -0.11093349 -0.17803694 -0.11655277 0.012173965 0.027619783 -0.15751512
0.13646412 0.041522555 -0.09147103 -0.016284887 0.12977235 -0.1304421

encoder_RNN.bias_hh_l0 f4 [150]
00000000: 8810 afbe a3b2 d33c e5a3 113e 5ea7 253e
00000010: dfc0 e0be d530 57be 89bd babe 1300 f9bd
00000020: e6b7 c3be 2297 d5be 560d 2abd b260 3ebe
00000030: cd57 82be 3307 cdbd 5477 763e 71c8 4f3e
00000040: 6852 d0be fec5 9ebe 081c efbd 64af 84bd
00000050: 60c0 d13d 90bd 67be 18bd b0be 996b 2fbe
00000060: 2c11 88be 2541 5d3d da1e 34be 027c d3be
00000070: a489 acbe fdff b1be 647b 53bf 8319 97be
00000080: 1915 0d3e 838a 31be fd35 f7be 572c 54bf
00000090: 7709 9cbe 5895 6ebe 1d03 ebbe 1176 c6be
000000a0: 1ea0 d5be 8f58 e0be ae13 eabd b67f 9ebe
000000b0: e270 bdbe 0770 1ebd 7eeb 46be a13c 80be
000000c0: 9f0d 27be 13f3 0dbe db28 093f 27ca 5d3e
000000d0: 6a1c 31bf 53cc d63e 76c1 f73e 599e cb3e
000000e0: 652a 093f a9a3 0f3f 0649 d33e 894e a13e
000000f0: caef 93bd ee08 10be fee6 453f edc8 243e
00000100: cf45 443e 7d77 093f ec29 dc3d 3e72 6abd
00000110: fb6d 433f fc19 9e3e 1ed5 893e 4a02 af3e
00000120: d0d3 453d 6c98 1f3f 7948 223e 99a5 063f
00000130: ba30 903e 03b3 693e 143e 1c3e ba3f f53e
00000140: 0dbf 273e d560 cf3e b1a6 ce3d 0180 d63e
00000150: 172e 6c3f 3762 993e a786 023e 7ebb d33e
00000160: 0ed3 903e 6002 913d 5ea0 1e3f f75b e13d
00000170: a5ce 923e 19ca 21be e9f4 b93e 30bd c53e
00000180: a787 a83e caaa 9a3e 9163 92bd 5874 2d3d
00000190: 634b 3bbd b7b2 d73d 3f34 3fbe 8b36 8abd
000001a0: cd85 b43c 43dc aa3c 9d6b 0b3c 9709 97be
000001b0: 12b6 363e aa22 03be b2b4 dbbb 227d ed3d
000001c0: 5dad e23d 6684 dabc 5255 503e 030c 93bd
000001d0: 5a0e 0cbd 725c 643e 03bf 203d 7d8a 453e
000001e0: 50e7 893e d5c3 00be 48a3 47bd 3b4b 953d
000001f0: 030f 0ebd f474 2f3e 6e1e 98bd deaa d1bc
00000200: 4cd4 ebbc f042 133b 22b7 683d 0d8f 7c3d
00000210: 2aa6 71be 646d 8ebb 5489 973d d98d 8c3c
00000220: 4aad 17bd 896d ffbc 91c4 213e 1752 28be
00000230: 4e58 b7bc c99a 1cbd 0a6c 803d aa8a 923c
00000240: 4207 febc 0125 9abc 3aea b13d b791 80bd
00000250: 6261 923d 55a7 c8bd
-0.341923 0.025842017 0.14222677 0.16177127 -0.4389715 -0.21014722 -0.3647273 -0.12158217
-0.3822624 -0.41716868 -0.041516624 -0.18591574 -0.25457612 -0.10011139 0.24068958 0.20291306
-0.4068787 -0.3101043 -0.116752684 -0.064787656 0.10241771 -0.22630906 -0.34519267 -0.17130889
-0.265756 0.054017205 -0.17589894 -0.41305548 -0.3369876 -0.34765616 -0.82610154 -0.2951165
0.1377758 -0.17337994 -0.48283377 -0.8288016 -0.3047597 -0.23299158 -0.45900813 -0.38761953
-0.41723722 -0.43817565 -0.11429535 -0.3095681 -0.37000185 -0.038681056 -0.1942577 -0.25046256
-0.1631379 -0.13862257 0.53577965 0.21659146 -0.6918398 0.41952762 0.48389786 0.39769247
0.53580314 0.561091 0.4126665 0.3150523 -0.072234705 -0.14065906 0.7730559 0.16092272
0.19167255 0.5369795 0.107501835 -0.057237856 0.7633969 0.308792 0.26920408 0.34181434
0.048297703 0.6234195 0.15847959 0.5259643 0.28162175 0.22822194 0.15258056 0.47900182
0.16381474 0.40503564 0.100903876 0.41894534 0.9225783 0.29957744 0.12746678 0.41353983
0.28286022 0.07080531 0.6196345 0.11003869 0.28673282 -0.1579975 0.36319664 0.386209
0.32915995 0.30208427 -0.07147897 0.042347282 -0.04572619 0.10532134 -0.18672274 -0.067486845
0.022036457 0.020856982 0.008509544 -0.29499504 0.17842892 -0.12806192 -0.00670489 0.11596133
0.11068223 -0.02667446 0.20345047 -0.071800254 -0.034193374 0.2230089 0.039244663 0.1929111
0.2693429 -0.12574704 -0.0487397 0.0728974 -0.034682285 0.17134458 -0.07427679 -0.025594171
-0.028787754 0.0022470318 0.056815274 0.06165986 -0.23598543 -0.0043465365 0.0739924 0.017157482
-0.037030496 -0.03118016 0.1579764 -0.16437565 -0.022380974 -0.038233552 0.06270607 0.017888386
-0.03100932 -0.018816473 0.08687253 -0.06277793 0.071474805 -0.09797541

encoder_RNN.weight_ih_l1 f4 [150, 50]
00000000: 8c25 ca3d 1129 4fbe 20c2 04bf a50e 0d3f
00000010: 7524 593d 5bbc f8bc 307e 4abe 98bd 0d3e
00000020: 79cc 91bc 8ae5 f93e d89c b639 60ef 0c3f
00000030: fec6 68be 6dbc c33e ca36 77be 97c8 b73e
00000040: 3ab4 ab3e bccd 4a3f 719b febc 200d e4be
00000050: bdad 9d3c 278c efbe f203 9cbe 7722 fe3e
00000060: 79b5 fa3c d0b0 033f 6ac1 e8bd 755e 9f3d
00000070: 567c 35be dcd2 063e e8d4 a13e 2e64 66be
00000080: a657 243e 64bf 273f a613 dfbd a572 47be
00000090: 938c 06bf f66f bcbd 1b56 0f3c 3321 a5bd
000000a0: dbeb 02be 1445 c5be 344b ed3e 2440 4dbd
000000b0: 6b3c 6f3c a240 19be 7e9b 86be e49b 223e
000000c0: 9916 723d 4dc1 e03e 46d8 d73e 069c c3be
000000d0: 643e 3dbe f910 8d3d cf64 e4be 6f7d dc3e
000000e0: 7fd5 65be d9b2 46be 8044 0abf 3f4a 4f3f
000000f0: e647 a53e 62aa 293e 6195 d23e 15b5 d73e
00000100: 445a cebe 6dfe 5dbf 903d 8bbc 25cc 153f
00000110: 45ce 2d3f 9018 48bf b832 09bf b5bd 72bf
00000120: 7e02 83be f39d a13e 03d7 673d e312 94bd
00000130: 1e3c 883d 4a57 9239 df61 933e 070d d9be
00000140: 3c8f 0fbf 109b 62be 18bb 2e3e ea72 c7be
00000150: fa2f 3b3e e63b 0dbf 5fcc 2b3e de0b 8bbd
00000160: 18e2 04be 8817 5dbf 67b7 9cbe 4bf5 3f3f
00000170: f7f1 473f 117a 193d 821b 823b 5491 ecbe
00000180: 4a53 7fbf 8e3d c13e 0f92 be3e aea3 243f
00000190: 6377 083f c34d 74be 4c7e 993e 3a08 1c3f
000001a0: eef1 3f3e f77c 373f 8415 653e 472e 03bd
000001b0: 8027 9dbe b986 033f aefb 973e 7d5d 983e
000001c0: f99d f03d d94b 133e f3b7 b6bd a733 9a3e
000001d0: f818 b13e 9104 b93e e598 51be dd48 4ebe
000001e0: f9d4 dc3e b880 12be c6d1 38bf b426 9a3e
000001f0: dfcc 733e 531a e23d db3a 433e 3242 2dbf
00000200: 8496 ae3e 104e 99bd 4a03 eebd b7b3 03be
00000210: f95c db3e 8808 66be 757f d23e c2fa 313e
00000220: 6b69 023e 617b 283d 65d3 bb3e 0bb9 5dbd
00000230: 8866 7d3e d1d2 22bf 23e6 443e d5a2 d3bd
00000240: fdc7 103e c8b1 7cbe 3179 c8be 2ad1 08be
00000250: 4235 033e 11f8 843e c4f6 d43e 3356 e73d
00000260: efe6 d63e f3a2 34be 557c 7ebd 74a1 22be
00000270: bc25 58bc 0b99 993e b27b 233d 3c0c b6be
00000280: 52d2 ac3e 436c a9bd a509 7fbd eece 443e
00000290: 9028 c53e cfe6 2abe cf59 8e3e aa56 9b3f
000002a0: 4f70 ff3c 00e7 633e 8058 9e3d af0c 2e3e
000002b0: 06f8 4b3e f8ef 32be 2d1e 493f 5062 9d3e
000002c0: c28d 4c3e 944b 303f b73f 603e 5ce0 3dbf
000002d0: 3378 a6bd 4835 c2be 2ea8 09bf 19b9 2ebe
000002e0: adca 563d ad44 89bd 8078 bd3e 03ca bb3d
000002f0: a814 76be 6742 33bf 71a4 e23e 646b 6d3e
00000300: 7c4e 9ebe bc12 e33d c27c 76be 898c cd3e
00000310: b92b 5abe 9e0e 03be 2018 403f f741 99be
00000320: 97b3 993f 06fa 1a3e 93e9 4dbe 7cdb 1fbf
00000330: bda7 0c3e fed4 873e 8284 e43e 44bf 3e3f
00000340: 3654 bd3e a3df acbd f2c5 8b3f 9ddf 42be
00000350: 5a51 86be 1997 553f dec3 403e c55e df3e
00000360: a578 a33f 8e65 463f 4763 bd3d f172 813e
00000370: 2555 db3d 9d21 ca3d d15a 823d e78a c1be
00000380: 8119 a13e 51df a2be cd7e 143f ec44 9c3f
00000390: 7e0a 863f a302 33bc 6345 893b 9c12 afbf
000003a0: e74d cd3e 02af 1bbf eac2 923d a346 b9be
000003b0: f332 9dbc 669e 253f 6af4 753e f88a 98be
000003c0: bd6a db3e 55a7 52bd 2f2b f2bd f9bf 2d3f
000003d0: ea51 0cbf 5818 5bbe a62a 04bf 51b8 8abe
000003e0: c72e b23e be86 19bd c224 713f f3cf 883e
000003f0: 2c54 b3be 20eb c2be 3fd7 ae3d fb73 0c3e
0.09870443 -0.2023051 -0.5185871 0.5510047 0.053013284 -0.030363252 -0.19774699 0.13841856
-0.017797695 0.48807937 0.00034830603 0.5505276 -0.2273216 0.38229695 -0.24141994 0.35895225
0.3353594 0.79220176 -0.03107998 -0.44541264 0.019247884 -0.46786615 -0.3047176 0.4963567
0.030604111 0.5144167 -0.11365016 0.07781688 -0.17723212 0.13166374 0.31607747 -0.22499153
0.1604906 0.65526414 -0.108924195 -0.19477327 -0.5255825 -0.09201042 0.0087485565 -0.08062973
-0.12785284 -0.38529265 0.46346438 -0.050109997 0.014601807 -0.14966062 -0.26290506 0.1587978
0.059103582 0.43897477 0.4215719 -0.38204974 -0.18480831 0.06888003 -0.4460816 0.43064448
-0.22444724 -0.19404162 -0.5401077 0.80972666 0.32281417 0.16568902 0.41129592 0.42130342
-0.40303242 -0.8671635 -0.016997129 0.58514625 0.6789287 -0.7816248 -0.53593016 -0.9482072
-0.2558784 0.31565818 0.056601536 -0.07230165 0.066520914 0.00027912325 0.28785607 -0.42392752
-0.56077933 -0.22129464 0.17063558 -0.3895486 0.1828002 -0.5516952 0.1677718 -0.06789373
-0.12976873 -0.8636403 -0.30608675 0.7498366 0.78103584 0.037469927 0.0039705643 -0.46204627
-0.99736464 0.37742275 0.3722081 0.64312255 0.5330717 -0.23857789 0.2997917 0.6095005
0.18744633 0.71675056 0.22371489 -0.032026555 -0.306942 0.51377445 0.29684204 0.29758826
0.11748881 0.14384402 -0.08921804 0.30117533 0.34589362 0.36136296 -0.20468481 -0.20144983
0.43131235 -0.14306915 -0.7219509 0.30107653 0.23808621 0.11040177 0.1906542 -0.6767913
0.3409921 -0.07485592 -0.11621721 -0.12861525 0.4284437 -0.22464192 0.41112867 0.17380813
0.12735526 0.04113329 0.3668472 -0.05413155 0.24746144 -0.6360293 0.19228415 -0.10333792
0.1413879 -0.24677193 -0.39154962 -0.1336104 0.12813285 0.2597051 0.41594517 0.11295738
0.41973063 -0.17640285 -0.06213029 -0.15881902 -0.01319259 0.29999575 0.039912887 -0.3555621
0.33754212 -0.082726024 -0.062265057 0.19219562 0.3850751 -0.16689609 0.27802894 1.2135823
0.031181483 0.22256088 0.07731724 0.16997026 0.19918832 -0.17474353 0.7856167 0.3073907
0.19975951 0.68865323 0.21899305 -0.7417047 -0.08128395 -0.37931275 -0.53772247 -0.17062797
0.05243938 -0.06702552 0.37005997 0.0916939 -0.24031317 -0.70023197 0.44266084 0.23185498
-0.30919254 0.11087558 -0.24071029 0.40146282 -0.21305741 -0.12798545 0.7503681 -0.2993314
1.2007931 0.15134439 -0.20108633 -0.6244428 0.13735862 0.26529688 0.44632345 0.745106
0.3697831 -0.08441093 1.0919783 -0.19030614 -0.2623394 0.8343368 0.18824717 0.4362699
1.2771193 0.7749871 0.09247451 0.25283006 0.107095994 0.098696925 0.06364978 -0.37801287
0.3146477 -0.31811002 0.5800598 1.2208533 1.0471952 -0.010925922 0.0041891797 -1.3677554
0.40098497 -0.60813916 0.07166083 -0.36186704 -0.019189334 0.6469482 0.24019018 -0.29793525
0.42854872 -0.05142911 -0.11824643 0.6787105 -0.5481249 -0.21396005 -0.51627576 -0.27093747
0.34801313 -0.037482016 0.9419671 0.26721153 -0.35025156 -0.3807001 0.08537149 0.13716118

encoder_RNN.weight_hh_l1 f4 [150, 50]
00000000: 5133 4a3f bd30 9ebe 31e8 1fbe 6dd4 d3be
00000010: b4b7 21be c552 87be 5a20 c23f b255 f13e
00000020: 6977 4c3e 27a8 293f c45b d7be d8c4 bfbe
00000030: e7c7 fa3b 10b7 a3be 8af9 943e f2bd 2f3f
00000040: 64a4 d0bd efd6 8cbe e9ef 3cbe 488f 833d
00000050: e705 27be 55fe d13e 359e ea3e b839 eebd
00000060: 8087 443f 228c 96bf f1a2 7dbe a9f5 ff3d
00000070: a89b 0a3f 52f3 4f3e 509d 86bd 4b46 8cbe
00000080: 09e2 69be 5782 debd 7694 5e3c 37b0 693f
00000090: f1a2 21bf 0680 27bf 2ec2 a33d 270b 823e
000000a0: e844 6b3f ffd0 7e3e a3cf 8d3e 3508 68be
000000b0: d035 293e 8b0f b6be fe88 8f3e 3b29 92be
000000c0: 1066 ce3e 1ead 05bf ac46 3d3e e151 ef3c
000000d0: 08b0 0bbe 85e4 8b3d ce13 afbc 3591 44be
000000e0: 6019 c23e b01a 343f 309e 5c3e ede0 01be
000000f0: 8cf7 74be 0aad 59bf 793d 073d db7c 09bf
00000100: 0d57 533d 42e2 ba3d 4f79 75bd 6d15 bd3b
00000110: 8274 3c3d bb67 e63e 2f07 4bbe 9b0c 3dbe
00000120: 9ac9 383e ff38 69bd 88fe 303f 73ef 26bf
00000130: b1ba 0bbe 3105 523e 8416 a03d a9b4 d4be
00000140: 3a27 2bbe 56a5 b4be 7e3f 5bbf 7051 abbd
00000150: b821 f03e 2e38 20bd 12c2 1dbb e4d6 a6be
00000160: 33cd 133f 514f c33d 8d07 7e3e 5e3c 263d
00000170: fa70 1cbe 6a0f 7cbe 0083 06be 7842 ae3e
00000180: 1240 af3d df84 e0ba 9e75 143e 10b6 4fbe
00000190: a0be c0bd a851 58bf f563 0f3e a058 06bf
000001a0: 5b85 5e3f 0849 1abe 9061 50ba 603c 10bf
000001b0: b67a 78be d7e4 d4bd 1c9e 263f 8ae1 8abe
000001c0: 2df8 07bf 51ad 06be 902f 2c3f 3b1f b2bc
000001d0: 14fb 7dbe 0be8 bd3d 84ae 05be 08d3 1a3f
000001e0: 6222 a2be a96d 113d 34e9 03be b059 41bd
000001f0: 0e48 213d 7501 6e3d 838c 01bf 0db0 0b3d
00000200: 1ad4 5abe 1db8 60bd 0e17 8d3e f789 15be
00000210: 3b69 bdbd 9b1e 7cbe 0870 f53c 867d 0f3f
00000220: 7964 843f 0fd1 1b3f 4d05 33be bfd9 673f
00000230: 8957 02bf 7b7b 673d 0689 883e 347d 673e
00000240: 34bb ab3d cb38 d83e a448 523e 017b 27bf
00000250: 0017 063e 3366 b73d 0f33 223f 620d 74be
00000260: c42b bb3d b5e9 1f3f 8788 c33e 49a8 13bf
00000270: 1eac bdbc 0667 35bf 7dd0 babe 41db 4c3f
00000280: aaa7 8d3f 2f09 6dbf 3a94 81be 061f 29be
00000290: 1a07 573f 76d4 d2be 98f0 103f 867b a6be
000002a0: 30e0 f33d cbc2 0f3e 4c22 5bbe 3660 b13e
000002b0: a7a3 0e3f 6b33 533d 837d 143e ea28 753f
000002c0: 87a2 26be 77dc 133f c849 b33e 2341 2d3f
000002d0: 6379 0c3d a8d3 383e 57c3 90bc 9a69 8c3e
000002e0: 193b 38bf 3071 90be 0e31 eebe 2c2a 56be
000002f0: fe0e e1be aa95 90be 7092 3d3d 51e4 283f
00000300: fac1 983d f6bd 843e dfa5 a0bd c02d 7b3e
00000310: fdbc acbb 1089 89be bb93 46bd 2a2b 083f
00000320: a799 ba3e 7520 f8be c06e 1bbd 44f4 55be
00000330: 8be0 613e 1379 bbbd fc84 ef3e 2b72 1c3f
00000340: ed29 24bd ea1e 2f3e c010 833e 060f 53bf
00000350: 1bb9 c1be 6f84 193f 05ea a03d d782 253e
00000360: af78 433e 3611 4ebf 2f24 52bd 2cf3 08bd
00000370: 4356 efbe 076a be3f 56a9 ab3e 261f 45be
00000380: 56d6 263f fee1 393d 9f6b 74be a46a 303f
00000390: 0427 273e 7318 4e3f 83a0 c53e 7836 20bd
000003a0: 977e 3e3d 110b f0bd 8bbe babe 1ff4 b13e
000003b0: 3353 983e 3f3a 02bf cc10 d4bd a1c6 01bf
000003c0: 6bc9 17bf 65b7 3b3e e908 773e d3c0 cd3e
000003d0: 6a31 f7bd 088c da3d c13a 283e 8ac3 25be
000003e0: 7ad9 7cbd b1e6 fbbe 2088 e3bd 6435 c7be
000003f0: 3762 24be 3947 913c 8ec9 9dbe 4992 67bf
0.7898455 -0.3089656 -0.15615918 -0.41373006 -0.15792733 -0.26430336 1.5166123 0.47135693
0.19967426 0.66272205 -0.420622 -0.37454867 0.0076532247 -0.31975603 0.29096633 0.6864921
-0.10187605 -0.2750773 -0.18450893 0.06423813 -0.16310845 0.41014352 0.45823827 -0.11632103
0.76769257 -1.1761515 -0.24769188 0.12498028 0.5414376 0.20307663 -0.06572974 -0.2739738
-0.22840132 -0.10864704 0.0135852005 0.9128451 -0.63139254 -0.65429723 0.07996021 0.25399134
0.9190202 0.24884413 0.27697477 -0.2265938 0.16524434 -0.35558733 0.28034204 -0.2854708
0.40312243 -0.5221728 0.1848399 0.029213848 -0.1364137 0.06830696 -0.021371748 -0.19196017
0.37909985 0.7035322 0.21544719 -0.12683459 -0.23922557 -0.8502966 0.03301761 -0.5370614
0.05159669 0.091251865 -0.059930142 0.0057703764 0.046009548 0.45001015 -0.19826959 -0.1846184
0.18045655 -0.05693912 0.69138384 -0.6520912 -0.13645436 0.20509793 0.078167945 -0.41544083
-0.16714182 -0.3528239 -0.85643756 -0.08365142 0.46900725 -0.039116077 -0.0024071974 -0.32585824
0.57734984 0.09536613 0.24807568 0.040584914 -0.15277472 -0.24615255 -0.1313591 0.34035087
0.08557142 -0.0017129442 0.14497992 -0.20284295 -0.09411359 -0.844996 0.14002974 -0.5247898
0.86922234 -0.15066922 -0.0007949108 -0.56342125 -0.2426556 -0.1039521 0.65085006 -0.27125198
-0.5311306 -0.13152052 0.67260075 -0.021743407 -0.2480281 0.09272774 -0.13054854 0.6047826
-0.31666857 0.03550497 -0.12881929 -0.047204673 0.039375357 0.05810686 -0.5060503 0.034103442
-0.21369973 -0.054863084 0.27556652 -0.1460341 -0.09248587 -0.2462105 0.029960647 0.5605091
1.0343162 0.60865873 -0.17482491 0.9056663 -0.5091482 0.056514245 0.2666704 0.22606355
0.083853155 0.4223083 0.20535523 -0.65422064 0.13094711 0.0895504 0.6335916 -0.2383323
0.09139207 0.62465984 0.381901 -0.5767866 -0.023153361 -0.70860326 -0.3648719 0.80022055
1.1066792 -0.9259214 -0.253084 -0.16515741 0.8399521 -0.4117772 0.56617117 -0.32516116
0.11907995 0.14039151 -0.21399802 0.34643716 0.55718464 0.051562708 0.14501004 0.95765555
-0.16272937 0.5775828 0.35017228 0.67677516 0.03429545 0.1804949 -0.01767127 0.27424318
-0.71965176 -0.28211355 -0.465218 -0.20914525 -0.4395675 -0.28239185 0.04628223 0.65973383
0.07458873 0.2592618 -0.078441374 0.24529171 -0.0052715526 -0.26862383 -0.04848073 0.53190863
0.36445352 -0.48462263 -0.037947416 -0.20893961 0.22058313 -0.091539524 0.46781147 0.61111706
-0.040079046 0.17101637 0.25598717 -0.824448 -0.37836537 0.599677 0.07857136 0.16163193
0.19089006 -0.8049501 -0.05130404 -0.03343503 -0.467455 1.4876107 0.3352763 -0.19250163
0.651708 0.04538154 -0.23869179 0.6891272 0.16323477 0.80506057 0.38599023 -0.039114445
0.046507444 -0.11720861 -0.36473498 0.34756562 0.29750976 -0.50870126 -0.10354766 -0.5069371
-0.59291714 0.18331678 0.24124493 0.40186176 -0.12069972 0.1067124 0.16428663 -0.16187873
-0.06173084 -0.4919944 -0.11109948 -0.3890792 -0.16053091 0.017734157 -0.30817837 -0.9045759

encoder_RNN.bias_ih_l1 f4 [150]
00000000: 99e7 703e 2579 59be 9619 0ebc d648 c6bd
00000010: b28b 1fbe 1859 5abd b153 febe 2505 a43c
00000020: 2033 94be 8cd6 f6be 6356 053d 8bc5 a4bc
00000030: 9364 3bbe 0f8b 01bc 9d59 10be 06ae 6ebe
00000040: ab00 30be f42f c63d af61 8ebe 1634 063e
00000050: 2df6 f7be 4d64 4cbe 65fa 873e 6d4c bdbe
00000060: 785a cbbb 5598 9d3d 6a85 8bbd f2d3 19be
00000070: 2257 c43d 5cee 8f3e e9a2 82be 0d07 893b
00000080: 0d57 343e bd66 9abb 9515 b5be 995b 51bf
00000090: a410 8cbe ea91 043e cbc9 04be 66e1 433d
000000a0: 99d6 0dbe 73e5 6ebd 3c1f 1dbe bc2d 1ebe
000000b0: 8f23 5c3e 7221 17be cacd efbe 7756 ad3d
000000c0: 4357 72be 4aaa 0dbe 1e3b af3d 7a39 2b3f
000000d0: 90f2 103e fb7f 873e 4923 5b3e 9235 313f
000000e0: 4c25 503d ad22 da3e 2733 be3f 2032 183f
000000f0: 6e89 853f fd19 03bf 027a 503f 71e4 6a3f
00000100: 5187 103f efc8 fd3e 1f55 70bd 9854 97bd
00000110: 07e6 463e 69bc 54be 0ccd 3a3f b5e4 393e
00000120: 0163 0b3f 0e1a c93f 62ef 813e 1523 753f
00000130: ea55 8ebd b180 293f 0bd7 4abd d4e6 5abd
00000140: b3e5 a73f 9734 353c f58f 193f 9fa0 913e
00000150: 3f5c 943f e09d e93d d0c1 2b3f 646d 603e
00000160: ff88 d73e 8932 903d 67d5 e03e 18b0 fc3e
00000170: 7c6c 683f d770 ad3f 6e3c 23be bbde 683e
00000180: c676 d03f 021c 483e 41c9 d03f ef20 e03e
00000190: 38f7 363d 11e8 51be 0d4f a43e f771 9ebe
000001a0: c8cc bc3e 6503 aabb 2f0f 513e 32d4 37bd
000001b0: cf60 82bb d709 dbbe e313 5a3e f171 0ebe
000001c0: 5bf7 02bd 7295 21be d372 5a3e 5b7d 15be
000001d0: 1c35 a13e d8ec 61be b1c0 2d3e f8fc adbc
000001e0: 945d 173e e09d 14be a783 a5bd 3eb7 e3bc
000001f0: fbe1 1a3e e219 893e 722b 9dbe 875d f43c
00000200: 6c29 c2be c0a9 e1bd 7375 b53d cc6e 02bf
00000210: 694b 73be d02b 5c3e 28cf a33d 3efa 5fbd
00000220: a241 18be 9d45 243f 03d2 3cbe 8db7 c4be
00000230: f983 2dbe 4be8 093d 2936 9a3d 7d91 e23d
00000240: ce55 ed3d 977b 9abd 9e62 daba bb18 94be
00000250: 6afc 18bb d169 023e
0.23525847 -0.21237619 -0.008673092 -0.09681861 -0.15580633 -0.053307623 -0.49673226 0.020021984
-0.28945255 -0.4821056 0.032553088 -0.020113727 -0.18300085 -0.007906689 -0.14096685 -0.23308572
-0.17187755 0.09677115 -0.27808902 0.13105807 -0.48430005 -0.19960137 0.26558223 -0.3697237
-0.006205853 0.07695071 -0.06812556 -0.15022257 0.09586932 0.2811154 -0.25514916 0.0041817487
0.17611332 -0.0047119544 -0.35368028 -0.8178039 -0.27356446 0.12946287 -0.12967603 0.04782238
-0.13851394 -0.05832429 -0.15343946 -0.15447134 0.2149794 -0.14758852 -0.46836692 0.084637575
-0.236661 -0.13834491 0.085561976 0.6688458 0.1415503 0.2646483 0.21400179 0.69222367
0.05081682 0.4260458 1.485936 0.59451485 1.0432565 -0.5121153 0.8143617 0.91754824
0.56456476 0.49567363 -0.058674928 -0.07389182 0.19423686 -0.20774998 0.72969127 0.18153651
0.5444794 1.5711076 0.25377947 0.95756656 -0.069499806 0.6621199 -0.049521487 -0.05344279
1.3116974 0.011059902 0.59985286 0.28442857 1.1590651 0.114070654 0.6709261 0.21916729
0.42096707 0.07040889 0.43912813 0.493531 0.90790534 1.3550061 -0.15941021 0.22741215
1.6286247 0.19541934 1.6311418 0.43775126 0.04466936 -0.20498683 0.3209156 -0.30946323
0.36874986 -0.005188393 0.20415948 -0.0448801 -0.0039788256 -0.42780945 0.21296649 -0.13910653
-0.031974178 -0.15779665 0.21332864 -0.145986 0.31485832 -0.22063005 0.16968037 -0.021238789
0.14781791 -0.1451335 -0.08081751 -0.027797338 0.15125267 0.2677756 -0.3069721 0.029829754
-0.37922227 -0.11018705 0.08860292 -0.5095031 -0.23759235 0.21501088 0.07998496 -0.05468201
-0.14868787 0.6416872 -0.18439488 -0.38421288 -0.16944875 0.033668797 0.075298615 0.11062906
0.115886316 -0.07543104 -0.001666147 -0.28925118 -0.002334381 0.12735678

encoder_RNN.bias_hh_l1 f4 [150]
00000000: 9bb7 833e 69a4 54be 1cd0 773e 8e77 713d
00000010: 6e6d e73d f129 ccbb cb4f c9be 74a0 e33c
00000020: a13f abbe b77d 0bbf 5aad bdbc 461d 2d3d
00000030: 95c0 9abe 0be9 b03d 196a e83c 7eac 5bbe
00000040: 2a38 c4be b258 de3d 0caf 1fbe 9e85 03bd
00000050: 52c1 aebe dedb 83be 01f1 b53d 4541 a3be
00000060: ca2c 043e a6a9 1ebd 70e4 0bbe 9efe 19bd
00000070: b529 213e 4400 393e 3c4e dabe 8074 6b3d
00000080: a9f6 8f3e f8f4 e03b 7da4 1cbf 0544 64bf
00000090: 8e79 89be fda8 313d 263c 78be 705d 0d3d
000000a0: cd44 4c3d 9912 01be 8a1b 45be f453 9dbe
000000b0: d06f 173e 969b 42be b5ee 9bbe c776 973d
000000c0: 4863 a4bd 3f21 cc3d 150e 943e 584b 0d3f
000000d0: ed0a e63c b58c 873e 2bf1 b43e 75f5 343f
000000e0: 27db 933e e7ba 123f 4fca d13f 6e11 c73e
000000f0: d85e 923f 5757 06bf b0fe 4e3f 2996 5d3f
00000100: 891b 0d3f 5a65 343f dabd a7bd 574d bebd
00000110: 7e4a 933e 4e4d 82bd 681b 3a3f c8aa 7a3d
00000120: 76d3 d33e e3d9 d53f b57a 9d3e 7c25 8a3f
00000130: 0a7c f7bc 225d 323f 3c30 9cbd faff 32bd
00000140: 11f4 8e3f 728e 0a3e b8ce 2f3f 8c2d 393e
00000150: d545 7f3f cc55 e53b 22a9 263f cf0f 093e
00000160: caa8 103f c243 413e 28cf 133f 9206 013f
00000170: 0a18 5d3f 2cbe aa3f 54d9 ab3b bf62 0c3e
00000180: 0cca de3f 590b 5e3e 7266 cc3f 9433 683e
00000190: f555 91be 178f 01be 6c57 3e3e 3356 c6be
000001a0: 9079 3c3e dff6 ff3d 0b63 153e c8ac e6bd
000001b0: 0c67 c5bd 11a9 9fbd a971 373e e1fe 4d3d
000001c0: 7777 82be 6059 e3bc 859d 0f3e 1287 21bd
000001d0: e088 7f3e 5fd1 21be 2ed3 5c3d c14a febd
000001e0: db66 523d de8f 27bf 2bfa 73bd a915 fd3b
000001f0: fbf2 82bd a65e e33c a921 11be dcbf 8b3e
00000200: e8e3 27be a638 93be f372 d63c a5ec c1be
00000210: af94 4abe fe1d fa3e 37b3 4c3e 8952 b1ba
00000220: 8dbb 41be c109 a93e 8c0c 263c 2176 f13d
00000230: 1c9f 8ebe 0b6a 8dbd d653 ec3d 0196 193d
00000240: 435d 213f 7906 08bd 3bb3 893d e100 a9bd
00000250: bf92 e639 4fda 963e
0.25726017 -0.20765842 0.24200481 0.058951907 0.11300169 -0.0062305857 -0.3931869 0.027786471
-0.33446983 -0.544887 -0.02315395 0.042264245 -0.30225053 0.086381994 0.028370904 -0.2145252
-0.383241 0.10856761 -0.15594119 -0.03210985 -0.34131867 -0.25753683 0.088838585 -0.31885734
0.1290771 -0.038736008 -0.1366136 -0.037596337 0.15738566 0.18066508 -0.42637813 0.05748415
0.28117874 0.00686514 -0.6118849 -0.8916629 -0.2685055 0.04337405 -0.24241695 0.034512937
0.0498703 -0.1260475 -0.19248787 -0.30728114 0.14788747 -0.19004664 -0.30455557 0.07395702
-0.08026749 0.09967279 0.28916994 0.5519309 0.028081382 0.26474538 0.35340247 0.7068704
0.28878137 0.5731644 1.6389865 0.38880485 1.1435194 -0.5247702 0.8085737 0.8655725
0.5512014 0.7046715 -0.08190508 -0.09292095 0.2876777 -0.06362401 0.7269807 0.061198026
0.4137227 1.6707119 0.3075768 1.0792689 -0.030210514 0.6967336 -0.076263875 -0.04370115
1.1168233 0.13530901 0.686748 0.18083781 0.9971593 0.006998753 0.65101826 0.13384937
0.5650755 0.18873504 0.5773797 0.5040065 0.86364806 1.3339286 0.0052444134 0.13709544
1.740541 0.21684016 1.5968764 0.22675925 -0.28385893 -0.1265224 0.18588036 -0.3873764
0.18405747 0.12498259 0.14588563 -0.11263424 -0.09638795 -0.07795919 0.17914452 0.0502919
-0.2548177 -0.027752578 0.14024933 -0.039435454 0.24954557 -0.15802525 0.053912334 -0.12416602
0.051367622 -0.654539 -0.05956475 0.0077235294 -0.06394001 0.027755093 -0.14172997 0.27294815
-0.16395533 -0.28754157 0.026177859 -0.37875858 -0.19783281 0.48851007 0.1999024 -0.0013528626
-0.18919201 0.33015254 0.010134827 0.117901094 -0.27855766 -0.06904992 0.11539428 0.03749657
0.6303293 -0.033209298 0.067236386 -0.08252121 0.00043978353 0.2946343

encoder_linear.weight f4 [1, 50]
00000000: bfc7 dabc c005 03bc 46a8 053e 9dd6 71bd
00000010: 3cb3 a23c 2fb4 dd3a 6ec8 9bbc 0c22 16be
00000020: 768d 31bb 58ec 56bd 77a1 133e 3ca4 973c
00000030: 7740 6dba ae76 72bd 497b 1f3a f4bf a93c
00000040: 3b14 023d d328 fb3d fb7f 2abd cce4 37be
00000050: 0953 093c a610 07bd 8345 93bd b964 18bb
00000060: 2c25 0bbe 5d9a 83bd 632a b73d a4f5 c8bb
00000070: dabb bcbd 09b0 08bc 8118 a03b d724 253e
00000080: d062 493d 5660 e83b f583 4c3b 36b0 2ebe
00000090: f050 7c3c deb0 b43d 1deb 60bc 14d2 263d
000000a0: de6a 24bd 63fb 583b 5397 bc3b 499a 2a3c
000000b0: e98e 07be 7b6b 373c 72ad caba e2f6 45be
000000c0: 4157 943a 2347 e83c
-0.026706574 -0.007996976 0.13052472 -0.05904256 0.019860856 0.0016914661 -0.01901647 -0.14661425
-0.0027092374 -0.05247149 0.14417063 0.01851093 -0.00090504385 -0.059195213 0.00060837396 0.020721413
0.031757575 0.12263646 -0.041625958 -0.17958373 0.0083816135 -0.03297486 -0.07190993 -0.0023253395
-0.13588399 -0.06425927 0.089436315 -0.0061327983 -0.09215517 -0.008342751 0.0048857336 0.16127335
0.0491665 0.0070915623 0.0031206582 -0.17059407 0.015400156 0.08822797 -0.01372793 0.04072769
-0.04014098 0.0033108823 0.005755344 0.010412761 -0.1323811 0.011195059 -0.0015463068 -0.1933246
0.0011317508 0.028354233

decoder_RNN.weight_ih_l0 f4 [150, 1]
00000000: 896f 8abf eb77 e53e 5f26 9c3d 6846 0bbd
00000010: b7bc 043e 279b 413e 52ed e2be 1835 1ebf
00000020: e120 dcbe b511 c43d 644d 56bf 4bca 853f
00000030: 62bf 12bf 265b 18bf 95a4 403e cd1a 94bd
00000040: 6127 923e ec8e c4be a608 bbbe 0575 78bf
00000050: 499b fbbc 2025 953e 9d5f f5be 2f40 88be
00000060: 373e b53d c586 b8be 2daa 8ebe 59f7 ea3c
00000070: c192 023f bd4e 003f 6012 e7be 1557 95be
00000080: 5687 39bf 3c19 323f 1543 953f 183e 70be
00000090: d5f8 1d3f 7ea2 ae3d 5af5 0f3e e904 93bf
000000a0: 661c 2ebf f528 24be fc43 9f3f a3f2 86bf
000000b0: beef 933f 7229 d43e 012c 4abf 92f4 153f
000000c0: f389 1ebf 22b4 1b3f a103 323e d83c d93e
000000d0: a084 8d3e 00db 0e3e 7faf 5e3e fd40 093e
000000e0: 12b9 b3bd c269 9e3e cb47 2cbf 4f72 febd
000000f0: 5106 bd3e 4ab0 0e3d 0d68 3f3e c721 22bf
00000100: 9148 f43d bd42 af3d 5d9b 77be 637e b7be
00000110: 3894 99be 4e0d bf3d 0624 babe d805 e0bd
00000120: 0e0e a4be 3b10 883d ff47 87bf e8c7 10be
00000130: 4339 5a3e 8ef9 45bf cabb 453e 315b 503e
00000140: 657a 48be 3cad 5cbd 1661 8c3e f46f b3be
00000150: 7a44 07bd 0a2b 83be e1f0 7f3e 906c fb3e
00000160: 6414 3ebe d722 c13e 680e a23e 4e4c 3bbf
00000170: c575 86bd f4ce e93e ff55 c2be 1170 40bf
00000180: fa52 273f fdf0 dabd f4da 2a3f 41cb b8be
00000190: 7d48 49be 88b2 b1be 2071 36be 4e5c 3fbe
000001a0: f2c1 8a3e 8688 75be e0d8 c5be 0b40 2d3d
000001b0: 848d 533e 2b0b f83d f1df b9bc 157e e13c
000001c0: c825 263d a56c c6be 1b41 71bc 51b8 3dbd
000001d0: 424e 9d3e f1bd 163e ff21 9f3d dbf6 eabc
000001e0: da33 7dbe 2d84 893e 45ba 9b3d 5437 65be
000001f0: 7112 c53c ab20 e2bd 8b48 a03d 7b56 d53d
00000200: 9921 abbe 95e2 a7be f18b 293e 5631 ffbd
00000210: af00 1c3e f698 51be 9ce5 c03d a215 40be
00000220: 1723 54be 7173 ffbe 74e4 9abd 2f48 6dbc
00000230: fc89 41bd 1846 843e 793f 98be cc63 acbb
00000240: 979c ebbd 2d41 88bd 0865 79be da19 0bbe
00000250: aa17 38be 3a4c 45be
-1.0815288 0.44818053 0.07624506 -0.03400269 0.12962614 0.18906842 -0.44321686 -0.61799765
-0.42993835 0.0957369 -0.8371184 1.045236 -0.57323277 -0.5951408 0.18812783 -0.07231674
0.2854567 -0.3839029 -0.36530036 -0.9705356 -0.030713694 0.29129887 -0.4792451 -0.26611468
0.08849757 -0.3604032 -0.2786421 0.028682398 0.5100518 0.50120145 -0.45131207 -0.29168
-0.7247213 0.69569755 1.1661097 -0.23461187 0.6170781 0.08527087 0.14058438 -1.1485873
-0.6801208 -0.16031249 1.2442622 -1.0542797 1.1557539 0.4143787 -0.78973395 0.5857631
-0.61929244 0.60821736 0.17384197 0.42429233 0.27640247 0.1395073 0.21746634 0.13403697
-0.08775534 0.30940062 -0.6729705 -0.124241464 0.36918882 0.03483609 0.18692036 -0.6333279
0.119279034 0.08557651 -0.2418036 -0.35838613 -0.29995894 0.093287095 -0.3635561 -0.109386146
-0.32041973 0.06643721 -1.0568846 -0.14138758 0.21310906 -0.77333915 0.19309917 0.20347287
-0.1957794 -0.053876147 0.2741782 -0.3504635 -0.03302429 -0.25618774 0.24994232 0.49106264
-0.18562466 0.37721893 0.31651616 -0.73163307 -0.065654315 0.45665705 -0.37956235 -0.75171
0.6536099 -0.10690496 0.66740346 -0.3609257 -0.19656558 -0.3470652 -0.17816591 -0.18687555
0.27101094 -0.23977861 -0.38642025 0.042297404 0.20659453 0.12111505 -0.022689791 0.02752594
0.040563375 -0.38754764 -0.014724995 -0.046318356 0.30723768 0.14720894 0.07770156 -0.028682163
-0.24726811 0.26858655 0.076038875 -0.22384387 0.024056645 -0.11041387 0.078263365 0.104168855
-0.3342407 -0.32790056 0.1655729 -0.12460582 0.15234636 -0.20468506 0.094187945 -0.18758252
-0.2071651 -0.49892762 -0.07563105 -0.014482542 -0.047250733 0.25834727 -0.29735926 -0.00526092
-0.115044765 -0.06653056 -0.24354947 -0.1358408 -0.17977777 -0.1926736
