rnn_twc/saved_model/K6_N18/uni/SNR1(-5dB)SNR2(05dB)/model.pth (torch, 422325 bytes, 42 tensors)

weight_power1 f4 [18]
1.2515129 1.249081 1.2524431 1.252839 1.2538533 1.2450191 1.2546301 1.2404939
1.1521051 1.0698621 1.0679121 1.145738 1.1990752 1.2241712 1.2404908 1.2464556
1.2558886 1.2448193
00000000: 9331 a03f e3e1 9f3f 0e50 a03f 075d a03f
00000010: 447e a03f c95c 9f3f b897 a03f 81c8 9e3f
00000020: 2e78 933f 3ef1 883f 58b1 883f 8ba7 923f
00000030: 4c7b 993f a4b1 9c3f 67c8 9e3f db8b 9f3f
00000040: f5c0 a03f 3d56 9f3f

weight_power2 f4 [18]
1.4283116 1.4410056 1.3564857 1.3189188 1.2791122 1.2052343 0.95710427 0.8774921
0.8694576 0.8370024 0.8858882 0.8935162 0.92383325 0.91034347 0.86109346 0.90263695
0.7864556 0.34922642
00000000: ead2 b63f df72 b83f 53a1 ad3f 55d2 a83f
00000010: f3b9 a33f 1e45 9a3f c904 753f 52a3 603f
00000020: c694 5e3f ca45 563f 92c9 623f 7abd 643f
00000030: 5680 6c3f 450c 693f 9f70 5c3f 3713 673f
00000040: 2755 493f cecd b23e

weight1_merge f4 [18]
-0.042956557 0.0687173 0.24158394 0.353734 0.43818885 0.4426966 0.6984965 1.073649
0.5980139 -0.27217317 -0.2266298 -0.076056704 0.022298547 0.88032013 1.3722118 2.079388
2.3537455 1.2228158
00000000: 37f3 2fbd a8bb 8c3d c861 773e 9f1c b53e
00000010: 4a5a e03e 21a9 e23e abd0 323f 556d 893f
00000020: 7017 193f 485a 8bbe a411 68be 9ec3 9bbd
00000030: 71ab b63c a95c 613f a3a4 af3f b114 0540
00000040: c4a3 1640 3a85 9c3f

weight2_merge f4 [18]
-0.00076461566 0.0005949295 -0.00021725417 -0.0023954918 0.0050578443 -0.003579372 0.00069533155 -0.0031365978
0.023136627 0.07051941 -0.023561737 -0.009763484 0.01606354 0.015242385 0.02289118 0.004555121
0.49175602 4.300033
00000000: 7d70 48ba 0bf5 1b3a b9ce 63b9 affd 1cbb
00000010: 46bc a53b e693 6abb e946 363a 618f 4dbb
00000020: 0689 bd3c 7b6c 903d 8b04 c1bc 05f7 1fbc
00000030: af97 833c 32bb 793c 4986 bb3c 2043 953b
00000040: 72c7 fb3e df99 8940

encoder1_RNN.weight_ih_l0 f4 [150, 7]
0.042554546 0.012840125 -0.047482945 -0.11967576 -0.008333325 0.05486183 0.00029394898 0.02044186
0.20067625 0.018593015 0.084651925 -0.48814055 -0.29026473 0.0023380676 -0.10924614 0.19119509
0.5071293 -0.46402985 -0.6621395 -0.71731085 0.002236137 -0.4631297 -0.12296047 0.20233597
-1.1309738 -0.081705995 -0.24573052 -0.0008745124 -0.15758389 -0.3400464 1.1635969 0.46221766
0.3943991 -0.011871363 -0.00036149507 -0.16674124 0.4328352 0.24113937 0.59179693 1.0147355
0.84875625 0.0028962751 -0.9055622 0.09540385 0.063254215 -0.64397573 -0.00679506 -0.5216147
0.0045726476 -0.649561 -0.092684425 -1.029513 -0.2113003 -0.065047 -0.45622098 0.0058621233
-0.062451795 -0.39854407 -0.09572422 -0.5939288 0.31122118 -0.3123506 -0.0061387825 0.4157741
-1.2467208 0.1900475 -0.03950429 -0.007891855 0.40203232 0.0014806924 -0.08508876 -0.2936767
-0.18057753 -0.092060946 0.14787741 -0.53559077 0.002980008 -0.14685735 0.2710127 0.23965603
-0.39628017 0.30599582 0.55122966 -0.010123051 0.12925924 -0.026591528 -0.095546536 -0.21179509
-0.4157425 -0.2267676 -0.012775671 0.013165726 -0.4273299 -0.11905183 -0.6702554 -0.6942226
-0.0029455756 0.0016754674 -0.13221283 0.061267324 0.17893152 -0.0926692 0.23534223 -0.2208311
0.008275076 -0.0100390585 0.07509735 0.17382298 -0.12489011 -0.009679584 -0.096628495 0.0028304453
-0.3044653 -0.4612285 0.13760938 -0.4482912 -0.5363311 -0.0990778 -0.0116339745 -0.12986824
-1.1950144 -1.1089287 -0.7160737 -0.3704176 -0.33161283 -0.001063026 0.32340068 0.307378
0.38059416 -0.55133545 -0.24879223 -0.23318824 -0.0052610575 -0.11883981 0.05712358 0.26713994
-0.18217552 -0.7813501 0.32082376 0.00061265676 -0.34379584 -0.087508015 -0.22136012 -0.33331016
-0.2212393 -0.49944165 0.007096797 -0.8021945 0.07637582 -0.73043287 -0.05106232 -0.122420914
-0.17661539 0.004316423 -0.26608235 -0.59020144 -0.16296709 -0.7190505 0.25998974 -0.86322224
-0.0005659407 -0.5902396 -0.06007177 -0.6057473 -0.048305113 0.2912646 -0.5440727 0.00060706347
0.08071707 -0.523911 -0.05623667 -0.34194845 0.37957025 0.6688976 -0.0005458065 0.085542105
-0.19569528 -0.05766034 -0.15570337 -0.009758026 -0.22040953 -0.002259905 -0.56670696 -0.049268607
-0.11814048 -0.034308568 0.22478935 -0.2271108 -0.0033957628 0.040846314 0.31821018 0.16468471
-0.008276364 -0.096176915 0.014259146 -0.005262559 -0.45478547 -0.598718 -0.45565635 -0.0007232748
0.15845765 0.060330197 -0.0006626179 0.04194884 -0.5080065 -0.5631972 -0.17646028 0.03972108
-0.502397 -0.004517417 -0.28106084 0.47663185 0.26448086 -0.27562755 0.07953137 -0.49093112
0.003513226 -0.07869513 -0.09576201 0.29916266 0.049405683 0.11324963 -0.28516448 -0.00017925982
0.18634686 0.028866775 -0.12966132 -0.13693768 0.29427752 -0.08103977 0.0041247825 0.18537942
-0.122658424 0.52827114 -0.4101416 0.08070036 0.4721223 -0.0011270948 0.06361612 0.17617932
0.32637542 -0.2627318 -0.19536957 -0.38321254 0.011481612 0.012238727 0.013371472 -0.6765612
-0.58200336 -0.40374517 -1.2574062 -0.003651427 -0.10307371 0.15022108 -0.012050748 0.0016678851
00000000: ad4d 2e3d 635f 523c 7a7d 42bd 9118 f5bd
00000010: 8088 08bc ccb6 603d 2a1d 9a39 b075 a73c
00000020: 137e 4d3e 6150 983c fd5d ad3d 8fed f9be
00000030: 949d 94be 443a 193b 71bc dfbd a5c8 433e
00000040: 3ad3 013f 5295 edbe f981 29bf afa1 37bf
00000050: 278c 123b 561f edbe b3d2 fbbd 2931 4f3e
00000060: c0c3 90bf 7955 a7bd c8a0 7bbe 893f 65ba
00000070: ac5d 21be 901a aebe bef0 943f cba7 ec3e
00000080: aeee c93e 1b80 42bc 0c87 bdb9 37be 2abe
00000090: 939c dd3e 3ded 763e 0180 173f dae2 813f
000000a0: 1748 593f 6fcf 3d3b edd2 67bf 1863 c33d
000000b0: 6d8b 813d 98db 24bf 18a9 debb 8a88 05bf
000000c0: 26d6 953b a149 26bf 55d1 bdbd 15c7 83bf
000000d0: 1b5f 58be 5d37 85bd cc95 e9be 0e17 c03b
000000e0: 74cd 7fbd f80d ccbe 0f0b c4bd b80b 18bf
000000f0: 6258 9f3e 6bec 9fbe d727 c9bb 58e0 d43e
00000100: 8c94 9fbf d09b 423e 40cf 21bd d74c 01bc
00000110: 2ed7 cd3e cb13 c23a 0443 aebd cb5c 96be
00000120: 51e9 38be 738a bcbd 2d6d 173e 7a1c 09bf
00000130: 3d4c 433b c661 16be 2dc2 8a3e 6468 753e
00000140: 3ce5 cabe 7cab 9c3e 631d 0d3f 27db 25bc
00000150: 895c 043e 7ad6 d9bc e7ad c3bd d0e0 58be
00000160: 33dc d4be c435 68be 0c51 51bc 0fb5 573c
00000170: fcca dabe 72d1 f3bd dc95 2bbf 93b8 31bf
00000180: 8f0a 41bb 5b9b db3a cd62 07be 72f3 7a3d
00000190: d339 373e 59c9 bdbd 8efd 703e 8c21 62be
000001a0: 2f94 073c dd7a 24bc a4cc 993d a7fe 313e
000001b0: 63c6 ffbd 1e97 1ebc 29e5 c5bd fe7e 393b
000001c0: e0e2 9bbe 2426 ecbe 79e9 0c3e 6d86 e5be
000001d0: ff4c 09bf 4de9 cabd 6d9c 3ebc 2efc 04be
000001e0: 3bf6 98bf 60f1 8dbf 9b50 37bf 60a7 bdbe
000001f0: 28c9 a9be 3c55 8bba c694 a53e a660 9d3e
00000200: 3ddd c23e 5224 0dbf 64c3 7ebe e6c8 6ebe
00000210: f364 acbb 4962 f3bd 6afa 693d 91c6 883e
00000220: 388c 3abe 8f06 48bf 0343 a43e b39a 203a
00000230: 0206 b0be 6737 b3bd 3aac 62be a1a7 aabe
00000240: 8e8c 62be d1b6 ffbe 408c e83b 9e5c 4dbf
00000250: ed6a 9c3d a6fd 3abf b926 51bd d1b7 fabd
00000260: aada 34be c870 8d3b f23b 88be 7117 17bf
00000270: d8e0 26be b213 38bf 601d 853e 22fc 5cbf
00000280: a35b 14ba f119 17bf d10d 76bd 4112 1bbf
00000290: 95db 45bd a220 953e 5948 0bbf 5723 1f3a
000002a0: fe4e a53d 081f 06bf 6c58 66bd de13 afbe
000002b0: 0857 c23e e03c 2b3f 7414 0fba b330 af3d
000002c0: 5864 48be 402d 6cbd b470 1fbe 21e0 1fbc
000002d0: 09b3 61be ea1a 14bb b513 11bf e1cd 49bd
000002e0: a3f3 f1bd 2487 0cbd 2e2f 663e bc8f 68be
000002f0: 728b 5ebb 774e 273d 72ec a23e 1ca3 283e
00000300: 9699 07bc 67f8 c4bd 319f 693c 8b71 acbb
00000310: a4d9 e8be 9545 19bf ca4b e9be 269a 3dba
00000320: b942 223e cc1c 773d 89b3 2dba 8cd2 2b3d
00000330: b70c 02bf b12d 10bf 01b2 34be 92b2 223d
00000340: 179d 00bf d706 94bb 35e7 8fbe 1709 f43e
00000350: 096a 873e 0e1f 8dbe 58e1 a23d 535b fbbe
00000360: 273e 663b ea2a a1bd df1e c4bd d92b 993e
00000370: 9d5d 4a3d 6cef e73d 1401 92be b1f7 3bb9
00000380: b6d1 3e3e 047a ec3c f0c5 04be 6439 0cbe
00000390: 8bab 963e 2ef8 a5bd 2f29 873b 1ad4 3d3e
000003a0: 5734 fbbd c73c 073f 14fe d1be 3b46 a53d
000003b0: 04ba f13e 07bb 93ba 2b49 823d 5a68 343e
000003c0: ae1a a73e c884 86be f60e 48be 6f34 c4be
000003d0: 5f1d 3c3c f184 483c 0514 5b3c 1d33 2dbf
000003e0: 2cfe 14bf b0b7 cebe b0f2 a0bf c84c 6fbb
000003f0: 4f18 d3bd 8ed3 193e 8070 45bc f09c da3a

encoder1_RNN.weight_hh_l0 f4 [150, 50]
0.11769717 0.68021375 0.1184068 0.114841625 0.27694854 -0.36242735 -0.14988446 -0.1402698
0.13791995 -0.060030356 -0.12348471 0.22860703 -0.62099504 -0.10891664 0.31076285 0.221171
0.19816509 0.07271438 -0.4125207 -0.37628868 -0.32195625 0.13007057 0.17243767 -0.2422008
-0.29855132 0.47603747 -0.31654087 -0.41657698 0.15488102 -0.46587148 -0.22075331 0.15796255
-0.35212642 -0.42589772 0.0050265105 0.019004041 -0.4217777 -0.07462763 0.2987987 0.24060693
-0.3155533 0.1360656 -0.20569788 -0.29020885 -0.21259002 -0.15006532 0.15999235 0.5901909
-0.07782635 -0.22701816 0.18691266 0.58372283 0.28513306 -0.11526434 -0.19053854 0.25302792
-0.54875076 -0.17626612 0.1960795 -0.51238483 0.3066336 0.057422794 0.11189482 -0.11038458
0.26290625 0.007914735 -0.14705463 -0.031716894 -0.0938141 -0.39512262 -0.16156787 0.027650883
-0.07234655 0.23165914 0.13012907 0.13210566 -0.3462734 -0.56450826 -0.009226481 -0.15687506
-0.23612088 0.070390694 -0.31857207 0.054473527 -0.20333609 -0.2854519 -0.07016995 0.22694264
0.30395362 -0.23335318 0.4170865 0.3720955 -0.0074413684 -0.19363429 -0.075165726 -0.3895863
0.30500093 0.040345963 0.109181 -0.07395679 -0.17575023 -0.09904417 -0.0561069 0.19226338
0.0088534355 -0.25316072 -0.090633556 0.20462406 -0.18490268 -0.6795817 -0.34394816 0.23611017
-0.0001501756 -0.0998158 0.026113095 -0.5010216 -0.14894718 -0.10920945 0.12931094 0.24981105
0.7432762 0.22040483 -0.009311866 0.087009974 -0.21857089 0.19194826 0.58920366 0.14198041
0.26344073 0.15086737 0.22914363 0.17287977 -0.056365315 -0.18455759 0.29572415 0.16556671
0.0063707894 -0.027555645 0.1622711 -0.7542169 -0.3196348 -1.1886822 -0.07158922 0.3256588
-0.41625553 0.098983824 -0.75333536 0.26945484 0.2685718 -0.2287811 0.3407565 -0.59568
0.007851911 -0.20365967 0.19567871 -0.30823538 0.3791492 0.24238478 -0.042376727 0.11998267
0.18792827 0.0542251 0.50037897 0.1576217 -0.31717762 -0.12505732 -0.1921489 -0.13032563
0.25287664 0.07181388 0.30479908 -0.48144495 0.10921669 -0.26151937 0.007902991 -0.28588745
0.20815057 0.80510753 -0.32852063 -0.03671895 0.29039657 0.0506654 0.024176845 0.07183917
-0.1255747 -0.09160257 0.4879883 0.15830421 -0.33442035 -0.6181952 -0.19749501 -0.14926587
0.043796834 0.1399017 0.060688704 0.44896543 -0.04764291 -0.032104194 0.23038885 0.2636517
0.59543806 -0.2739472 -0.024524732 -0.17898567 0.39283252 -0.46475664 0.08918063 0.30022955
0.23848692 -0.2502236 0.13019943 0.950006 0.33973783 0.3833449 -0.20251843 0.090215005
0.22592312 0.16848364 0.15166274 -0.10703963 0.105152406 -0.5217236 0.097842164 -0.15437719
-0.7671007 -0.23713684 -0.30505657 -0.30612063 -0.20448425 0.11202111 -0.16952166 -0.3345037
-0.27613464 0.29898548 0.1382614 -0.18288912 -0.2285415 0.6588017 0.2256325 -0.08145634
-0.67052555 0.0832818 0.006297818 -0.1549404 0.29724452 0.4117375 -0.5231054 0.49546114
0.30496225 -0.23840657 0.06710227 0.2000069 -0.51042914 -0.33682072 -0.32044956 0.4355942
00000000: 370b f13d 7d22 2e3f 447f f23d 1632 eb3d
00000010: 33cc 8d3e 1490 b9be 507b 19be e3a2 0fbe
00000020: e33a 0d3e 64e2 75bd 8de5 fcbd f617 6a3e
00000030: 88f9 1ebf b00f dfbd 4f1c 9f3e a77a 623e
00000040: caeb 4a3e 47eb 943d ea35 d3be e9a8 c0be
00000050: 73d7 a4be 3831 053e 8093 303e 7d03 78be
00000060: b8db 98be 2fbb f33e a511 a2be 9449 d5be
00000070: 2199 1e3e b586 eebe 280d 62be efc0 213e
00000080: ea49 b4be 440f dabe 6db5 a43b 5dae 9b3c
00000090: 3ff3 d7be 5fd6 98bd 25fc 983e aa61 763e
000000a0: 3490 a1be c854 0b3e 77a2 52be 4196 94be
000000b0: 33b1 59be b9aa 19be 09d5 233e c016 173f
000000c0: 6c63 9fbd 7377 68be 0866 3f3e dc6e 153f
000000d0: f6fc 913e b60f ecbd 891c 43be e08c 813e
000000e0: ee7a 0cbf 1b7f 34be 10c9 483e a72b 03bf
000000f0: 14ff 9c3e 2a34 6b3d 1d29 e53d 5011 e2bd
00000100: a69b 863e ceac 013c 7d95 16be 93e9 01bd
00000110: 9b21 c0bd 834d cabe 0c72 25be 1b84 e23c
00000120: 6e2a 94bd 0e38 6d3e 8e40 053e b546 073e
00000130: bf4a b1be 9d83 10bf ab2a 17bc dba3 20be
00000140: acc9 71be ff28 903d e11b a3be a21f 5f3d
00000150: 5637 50be c026 92be 43b5 8fbd a763 683e
00000160: cf9f 9b3e 23f4 6ebe 5d8c d53e 4d83 be3e
00000170: b9d6 f3bb 1148 46be 7df0 99bd db77 c7be
00000180: 1529 9c3e cf41 253d 4a9a df3d a876 97bd
00000190: def7 33be abd7 cabd 59d0 65bd b1e0 443e
000001a0: 000e 113c 489e 81be 169e b9bd f888 513e
000001b0: 2157 3dbe 11f9 2dbf f919 b0be ddc6 713e
000001c0: 7578 1db9 3a6c ccbd 21eb d53c f442 00bf
000001d0: 9c85 18be 34a9 dfbd 166a 043e 78ce 7f3e
000001e0: 5947 3e3f ceb1 613e cc90 18bc 4932 b23d
000001f0: 0cd1 5fbe 168e 443e 0dd6 163f 5063 113e
00000200: b4e1 863e fa7c 1a3e a1a4 6a3e 6507 313e
00000210: 51df 66bd aafc 3cbe 2869 973e 528a 293e
00000220: 0ec2 d03b 60bc e1bc 652a 263e 5c14 41bf
00000230: 2ca7 a3be bd26 98bf 5e9d 92bd c0bc a63e
00000240: 721f d5be 08b8 ca3d 96da 40bf fcf5 893e
00000250: 3e82 893e 9845 6abe a377 ae3e 7c7e 18bf
00000260: 4da5 003c 298c 50be 0060 483e 07d1 9dbe
00000270: d81f c23e b733 783e 3893 2dbd 79b9 f53d
00000280: 4570 403e 231b 5e3d d618 003f 9567 213e
00000290: 1b65 a2be 070f 00be aec2 44be 1574 05be
000002a0: 0c79 813e 2813 933d a00e 9c3e f47f f6be
000002b0: 00ad df3d dee5 85be 8c7b 013c d75f 92be
000002c0: 6c25 553e 871b 4e3f db33 a8be 9c66 16bd
000002d0: dcae 943e 8686 4f3d 850e c63c 6a20 933d
000002e0: a796 00be 219a bbbd 9ad9 f93e 801a 223e
000002f0: 2539 abbe 0a42 1ebf 223c 4abe 27d9 18be
00000300: 4f64 333d 6442 0f3e b894 783d ccde e53e
00000310: 3625 43bd b07f 03bd 0eeb 6b3e 5bfd 863e
00000320: a16e 183f cf42 8cbe 17e8 c8bc 0548 37be
00000330: 5821 c93e 95f4 edbe 56a4 b63d b0b7 993e
00000340: ea35 743e 4f1d 80be 0053 053e 9833 733f
00000350: 1ef2 ad3e c845 c43e fe60 4fbe a5c2 b83d
00000360: 6458 673e fa86 2c3e 7a4d 1b3e 9837 dbbd
00000370: 255a d73d ae8f 05bf 7961 c83d 0e15 1ebe
00000380: b660 44bf 00d4 72be 6030 9cbe d8bb 9cbe
00000390: 5264 51be 536b e53d 1697 2dbe 1244 abbe
000003a0: 8561 8dbe a014 993e 6594 0d3e 4947 3bbe
000003b0: c806 6abe 3aa7 283f 350c 673e 95d2 a6bd
000003c0: 90a7 2bbf a68f aa3d ed5d ce3b b2a8 1ebe
000003d0: 6f30 983e 42cf d23e 3cea 05bf 15ad fd3e
000003e0: 0324 9c3e da20 74be ea6c 893d 9cce 4c3e
000003f0: 7cab 02bf c473 acbe f711 a4be 3406 df3e

encoder1_RNN.bias_ih_l0 f4 [150]
0.044600025 -0.17519374 -0.3545928 -0.18264659 0.13853401 0.1970386 -0.077674575 -0.35944465
-0.0700515 -0.24544145 -0.10302805 0.21573332 -0.089286566 -0.111288995 0.24938522 -0.045056492
-0.30941126 -0.13459745 0.0657113 -0.50764865 -0.037749387 -0.3007544 -0.19486654 -0.016675515
-0.20143901 0.009717528 -0.0341161 -0.021473004 -0.07504206 -0.2524452 0.097218245 0.005333439
-0.2096025 -0.19257642 -0.057486977 -0.09686315 -0.0066355704 0.003645358 0.010645734 0.16716604
-0.20214698 0.24209543 -0.36121333 -0.06618204 -0.015564052 -0.52498215 -0.2702291 -0.18559343
-0.23019898 -0.071807235 -0.16097477 0.5793997 -0.3582054 0.16577005 -0.4936669 -0.17030305
0.17995864 0.4322055 0.29601553 -0.1351155 0.2012579 -0.0836506 0.53083044 0.4249529
0.28569916 0.18006264 0.5166136 -0.90211606 0.22354685 0.39765745 0.4480919 -0.29794115
0.46497807 -0.09439999 -0.050431713 0.15258406 0.07557925 0.39309803 0.4109636 0.2024092
0.28423417 0.67191017 -0.13669084 0.013608829 0.5361964 -0.09049634 0.32502273 -0.04291866
0.27918538 -0.4827068 0.7357068 0.19807324 0.38806185 0.58321935 0.5735041 0.65426975
0.14324887 0.33260116 0.30942014 0.3895739 -0.09437577 -0.14240369 -0.09932172 -0.08556811
-0.22385153 -0.35865197 0.19830118 0.15373597 -0.09573701 0.18856405 -0.21727687 0.17885014
0.12868296 -0.4862829 0.103077985 0.15138598 0.02957814 -0.4102476 -0.151606 -0.059458703
0.01975088 -0.25637785 0.20312822 -0.33628678 -0.020673802 0.35609493 -0.09548356 0.016184246
-0.18737547 -0.25754336 -0.114474446 0.13176075 0.19921538 0.28104454 0.20698282 0.21805567
-0.21563314 -0.36564407 -0.036980957 -0.03963639 -0.037246153 0.081964865 0.112653494 0.1334029
-0.17274551 0.2533072 0.09030578 -0.15917115 -0.012969337 -0.102893926
00000000: 84ae 363d fd65 33be 308d b5be b507 3bbe
00000010: dcdb 0d3e 7dc4 493e d913 9fbd 2109 b8be
00000020: 2977 8fbd 0155 7bbe 5f00 d3bd 32e9 5c3e
00000030: e0db b6bd 7ceb e3bd d75e 7f3e 288d 38bd
00000040: 276b 9ebe ead3 09be a593 863d 43f5 01bf
00000050: 1a9f 1abd 7bfc 99be 188b 47be 179b 88bc
00000060: 0746 4ebe 4436 1f3c 53bd 0bbd 27e8 afbc
00000070: a7af 99bd 7f40 81be 5c1a c73d 21c4 ae3b
00000080: 0aa2 56be c132 45be 7777 6bbd 3060 c6bd
00000090: 336f d9bb f5e6 6e3b 726b 2e3c 932d 2b3e
000000a0: 9eff 4ebe dde7 773e f4f0 b8be 738a 87bd
000000b0: 5e00 7fbc 3b65 06bf 785b 8abe 340c 3ebe
000000c0: 48b9 6bbe ac0f 93bd 92d6 24be 8a53 143f
000000d0: b366 b7be a0bf 293e e8c1 fcbe ec63 2ebe
000000e0: 1447 383e 0a4a dd3e 598f 973e b85b 0abe
000000f0: 8d16 4e3e 0151 abbd 81e4 073f 6d93 d93e
00000100: 2947 923e 5762 383e ca40 043f 14f1 66bf
00000110: 77e9 643e c299 cb3e 4d6c e53e be8b 98be
00000120: 9b11 ee3e c854 c1bd 7c91 4ebd ff3e 1c3e
00000130: 4bc9 9a3d 2544 c93e d269 d23e 5b44 4f3e
00000140: 2487 913e 4e02 2c3f aff8 0bbe 91f7 5e3c
00000150: 2b44 093f 2556 b9bd 6169 a63e 7acb 2fbd
00000160: 63f1 8e3e 5825 f7be 4857 3c3f b6d3 4a3e
00000170: 0bb0 c63e dd4d 153f 2ad1 123f 397e 273f
00000180: d5af 123e b34a aa3e 516c 9e3e 3b76 c73e
00000190: 1548 c1bd 46d2 11be 3069 cbbd 553e afbd
000001a0: 5639 65be 3ba1 b7be 770f 4b3e f66c 1d3e
000001b0: c411 c4bd ef16 413e d47d 5ebe 7e24 373e
000001c0: 77c5 033e 13fa f8be 8d1a d33d ed04 1b3e
000001d0: db4d f23c f90b d2be 9a3e 1bbe f88a 73bd
000001e0: 99cc a13c f543 83be d800 503e c82d acbe
000001f0: 1b5c a9bc 1352 b63e e28c c3bd d394 843c
00000200: 5bdf 3fbe b9dc 83be 9471 eabd 4aec 063e
00000210: 1eff 4b3e 12e5 8f3e 4ef3 533e fc49 5f3e
00000220: efce 5cbe b335 bbbe 5879 17bd c459 22bd
00000230: 6c8f 18bd 32dd a73d e0b6 e63d c59a 083e
00000240: 33e4 30be 7bb1 813e 3df2 b83d c3fd 22be
00000250: 587d 54bc 0dba d2bd

encoder1_RNN.bias_hh_l0 f4 [150]
0.10770944 -0.14426586 -0.33895293 -0.3443154 0.13682078 0.34950393 -0.18918033 -0.39408702
0.11116046 -0.09445462 -0.15265276 0.25346592 -0.2673832 -0.048767097 0.17779906 -0.024241548
-0.44063947 -0.0725222 0.032773107 -0.3403339 -0.21939792 -0.21316068 -0.19113968 0.011750942
-0.2411832 0.015742686 -0.015413796 0.10726517 -0.3284044 -0.25860876 0.06439072 0.05892645
-0.16022697 -0.0930991 -0.086622715 -0.017468445 0.049700033 -0.012017273 -0.019955654 0.088817164
-0.105133265 0.2730103 -0.38888225 -0.27333954 -0.22299153 -0.3324685 -0.28554723 -0.32290047
-0.23575343 -0.124943495 -0.1685218 0.41073218 -0.25014898 0.2480349 -0.38544786 -0.18579417
0.14410561 0.3792734 0.32679886 -0.19902691 0.36122876 0.00027954765 0.55579793 0.3800715
0.25048387 0.036571596 0.59774595 -1.0240362 0.28213906 0.50934243 0.26964086 -0.23918857
0.33795226 -0.1443463 0.039153513 -0.04620631 0.10450407 0.45738217 0.56676114 0.31865117
0.44377145 0.58170176 0.04181683 0.06476752 0.3927533 -0.14859815 0.22708485 -0.038119826
0.3794401 -0.49773902 0.5731465 0.2892995 0.26617387 0.48277646 0.45118022 0.68479896
0.16479464 0.28665647 0.41145 0.37495342 0.009127536 -0.07857355 0.30225646 -0.25990185
-0.3470853 -0.522004 -0.09497937 0.061122667 -0.18530945 -0.13635589 -0.12094394 0.25730422
0.07647784 -0.29117292 0.35066622 0.21811092 -0.11857652 -0.62658304 -0.15681095 -0.15739825
0.0065039997 -0.4103749 0.27710354 -0.56438166 -0.0024152047 0.36621016 0.0877977 -0.06276667
-0.26920846 -0.118836574 -0.035369866 0.16450147 -0.028762084 0.11334356 0.105499424 0.19340521
-0.25268513 -0.16362546 0.05006347 -0.30142447 -0.14743243 0.18994851 0.4416816 0.35043526
-0.19417806 0.31935626 -0.020513738 -0.1659345 0.1111289 -0.2941808
00000000: c496 dc3d 6eba 13be 3d8b adbe 1c4a b0be
00000010: bf1a 0c3e 2ef2 b23e 7db8 41be c6c5 c9be
00000020: 18a8 e33d 6c71 c1bd 0151 1cbe 49c6 813e
00000030: 73e6 88be 02c0 47bd f510 363e 3696 c6bc
00000040: 7f9b e1be 8586 94bd 183d 063d 3f40 aebe
00000050: d9a9 60be cb46 5abe 1fba 43be 0687 403c
00000060: bbf8 76be cef6 803c 258a 7cbc d7ad db3d
00000070: 9f24 a8be 5e68 84be 48df 833d dc5c 713d
00000080: 8a12 24be beaa bebd 4067 b1bd fc19 8fbc
00000090: 4392 4b3d 19e4 44bc 0a7a a3bc c6e5 b53d
000000a0: 1c50 d7bd 02c8 8b3e 931b c7be 29f3 8bbe
000000b0: e457 64be 5039 aabe 3f33 92be 3653 a5be
000000c0: 5969 71be 60e2 ffbd fb90 2cbe 7d4b d23e
000000d0: 8713 80be dcfc 7d3e 6c59 c5be d440 3ebe
000000e0: 6c90 133e 2030 c23e 2e52 a73e b6cd 4bbe
000000f0: faf2 b83e 4090 9239 c648 0e3f bb98 c23e
00000100: 6c3f 803e 19cc 153d e105 193f 9e13 83bf
00000110: 8874 903e 4464 023f 5e0e 8a3e d9ed 74be
00000120: 1408 ad3e 84cf 13be 6f5f 203d d442 3dbd
00000130: 3b06 d63d ff2d ea3e 4217 113f 3f26 a33e
00000140: 0336 e33e 68ea 143f 2048 2b3d d5a4 843d
00000150: f616 c93e 1d2a 18be ee88 683e 8923 1cbd
00000160: f945 c23e a6d7 febe bbb9 123f 101f 943e
00000170: f147 883e 7a2e f73e 1801 e73e fc4e 2f3f
00000180: edbf 283e a3c4 923e 93a9 d23e e5f9 bf3e
00000190: a98b 153c 2beb a0bd 5cc1 9a3e db11 85be
000001a0: 2ab5 b1be 0ea2 05bf 8b84 c2bd c35b 7a3d
000001b0: c3c1 3dbe e1a0 0bbe 75b1 f7bd 61bd 833e
000001c0: 6aa0 9c3d 9e14 95be 868a b33e 7858 5f3e
000001d0: 3fd8 f2bd bf67 20bf 0d93 20be 022d 21be
000001e0: 811f d53b a91c d2be 84e0 8d3e 517b 10bf
000001f0: 6948 1ebb e67f bb3e 48cf b33d d08b 80bd
00000200: b1d5 89be 9760 f3bd fedf 10bd 1373 283e
00000210: 769e ebbc ab20 e83d 1510 d83d 040c 463e
00000220: f25f 81be 6f8d 27be 5a0f 4d3d 4f54 9abe
00000230: 87f8 16be dd81 423e 1724 e23e 406c b33e
00000240: 9dd6 46be aa82 a33e 6d0c a8bc bcea 29be
00000250: 8c97 e33d de9e 96be

encoder1_RNN.weight_ih_l1 f4 [150, 50]
0.111243024 0.22900493 -0.045462504 -0.5960089 0.03009049 1.2953507 -0.18988223 0.16774829
-0.092429206 0.6058899 -0.71167964 -0.09967175 -0.11421265 0.2816098 0.36201885 0.7744237
-0.24583063 -0.7294208 -0.075693816 0.44898924 0.07411017 -0.7159004 0.8988007 -0.03620351
-0.81113094 -0.05060485 -0.15851012 -0.65434146 -0.9524518 -1.7946119 0.02311474 0.5985465
0.15324941 0.3835726 0.25091136 0.16824906 -0.4519355 0.49578336 0.3517257 -0.4377398
-1.5137029 0.38523403 0.078363866 -0.14503357 -0.76025826 -0.6387439 -0.42164576 0.89667803
1.6587168 -0.53221834 0.7020579 0.2993477 -0.08173289 -0.004117853 -0.16815975 -0.1521007
-0.07194911 0.093130425 0.088951886 0.35718173 -0.21866517 0.57315546 -0.5878036 -0.729367
0.06692261 0.84143203 -1.1063052 -0.34334093 0.29837546 0.49036765 -0.036435 -0.4317502
-0.17834888 -1.0714505 -0.970903 -0.031866837 -0.2031405 0.025874732 -1.2782156 -0.3029211
-0.3214003 0.37517706 0.09211765 0.8612716 -0.3910076 0.0017037832 0.13668497 0.25905076
0.0135282045 0.57197624 0.8950553 0.3222756 0.45750767 0.014245771 0.021866102 -0.25493854
0.37580785 0.6548356 0.65990394 0.20853479 0.27363893 0.84129304 -0.09441636 -0.016063487
-0.13698083 0.2735448 -0.34154898 0.119753905 0.669213 -0.13671188 1.0697762 0.025728961
-0.85395473 -1.2154108 -0.38726276 0.5132074 -0.6112748 -0.37658656 0.6667486 0.012562665
-0.0024702603 -0.15409386 -0.19808519 -0.010275292 -0.53397155 -0.5394873 -0.6592861 -0.09087164
-0.51458913 0.7174072 -1.1451018 -0.93869174 0.270633 1.2163239 -1.188661 -0.77819556
0.61327314 0.25775537 -0.57957006 -0.2096938 0.8547421 0.28492036 0.33851182 0.16133243
0.23222111 -0.6952906 0.055599425 0.30027053 0.39983085 0.57938606 -0.57929856 -0.6150851
-0.30484208 0.4430972 0.041366726 -0.39487776 0.6416988 -0.12968102 0.18157707 0.08344296
-1.1790974 -0.18675913 0.007720546 -0.6761006 0.040926293 -0.94216967 0.3147749 0.21625225
-0.07115721 -0.5717656 0.8023836 0.058940917 -0.31150907 -0.12148648 0.036117543 0.21668658
0.53025067 -0.014474069 -0.038961627 0.10224908 0.34113452 -0.15698858 0.12076248 -0.49712896
0.81049997 -0.008782392 -0.20028956 -0.1903625 0.32238483 0.011387398 0.7174101 -0.5993979
0.5032667 0.33881986 0.2779039 0.3638628 -0.2126906 0.9980332 -0.15005028 0.06588087
-0.9962178 0.36273906 -0.41751269 0.19442531 0.0118560335 0.9799394 -0.3511472 -0.008433264
-0.16111208 -0.19238971 0.08829079 -0.8307994 0.15663244 0.51125747 0.9320519 -0.87398326
0.62102216 -0.12634194 -0.4999296 -0.18579265 0.533477 0.015276395 -0.013028259 0.5753514
-0.3407489 -0.09310001 0.068154275 -0.34966546 0.27452615 -0.28276026 -0.28048524 0.16071755
0.11737881 -0.21392158 0.15110439 -0.6803348 -0.5965689 -0.7477947 0.6176404 -0.48430267
-1.1068718 -0.1747054 0.0021843237 0.31404415 -0.27481714 -0.03979633 -0.5590061 0.9652695
0.108685665 0.03987741 -0.062967114 -0.003378229 -1.0323623 -0.5450739 -0.08522306 0.074635535
00000000: 62d3 e33d 4580 6a3e e436 3abd 0a94 18bf
00000010: 5580 f63c 0dce a53f 7d70 42be 35c6 2b3e
00000020: 864b bdbd 9a1b 1b3f a330 36bf b420 ccbd
00000030: 52e8 e9bd 292f 903e 895a b93e a240 463f
00000040: 06bb 7bbe 52bb 3abf 5c05 9bbd ebe1 e53e
00000050: 13c7 973d 4045 37bf cd17 663f 224a 14bd
00000060: 47a6 4fbf 0847 4fbd 7a50 22be ec82 27bf
00000070: e2d3 73bf d8b5 e5bf 205b bd3c 583a 193f
00000080: 6aed 1c3e a163 c43e 7477 803e 7b49 2c3e
00000090: 1764 e7be 51d7 fd3e 6415 b43e 6e1f e0be
000000a0: 04c1 c1bf 653d c53e 3c7d a03d ae83 14be
000000b0: 49a0 42bf b884 23bf f4e1 d7be b18c 653f
000000c0: d550 d43f 763f 08bf 11ba 333f 1a44 993e
000000d0: 9363 a7bd 0eef 86bb 1232 2cbe 49c0 1bbe
000000e0: 0e5a 93bd 2abb be3d 682c b63d 86e0 b63e
000000f0: c3e9 5fbe 51ba 123f 4c7a 16bf ccb7 3abf
00000100: b90e 893d 1768 573f 699b 8dbf 62ca afbe
00000110: abc4 983e 7811 fb3e de3c 15bd 5d0e ddbe
00000120: 17a1 36be 4a25 89bf 198d 78bf cd86 02bd
00000130: 1004 50be 3ff7 d33c 929c a3bf 7918 9bbe
00000140: 958e a4be 3517 c03e 2ea8 bc3d 4c7c 5c3f
00000150: 2632 c8be 7a51 df3a 25f7 0b3e 4da2 843e
00000160: 67a5 5d3c 096d 123f 5822 653f 4f01 a53e
00000170: 723e ea3e 1867 693c 8a20 b33c 4e87 82be
00000180: e369 c03e 4ea3 273f 77ef 283f 258a 553e
00000190: 671a 8c3e fb5e 573f 5d5d c1bd 9397 83bc
000001a0: b444 0cbe 100e 8c3e 82df aebe 8941 f53d
000001b0: 8b51 2b3f 33fe 0bbe 6dee 883f 8bc5 d23c
000001c0: c79c 5abf 9592 9bbf 4e47 c6be 8f61 033f
000001d0: 817c 1cbf f4cf c0be 09b0 2a3f a3d3 4d3c
000001e0: 17e4 21bb c8ca 1dbe d8d6 4abe b359 28bc
000001f0: 5cb2 08bf d71b 0abf f9c6 28bf e91a babd
00000200: 1dbc 03bf 00a8 373f b292 92bf 1a4e 70bf
00000210: 6990 8a3e 80b0 9b3f 0b26 98bf d337 47bf
00000220: 78ff 1c3f 83f8 833e b45e 14bf f9b9 56be
00000230: 61d0 5a3f 15e1 913e 6c51 ad3e 5434 253e
00000240: 5fcb 6d3e 91fe 31bf 39bc 633d 0fbd 993e
00000250: a1b6 cc3e a552 143f e94c 14bf 3876 1dbf
00000260: 4314 9cbe a3dd e23e 2870 293d 6b2d cabe
00000270: 5f46 243f 1acb 04be 57ef 393e 25e4 aa3d
00000280: aaec 96bf c93d 3fbe a2fc fc3b ee14 2dbf
00000290: 54a2 273d 0832 71bf 2d2a a13e 3b71 5d3e
000002a0: dfba 91bd 3b5f 12bf 0369 4d3f 086c 713d
000002b0: 1e7e 9fbe e7cd f8bd fdef 133d 16e3 5d3e
000002c0: 82be 073f a524 6dbc 3a96 1fbd f767 d13d
000002d0: 2fa9 ae3e 9dc1 20be 5252 f73d b087 febe
000002e0: ed7c 4f3f 06e4 0fbc b518 4dbe 63ee 42be
000002f0: a00f a53e 3592 3a3c 30a8 373f 2472 19bf
00000300: 16d6 003f cc79 ad3e 6c49 8e3e 3a4c ba3e
00000310: 91cb 59be 1b7f 7f3f c8a6 19be 8dec 863d
00000320: 2108 7fbf efb8 b93e 39c4 d5be 6e17 473e
00000330: cf3f 423c 4fdd 7a3f 91c9 b3be ac2b 0abc
00000340: 91fa 24be cf01 45be cdd1 b43d 45af 54bf
00000350: 4164 203e c5e1 023f f49a 6e3f 5ebd 5fbf
00000360: 4ffb 1e3f c85f 01be c6f6 ffbe 6e40 3ebe
00000370: f391 083f d849 7a3c 7b74 55bc 3b4a 133f
00000380: a476 aebe 38ab bebd 7894 8b3d 5a07 b3be
00000390: b18e 8c3e f4c5 90be c39b 8fbe 2493 243e
000003a0: 4d64 f03d 420e 5bbe 1cbb 1a3e 6c2a 2ebf
000003b0: bdb8 18bf 796f 3fbf ae1d 1e3f 85f6 f7be
000003c0: faad 8dbf f9e5 32be df26 0f3b 65ca a03e
000003d0: d5b4 8cbe 7a01 23bd 061b 0fbf e71b 773f
000003e0: 9796 de3d 7f56 233d e7f4 80bd 4765 5dbb
000003f0: 7324 84bf f789 0bbf 6d89 aebd 84da 983d

encoder1_RNN.weight_hh_l1 f4 [150, 50]
0.3581919 -0.12857313 0.5613474 0.3189635 -0.05730452 0.5501906 -0.022711597 -0.022084842
0.11039611 0.4033882 -0.5199774 -0.11774724 -0.0021730193 -0.2640121 0.62461996 0.011260046
-0.75994486 0.10775819 -0.9911405 -0.2373734 -0.664608 -0.08187381 -0.143528 -0.5593776
-0.26145715 0.07702446 -0.9293207 0.31654593 0.1633033 -0.23909292 0.99935156 0.21231396
-0.36826465 0.17091294 0.009957031 0.44153264 -0.38610616 0.2548274 -0.2840738 -0.5358034
0.6501332 -0.36945665 -1.0178801 0.6640351 -0.05176032 0.013160778 0.7193942 0.00031318123
0.13982412 -0.07031303 0.22094445 -0.3038469 -0.24392675 -0.5387817 0.58244354 0.06121856
-0.47136888 -0.25196567 1.0809816 0.58576685 0.19143902 -0.17698058 0.46676293 0.48397142
0.25433692 1.0833427 0.4153914 0.86528355 -0.20044746 0.094236955 -0.7346872 -0.6017678
0.2889716 -0.7049856 -0.05088825 -0.4334289 0.45127738 -0.9213701 -0.37892994 -0.39249125
0.1682827 -1.2344248 -0.47741097 -0.5728865 0.4411708 0.7872151 0.7007614 0.87485385
-1.0780429 -0.7973262 -0.39183354 -0.3668638 0.6906187 2.0905545 0.22495691 0.757533
0.6227991 0.6796993 -0.5506395 0.12375989 1.1504476 -0.82736945 -1.0376778 -0.2909008
1.2682059 0.7569352 -0.19194521 0.18312865 0.068029754 0.3392541 0.10763167 -0.3063877
-0.667539 -1.5212034 0.10090659 0.7202152 -2.0529206 2.0124328 -0.008956429 0.75895435
0.14399166 0.20354576 -0.3124081 -0.37850833 -1.6718177 0.96390617 -0.4932658 -0.35727262
1.5365472 -0.18212676 -0.72983307 0.11636255 0.66082746 0.9352708 -1.3604406 -0.72115976
-1.5334922 1.4224762 -0.06719144 0.4956229 0.4939766 -0.80155796 0.25260836 -1.1107868
-0.38917056 0.15628284 0.11151159 0.16038424 -0.076553494 0.79487795 -1.3709177 0.2812556
-0.00800874 -0.17800157 -0.05463396 -1.1060153 0.5645559 0.9422459 -0.061534703 0.50881934
0.033364046 0.7715847 0.3828137 0.8485154 0.64741623 0.6266393 0.17487323 -0.11380005
1.1192529 -0.2736605 0.2783766 -0.49353677 1.3689533 0.25196308 -0.38630342 -2.2186298
0.10177446 -0.23065901 0.13802831 0.69506943 0.67310435 -0.21918699 -0.5818609 -0.99800295
0.57065314 0.28208715 -0.39364445 -0.48423585 -0.16069704 0.03461134 -0.5926221 0.30169976
0.5801054 0.3813126 0.71182376 0.83871394 -0.5952761 0.5779914 -0.26533085 -1.0873462
-0.12747769 -0.17514032 0.81064093 1.0995904 0.38691562 -0.42658272 -0.31907296 0.4264393
0.63505113 0.22133514 -0.6783414 -0.55188996 0.357325 0.067701645 0.9925424 0.6060562
-0.2229495 -0.24294317 -0.04270105 0.34143323 0.78279746 0.10115898 -0.74967057 0.2035066
-0.41559905 0.54681015 0.13230503 -0.10646847 0.69903374 -0.37274173 -1.0781758 0.22505331
-0.43242562 -1.5491216 -0.8632579 0.72806203 0.66829383 0.4432855 -0.12830535 0.0023048485
0.34762397 -0.22179621 0.5787479 -0.20704056 -0.8806143 0.25858772 0.23205172 1.710853
0.8063021 -0.0006376233 -0.25213167 0.07855711 -0.34772605 -1.4559305 -0.08202051 0.2611289
00000000: ee64 b73e ada8 03be 77b4 0f3f 2f4f a33e
00000010: 25b8 6abd 4bd9 0c3f ac0d babc 45eb b4bc
00000020: 5b17 e23d e688 ce3e 3d1d 05bf 7725 f1bd
00000030: 3769 0ebb 982c 87be 18e7 1f3f 0e7c 383c
00000040: bf8b 42bf 53b0 dc3d 62bb 7dbf 0312 73be
00000050: c023 2abf 75ad a7bd 01f9 12be 5f33 0fbf
00000060: b6dd 85be 00bf 9d3d f6e7 6dbf 4f12 a23e
00000070: fb38 273e c6d4 74be 81d5 7f3f d568 593e
00000080: 2f8d bcbe cd03 2f3e d122 233c 9110 e23e
00000090: b5af c5be bd78 823e 1f72 91be 692a 09bf
000000a0: 216f 263f 6c29 bdbe e549 82bf 34fe 293f
000000b0: a102 54bd 4ea0 573c 382a 383f 7932 a439
000000c0: 0e2e 0f3e 4700 90bd 433f 623e d291 9bbe
000000d0: efc7 79be 99ed 09bf 051b 153f 50c0 7a3d
000000e0: 4357 f1be a501 81be 9b5d 8a3f d1f4 153f
000000f0: 9708 443e 663a 35be 8dfb ee3e 1acb f73e
00000100: 7338 823e f9aa 8a3f 2eae d43e 3983 5d3f
00000110: 1942 4dbe 4eff c03d 7614 3cbf 740d 1abf
00000120: 16f4 933e f079 34bf 3370 50bd 65ea ddbe
00000130: d40d e73e e9de 6bbf 1b03 c2be 9df4 c8be
00000140: 4d52 2c3e a201 9ebf 366f f4be b1a8 12bf
00000150: 24e1 e13e ee86 493f 1965 333f 6cf6 5f3f
00000160: 4ffd 89bf 921d 4cbf 689e c8be 92d5 bbbe
00000170: 63cc 303f a5cb 0540 1b5b 663e afed 413f
00000180: c36f 1f3f c600 2e3f b6f6 0cbf d375 fd3d
00000190: de41 933f 7cce 53bf a0d2 84bf f3f0 94be
000001a0: 9254 a23f 81c6 413f 498d 44be 1486 3b3e
000001b0: 2f53 8b3d b7b2 ad3e fe6d dc3d d9de 9cbe
000001c0: d6e3 2abf cbb6 c2bf 1da8 ce3d 0660 383f
000001d0: 0d63 03c0 b3cb 0040 fcbd 12bc d54a 423f
000001e0: 8d72 133e 4d6e 503e f4f3 9fbe d8cb c1be
000001f0: 1ffe d5bf 8ec2 763f 568d fcbe 70ec b6be
00000200: 94ad c43f 707f 3abe 57d6 3abf 7d4f ee3d
00000210: fd2b 293f e86d 6f3f eb22 aebf ed9d 38bf
00000220: 7949 c4bf b313 b63f aa9b 89bd 49c2 fd3e
00000230: 80ea fc3e e732 4dbf e255 813e 432e 8ebf
00000240: 5d41 c7be 9c08 203e 3060 e43d c43b 243e
00000250: 14c8 9cbd 1f7d 4b3f 3b7a afbf bc00 903e
00000260: 1737 03bc 0b46 36be dcc7 5fbd e991 8dbf
00000270: bc86 103f 0737 713f d00b 7cbd fc41 023f
00000280: bda8 083d 9386 453f 2800 c43e 4e38 593f
00000290: 12bd 253f 6f6b 203f f811 333e 0010 e9bd
000002a0: ae43 8f3f 3b1d 8cbe 6187 8e3e dab0 fcbe
000002b0: dd39 af3f 4e01 813e 90c9 c5be 08fe 0dc0
000002c0: 216f d03d e031 6cbe 4b57 0d3e 12f0 313f
000002d0: 9150 2c3f 8e72 60be d6f4 14bf 1f7d 7fbf
000002e0: 5316 123f ba6d 903e c48b c9be c3ed f7be
000002f0: c48d 24be 9fc4 0d3d 15b6 17bf 6478 9a3e
00000300: ca81 143f 683b c33e 153a 363f f5b5 563f
00000310: 0464 18bf 3ff7 133f 72d9 87be 292e 8bbf
00000320: 8389 02be fc57 33be 2a86 4f3f 61bf 8c3f
00000330: ce19 c63e 0d69 dabe 885d a3be 4056 da3e
00000340: b692 223f aea5 623e c8a7 2dbf a948 0dbf
00000350: 4df3 b63e 29a7 8a3d 4217 7e3f 8026 1b3f
00000360: e04c 64be 18c6 78be 4ce7 2ebd 56d0 ae3e
00000370: 6a65 483f 702c cf3d 69ea 3fbf 0964 503e
00000380: 66c9 d4be c0fb 0b3f f87a 073e 240c dabd
00000390: e0f3 323f 01d8 bebe aa01 8abf 6074 663e
000003a0: e466 ddbe 9e49 c6bf 78fe 5cbf 4662 3a3f
000003b0: 4e15 2b3f 51f6 e23e 7a62 03be f10c 173b
000003c0: c5fb b13e 8c1e 63be d328 143f 7102 54be
000003d0: f06f 61bf 9c65 843e f79e 6d3e 3bfd da3f
000003e0: d069 4e3f 2d26 27ba 6717 81be 8de2 a03d
000003f0: 2609 b2be ee5b babf 5ffa a7bd b0b2 853e

encoder1_RNN.bias_ih_l1 f4 [150]
-0.05637914 -0.10133219 -0.37034473 -0.03033112 -0.24850743 0.22571826 0.12515259 0.45290613
-0.12367376 0.32939073 0.030424375 -0.05505345 -0.14549088 -0.2378151 0.4445281 -0.14689301
0.032682333 0.379968 0.14573921 -0.51081055 0.096932285 0.032218836 0.10038836 0.06598786
-0.27010274 0.2321437 0.15821159 -0.24303088 0.45657417 0.15759037 0.01326931 0.033582482
-0.097135276 0.38330856 -0.01057653 0.39209387 0.2949852 0.03446873 0.14784649 -0.04537979
-0.2173285 0.28021854 0.28084067 -0.12840277 0.4324871 0.28004512 -0.37324536 0.018415393
0.22040643 0.37660015 0.022744557 0.10072202 0.25289136 0.029725514 0.25991917 0.56576675
-0.07397505 0.7398876 0.10073377 0.3045332 0.19366811 0.26897755 -0.19049717 0.47754502
-0.6589844 0.47089237 -0.41132432 0.12422849 0.6538895 -0.045793794 0.107749425 0.4779975
0.20046186 0.12319335 1.0759745 0.19167039 -0.0142172035 0.37097162 0.03158405 0.27851164
0.17246717 0.3790932 0.4637766 -0.6840831 0.49211416 0.2828599 -0.014773251 -0.072822504
0.34079 0.50960946 0.9078453 -0.18362217 0.21203466 -0.13751344 0.21508522 0.21130946
0.24709421 0.15058358 0.2966804 0.07257617 0.0013980519 0.25339493 0.055971336 -0.18253633
-0.12086941 0.29989707 0.52607536 -0.2848886 -0.15264246 0.0506592 0.31142482 0.027139796
-0.17171124 -0.013781855 0.5902174 -0.20288645 -0.5476708 -0.028661834 -0.056807134 -0.5295835
0.054019876 0.053154875 -0.090726905 -0.037232917 0.16135664 -0.25673768 0.08916459 0.15199804
0.5433739 -0.058863483 -0.17425554 -0.12609161 -0.1911322 0.4396447 0.14755343 0.25784558
0.28335866 -0.3025431 -0.23015508 -0.06941334 -0.017497048 -0.011827648 0.15089211 0.42065898
0.08267378 0.17497377 0.36770532 0.22770298 -0.2685761 0.44504562
00000000: d0ed 66bd 4087 cfbd d39d bdbe f878 f8bc
00000010: bb78 7ebe b022 673e 0028 003e 50e3 e73e
00000020: ab48 fdbd e7a5 a83e 8a3c f93c ba7f 61bd
00000030: 90fb 14be cd85 73be 3099 e33e 1f6b 16be
00000040: e9dd 053d 2a8b c23e a93c 153e 7bc4 02bf
00000050: 6f84 c63d e6f7 033d 6a98 cd3d a524 873d
00000060: e84a 8abe 14b7 6d3e 3802 223e 16dd 78be
00000070: 17c4 e93e 5f5f 213e 8567 593c c98d 093d
00000080: dcee c6bd 0541 c43e 2f49 2dbc 87c0 c83e
00000090: 4d08 973e 152f 0d3d 1265 173e 29e0 39bd
000000a0: 5d8b 5ebe ce78 8f3e 59ca 8f3e 047c 03be
000000b0: f36e dd3e 1362 8f3e 041a bfbe e1db 963c
000000c0: 39b2 613e bcd1 c03e cb52 ba3c 5947 ce3d
000000d0: fa7a 813e ec82 f33c 2014 853e 17d6 103f
000000e0: 3b80 97bd 4669 3d3f 824d ce3d c7eb 9b3e
000000f0: ef50 463e 6db7 893e b111 43be c880 f43e
00000100: 34b3 28bf ce18 f13e 1a99 d2be 826b fe3d
00000110: 4d65 273f 4692 3bbd bbab dc3d 17bc f43e
00000120: e045 4d3e cc4c fc3d 88b9 893f 3e45 443e
00000130: 46ef 68bc feef bd3e 475e 013d 1499 8e3e
00000140: 3c9b 303e 8118 c23e 2074 ed3e 1220 2fbf
00000150: 63f6 fb3e 03d3 903e 810b 72bc f723 95bd
00000160: 077c ae3e c475 023f 8d68 683f 7307 3cbe
00000170: 9d1f 593e 53d0 0cbe 4d3f 5c3e 8261 583e
00000180: 4406 7d3e 9532 1a3e 7ee6 973e d1a2 943d
00000190: d63e b73a fbbc 813e 3342 653d ceea 3abe
000001a0: 628a f7bd 1c8c 993e e0ac 063f ebdc 91be
000001b0: 4e4e 1cbe 0580 4f3d 1373 9f3e 4754 de3c
000001c0: 12d5 2fbe 4acd 61bc 7d18 173f 77c1 4fbe
000001d0: 2734 0cbf 39cc eabc 99ae 68bd c992 07bf
000001e0: f243 5d3d edb8 593d 07cf b9bd 8b81 18bd
000001f0: ad3a 253e 1f73 83be ed9b b63d 60a5 1b3e
00000200: 8d1a 0b3f d61a 71bd 0b70 32be 291e 01be
00000210: 29b8 43be 1c19 e13e 3f18 173e 5604 843e
00000220: 6314 913e eee6 9abe c6ad 6bbe 9528 8ebd
00000230: f855 8fbc c0c8 41bc 7683 1a3e 9d60 d73e
00000240: df50 a93d 532c 333e df43 bc3e f82a 693e
00000250: ce82 89be 05dd e33e

encoder1_RNN.bias_hh_l1 f4 [150]
0.004832216 -0.29062012 -0.3654547 -0.08233927 -0.22920462 0.18964198 0.031636495 0.47012517
0.08375079 0.2938439 0.08084671 -0.10514788 -0.0045635537 -0.19988893 0.4889286 0.04928656
-0.098687574 0.23529689 0.040242583 -0.44749585 0.2536959 -0.14401433 0.13469921 -0.0643862
-0.23165317 0.35037434 0.06630756 -0.15552118 0.3479011 0.16307425 -0.11669746 0.20745958
0.017536465 0.18868661 -0.14323547 0.31106663 0.27594233 -0.12363121 0.054175597 0.20784406
-0.111222744 0.079533875 0.3348899 -0.19069965 0.5240206 0.36396953 -0.38446015 0.018016925
0.18493797 0.33378467 -0.010162168 0.029717756 0.21879853 0.05769548 0.084958136 0.6089904
0.15336423 0.57379323 0.21122365 0.06188018 0.20915025 0.47237393 -0.03457945 0.3266603
-0.6874384 0.19591501 -0.37408283 -0.013418684 0.66071177 -0.10729098 0.112052724 0.24892502
0.23657583 0.17236574 1.0498279 0.09624662 -0.052245013 0.42459607 -0.14422503 0.25959545
0.17127548 0.27065417 0.43310723 -0.54453725 0.41060567 0.21029831 0.011706722 -0.19499813
0.3438353 0.5262433 0.8091779 -0.09571226 0.031047624 -0.07119664 0.1952562 0.04536145
0.2057405 0.36169788 0.11222542 0.04388805 0.26971406 -0.15169878 -0.0022651707 -0.072554454
-0.3171261 0.28948838 0.46003452 -0.2938525 -0.029536726 -0.34161302 0.33655912 -0.16432829
0.07999461 0.17228518 0.65523195 0.11327684 -0.27147564 0.033701967 -0.15957499 -0.28358206
0.047254857 -0.052203197 0.009847342 -0.15709426 0.47362956 -0.118541256 -0.028629705 0.13419592
0.44705448 0.365082 -0.11879535 0.23441716 -0.1454588 -0.05009162 0.35399014 0.23025444
0.13334212 -0.20355925 0.050581615 -0.34372577 0.27704805 -0.13023712 -0.031730693 -0.09442834
0.26237795 -0.2682404 0.056934725 0.20398307 -0.31483608 0.49049726
00000000: 9157 9e3b 29cc 94be e11c bbbe 7ea1 a8bd
00000010: 9eb4 6abe 8231 423e 4595 013d 3fb4 f03e
00000020: 8985 ab3d b572 963e f692 a53d c657 d7bd
00000030: dd89 95bb afaf 4cbe d954 fa3e b4e0 493d
00000040: b61c cabd abf1 703e 68d5 243d 2d1e e5be
00000050: 6ee4 813e 7e78 13be 97ee 093e e9dc 83bd
00000060: 7d36 6dbe 4464 b33e 42cc 873d f240 1fbe
00000070: 1820 b23e f0fc 263e 14ff eebd 4970 543e
00000080: a2a8 8f3c 1037 413e 52ac 12be 2044 9f3e
00000090: 5048 8d3e 5c32 fdbd 3be7 5d3d 13d5 543e
000000a0: c0c8 e3bd a8e2 a23d b076 ab3e c546 43be
000000b0: 3726 063f 375a ba3e f6d7 c4be 3b98 933c
000000c0: 6160 3d3e d3e5 aa3e 397f 26bc a772 f33c
000000d0: b90c 603e 1852 6c3d 88fe ad3d cbe6 1b3f
000000e0: 830b 1d3e 1de4 123f 034b 583e 1276 7d3d
000000f0: 7c2b 563e ffda f13e 2ea3 0dbd 0540 a73e
00000100: f7fb 2fbf f29d 483e c987 bfbe 0ada 5bbc
00000110: 6824 293f 60bb dbbd e67b e53d 33e6 7e3e
00000120: ef40 723e a580 303e c360 863f f31c c53d
00000130: defe 55bd a864 d93e baaf 13be b2e9 843e
00000140: d762 2f3e 2f93 8a3e 3bc0 dd3e cb66 0bbf
00000150: e83a d23e 7158 573e 8dcd 3f3c 97ad 47be
00000160: 2e0b b03e e2b7 063f 4826 4f3f ca04 c4bd
00000170: 9657 fe3c 8bcf 91bd 3ef1 473e eecc 393d
00000180: a3ad 523e 7730 b93e 71d6 e53d f5c3 333d
00000190: f617 8a3e ed56 1bbe 4273 14bb 6e97 94bd
000001a0: 5a5e a2be d237 943e a589 eb3e d673 96be
000001b0: 01f7 f1bc e7e7 aebe 7a51 ac3e ad45 28be
000001c0: 37d4 a33d 876b 303e 48bd 273f b0fd e73d
000001d0: dbfe 8abe 130b 0a3d a067 23be ab31 91be
000001e0: 4f8e 413d 05d3 55bd bf56 213c 51dd 20be
000001f0: 937f f23e c2c5 f2bd d888 eabc a86a 093e
00000200: 53e4 e43e 07ec ba3e fa4a f3bd 0d0b 703e
00000210: 27f3 14be df2c 4dbd 323e b53e d2c7 6b3e
00000220: d68a 083e d671 50be ab2e 4f3d d3fc afbe
00000230: 3ed9 8d3e e15c 05be 0bf8 01bd a563 c1bd
00000240: 6756 863e ce56 89be 6334 693d f0e0 503e
00000250: 3232 a1be 7522 fb3e

encoder1_linear.weight f4 [1, 50]
-0.09597115 0.06830851 0.19117083 -0.09886007 -0.115856916 -0.05789444 0.16963163 0.047422625
0.061910093 -0.017119968 -0.0920643 -0.060923558 -0.10313048 -0.16079263 0.11624626 -0.11667363
-0.08639179 -0.06941117 -0.09517471 -0.1923799 0.17830318 0.116686784 0.028932517 -0.013631183
0.193691 -0.026901897 -0.044651985 -0.058165684 0.05024043 0.08926378 -0.038055927 0.10001962
0.15258983 -0.16848543 -0.012148088 -0.13929945 0.19967552 0.0523441 0.13238701 -0.08455507
0.06668008 -0.07809422 -0.13998766 -0.035683434 0.0642181 -0.106852114 0.19609672 0.023284022
-0.11950337 -0.13500082
00000000: 868c c4bd 55e5 8b3d 49c2 433e 2677 cabd
00000010: 6446 edbd b822 6dbd eab3 2d3e 3a3e 423d
00000020: 7095 7d3d 2d3f 8cbc 358c bcbd fb8a 79bd
00000030: 1336 d3bd d3a6 24be 8512 ee3d 96f2 eebd
00000040: 2eee b0bd 7227 8ebd f5ea c2bd 3dff 44be
00000050: 1c95 363e 7bf9 ee3d e303 ed3c 5355 5fbc
00000060: ef56 463e 5e61 dcbc 00e5 36bd 243f 6ebd
00000070: e9c8 4d3d eecf b63d 88e0 1bbd 16d7 cc3d
00000080: 8240 1c3e 7287 2cbe c608 47bc 84a4 0ebe
00000090: bd77 4c3e c466 563d 7690 073e 352b adbd
000000a0: 918f 883d ddef 9fbd ed58 0fbe cb28 12bd
000000b0: c784 833d 48d5 dabd 94cd 483e 22be be3c
000000c0: 2fbe f4bd a83d 0abe

encoder2_RNN.weight_ih_l0 f4 [150, 7]
-0.2996976 -0.019833429 0.45445624 0.24863951 -0.80040437 -0.14455234 -0.094702244 -0.5123134
-0.63229996 0.08549754 0.24468532 0.2291039 1.2333206 -0.093537435 -0.11033625 -0.6351682
-0.21410112 -0.42244262 -0.18282925 -0.11643308 0.1569839 0.2520561 -0.4574482 0.2706741
-0.31688043 0.087678 0.24346104 -0.07786637 -0.49148375 -0.27804065 -0.4814541 -0.18850823
-0.21113688 -0.59330386 -0.3360454 -0.6910479 -0.86449355 -0.30173784 0.016615422 -1.1664263
-0.31915358 0.5796112 0.9237163 0.10758311 -0.2323387 -0.03009147 -0.1945038 -0.25505072
-0.13699622 0.38974875 0.79664785 0.80640537 -0.838687 -0.044636387 0.35190344 -0.10262695
-0.17908648 -0.777079 -0.42096213 -0.24730538 -0.32272583 -0.00682504 -0.09956111 -0.9914339
-0.085725985 -0.04909288 0.16560715 0.029851304 -0.36335438 0.3001227 0.16294163 -0.18539286
-0.23440899 -0.15344848 -0.09418477 0.21727523 -0.12856199 0.012535479 -0.084838696 -0.5645945
0.44011614 -0.110716544 -0.2558123 -0.08011222 0.19056916 -1.1265907 -0.6623282 0.16187964
-0.37903875 -0.24629354 -0.14832659 0.22394435 0.10548312 1.1584525 0.6162417 -0.17374167
-0.20277497 0.07245322 0.92333144 0.21324132 1.0479554 0.89290524 0.0713692 0.66633844
-0.013755304 1.0254291 0.2896128 -0.8674762 0.5954491 -0.2698751 -0.5168634 -0.0060896105
-0.07459047 0.3063258 0.25807303 0.31459042 0.70002544 0.010585422 0.22307041 -0.30498886
0.29097056 0.45616582 0.6932928 -0.8751448 1.1155682 0.017920392 -0.46138293 -0.19543882
-0.2939544 0.519211 -1.038456 0.040399365 0.127883 -0.047244933 0.21326947 0.45684412
-0.29710302 0.82497454 -0.069336325 -0.054563638 -0.4929642 -0.38169467 -1.0138499 -0.85127264
-0.15804262 -0.44542012 0.11642743 -0.029458761 -0.5116648 -0.11008 0.09089726 -0.21596739
0.34108073 0.29708958 0.41738233 -0.5624436 0.32777917 0.3589337 -0.050450046 0.5173041
-0.006558575 -0.16368109 -0.6406585 0.16742803 0.5346704 0.12697585 -0.28340635 0.3328975
-1.0769681 1.2032573 -0.06339592 -0.4313517 0.8777007 -0.3476133 0.06610964 0.24330969
-0.26281396 1.6395447 0.7719333 -0.031262323 -0.99631256 0.02333403 -0.14223847 -0.73515594
-0.5964676 -0.06066051 0.3422767 0.21329024 0.45171064 0.30812004 -0.8666857 0.122443125
-0.03564722 0.2592217 -0.027477227 -0.112832874 -0.29938102 -0.0027165723 0.08185102 0.0099878
-0.6011333 -0.108305365 -0.48792395 -0.03880108 -0.3491457 -0.15967947 0.33319697 -0.18612236
0.25074887 0.46531016 0.20912328 -0.010652582 0.45542008 0.31993687 -0.22930767 0.1953902
-0.006089191 -0.030479556 -0.10330803 -0.090497054 0.14554182 -0.012156459 0.1068824 0.19422282
-0.112619646 -0.15774843 -0.058113366 -0.55117285 0.10095571 0.10153233 -0.7156423 0.37776715
-0.29038227 -0.43741462 -0.0011091342 -0.5484281 -0.04439556 0.05926815 0.056188278 -0.3438896
0.03441897 -0.33829448 -0.17500663 0.17283472 0.24007656 0.6330121 -0.40989736 1.7578999
0.068904616 -0.27368146 0.22903952 0.058977712 0.18549798 0.09503674 0.08334941 -0.0065179104
00000000: f771 99be b779 a2bc 7dae e83e 5b9b 7e3e
00000010: 4de7 4cbf 8705 14be 40f3 c1bd f926 03bf
00000020: 69de 21bf 5619 af3d ca8e 7a3e 369a 6a3e
00000030: 73dd 9d3f 8e90 bfbd f9f7 e1bd 629a 22bf
00000040: 533d 5bbe 664a d8be 9737 3bbe 7774 eebd
00000050: 63c0 203e 7f0d 813e a736 eabe cc95 8a3e
00000060: 273e a2be 8690 b33d da4d 793e 6778 9fbd
00000070: c2a3 fbbe 585b 8ebe 2781 f6be 4d08 41be
00000080: 4434 58be c3e2 17bf 250e acbe 84e8 30bf
00000090: 734f 5dbf 627d 9abe 111d 883c 754d 95bf
000000a0: 1968 a3be 6661 143f ac78 6c3f 8954 dc3d
000000b0: 32ea 6dbe 6382 f6bc 012c 47be 0296 82be
000000c0: bd48 0cbe 268d c73e 1df1 4b3f 9570 4e3f
000000d0: 31b4 56bf a5d4 36bd b02c b43e 142e d2bd
000000e0: 7262 37be a6ee 46bf 5988 d7be 9f3d 7dbe
000000f0: 523c a5be 96a4 dfbb b2e6 cbbd 9dce 7dbf
00000100: 1b91 afbd 9e15 49bd ec94 293e b98a f43c
00000110: 9609 babe afa9 993e 2cda 263e a0d7 3dbe
00000120: e908 70be 9921 1dbe f2e3 c0bd 667d 5e3e
00000130: c1a5 03be 9c61 4d3c e9bf adbd 4489 10bf
00000140: e756 e13e 5bbf e2bd d4f9 82be e011 a4bd
00000150: 9024 433e 2034 90bf 578e 29bf c7c3 253e
00000160: 5e11 c2be 6034 7cbe ede2 17be ab51 653e
00000170: 8907 d83d 2c48 943f 04c2 1d3f 56e9 31be
00000180: 3ea4 4fbe 5b62 943d 735f 6c3f ef5b 5a3e
00000190: 6723 863f 7095 643f 042a 923d 2895 2a3f
000001a0: ed5d 61bc 4341 833f 2148 943e ec12 5ebf
000001b0: 5a6f 183f 122d 8abe 2951 04bf 5b8b c7bb
000001c0: e3c2 98bd bcd6 9c3e 2622 843e ff11 a13e
000001d0: de34 333f 7a6e 2d3c 926c 643e 8027 9cbe
000001e0: 18fa 943e 918e e93e a37b 313f 7d09 60bf
000001f0: f0ca 8e3f c9cd 923c 623a ecbe 1d21 48be
00000200: 3181 96be 03eb 043f 20ec 84bf ce79 253d
00000210: c3f3 023e e783 41bd 5063 5a3e 79e7 e93e
00000220: e31d 98be 8831 533f 3400 8ebd 1f7e 5fbd
00000230: ce65 fcbe 7c6d c3be d5c5 81bf 01ed 59bf
00000240: edd5 21be 1b0e e4be 8171 ee3d 8053 f1bc
00000250: 77fc 02bf 9f71 e1bd 5828 ba3d 8e26 5dbe
00000260: 22a2 ae3e 201c 983e 23b3 d53e 4efc 0fbf
00000270: acd2 a73e 28c6 b73e b5a4 4ebd 0b6e 043f
00000280: 51e9 d6bb 049c 27be 3202 24bf 4172 2b3e
00000290: 29e0 083f f505 023e a31a 91be 8b71 aa3e
000002a0: 17da 89bf 5604 9a3f b8d5 81bd 21da dcbe
000002b0: feb0 603f 5ffa b1be 7e64 873d 2d26 793e
000002c0: 8d8f 86be 9adc d13f 6c9d 453f ec0c 00bd
000002d0: 570e 7fbf 0227 bf3c f6a6 11be 2e33 3cbf
000002e0: 1ab2 18bf 2877 78bd e43e af3e c268 5a3e
000002f0: 9e46 e73e e9c1 9d3e 1ddf 5dbf 76c3 fa3d
00000300: d202 12bd b5b8 843e ec17 e1bc ec14 e7bd
00000310: 7848 99be 8508 32bb 82a1 a73d dfa3 233c
00000320: dfe3 19bf 34cf ddbd 2bd1 f9be e2ed 1ebd
00000330: 3ac3 b2be 0483 23be cb98 aa3e dc96 3ebe
00000340: 2862 803e 223d ee3e 6a24 563e 2b88 2ebc
00000350: d22c e93e c4ce a33e a1cf 6abe 5e14 483e
00000360: d687 c7bb 43b0 f9bc 2993 d3bd 8556 b9bd
00000370: ea08 153e e22b 47bc 29e5 da3d 59e2 463e
00000380: 21a5 e6bd ce88 21be 4808 6ebd aa19 0dbf
00000390: dec1 ce3d 2ff0 cf3d 5534 37bf b26a c13e
000003a0: fcac 94be cff4 dfbe 5e60 91ba c965 0cbf
000003b0: 1ed8 35bd 29c3 723d ae25 663d 4c12 b0be
000003c0: e8fa 0c3d ef34 adbe f034 33be 96fb 303e
000003d0: a1d6 753e 150d 223f 11de d1be dd02 e13f
000003e0: dd1d 8d3d fa1f 8cbe 5689 6a3e 9d92 713d
000003f0: 2ff3 3d3e 9fa2 c23d 18b3 aa3d 3294 d5bb
