rnn_twc/saved_model/NoFeedback/K12_N36/bi_sigmoid/SNR(1dB)/model.pth (torch, 356367 bytes, 29 tensors)

weight_power f4 [36]
00000000: 4ebb bf3f 8bf1 af3f 0cdb a63f 4c2c a63f
00000010: 0789 a63f 1ccf a13f f3a1 993f ce66 953f
00000020: 93b4 903f 21e5 8e3f 7271 903f 37a4 903f
00000030: 1d0d 903f 7621 893f c3bf 843f bad7 6f3f
00000040: 7955 4f3f 4bdf 3f3f 0ea0 553f 8e91 503f
00000050: d27a 383f 18f0 613f ae4c 6f3f 5be7 683f
00000060: ab43 623f d5f5 4f3f 988c 433f cd56 5c3f
00000070: 14a3 4c3f 5a2f 503f fdd2 603f c48f 283f
00000080: 7be3 473f 67f9 463f 729a 413f 6ca0 6d3f
1.4979036 1.3745588 1.3035598 1.2982268 1.3010567 1.264133 1.2002548 1.1671999
1.1305107 1.1163675 1.1284621 1.1300114 1.1254002 1.0713336 1.0371021 0.9368855
0.80989796 0.74950093 0.8344735 0.814721 0.7206241 0.8825698 0.9347638 0.9097802
0.88384503 0.81234485 0.76386404 0.8606995 0.7993634 0.8132225 0.8782194 0.6584437
0.7808148 0.7772431 0.7562629 0.9282291

weight_merge f4 [36, 2]
00000000: 9571 563d 4a41 5cbb 73e4 9f3c d9c9 c53b
00000010: 57a3 213a 1341 6eba f270 803e a1e0 80ba
00000020: 80b8 be3e b3e6 923b 9c8b eb3e 7dd4 abbb
00000030: c5a7 903f 818d f43c 3bbb ff3f 0fe4 f5bb
00000040: 9796 2e40 eb17 1d3a 4b16 4040 7b75 973c
00000050: be5c 1540 97bd c1bb cdd5 50bf fff9 133c
00000060: e846 9f3c 5b5d 50ba 7ed3 b8bc 1597 e4bc
00000070: d80f 00ba b03a 483d 7363 473a f426 38bd
00000080: 2995 8839 641d 22ba 0667 82b9 fb9d 50ba
00000090: 8ecb 17b9 a4c1 2d41 89ee 17bb d75b d03f
000000a0: e4e0 843c dba1 0abd 0475 71bc a908 323f
000000b0: b78b 60bc f648 83bc 69da caba 3ea7 17bc
000000c0: 5e92 543b 80a5 ee39 8acb 053c ddb0 123a
000000d0: d6b2 aabb 065b fa39 9673 b1b9 7498 53ba
000000e0: 77a5 bb3b 7ff5 07be 0c19 c6ba 1425 323f
000000f0: 1bc3 c0bb 7278 273a bdd1 cab9 47bf 57bc
00000100: a55b f839 6784 813e 46ca ce39 d06d 3e3a
00000110: c80a 2cbc 6d28 223d 7859 0a3a 8031 a93f
0.052354414 -0.0033608251 0.019518113 0.006036025 0.0006166002 -0.00090886763 0.2508617 -0.000983257
0.37250137 0.004483068 0.4600495 -0.0052438364 1.1301199 0.02985263 1.9979013 -0.0075039933
2.7279413 0.0005992639 3.0013607 0.018488636 2.3337855 -0.0059124934 -0.81576234 0.009031772
0.01944299 -0.00079484814 -0.022561785 -0.027904073 -0.00048851734 0.048884094 0.00076060666 -0.044959024
0.00026051074 -0.0006184189 -0.0002487229 -0.0007958111 -0.00014476312 10.859776 -0.002318295 1.6278027
0.016220517 -0.033845764 -0.014737371 0.69544464 -0.013705186 -0.016026001 -0.0015476468 -0.009256182
0.0032435874 0.00045518205 0.008166203 0.00055958127 -0.005209307 0.00047751534 -0.0003384619 -0.00080717285
0.005726512 -0.13277243 -0.0015113666 0.69587827 -0.0058826334 0.0006388492 -0.0003868471 -0.013168163
0.00047370527 0.25296327 0.00039442087 0.0007264288 -0.010500617 0.039589334 0.0005277614 1.3218231

encoder_RNN.weight_ih_l0 f4 [150, 13]
00000000: 5229 ac3d ffcc 203e e19d f23b 4078 47bf
00000010: d772 d03e c7b3 7cbe 8bab 963d d178 c23c
00000020: 4c2b 04be 692b c9bd 284c 233c 58aa c53e
00000030: ef58 38bd 3f85 c53e afa7 943f b440 223e
00000040: 3e00 96bd baf5 58bf 4b9d 613e 6fd0 2b3d
00000050: 2c0b 89bd 6349 a53e 4114 ecbd 04ab 343e
00000060: 3846 0ebf 38e0 d23b 93d1 823e 5dd5 073d
00000070: c257 0b3f 6555 fa3d 7320 62bd 189e e53d
00000080: 40d4 af3e 945d 82bf d06f 0b3e 0e1c c93d
00000090: b50a ca3e 0787 1c3b 506f 443d ca4e 393e
000000a0: 95b6 4bbd d33d c93d 7f91 1a3e 81e2 80bd
000000b0: 0f6b 783e 6a98 503e bbf1 b63e 33e0 d43c
000000c0: 48b0 9f3d c9c8 173e 2253 b4bb 7fe8 a3bb
000000d0: e89e 1f3e dfbd efbd eebc 163d d8f6 013f
000000e0: 9b90 c9be 02a9 683e 72d3 b43e fc24 c73d
000000f0: 8942 f23d 95a5 d03e 5717 9f3d e22a c7be
00000100: fb41 c03e 5c58 d1be 192e 193e 2a45 8bbb
00000110: 2470 30be ba60 743d 933d c33e 5c7d 6bbe
00000120: a340 5d3e 2d91 babc 30f5 b83e 68b9 303d
00000130: 3795 8d3e 089a 49bd 1dc3 243f 6cc9 353e
00000140: 6bb5 78bd b7c7 b83e bb16 4b3f 8efa ec3e
00000150: 7f99 bc3d 85ab a63d a7df ecba 4bb5 adbe
00000160: 2261 adbd 9bf1 4bbf e47c 2d3e 1717 d03c
00000170: 4139 66bd be65 2d3f f0ed f5bc 2911 1cbe
00000180: e9cc 553d c6df 32be a32a 3abf 2bb0 82bd
00000190: a94c 7cbd 15d9 3bbe d211 08be 032d aa3e
000001a0: fd2e b93e 6f7e 043f 1576 133d 9848 f53d
000001b0: 67fe 033e a4d6 ab3e afcc d33e 75f8 df3d
000001c0: c0a4 4b3d fc89 dabe 9949 1a3d 49f2 4b3e
000001d0: 1f76 ca3e 926b 3fbe 3ee4 c9bd e262 3dbe
000001e0: 215d 57be 6ce6 a4bc 72af 9cbd 8f44 34bd
000001f0: ab50 d03e 1e5a 2a3f d20f 8cbe 5501 1bbe
00000200: e1ef 4dbe 8559 8cbe bae1 b9bd eda1 95be
00000210: 9e2a 303c 8a7a 8cbe 428b 593d 73ab d93e
00000220: 6896 25be da4f 76bd 6c61 be3c 178f 4b3e
00000230: 5de0 7e3d 1d62 1bbd 8638 193e 2883 fa3b
00000240: ed2c a73d ea73 ccbc 5d54 03bf 497f 9ebe
00000250: caed 4e3f 8f9d 1a3f 301c 5b3d a945 77bd
00000260: 0d16 85bd 2072 df3c 806b 69be 100c 873e
00000270: 566e 16be 24e4 34be 5ae3 63be c9b6 053b
00000280: 583a 063d 2b24 8abe f7a0 01bf 4668 28be
00000290: 679f fabb 81df b4be 69bb 8cbe e50c 07be
000002a0: 74f4 8a3e 629c 253d 4165 25be 459f 0fbe
000002b0: 1a17 febe 51e1 92be 6529 6dbe c866 133c
000002c0: f66d bd3d cb14 633c 688f 08be a84b 7cbd
000002d0: 1de7 3abe 1e80 a03e 0eeb 16bb d5b7 e13d
000002e0: 9911 993e 92da 60be 190c 9abc b805 c0bd
000002f0: 5a36 1c3e d67a f93e 9fdb ffbc b0de 25be
00000300: 075d 98be 1b90 d93d 3d70 ae3c a74c 043d
00000310: c545 6ebe f5a8 b73d 79d6 0ebe b6e9 c03d
00000320: 3f7a edbe 3b57 35be 03af 24be 0b6c acbd
00000330: 12b0 663e ca3c c43c 4446 6ebe c3a0 d4be
00000340: 6a01 393e e185 1c3d d841 9f3c 833e 44be
00000350: b694 abbe e912 05bf d52e de39 d2f7 b73b
00000360: 0365 0fbe 6b00 86bf 728f 2bbd 4298 d6be
00000370: df3c 643d faf2 e8bd 2737 88be 894b 7d3c
00000380: 4d67 82be c0c3 2f3d 8ce2 8cbf 4676 26bc
00000390: d698 7cbc 7f44 183d 640f 933e 4de5 6dbc
000003a0: 53f2 1d3d fcc8 8abd fa4e a53d 5982 8a3e
000003b0: b70f b73e 5b9b 663e 70be aabe 2992 14bd
000003c0: a11f a2bc f673 563d f1e5 07bf b0e9 3abe
000003d0: bca2 1ebe c057 68bd 44b1 e63d 3905 6abf
000003e0: 86de c83e 0d40 5d3c e50f 05be 40aa f4be
000003f0: 092c fa3e f1bc 393d 2f06 3dbd 334c fc3d
0.08406319 0.157032 0.0074040745 -0.7791786 0.40712616 -0.24677955 0.07356938 0.02373925
-0.12907141 -0.09822733 0.0099668875 0.38606524 -0.04500669 0.3857822 1.1613673 0.15844995
-0.07324265 -0.8474995 0.22032659 0.041946825 -0.06691584 0.32282552 -0.115273006 0.17643362
-0.55575895 0.0064354204 0.25550517 0.033162463 0.5443078 0.12223319 -0.055206727 0.112117946
0.3434162 -1.0184808 0.13616872 0.09819804 0.39461294 0.0023884194 0.04795772 0.18096462
-0.04973467 0.09826245 0.15094565 -0.06293202 0.2425959 0.20370641 0.357313 0.025985813
0.07797295 0.14822687 -0.0055030743 -0.005002081 0.15587962 -0.11706137 0.03680127 0.5076728
-0.39368138 0.22720721 0.3531757 0.09723851 0.11829097 0.4075133 0.077681236 -0.38899904
0.3755034 -0.40887725 0.14958991 -0.0042501884 -0.17230278 0.05966256 0.38132915 -0.2299704
0.21606688 -0.022774303 0.36124563 0.043145567 0.27652904 -0.04921916 0.6436022 0.17752618
-0.06071989 0.3608987 0.7933156 0.46284908 0.092089646 0.081381835 -0.0018072025 -0.33927378
-0.08465792 -0.79665536 0.16942173 0.025401635 -0.056206945 0.6773337 -0.030020684 -0.15240921
0.05219737 -0.17468175 -0.7272131 -0.063812576 -0.061596546 -0.18344529 -0.13288048 0.33237466
0.36168662 0.5175542 0.036001284 0.11976737 0.12890016 0.33562195 0.413671 0.10936061
0.049717665 -0.426834 0.037667844 0.19916643 0.39543244 -0.18693379 -0.09857987 -0.18494752
-0.2103162 -0.020129405 -0.07650651 -0.044010695 0.40686545 0.6654376 -0.2735582 -0.15137227
-0.20111038 -0.27412048 -0.09076257 -0.29225102 0.010752348 -0.2743724 0.053111322 0.42513618
-0.16170657 -0.060134746 0.023239814 0.19878803 0.06222569 -0.037935365 0.14962968 0.0076450296
0.08162866 -0.024957616 -0.51300603 -0.30956486 0.8083159 0.60396665 0.05349368 -0.060369167
-0.064983465 0.027276099 -0.22794914 0.2637639 -0.14690527 -0.17665154 -0.22254696 0.0020403138
0.032770485 -0.2698072 -0.5063624 -0.16446027 -0.007648397 -0.3532677 -0.27486733 -0.13188513
0.27139628 0.04043234 -0.16151907 -0.140256 -0.49627 -0.28687528 -0.23160322 0.008996673
0.09249489 0.013859938 -0.13335955 -0.06159559 -0.18252225 0.31347746 -0.0023028287 0.11021391
0.29896238 -0.21958378 -0.018804597 -0.09376091 0.15255108 0.4872653 -0.031232653 -0.1619823
-0.29758474 0.10623189 0.021293754 0.032299664 -0.23268802 0.08967773 -0.13949002 0.09419577
-0.4638233 -0.17709057 -0.16082387 -0.08419045 0.22528103 0.023954768 -0.23268992 -0.415289
0.18066946 0.038213614 0.019440576 -0.19164471 -0.33511895 -0.5198198 0.00042378032 0.0056142593
-0.14003377 -1.0468878 -0.041884847 -0.41913038 0.055722114 -0.11374469 -0.26604578 0.0154599035
-0.25469437 0.04291129 -1.1006637 -0.0101600345 -0.015417298 0.037174698 0.2872268 -0.014520002
0.038561177 -0.06776616 0.08071704 0.27052572 0.35754177 0.22520201 -0.33348417 -0.0362722
-0.019790472 0.052356683 -0.5308524 -0.18253207 -0.15491766 -0.05672431 0.112642795 -0.9141422
0.39232272 0.01350404 -0.12994345 -0.4778614 0.4886172 0.045346204 -0.046148475 0.12319221

encoder_RNN.weight_hh_l0 f4 [150, 50]
00000000: f71d 483f 43e7 d8bd 2673 26be 2bcc cdbd
00000010: 290e 25bc 9972 7fbe eb8c aa3e a88a 083f
00000020: ee59 de3c e40f e33d 65ab 063c e09f 613e
00000030: 6cb1 183e 674a 00bf 4b8e 2d3f 4ef1 853e
00000040: ac27 d23e 7546 733d 3e1f 49be ea4f 5c3e
00000050: 9e75 7dbc 0f6d 37bf 89e6 dd3e 0ecf ddbe
00000060: 8daf aa3d 9693 1f3e 498a 38bf b408 d83d
00000070: a361 633c d656 5ebe 5d8c 0e3e 734e 783f
00000080: 1505 aebe 9d4b bdbe 49e3 003f c6bb 0b3e
00000090: f4c6 cdbd 4df7 823d 6b67 36be 51d9 11bd
000000a0: bd85 3e3e 41c9 dabe 039d e53d 4896 423e
000000b0: a19e 2abf a769 7f3d c0b5 a6be 44f2 663f
000000c0: e2a2 923e affa 433f f651 4e3f f238 693f
000000d0: 3005 96be acd3 0abe 7437 0f3e 579a 25be
000000e0: d363 613e be1c a8be 6b8b b73c bda6 693e
000000f0: 3dc0 92be d13f 233f f426 8bbe 08bb 713f
00000100: dda3 65bd f9a3 453f 0ee9 583e a80d 903f
00000110: 5258 4d3e 8f01 143f 7fc9 11bf 020e 383c
00000120: 60aa 4fbd abd0 d43c 50c2 6ebf 3a54 d83d
00000130: daf2 02be 36c4 c03e 0c4d 04bf 1489 4a3d
00000140: 7764 0b3f 9e79 943e a5d8 5e3f a7f1 16bd
00000150: c306 093d 04d4 96be 67ed d9be 9271 343e
00000160: 0407 81be a06f 0e3f 754e 96bc 5906 babe
00000170: 2a7d 4f3e 5117 c3bb 3dd6 dc3e f8f6 42be
00000180: 35e6 14bf 095d ebbe bca5 9f3e 091b 01bf
00000190: 2de1 b2be 0d20 a23d 65ba b23e 27c3 3dbe
000001a0: ca34 f73d b719 50be 1836 87be d887 1d3f
000001b0: 43a0 ccbd a795 84bf ef18 74be 4469 a23e
000001c0: ff5c 263f a22b 523e 9e7e 283f 38fd ebbd
000001d0: 625b 1bbd 6ce2 afbe 852d 8ebf 2bd8 3e3e
000001e0: 541f 79bd f9b2 cfbe 0973 debd 98c4 883d
000001f0: 586a 96be 84fd cd3e 4dfc 293f f5c5 8cbe
00000200: 5ad2 483e a7d6 873d 6069 513d 24a1 343d
00000210: aa2b 98be f16e c2be b3f7 a93e 0f65 38be
00000220: b99a 083e 7350 c73d 79f4 ac3e 038b b6bf
00000230: 02a7 373e fa92 a23d 4d75 90be 1560 1bbe
00000240: 5ee2 c03c 77a7 4cbe 83ba bfbd c045 e33e
00000250: 37b8 293c a810 053e f335 44be e93a dfbd
00000260: c586 c9be 6dee 08bf 7f4f d93e 379a 8d3d
00000270: 4781 05be 64ac 05be 3a3f d6be 2550 86be
00000280: dc46 edbd ac4b 223e 6ecd 453e d636 42bf
00000290: a8d4 b73e 3d44 913e cb87 7ebe fc47 06bf
000002a0: 1ac3 7bbf fe95 c73e b819 36bf 8bf4 f7bd
000002b0: d15c 063e bc7f c33e 79e0 c9bc 0969 ab3d
000002c0: eabc 073e 34e3 353e e50c 763e 4067 b0be
000002d0: dff2 b93e 4e6a 2f3e 27a8 babe f45d 2bbe
000002e0: 86c0 0e3e 01d6 ce3d 84d7 eb3e 526d f03e
000002f0: 8577 ebbd 774f cc3e fb1c 7e3e 8b00 8e3d
00000300: 1db8 253d 7d96 1ebe c9a9 733f d4c0 24be
00000310: 0aab c93d db73 a8bd 422d 133f 9957 4f3e
00000320: cdda 87be 3eba eabd 1c63 c83d a581 29be
00000330: 29ad 823d 1aa8 903e 54d7 e7be 61b8 5fbd
00000340: be68 88bd 0cfc b5be 9777 d43e 7b20 e43d
00000350: 1403 1fbf 533a 43bf 8038 1f3e 18a1 9cbe
00000360: 8eb8 1fbe fe09 4c3e 38f6 d9bd 017d 833e
00000370: 51d5 17be b7ec 003e 72a1 b23d 2198 b53d
00000380: 6575 ddbe 4e4c f33e e23d f8bd b69d 80bc
00000390: a09c 983e c096 11be 0edb a6bd f88b a23e
000003a0: 78d4 173f 4271 b93e b0ed 54be 8dce 4abe
000003b0: 9e72 c5be 407f 133f d968 0739 ed8f 933d
000003c0: 7f0f cc3b 5181 c1bb b161 0c3e 2f5f 4bbe
000003d0: a983 54bc 97dc 9a3d 9ecb 23bd ed09 1dbe
000003e0: feee 693d d1e9 d1be 523c 09be a187 45be
000003f0: 9c8e 9ebd dfc1 a2be eaf4 0dbe 24bd fc3e
0.7817072 -0.10590985 -0.16254863 -0.100487076 -0.010074177 -0.2494606 0.33310637 0.5333657
0.027142491 0.11087015 0.008219575 0.22033644 0.14911431 -0.5011353 0.67795247 0.26160663
0.41045892 0.059393365 -0.19640824 0.2151486 -0.015469937 -0.71650785 0.43339947 -0.43322033
0.08334265 0.15583643 -0.72086006 0.10548535 0.013878259 -0.21712813 0.13920732 0.96994704
-0.33988252 -0.3697175 0.5034681 0.13645849 -0.10047713 0.06394825 -0.17812888 -0.03560764
0.18605705 -0.4273167 0.11211588 0.1900264 -0.666483 0.062356617 -0.3256054 0.9021342
0.28639895 0.7655439 0.8059381 0.91102517 -0.29300833 -0.13557309 0.13985997 -0.16172157
0.22010736 -0.3283443 0.022405347 0.22817512 -0.2866229 0.6376925 -0.27178156 0.9442601
-0.056064475 0.7720333 0.21182653 1.1254168 0.20053223 0.5781488 -0.56948084 0.0112338085
-0.05069959 0.025978407 -0.9326525 0.1056294 -0.12787953 0.37649697 -0.51680064 0.049447134
0.5445017 0.28999037 0.87049323 -0.03685155 0.033453714 -0.2945863 -0.42563936 0.17621449
-0.25200665 0.55639076 -0.018347958 -0.36332968 0.2026259 -0.0059537073 0.431322 -0.19039524
-0.5816377 -0.45969418 0.31181133 -0.5043188 -0.3493742 0.079162695 0.34907833 -0.18531476
0.120706156 -0.2032231 -0.26408458 0.61535406 -0.09991505 -1.035817 -0.23837636 0.31720936
0.6498565 0.20524457 0.658182 -0.11522907 -0.037928946 -0.34352434 -1.1107641 0.18637149
-0.060820892 -0.40566233 -0.10861785 0.06678122 -0.2937801 0.4023248 0.66400605 -0.2749478
0.19611493 0.066327386 0.051125884 0.04409899 -0.29720813 -0.37975267 0.33196792 -0.18007301
0.13340272 0.09732141 0.33780268 -1.4261173 0.17934802 0.0793819 -0.28214493 -0.15173371
0.02354544 -0.19985758 -0.09361746 0.44389153 0.010358862 0.12994635 -0.19161205 -0.10899908
-0.39360633 -0.5348881 0.42443463 0.0691418 -0.13037597 -0.13054043 -0.41845113 -0.2623302
-0.11585781 0.15849179 0.19316646 -0.75864923 0.3590443 0.28372374 -0.24856488 -0.5245359
-0.98344576 0.38981622 -0.71132994 -0.1210719 0.13121344 0.3818339 -0.02464317 0.08369643
0.13255659 0.17762452 0.24028356 -0.34453773 0.36318108 0.17130396 -0.36456415 -0.16735059
0.1394063 0.10099412 0.46062863 0.46958405 -0.11497406 0.39904377 0.24815743 0.06933697
0.040458787 -0.15487094 0.95180947 -0.16089183 0.09847076 -0.08225223 0.5749093 0.2024826
-0.2653412 -0.11461304 0.097845286 -0.16553362 0.06380684 0.2825325 -0.4528147 -0.054619197
-0.06660603 -0.3554386 0.4149749 0.11139008 -0.6211407 -0.7626087 0.15548897 -0.30591655
-0.15597746 0.19925687 -0.106426656 0.25681308 -0.14827468 0.125903 0.087221995 0.08866907
-0.43253627 0.47519153 -0.12121178 -0.015700202 0.29806995 -0.14217663 -0.0814725 0.31747413
0.59308577 0.3621922 -0.20793796 -0.19805355 -0.38564008 0.57616043 0.00012913662 0.07205186
0.006227433 -0.0059053083 0.13709141 -0.19860528 -0.012970843 0.075616054 -0.039989106 -0.15335818
0.057112686 -0.409987 -0.13401917 -0.1929002 -0.07742044 -0.31788537 -0.13862959 0.49363053

encoder_RNN.bias_ih_l0 f4 [150]
00000000: e306 433e 9128 7b3e aafb 613e 3202 573e
00000010: 5a6f 9c3e 7f7a fe3b 7cfe d4bd 415f 27be
00000020: b913 f53d 3d4f d03d f788 b4bd dca0 513e
00000030: 4b3d 9abd 7ddc 99bd d9cf 713e ceac 2a3d
00000040: f5a5 ab3c 94ba 823e 2498 e93d cd8c 3f3e
00000050: 8cef 3abe 31b2 2ebe 6e30 793e 1f8e ac3d
00000060: 9a37 5bbe 6095 4dbe 93fc 8abc 89e3 063e
00000070: a229 5abd b9f4 51be 87cd 0a3e 1aa8 75be
00000080: 9f0d 703c b814 653e 7bd8 0abe 63d3 69bc
00000090: ddf8 e73d 4669 363e 8263 663d 21b6 dc3d
000000a0: 2bac b33d 6a63 1b3d 8294 74be 486c 5fbe
000000b0: 6fe9 29be c940 cc3e 0638 043e a02a cc3e
000000c0: cf8f 6bbd 5ada 8e3e 1f67 9ebc 637e 1c3e
000000d0: 5ef1 6b3e d4ba d33e 1e8d 363e e7f1 6d3e
000000e0: 9c80 923d 4aeb 363f df0c 0f3f 40dd 7a3e
000000f0: a7a8 883e bc57 9bbd eb95 133f 8757 e63d
00000100: 519f 8a3e 378b 6c3e a3cb bfbe 4ee3 8c3e
00000110: 8575 163f 3d52 e43d f9ac 563f 353d e93e
00000120: 2b44 503e 4098 8f3e a8b5 df3e b8fa 133f
00000130: edd4 c63e 6d82 d53d d76d 033e 62fa d83e
00000140: e8b0 473d 2cd7 5f3e 3af9 eb3e b740 633e
00000150: 96c3 bf3e 2e12 023f 08ad b73c ba79 d23e
00000160: c38c 803e 7258 b03e f873 e03e 39ff 843d
00000170: 4ac4 773f 52e2 963e 7e16 a23f 7b8f cc3d
00000180: 01b1 813d fa42 643e 8570 a33e 30ab 1f3f
00000190: 26f6 eb3d d9e9 1c3d 56d2 19be 9672 40be
000001a0: af79 303d e2ff b3ba da85 b23e d730 a33e
000001b0: d6f0 713d 5ca4 4d3e 53be d7bd ee6d 273e
000001c0: 8516 f53d ff7a 1ebe baaf f83e 2265 353b
000001d0: 2a30 7abe f79f 86bd fca7 853e 33ef 883e
000001e0: 48d3 8dbd 2831 23be de56 8a3e 8eff a0be
000001f0: 8792 963e 28ac d33d c0db 133e 858e ce3e
00000200: 11b6 8abe 7268 84be 5d3b 953e 5e61 043f
00000210: 988e 003d efcb 8bbe 6d06 cd3e 01ed d73e
00000220: cc21 933e 9393 bbbd 9eac cdbe 59f9 a5bd
00000230: 84ab 763d b737 8c3d 7522 9d3d 407e ec3d
00000240: 78b5 213e d722 8cbc 47ca 42be 1737 79be
00000250: 5ffe f5bc a072 dd3e
0.19045596 0.24527194 0.22068658 0.20996931 0.30553705 0.0077660675 -0.104001015 -0.1634493
0.119666524 0.101713635 -0.088151865 0.20471519 -0.07531222 -0.07512758 0.23614444 0.041668706
0.020953158 0.25532973 0.11405972 0.18706055 -0.18255442 -0.17060162 0.2433488 0.08425545
-0.21407929 -0.20076513 -0.01696614 0.13172735 -0.05326236 -0.2050351 0.13554965 -0.23989907
0.014651685 0.22371185 -0.13559143 -0.01427159 0.11326764 0.17813596 0.05624724 0.10776926
0.08773073 0.037936606 -0.23884776 -0.2181865 -0.16592954 0.39893177 0.12911996 0.3987627
-0.057510193 0.27900964 -0.019336281 0.15282588 0.23041293 0.41353476 0.1782727 0.2323681
0.071534365 0.7145277 0.55879015 0.24498463 0.26691172 -0.075850934 0.5765063 0.11247163
0.27074674 0.23099981 -0.3746005 0.2751717 0.5877307 0.11148498 0.83857685 0.4555451
0.20338504 0.28045845 0.4369328 0.5780444 0.38834324 0.10425267 0.1283487 0.42378527
0.048752695 0.21859425 0.46088582 0.22192656 0.37453908 0.5080899 0.022421375 0.41108495
0.25107393 0.34442478 0.43838477 0.06493992 0.9678389 0.29469544 1.2663114 0.09988304
0.06332589 0.22291175 0.31921783 0.62370586 0.115215585 0.038308952 -0.15021643 -0.18793711
0.043084797 -0.0013732875 0.34867746 0.318732 0.05906757 0.2008223 -0.10534348 0.16350529
0.11967186 -0.15476607 0.4857157 0.0027678688 -0.24432436 -0.065734796 0.26104724 0.26744995
-0.06925064 -0.1593672 0.270194 -0.31444973 0.29408666 0.103355706 0.14439297 0.4034311
-0.2709203 -0.25860935 0.29146853 0.5171107 0.031385988 -0.27304026 0.40043965 0.42173007
0.28736722 -0.09159007 -0.4017076 -0.081042 0.060222164 0.06846564 0.07672588 0.11547518
0.15791881 -0.017106457 -0.19022475 -0.24337421 -0.03002852 0.43251514

encoder_RNN.bias_hh_l0 f4 [150]
00000000: 4636 733e 2cf6 703e 1c24 6d3e bcdf 2b3e
00000010: 8035 fa3d f166 203e 1c24 933d b0a4 45be
00000020: 5790 a5bb da71 12be 92da c5bd f736 273e
00000030: 9aac 52bd cbd3 29be de4f 723e e0e6 8c3d
00000040: dd09 55bc da31 683e 9bb2 08be d110 533e
00000050: 799b 45be 5aac e2bd 638a e63d 117b 223d
00000060: 543e 84be 8810 3a3b 9eee 313e ed1e f53c
00000070: 520a 1a3e e611 47be 1ec6 4a3e e6e8 ecbc
00000080: 0de4 d23d 1c92 863e 8feb 18be e620 f53c
00000090: 0fa3 0f3e 6809 44ba 72f6 3f3d 04f0 7cbd
000000a0: 4dc4 4c3e f962 b43d cf3c e3be 5917 d9bd
000000b0: a717 c4bc f442 8f3e 6476 90bd cb90 f13e
000000c0: cec7 36be 8e3f 8a3e 207b c33c 3750 753d
000000d0: 6bec 643e ead6 933e 505b 723e 1d77 823e
000000e0: 462f 9e3b 3e2c 3a3f 7fb6 133f 9630 9d3e
000000f0: b8a0 913e e3ad db3d 50b7 d63e c1d3 3d3e
00000100: 2f13 3a3e d4db 0d3e bdb6 8ebe 981f 963e
00000110: 3691 bd3e 1b84 5bbd bd05 4a3f 56bb dd3e
00000120: b7c4 af3e 9696 8f3e 8639 8f3e 78ad 093f
00000130: 7b18 a43e 4729 d43c 7408 083e bdb4 933e
00000140: f3e0 febb 5b89 693e 45e3 163f ace8 593e
00000150: 205d bd3e e0be 903e 31cc 843e e695 fb3e
00000160: b24c a83e e55c 053f 20f1 8c3e 0c24 3d3e
00000170: e61f 833f dba4 d23e cbda 883f 84b5 2f3e
00000180: 8ae1 7a3d 85c3 0c3e e32a bf3e a9af 053f
00000190: 410d 743e bf62 0f3e b1c5 d53d 787d 46be
000001a0: 1566 753d 3201 b4bc 0938 bf3e fbe7 303e
000001b0: 5bea 2ebe 7228 773e f35e 13be 2be6 b33d
000001c0: 552e 1b3e cd1f 063d 5c1a bf3e 3fb6 0f3e
000001d0: 3d2c 92be 535a 60bd 4c74 453e 1f2e 8e3e
000001e0: f3a9 b53d b40a 50be 69de 373e 3457 4dbe
000001f0: 5bd1 cb3d 75d2 233d 6eec dabd 3aaa 2b3e
00000200: ed8e 9bbe ee93 4abe a97e bb3e be62 a83e
00000210: 888c 95be 68a6 04be dfa6 793e c5a6 3d3e
00000220: d288 c73e 7f2e 2abe c7d6 9cbe cd51 653e
00000230: 2a95 8f3d 9a5c 263e e94b 0a3e 57f3 043e
00000240: f64b 94be be16 5c3e 49a8 25be 0719 d9bd
00000250: 1f9e b33e 79b8 b33e
0.23751172 0.23531407 0.23158306 0.16784567 0.122172356 0.15664269 0.07184622 -0.19301105
-0.005052607 -0.14301243 -0.096608296 0.16329561 -0.051434137 -0.16584699 0.2366328 0.068799734
-0.01300284 0.22675267 -0.13349383 0.20611884 -0.1929759 -0.1106803 0.11256864 0.039668147
-0.25828803 0.00283912 0.17376181 0.029921973 0.15043 -0.19440421 0.19802138 -0.028919648
0.102974035 0.26283348 -0.14933608 0.029922914 0.14027046 -0.0007478208 0.046865888 -0.061752334
0.19996758 0.0880794 -0.4438233 -0.10600156 -0.02393706 0.2798077 -0.07053831 0.4718078
-0.17849657 0.27001613 0.023862422 0.059890952 0.22355811 0.28874904 0.23667645 0.254815
0.004827413 0.7272376 0.5770034 0.3070113 0.2844293 0.10726526 0.4193673 0.18537809
0.1817138 0.13853389 -0.27873793 0.2932098 0.3702485 -0.053592782 0.78915006 0.43306988
0.3432977 0.28044575 0.27973574 0.5378032 0.32049927 0.025898589 0.13284475 0.2884883
-0.007778281 0.22806303 0.58940536 0.21280164 0.3698511 0.28270626 0.25937036 0.491378
0.32871014 0.5209487 0.27527714 0.18470782 1.024411 0.411414 1.069177 0.17159086
0.061250247 0.1374646 0.37337407 0.5222116 0.23833181 0.14002512 0.10438097 -0.193838
0.059911806 -0.021973226 0.3734744 0.17275994 -0.17081587 0.24136522 -0.14391689 0.087841354
0.15154393 0.03274517 0.37324798 0.14034365 -0.28549376 -0.05477364 0.19282645 0.27769563
0.08870306 -0.20316583 0.17955936 -0.20052797 0.09952041 0.03999563 -0.10689627 0.16764155
-0.3038248 -0.19782993 0.36620072 0.32887834 -0.2920878 -0.12954104 0.24380063 0.18520649
0.38971573 -0.166193 -0.30632612 0.22394486 0.07010873 0.16246262 0.1350552 0.12983452
-0.28964204 0.2149305 -0.16177477 -0.10600477 0.35081574 0.3510168

encoder_RNN.weight_ih_l1 f4 [150, 50]
00000000: a148 d5be 0ffc bdbc f320 3f3e 7ac2 413e
00000010: 12c2 d43d 1af8 3bbf 8375 68be 2acb 1dbf
00000020: 2eae a0be f05a d6be 31e8 cebd f4cf 32bc
00000030: c591 243f 7e05 263d 0a72 21bf 7fa4 d73e
00000040: 68df 27bd ce10 0fbe d2b1 a0bf 77bb 2cbf
00000050: b24c 01be 3749 fcbe f4ec 5d3e 60bf 7d3e
00000060: 622b e83d e0da b1bf 2f61 06bf d9d6 093e
00000070: f49c c2be 7aa0 f1be ba8f e93e 5815 abbd
00000080: b5ac 43be aa52 a53e aeee 47bd 30d4 a83d
00000090: d193 373e a2e0 58be b236 323e 3b82 2c3e
000000a0: cf0f 463e 6a7c 27be a4dd 21bf b3e2 783f
000000b0: af07 73bf d881 26be d4e0 053f aa67 c3be
000000c0: e743 67bf ea3f 073e 7220 1abd 1cc4 b9bd
000000d0: 73a3 9d3e 03e4 d6bc 13bc d63e e5f7 f03d
000000e0: 2d53 62bd 53f3 7c3e 8d29 97bc bf01 61be
000000f0: 90aa 083e 6e1a 17be 4c1f 123f afb3 d83d
00000100: 4d62 063e 72c1 413d 3463 7bbc b72c 803d
00000110: 86bc 68bf 71a4 a53d fca0 913b ad89 81be
00000120: 5789 8e3b 537e c5bd 7762 1fbd 35db b33e
00000130: 92ec de3c 494e 863e 0cb2 b93d 7ee1 293e
00000140: 53c7 9e3d e2c5 f3bd da95 a03e 7b57 353b
00000150: 5d19 ddbd faa1 05be a0b6 6dbe fa89 84ba
00000160: 46c6 833b b1bf c6be d8b0 86bd acd4 d53d
00000170: 4b3f 47be 5bfb d03c 98e1 11bc 53bf cdbb
00000180: 4ca0 473d 9812 fa3c ae66 273e 49a5 10be
00000190: b1f3 9abe 930d 623d 4854 9d3e bcd8 15be
000001a0: 004f 153f 1d9c 52bd f122 cc3c e197 473d
000001b0: 8900 69bc 55f8 ad3d 0680 143f be73 973d
000001c0: 680e 903e 7aa0 23bf 3898 b6bd f583 15bf
000001d0: 02a9 68be a8b5 f5bc fcbc b9be 0768 093d
000001e0: 77b5 253d ef5a c63e 7fda ef3d 6512 9abe
000001f0: 3296 2bbf 9ddc cbbd 14b6 92bd d08d 853e
00000200: 944d fbbd 157c e3bd 39ac 33bf 0a7e f1bd
00000210: 1626 cd3e f84b 9f3e 85f4 61be 0813 24bf
00000220: 6c85 80be d11c bb3e 308b 043d cee3 1a3e
00000230: c4a1 173e 7b72 093f 770d 70be 24f6 b93e
00000240: 331a 023f c1f7 c13d b1a7 383e 8f08 2c3e
00000250: e2cf 2abe 20aa 033e 3090 bc3e 6ece 41be
00000260: 5872 e43e 62e4 e03e 1c9a 79be 04df 95be
00000270: 8cd3 873e 69fc 873e ab58 903e bef8 80bd
00000280: 3d1e 8abe a190 c5be d98d 7ebe 41d9 543f
00000290: 437c 523e 98bf 133f 960b 2a3f 9c8e 7dbe
000002a0: b00f 37bf a1b8 483e 66c0 82bf 5111 2f3f
000002b0: 5464 53be 2113 5dbf 158b cc3e 790b 76bf
000002c0: c866 35bf 902d 2b3e 40a7 28bd 54b5 4e3f
000002d0: e762 5fbe b199 49be bf2d 93be b3ff 62bf
000002e0: 3015 e73d 3a75 843d eec8 1fbf 9cdc fabe
000002f0: 72a0 a93e 56a0 e23e 3ce6 de3d 48fe 36bf
00000300: c1d0 c4bd 90f8 44bf 3f36 063f 172c fdbe
00000310: 905f a4be d3d7 fbbe 0f87 e23e c063 a5bf
00000320: 8623 f83e f237 93be 5974 90be 6912 4f3e
00000330: f307 83bd 0e58 9c3d 7836 7ebd 5eb4 1abe
00000340: e1c7 1fbf 2698 00be a6dd f8be ee0d 0d3e
00000350: 7a08 153f 22f1 aa3e 35e2 04bd 1880 6b3c
00000360: 6f7a 873e 0aa3 883d 301e 1dbe ebdd 82bd
00000370: eb73 dd3d 346a 75bb 2d56 353e ee5d 9bbd
00000380: 8759 803e 8e56 09be 0ba0 093f f4bd 963c
00000390: ed48 2fbc 32f1 033a c292 86bd cf5b e53e
000003a0: 9132 0d3e 4ac3 84be 7b0b 8c3e b75d c23e
000003b0: b7ca 433e b29f eabe eb47 463b 4e41 293d
000003c0: d09d 9bbe 2fb9 70be 9729 563e dffa 0a3e
000003d0: 15d9 123f 33af c53d 2a0d d0be dc78 2abf
000003e0: 6989 e9be 298c 4b3e bf49 573e 1714 99be
000003f0: 635c 29be 2b48 5ebc f089 29be 7be3 a6be
-0.41656974 -0.02319148 0.18664913 0.18921843 0.103885785 -0.7342545 -0.22701077 -0.6163813
-0.3138289 -0.41866255 -0.10102881 -0.010913838 0.64284927 0.04053258 -0.63064635 0.42117688
-0.04098454 -0.13971254 -1.2554266 -0.6747355 -0.12626913 -0.49274608 0.21672422 0.24780035
0.113363996 -1.389492 -0.5249204 0.13460864 -0.3801037 -0.47192746 0.45617467 -0.0835368
-0.19108851 0.3228963 -0.048811607 0.082435966 0.17927481 -0.2117944 0.17403677 0.16846554
0.19341968 -0.16356054 -0.6322882 0.97220916 -0.949336 -0.16260469 0.52296185 -0.38165027
-0.90337986 0.13207975 -0.0376286 -0.09070608 0.30788764 -0.026231771 0.41940364 0.11766032
-0.055255104 0.24702196 -0.01845243 -0.21973322 0.13346314 -0.14756176 0.57079005 0.10581147
0.13123436 0.047303624 -0.015343476 0.06258529 -0.90912664 0.08088005 0.0044442397 -0.2530035
0.0043498683 -0.09643235 -0.038912263 0.3512818 0.027212415 0.26231602 0.09067163 0.16589925
0.07752862 -0.119029775 0.31364328 0.002767055 -0.10795853 -0.1305007 -0.23214197 -0.0010111921
0.004021439 -0.38818124 -0.06576699 0.104409546 -0.19457738 0.02551048 -0.008903883 -0.006278911
0.048736855 0.030526444 0.16347763 -0.14125551 -0.30264047 0.055188727 0.30728364 -0.14633459
0.5832367 -0.051418412 0.024919005 0.048728827 -0.014221319 0.08494631 0.5800785 0.07395123
0.2813599 -0.6391674 -0.08915752 -0.58404475 -0.22720721 -0.029993847 -0.36276996 0.033546474
0.04045626 0.38741252 0.11711597 -0.3009216 -0.67026055 -0.09954188 -0.07163635 0.26084757
-0.12270656 -0.11107651 -0.70184666 -0.11791618 0.4006812 0.31112647 -0.22065933 -0.6409154
-0.25101793 0.36545423 0.032359302 0.15125963 0.14807802 0.5369031 -0.23442636 0.36320603
0.50821227 0.094710834 0.18032719 0.1680014 -0.16680863 0.12857866 0.36828756 -0.18926403
0.44618487 0.43924242 -0.24375194 -0.2927171 0.26528585 0.2655976 0.28192648 -0.06297444
-0.26976195 -0.38586906 -0.24858798 0.83144003 0.20555215 0.57714224 0.6642393 -0.24761432
-0.7150831 0.1960168 -1.0214965 0.683858 -0.20643741 -0.86357313 0.3994986 -0.96111256
-0.70859957 0.167166 -0.041175127 0.80745435 -0.21815072 -0.19687535 -0.2874584 -0.88671416
0.11283338 0.06467672 -0.6241597 -0.48996437 0.33130223 0.44262952 0.108837575 -0.7148175
-0.09610129 -0.76941776 0.5242652 -0.494477 -0.32104158 -0.49188098 0.44243667 -1.2921066
0.48464602 -0.2875362 -0.28213766 0.20221867 -0.063980006 0.076339826 -0.062063664 -0.15107867
-0.62414366 -0.1255804 -0.48606604 0.13774845 0.5821606 0.33387095 -0.03244229 0.014373802
0.26460597 0.06671722 -0.15343547 -0.06389984 0.10813125 -0.0037447335 0.17708655 -0.07586275
0.25068304 -0.13411924 0.5375983 0.018401124 -0.010698539 0.00050331943 -0.065709606 0.44796607
0.13788821 -0.25930244 0.2735251 0.37962124 0.19120298 -0.45824963 0.0030255269 0.041322045
-0.3039384 -0.23508142 0.20914303 0.13572262 0.5736249 0.09652557 -0.40635043 -0.66590667
-0.45612648 0.19877686 0.21024226 -0.2989814 -0.16539149 -0.013567011 -0.16556525 -0.3259543

encoder_RNN.weight_hh_l1 f4 [150, 50]
00000000: 91a9 183f 25ca 97be 2747 763e 6b2b b03d
00000010: e399 03be 97b1 87be d0f7 90be 7682 dcbe
00000020: 1f28 81be ec04 b3bd 39b2 31bf 0c01 2a3e
00000030: 5418 013d c3de aa3e 38cd 963e 59e1 b1bd
00000040: b220 82be fc0d 48b9 fdb2 cfbc df6f 983e
00000050: cd2c e7be ba7b 323d 4586 453f cb5f 9abe
00000060: 3a8b 35be 7117 b6be 30a6 093d 4820 833e
00000070: 26db 02be 9dfa d3be 48a9 793e bfe4 30bf
00000080: f978 5bbe 255d 6ebe 4df5 f2be 6eaa 893e
00000090: f5fc 72be fff9 5ebc 6478 70bd 7344 22be
000000a0: 5ba2 25be 3afc 213e fd06 b03d 4c5e 1f3d
000000b0: 7e1f c0bc 1922 7abd f078 5dbe d5ff 0bbf
000000c0: 38d5 b23c a3ac c6be 7e35 e13c 9fe5 cfbd
000000d0: 521e 91be bde1 3f3d 3572 f2bd 2add f73e
000000e0: 7743 ccbe 77cb eb3e 4fc1 26be 5eb7 fbbb
000000f0: e76b 1e3f 3554 7fbe 2a6b f33e 87c7 c03d
00000100: b936 8c3d fea4 d83d 4c41 82bc 0754 f7bd
00000110: e788 e53c f9e2 8abf af44 a9b9 bab5 99be
00000120: 5c95 7abd 0361 243e ec19 fc3e 28c2 24be
00000130: e303 b93d 84dc 57be 28b4 a2bd 028e 603d
00000140: 4dea 50bd ab5c 95bd 3e0f 363d 6333 023e
00000150: f990 f2be 7e20 b9bc b96a 86bd 8a24 84bd
00000160: 32b4 fb3d 5f63 4e3e 9d10 edbe 94dd 0abf
00000170: ac7b 8cbe 3032 3b3d 4dd0 e2bd 6771 3fbd
00000180: 10ec 8e3e f053 3d3f 8a4f d0bd 7454 973d
00000190: 938a 9e3e 3f06 953e c09d c13e f496 c7bd
000001a0: 87ee 80be c137 873e 7b46 133d 3736 753e
000001b0: 6d62 b03e 243a f73d 84a4 d4be 1322 52be
000001c0: 31cd 54bd 608f 86be 0cb2 cf3e 0fc8 533e
000001d0: d75f bfbe 2945 61be bf18 c3bc f939 8ebe
000001e0: 90fe 01bc 3343 22bf c3ed ef3d aa40 1d3e
000001f0: 654e df3e 9696 3d3e 2e38 b7bc da0b b93e
00000200: 3cb8 35bd 954d bbbd 9b47 443e cd16 0bbf
00000210: cd98 a0be 1dc7 c23d 86ff 843e 1235 1ebe
00000220: c344 e93b c7ae 4c3e cde3 debd ddfe 17bc
00000230: 2c67 cd3c 95c3 16bf edce 75be b073 153e
00000240: 4b97 853f 64ba 01bd ebc0 203e 1a68 a5bd
00000250: ceb5 ba3e c57f 8abe 3712 3f3f 3a2c bfbd
00000260: 079f dd3e 8f7e 903e e66b cf3e 5936 9d3d
00000270: a1ba a53d a076 57be c22d 193f c856 5abe
00000280: 518e 9abf 1c64 803e 9e93 4d3b 5136 51bf
00000290: f16c b8be 0c97 0abd 3165 38be b896 ea3c
000002a0: 6b83 8f3e 35a6 b43f de2e fc3e 720a 2fbf
000002b0: 7f14 c23e 2739 9c3e 5856 29bf 1b60 243e
000002c0: bc2d ee3e bb25 28bf e46d 92be 39ec 0f3e
000002d0: c851 d53e 94cf 6abf b705 3abf fef4 3f3c
000002e0: 0268 c93c ac53 c33e 0912 97be 661c 06be
000002f0: 71c4 173f 9919 cbbe ca32 d93c 1a61 1b3e
00000300: 4066 56be c068 cabe 19ed 0e3f 7059 7ebe
00000310: bed2 053e 0684 09bf eebc 3f3d 6ac2 0abf
00000320: f941 ff3e 219b b33d 5491 a53e f784 08bf
00000330: 4a61 72be 7c04 8a3e cd26 a7be 91a8 ae3d
00000340: c646 663f 26c9 5c3e d6e7 8e3e 5ab0 5b3e
00000350: 36c9 75be a396 94bc 8143 9b3e 8119 413e
00000360: 5cfe 413f 3ae0 ce3e 80bf 28be 362a 69be
00000370: 34eb dabd 87c6 5e3d fd6a 9f3d 7fa0 66be
00000380: 015e a6be 348b 94bd a003 cf3d cae9 b8be
00000390: 5292 c4bd 668d c53d bec1 47be 26af efbc
000003a0: 7961 b3bd 0b4b 413e 2197 d63d 2e76 18be
000003b0: d15a 36be 219d 12bf 7161 71be 4a95 f3bd
000003c0: 3e68 603e 24a7 b03e 4794 203f 0fe6 ce3e
000003d0: d76e a7be 2610 ed3d db87 43be 1f12 003e
000003e0: fd93 bf3e 085f 1d3e 7f5d 5fbe 9f7f 59be
000003f0: 89d5 bc3d 5b8f 39be ff5b 193e aa9e ae3e
0.5963374 -0.29646412 0.2405058 0.08602031 -0.12851672 -0.26502678 -0.28314066 -0.43068284
-0.25225922 -0.08741173 -0.6941257 0.16601962 0.03151734 0.3337308 0.29453444 -0.0868556
-0.2541557 -0.00019078696 -0.025353903 0.2977285 -0.45151368 0.043575026 0.77158004 -0.3015121
-0.17728892 -0.3556476 0.033605754 0.25610566 -0.12778911 -0.4140214 0.24380982 -0.6909904
-0.21432866 -0.2327772 -0.47452775 0.2688784 -0.23729308 -0.013609408 -0.058708563 -0.15846424
-0.16175215 0.15818873 0.08595083 0.038908288 -0.023452517 -0.061067674 -0.21628165 -0.54687244
0.021830186 -0.38803586 0.027491327 -0.101512186 -0.28343445 0.04684614 -0.118381895 0.48410922
-0.39895222 0.4605367 -0.16284679 -0.007681771 0.61883396 -0.24934466 0.47542697 0.09413057
0.06846375 0.10578345 -0.015900277 -0.12076574 0.028019382 -1.0850517 -0.00032285365 -0.3002146
-0.061177596 0.16052632 0.49238527 -0.1608969 0.090339445 -0.21080214 -0.07944518 0.05482293
-0.051004697 -0.07293066 0.04444813 0.12714915 -0.4737623 -0.022598501 -0.065633245 -0.06452282
0.12290229 0.20155095 -0.46301737 -0.5424435 -0.27438104 0.04570216 -0.110748865 -0.04673901
0.27914476 0.73956203 -0.10171421 0.07389155 0.309651 0.29106328 0.37815666 -0.09745589
-0.25181982 0.26409724 0.035955887 0.23946463 0.34450093 0.12071636 -0.41531765 -0.20520811
-0.0519535 -0.2628126 0.40565526 0.20681785 -0.37377807 -0.21999039 -0.02381551 -0.27778605
-0.007934228 -0.6338379 0.11715271 0.15356699 0.43614498 0.18514475 -0.022365656 0.36141855
-0.044365153 -0.09145657 0.1916794 -0.54331666 -0.31366578 0.09510634 0.259762 -0.15449932
0.0071187927 0.19988547 -0.10883293 -0.009277073 0.02507361 -0.58892184 -0.24004717 0.14594913
1.0436796 -0.031671897 0.15698592 -0.080764964 0.3646683 -0.27050605 0.7463717 -0.093346074
0.4328539 0.28221557 0.40512007 0.076763816 0.08092237 -0.21041346 0.59835446 -0.21322167
-1.2074682 0.25076377 0.0031368504 -0.81723505 -0.36020616 -0.033835456 -0.18007351 0.028636321
0.2802995 1.4113222 0.49254507 -0.68375313 0.37906262 0.30512354 -0.66147375 0.16052286
0.46519268 -0.6568257 -0.28599465 0.14054956 0.41663957 -0.9172299 -0.7266497 0.0117161255
0.024585728 0.38149774 -0.29505947 -0.1309677 0.5928412 -0.39667967 0.026513476 0.1517376
-0.20937443 -0.39533043 0.5583053 -0.24838805 0.13068673 -0.53717077 0.046811037 -0.542029
0.4985502 0.08769823 0.3233744 -0.5332789 -0.23669925 0.26956546 -0.3264679 0.08528245
0.8995174 0.21561107 0.27911252 0.21453992 -0.24002537 -0.018138235 0.3032494 0.18857385
0.75778747 0.40405446 -0.16479301 -0.22770008 -0.10689393 0.05438855 0.07784078 -0.22522162
-0.32493594 -0.072531134 0.10108113 -0.36115867 -0.09598221 0.0964611 -0.195075 -0.029258322
-0.08758826 0.18876283 0.10478044 -0.14888832 -0.17808081 -0.5727101 -0.23572327 -0.11893709
0.21914765 0.34502518 0.62726253 0.40409896 -0.32701752 0.11575346 -0.19094793 0.12506913
0.37417594 0.15368283 -0.2181301 -0.2124009 0.09220416 -0.18121092 0.149765 0.34105426

encoder_RNN.bias_ih_l1 f4 [150]
00000000: 0d41 babe 8ef0 2f3e 64c1 753e 3781 f9bd
00000010: 799e cb3e 56a2 233e ee5b 78be fbe1 afbd
00000020: c46f efbd 52d0 b93d 9a62 71be 6f53 293e
00000030: f1d8 983e 8f0d aabd 4237 1ebe dc8f 51bd
00000040: 4b7c 48be d72b 8e3e 3cd8 b03d 3f1c 11be
00000050: 415c 823d 6c45 543e 312f 12be 98fc 8bbe
00000060: 08b2 b0be fef1 aabd d0ae 27bd 2af8 b4bd
00000070: 2e48 6f3d ccdc 97bd a96f f33d 268c 81be
00000080: cc78 17be 6087 263e 5e3a cbbd 8c2c 9abd
00000090: 767e b0bc 0655 80be dd26 91be 37ac 5d3e
000000a0: 3aa6 d6bd b426 343d 7e2b 46be 08d5 d0be
000000b0: 05ee b13d 29b4 8abe b602 de3d 9887 c5be
000000c0: 9f17 28be 87ec 6fbe ff72 a83e bc32 813e
000000d0: 09b1 073d 0fd1 34bc 1f53 35bd 1583 943d
000000e0: 9a1a 533e e16a 233e a4d1 f63e 81e4 9cbd
000000f0: 5db4 c43e 4c78 653e df45 073d 8a60 873e
00000100: 0bf9 eb3d 2b46 70bd 649e 1c3f 05d9 f53e
00000110: 943e ce3d b23a 2c3f 23ea 5a3e 4201 a43e
00000120: b354 a53e f642 0f3e bab0 0d3e fca9 033f
00000130: 27f4 263e fd13 413f 173a 143d ca48 cdbd
00000140: 1f15 a43d bd73 e23d fe7e 093f f11e b3bc
00000150: 6e83 5f3d 737f b13d f262 103f 1777 0e3f
00000160: 6c13 153e 79fa 173e e8c2 25bd 92ea 7a3d
00000170: 94b7 3f3e dc3a 023d 2204 e7bc a527 533e
00000180: efd3 b03e 1d27 1e3e 5ae5 043e d8d5 143f
00000190: 0345 243e 8488 cabb a10b 80be f579 8dbc
000001a0: f008 f1be e8f9 3dbe 3bd6 20be ce46 96be
000001b0: 7de9 e33d c597 aa3e 217f 3abd f3bd cabd
000001c0: ffca ca3e 5af9 febc 3f53 053e e784 0b3f
000001d0: fac4 86bc 925b 22be b4c2 28be 0205 13be
000001e0: c79a 653e f02e 10be aa01 ef3d 8e09 e93c
000001f0: 4edd 72bd 9fff 79bd 2039 243d c894 40ba
00000200: a8dc 8ebe cf69 a1be 4b17 a73d 90dc 853b
00000210: 7dc5 4bbe 2d6c ac3e 9f74 dcbd ac6c 8abd
00000220: 4a8b 79bd 28bf 713d 12a3 cbbd f39c 533e
00000230: 8bbb 763e 5a97 053f b473 fabc b5ae 963e
00000240: 0817 7f3e fac5 2d3c 25e8 7cbe 4dee 5c3c
00000250: 67e5 243e 6434 763d
-0.36377755 0.17181608 0.23999554 -0.12182849 0.39769343 0.15979895 -0.24253818 -0.08588024
-0.116912395 0.09072937 -0.2357277 0.16535734 0.29853013 -0.08303367 -0.15450767 -0.051162586
-0.19578664 0.27767822 0.086349934 -0.14170931 0.06365252 0.20729607 -0.14275815 -0.2734115
-0.34510827 -0.083469376 -0.0409382 -0.08836396 0.058418445 -0.074151605 0.11886532 -0.25302237
-0.14792174 0.16262579 -0.09923242 -0.07528028 -0.021544676 -0.25064868 -0.28349963 0.21647726
-0.10480924 0.043982223 -0.19352528 -0.4078753 0.08687977 -0.27090576 0.10840361 -0.38580012
-0.1641526 -0.23430072 0.32900235 0.2523402 0.03312782 -0.011036172 -0.044268724 0.072515644
0.20615616 0.1595874 0.48206818 -0.07660771 0.38418856 0.22409171 0.03302562 0.2644084
0.115221106 -0.058660667 0.61179185 0.48017135 0.100705296 0.6727706 0.21378379 0.3203221
0.32291183 0.13990387 0.13836947 0.5143125 0.16304074 0.75421125 0.03618821 -0.10023649
0.08011841 0.110572316 0.537094 -0.02186534 0.0545687 0.08666887 0.5640098 0.55650467
0.1455819 0.14841641 -0.04046908 0.06125886 0.18722373 0.031794414 -0.028200213 0.20620592
0.34536693 0.15444608 0.12978116 0.581388 0.16041951 -0.0061808247 -0.25008872 -0.017270068
-0.4707713 -0.18552363 -0.15706722 -0.29350895 0.11128519 0.33318916 -0.045531396 -0.09899511
0.39608 -0.03112476 0.13020037 0.5449967 -0.016451348 -0.15855244 -0.16480523 -0.14357379
0.22422324 -0.14080405 0.11670239 0.028446939 -0.059293084 -0.061034795 0.04009354 -0.0007346389
-0.27902722 -0.31526038 0.0815874 0.004085131 -0.19899555 0.33676282 -0.10764431 -0.06759009
-0.060923852 0.05902019 -0.099432126 0.2066534 0.2409498 0.5218407 -0.03057275 0.29430166
0.2491113 0.010606283 -0.24697931 0.01348455 0.16103135 0.060108557

encoder_RNN.bias_hh_l1 f4 [150]
00000000: 539c bfbe db9a e03d c37c 083d b2e9 f2bc
00000010: b6ab 9c3e 4616 b33e b28f b3bd 3a90 5b3c
00000020: 389e 18be 0851 263e 8040 8cbe cced 7f3e
00000030: 878a a83e 0e73 adba a3b1 03be 05d5 1abe
00000040: db3b 00be 8f51 533e 25ba d5bd bc04 f1bd
00000050: 3e2e aebb 634f d8bc 7e6c 20be 92e6 33be
00000060: d990 a8be a2b6 0fbe 2b79 903d de44 c23d
00000070: 4f33 f23d eeec 5d3d 210b 2d3e 8602 34be
00000080: e121 75bc b956 993e 3c8d 9bbd e9ef 4cbd
00000090: f205 503e 0d81 debe 6640 b7be 4abf 483e
000000a0: f625 b93b c600 183b 2724 89be bfa6 d5be
000000b0: cfcd b9bd bbb7 cdbd c675 1ebd bd3d dabe
000000c0: 66e1 93bd f4c7 49be 8ffe ff3e e436 a03e
000000d0: f811 933e c343 e8bc 190e 37bd 54c8 2b3e
000000e0: e81b 2e3e 3fe0 9b3e 4b8e 0e3f 5638 56be
000000f0: c8d0 063f 84b5 4c3e 9878 80bd d44e c33e
00000100: 4183 983e c1d1 d9bd 0831 003f 33df f73e
00000110: cbbe 423d edb2 253f bdd4 ba3e 5d50 e93e
00000120: cc38 8c3e 4cba 353e 0bc4 783e 6fba bd3e
00000130: 81d1 223e 840c 293f 1495 d23d 8898 fbbd
00000140: 9841 ca3d 8f4d 593e b6ae 0c3f d694 ff3c
00000150: c808 663c bc74 533e de33 183f aded c33e
00000160: 0829 e9bd c2e3 413e 1724 46bd ab82 273e
00000170: 60ef c43e 0a14 71bc afdf 203e 1fec 373e
00000180: 76dc 9f3e 5b42 993e 1bb5 1a3c 66e2 0a3f
00000190: 430a 3bbb 95f8 253e 5596 10be 05cc cd3d
000001a0: 1ba0 a2be d893 f33d 81b6 d036 a875 aabe
000001b0: fcd3 df3d 96e7 013f e898 673d 6a34 19bf
000001c0: 8e32 c33e 7611 e13d 63c7 6f3d 523d cf3e
000001d0: ef02 0ebe 6f0c 94be a4d6 adbd d158 a3bd
000001e0: 60c1 303e ed84 91be f804 883c 7d17 36be
000001f0: 2cd2 b33d dd40 05be 0b0d c23c 5965 60be
00000200: cc81 31be 1ab8 133d 0e8f 85bc f88b 703c
00000210: 115c 17be 55c4 913e 758e 443e d368 0ebe
00000220: 2812 813d 291c 833c db64 82be d280 1f3e
00000230: 3810 17be b98f 0a3f 12a2 f63d ae0f 083e
00000240: 861d 00be f394 5f3d 6e94 99bc 0480 22be
00000250: e6cc bf3d 524a 14be
-0.37423953 0.10967036 0.033322107 -0.02965245 0.30599755 0.3497793 -0.08767642 0.0134010855
-0.14904106 0.16241848 -0.2739296 0.24993056 0.32918188 -0.0013233142 -0.12860732 -0.15120323
-0.12522833 0.20636581 -0.10435895 -0.11768481 -0.005315571 -0.026405042 -0.15666386 -0.17568424
-0.3292301 -0.14034513 0.07054361 0.094857916 0.118261926 0.054181032 0.16898777 -0.17579088
-0.014961691 0.29948977 -0.07595298 -0.050033484 0.20314768 -0.43457833 -0.3579132 0.19604221
0.0056502772 0.002319382 -0.26785395 -0.4172878 -0.09072458 -0.100448094 -0.038686536 -0.42625228
-0.07220726 -0.19705182 0.499989 0.31291878 0.28724647 -0.028352624 -0.04469118 0.16775638
0.17002833 0.30444524 0.5568587 -0.20919928 0.52662325 0.19991118 -0.062730014 0.3814608
0.2978764 -0.106357105 0.50074816 0.48412475 0.047545236 0.64726144 0.3649043 0.45569125
0.27387083 0.17746848 0.24293534 0.370563 0.15900232 0.6603472 0.10282341 -0.122849524
0.09875792 0.21220993 0.5495409 0.0311989 0.01404018 0.2065 0.59454143 0.3826727
-0.11384779 0.18934539 -0.04837426 0.1635844 0.3846388 -0.01471425 0.15710329 0.17961167
0.31222886 0.29933438 0.009442593 0.54251707 -0.0028540052 0.16208108 -0.14119847 0.10048679
-0.31762776 0.11893433 6.2201293e-06 -0.3329289 0.10929105 0.50744 0.056542307 -0.598456
0.38124508 0.109896585 0.05853976 0.4047647 -0.13868307 -0.28915736 -0.08488205 -0.07975925
0.17261267 -0.28421727 0.016603932 -0.17782398 0.087803215 -0.13013025 0.02368786 -0.21913661
-0.1733467 0.036064245 -0.016303565 0.014681809 -0.14781214 0.28470102 0.19194968 -0.13907175
0.06302291 0.016004639 -0.25467572 0.15576485 -0.1475228 0.54125553 0.12042631 0.13287231
-0.12511262 0.05458541 -0.018747535 -0.15869147 0.09365253 -0.14481476

encoder_linear.weight f4 [1, 50]
00000000: 92dc 6ebc a1ec 7ebe 0482 073e 9e33 b9bb
00000010: 47c8 99bb 916a 34be 4b3f 01bd fa20 a43d
00000020: fc2c 0bbb 18f1 90be 3b44 54bb 2d54 c53d
00000030: e786 b93d 7b54 b3bc 4f66 413e e147 d13d
00000040: 5516 f7bc de84 83bd 9c95 173d 5e4f 653d
00000050: 6f73 a43e 38d4 e13b 2ffb ae3d 3780 0abe
00000060: 5ee1 d73d 08df 19bd 35b3 033e 9232 04bd
00000070: e5a4 c6be d085 88bc 0052 3f3e eb9e 3a3e
00000080: f441 593c e9d3 15be 2e3b 253d 25f6 743e
00000090: 5d28 16bd abc0 7dbd a5d6 763e b108 dbbd
000000a0: daf3 003e bc5f 3b3e 6d6f 2b3c cd65 2bbe
000000b0: 60fa 923d 22fb acbe 76a6 b93d 02fd 83bc
000000c0: 96f6 113d eb88 6dbd
-0.014578955 -0.24894954 0.13233191 -0.005651905 -0.0046930644 -0.17618777 -0.0315545 0.08014102
-0.002123653 -0.2830894 -0.0032389301 0.09635196 0.09058934 -0.02189087 0.18886684 0.10218788
-0.030162016 -0.06421827 0.037007913 0.055983894 0.3211932 0.0068917535 0.08544003 -0.13525473
0.10541032 -0.037566215 0.12861331 -0.03227479 -0.3879768 -0.01666537 0.18683624 0.18224685
0.013260353 -0.14631619 0.04033964 0.23922022 -0.036659587 -0.06195132 0.24105318 -0.10695017
0.12593022 0.18298239 0.010463578 -0.16738053 0.071766615 -0.3378535 0.09064953 -0.016111854
0.035635553 -0.057991903

decoder_RNN.weight_ih_l0 f4 [150, 1]
00000000: af00 9ebe 5ce2 33be 3bd8 bdbe 095c 763e
00000010: 3f00 a63e f1b9 ebbe db0a 3b3f 26c0 a0be
00000020: be13 12bf 0619 cd3e b0ea 1dbf 85a7 3d3f
00000030: 6186 06bf 82a1 d8be 2926 21bf 65df 053f
00000040: 77af a43e 957d 8ebd f14e 56be 307e 053f
00000050: f8ba bfbe cdc2 223d c0bd 533e 52d4 1fbf
00000060: 267b 353d 6137 263e df33 bf3e b82b c43b
00000070: 267d 1d3f 7d9b 203f e465 8dbe 8a48 55be
00000080: 7321 afbc 69e6 59be d17e a8be 14b0 893e
00000090: 30e5 c5be bb90 023f fc31 23be 896e b83c
000000a0: 4634 69bd e5a6 013f 3563 173e bfa1 b03e
000000b0: 88c6 923e 1dea 31bf 057f 5a3f 7f85 ffbe
000000c0: a3f3 8fbe 9729 43bf 3374 93bc d31f 413d
000000d0: 1de5 a83d f6e8 1f3c 53d6 3fbe e6bb 8f3e
000000e0: 67c9 9ebe d232 cabc 91ad f73c 3931 903b
000000f0: ffb3 0a3e 5362 77be 8fa1 03be a975 b33d
00000100: 116b d23d 417b 62be d0a5 80bd 7b65 7bbe
00000110: d3c1 8ebe 4cc1 9ebe 2bea 12be 486e 13bd
00000120: 9189 1d3e 2ae2 833e 4197 c6bd 7e7e d93c
00000130: 206b fc3b 4848 1fbd 9069 afbe f7c4 92be
00000140: b8c4 11be 9658 893e 3aba 90be 094c 2b3e
00000150: 4ed9 84bd 3f0b dd3d 40a3 71bd 0ada 1fbd
00000160: 3b74 843d 75aa c23d c863 6f3e 1b6a 1abd
00000170: ddee c5bc ed2d 5c3e 926b a93e 7f64 acbd
00000180: 38cf ad3e c67e e83d 8d0e 37bd b0d0 e13d
00000190: 8749 183c 8438 343e d72a f9bd b25a a2bd
000001a0: 754c cdbd 0bfb c7bd 2ba8 7c3c 4824 e33b
000001b0: b7ef 24be 0321 2c3d 5a22 32bd af04 1cbd
000001c0: 62f4 1dbd 80df b53a c020 933d f712 8abc
000001d0: 352d 07be 18d8 413e c16e 5dbc 7f64 0b3e
000001e0: c59f d03d 1eb8 303d 5b03 3d3c f616 193d
000001f0: d9aa 74bd 71e4 89bd 6ad5 cabd 33c3 0ebc
00000200: 7518 4d3d 21d5 11bd 43b5 0a3d 30c5 673a
00000210: 892d de3d 64a1 6c3d a8d7 91bd cf00 80bb
00000220: 0ce5 813c 414e e53d 57e6 593d 1652 fc3d
00000230: a534 21be 1f2f b139 ceca de3c bd18 043e
00000240: 3c65 bb3d cd89 a8bd 2308 b2bb fee3 25be
00000250: ea67 793e 8427 9cbd
-0.30859897 -0.17566818 -0.37079033 0.24058546 0.32422063 -0.460403 0.7306344 -0.31396598
-0.57061374 0.40058154 -0.6168623 0.7408374 -0.52548796 -0.4231072 -0.6294885 0.52294
0.3216512 -0.069575466 -0.20928551 0.5214567 -0.37447333 0.039736558 0.20677853 -0.6243335
0.044306897 0.16232063 0.37344262 0.005986657 0.61519086 0.62737256 -0.276168 -0.20828453
-0.021378255 -0.21279301 -0.32909253 0.2689215 -0.3865142 0.5100209 -0.15937036 0.022513645
-0.056934617 0.50645286 0.14783938 0.34498402 0.28667092 -0.69497854 0.85350066 -0.49906537
-0.28115568 -0.76235336 -0.017999744 0.04714949 0.08246825 0.009760132 -0.18734102 0.28073043
-0.31013033 -0.024682436 0.03023413 0.004400399 0.13545226 -0.24158601 -0.12854598 0.08762676
0.102743275 -0.2211733 -0.06281626 -0.2455043 -0.2788225 -0.3100685 -0.1434714 -0.035993844
0.15384509 0.25758487 -0.09696818 0.026549574 0.0077032 -0.038887292 -0.34260225 -0.28665897
-0.14235198 0.26825398 -0.2826708 0.16728224 -0.0648676 0.10793161 -0.058993578 -0.039026298
0.06467482 0.09505168 0.23377907 -0.037698846 -0.02416175 0.21501894 0.33089882 -0.084176056
0.33947158 0.11352305 -0.04469161 0.11026132 0.009294874 0.17599684 -0.12166374 -0.07927455
-0.10024349 -0.097646795 0.015420954 0.0069318153 -0.16107069 0.04202367 -0.04348979 -0.038090404
-0.03856314 0.0013875812 0.07183981 -0.016854746 -0.13200839 0.1893009 -0.013515175 0.13612555
0.101867236 0.043144338 0.011536445 0.037375413 -0.059733246 -0.06733025 -0.09903987 -0.008713531
0.050072152 -0.035603646 0.03386427 0.0008841334 0.10848529 0.0577711 -0.07121211 -0.0039063464
0.015856288 0.111965664 0.053198185 0.12320344 -0.15742739 0.0003379518 0.027196314 0.12900062
0.09150168 -0.082294084 -0.005433099 -0.16200253 0.24356046 -0.076247245
