rnn_twc/saved_model/NoFeedback/K12_N36/bi_sigmoid/SNR(-1dB)/model.pth (torch, 356367 bytes, 29 tensors)

weight_power f4 [36]
0	0x3fafe923	1.3743023
1	0x3fb6ee04	1.4291387
2	0x3fb4b20a	1.4116833
3	0x3f9e32b0	1.2359219
4	0x3f9fae56	1.2475078
5	0x3fa769f7	1.3079213
6	0x3fa1f555	1.2652994
7	0x3f9bccbc	1.2171855
8	0x3f94cfc2	1.1625903
9	0x3f938c2e	1.1527154
10	0x3f90b250	1.1304417
11	0x3f8f7c4d	1.1209809
12	0x3f8e8522	1.1134379
13	0x3f74b8ef	0.95594686
14	0x3f171d29	0.5902887
15	0x3f5b58b6	0.8568224
16	0x3f615540	0.88020706
17	0x3f4c9e76	0.7992929
18	0x3f444235	0.76663524
19	0x3f7061c5	0.93899184
20	0x3f774f08	0.9660497
21	0x3f749780	0.9554367
22	0x3f69303e	0.91089237
23	0x3f471a16	0.7777418
24	0x3f5e0d2a	0.86738837
25	0x3f5dad7d	0.8659285
26	0x3f3b9931	0.73280627
27	0x3f5dfb33	0.86711425
28	0x3f6412d3	0.89091223
29	0x3f3dd5da	0.74154437
30	0x3f3ef70e	0.74595726
31	0x3f3f2c88	0.74677324
32	0x3f3d4dca	0.7394682
33	0x3f42001b	0.7578141
34	0x3f65e711	0.89805704
35	0x3f9697ae	1.1765039

weight_merge f4 [36, 2]
0	0x3f22001f	0.63281435
1	0x3a31280e	0.0006757983
2	0x3ef80c47	0.48446867
3	0x3b9e1a8a	0.004824941
4	0x3f251dd0	0.64498615
5	0xba0f1beb	-0.0005459177
6	0x3ecc8bf5	0.3995053
7	0xb95409d7	-0.00020221561
8	0x3f87cdef	1.0609721
9	0xbb0cbc25	-0.0021474448
10	0x4089f761	4.3114476
11	0xb8d018f2	-9.922859e-05
12	0x4093f5bd	4.6237473
13	0xbb579683	-0.0032896108
14	0x3fcb1204	1.5864873
15	0xbc4e169f	-0.0125786355
16	0x3dffba6c	0.12486729
17	0xbb03fb62	-0.002013885
18	0x3c40d362	0.011769148
19	0xba603e29	-0.00085541845
20	0xba9b8132	-0.0011864065
21	0x3b2d7cd3	0.0026472106
22	0xbd155447	-0.036457326
23	0xb9d61197	-0.00040830366
24	0x39dc23a8	0.00041988236
25	0x3a332d07	0.00068350177
26	0x3a00fcb8	0.00049204705
27	0x39d5d1c2	0.00040782808
28	0xba078c9a	-0.00051707926
29	0x3a0ad611	0.00052961806
30	0xb8cae4c8	-9.6747244e-05
31	0xb993b9ae	-0.00028176367
32	0xba384999	-0.000703001
33	0x39ea84b5	0.00044730832
34	0xb8c2b8ec	-9.285085e-05
35	0xbc00b7c5	-0.007856314
36	0x3beb6b72	0.0071844393
37	0x3a2f61e0	0.0006690305
38	0x39335242	0.00017101414
39	0x3dd946f0	0.106092334
40	0xba835dfb	-0.0010022515
41	0x3db5ab80	0.08870602
42	0x394d63db	0.00019587523
43	0x414d61a6	12.83634
44	0xbb0ff5bb	-0.0021966535
45	0x3983422e	0.00025035575
46	0xb9c226d3	-0.0003703149
47	0x3a1babee	0.00059384
48	0x3abed782	0.0014560076
49	0xba096fc4	-0.00052427896
50	0xb979d655	-0.00023826335
51	0x3cad24d4	0.021135725
52	0x39918279	0.00027753765
53	0x39b442e8	0.00034382124
54	0xb9dd9ac4	-0.00042267714
55	0x3a386f52	0.0007035631
56	0xba7559b9	-0.0009359378
57	0xbdbe60a1	-0.09295774
58	0xba003d19	-0.0004891917
59	0xb9ff8736	-0.0004873813
60	0x3aa8c2bd	0.0012875419
61	0x3ae0cf9e	0.0017151718
62	0x3924aad2	0.00015703894
63	0x3c82fde4	0.015990205
64	0x39403db5	0.00018333535
65	0xbdbf4192	-0.093386784
66	0xba19ab8c	-0.00058620493
67	0x3d73c226	0.059511326
68	0x3971a611	0.00023045416
69	0xba23c923	-0.0006247928
70	0xb992278d	-0.00027876758
71	0xba1be46b	-0.00059468177

encoder_RNN.weight_ih_l0 f4 [150, 13]
0	0x3e3bfdb2	0.18358496
1	0xbe9956ac	-0.29948938
2	0xbc93ec66	-0.01805706
3	0x3da26149	0.07928712
4	0x3defee07	0.11715322
5	0x3e80a351	0.251246
6	0x3c308a28	0.0107751265
7	0x3f1f3241	0.62186056
8	0x3a6d4110	0.00090505276
9	0xbc8832e0	-0.016625822
10	0xbe25b4b3	-0.16182213
11	0xbcb8ed21	-0.02257401
12	0x3e29b9bd	0.1657476
13	0x3f1d60c2	0.61475766
14	0x3e5ff2f2	0.2187002
15	0x3e77d261	0.24201347
16	0x3de1924c	0.11014232
17	0xbe2ca553	-0.16859941
18	0x3e354d65	0.17705305
19	0x3f00ed82	0.5036241
20	0xbd0a8f60	-0.03382814
21	0xbe1078fa	-0.14108649
22	0xbe17d552	-0.14827469
23	0x3ea3f539	0.32023028
24	0x3c57fbe5	0.013182615
25	0xbe8c0abf	-0.2735195
26	0x3e59df99	0.21276702
27	0x3dd89066	0.10574417
28	0x3b90afd0	0.0044154897
29	0x3ea6a761	0.32549575
30	0xbf2e2091	-0.6801844
31	0x3c989e98	0.01863031
32	0x3c29ddbd	0.010367808
33	0x3de65978	0.112475336
34	0xbd25255a	-0.040318824
35	0x3d427623	0.047475945
36	0x3f6b772a	0.91978705
37	0x3b22944e	0.0024807635
38	0x3e246387	0.16053592
39	0xbe566bd5	-0.20939572
40	0xbd5844ae	-0.052799873
41	0x3cfcd7cb	0.030864617
42	0x3cdf268b	0.027240058
43	0xbe9c7da3	-0.30564603
44	0x3dda28bf	0.10652303
45	0x3e8f1119	0.27942732
46	0x3eda77a3	0.426694
47	0x3f199214	0.5998852
48	0xbeb78e5e	-0.35850805
49	0x3ebb7e04	0.3661958
50	0x3d838406	0.06421666
51	0xbe039fd3	-0.12853937
52	0xbf131ddb	-0.5746743
53	0xbeaa3e4e	-0.3325066
54	0xbd7a1eb7	-0.06106445
55	0x3e8d0a0a	0.27546722
56	0x3d660344	0.056155458
57	0x3de4b3eb	0.11167129
58	0x3eac374a	0.33635932
59	0xbe0675bd	-0.13130851
60	0x3e0efb87	0.13963138
61	0xbd1f1d65	-0.038846392
62	0x3d9e3726	0.077253625
63	0x3d04c456	0.032413803
64	0xbdacf200	-0.08444595
65	0xbcf4200d	-0.02980044
66	0xbfc4f35b	-1.5386766
67	0xbc8f72e7	-0.017510844
68	0xbd83789a	-0.06419487
69	0x3e09cb4d	0.1345646
70	0x3e100a86	0.14066514
71	0xbda0bb54	-0.0784823
72	0xbe11012f	-0.14160608
73	0xbdf97735	-0.1218094
74	0x3d3de42c	0.04636018
75	0xbe9399c0	-0.2882824
76	0x3b97a365	0.0046276324
77	0x3d640618	0.055669874
78	0xbd348032	-0.04406757
79	0x3e72f835	0.23727496
80	0xbe8cbbeb	-0.2748712
81	0xbd76eb50	-0.060283005
82	0xbe4d0295	-0.20020516
83	0xbe6b373f	-0.22970293
84	0x401efb75	2.4840977
85	0x3e1bf24f	0.15229152
86	0xbfaea985	-1.3645483
87	0xba99fe2e	-0.0011748725
88	0x3dca75d0	0.09885752
89	0x3bca1e0e	0.0061681336
90	0x3da9732e	0.08273922
91	0xbdd2cf54	-0.10293451
92	0x3d98dfb9	0.07464547
93	0x3e1be8a6	0.15225467
94	0xbc3f07f7	-0.011659614
95	0x3dd1149b	0.10209008
96	0x3e0dadee	0.1383588
97	0xbdeb4090	-0.11486924
98	0x3dd9417a	0.10608192
99	0x3c8b245f	0.016985117
100	0x3ddd1fb7	0.10797065
101	0xbd651248	-0.055925637
102	0xbed19af6	-0.40938538
103	0xbf96f2b1	-1.1792814
104	0x3dfc4372	0.12317552
105	0x3e48f827	0.19625913
106	0xbe886eb3	-0.26646957
107	0x3bede2da	0.007259709
108	0x3e2bfecc	0.16796416
109	0x3ccb2abf	0.024800656
110	0x3f3c3370	0.7351599
111	0x3d210486	0.039310955
112	0x3ea7c771	0.3276935
113	0xbf532acf	-0.82487196
114	0x3cd513d3	0.02601043
115	0x3c1181ef	0.008881076
116	0x3da6691f	0.08125519
117	0xbdc03c2d	-0.093864776
118	0x3aaa9393	0.0013013951
119	0x3f2fef8b	0.6872489
120	0xbd22fcef	-0.039791998
121	0x3ee39faa	0.44457752
122	0x3e111560	0.1416831
123	0xbe034a89	-0.12821402
124	0xbe2db79e	-0.16964576
125	0x3e75367e	0.23946568
126	0xbe06d800	-0.13168335
127	0xbd08fc4e	-0.03344374
128	0xbe017b1d	-0.1264462
129	0x3db73d12	0.08947195
130	0x3a9e2f29	0.0012068498
131	0x3f6d3c5e	0.9267024
132	0xbc9369c3	-0.017994767
133	0xbe203281	-0.15644266
134	0x3f27779e	0.65416896
135	0xbd861203	-0.06546404
136	0xbd12724f	-0.035753544
137	0x3ce3ce41	0.02780831
138	0x3d28bc1a	0.041195013
139	0xbddd08d1	-0.10792697
140	0x3dcb4245	0.09924749
141	0xbce18a54	-0.02753178
142	0x3e50f3a2	0.20405439
143	0xbd731916	-0.059350096
144	0x3e4f2949	0.20230593
145	0x3e1fdcda	0.15611592
146	0x3d8336af	0.064069144
147	0xbe8fa1b0	-0.28053045
148	0x3e88f1a4	0.26746857
149	0xbea28aea	-0.31746608
150	0x3e8486e4	0.25884163
151	0xbe8dc27f	-0.2768745
152	0xbdbe418c	-0.09289846
153	0x3caec757	0.021335287
154	0xbd20e0fc	-0.03927706
155	0xbe5c70d3	-0.21527414
156	0xbcbb8d84	-0.022894628
157	0xbe5da875	-0.21646293
158	0x3dc113ba	0.09427591
159	0x3e1b8d1f	0.15190552
160	0x3d5446d6	0.051825367
161	0xbd5c2ff4	-0.05375667
162	0x3eb18465	0.34671322
163	0x3d5be3ac	0.05368392
164	0xbf7297bc	-0.9476278
165	0xbd87347a	-0.06601806
166	0xbd820c45	-0.063499965
167	0xbf53ff8a	-0.82811797
168	0x3e06c234	0.1316002
169	0x3c999b9a	0.018750954
170	0x3f3e5311	0.743455
171	0xbd9edc7b	-0.07756897
172	0x3e069ec5	0.13146503
173	0xbf30522d	-0.6887539
174	0x3edf3a63	0.43599233
175	0xbc255f4a	-0.010093519
176	0x3f1d5b2b	0.61467236
177	0xbc9e3bd7	-0.019315643
178	0xbdb0772f	-0.086164825
179	0x3f59b7a9	0.8504587
180	0xbd13ca4f	-0.03608161
181	0x3cdeaa36	0.027180772
182	0xbdffdc16	-0.1249315
183	0xbd0e75e9	-0.034780417
184	0x3f82fe1c	1.0233798
185	0xbdb4eeca	-0.08834608
186	0xbcd99835	-0.026561836
187	0x3d546d56	0.051862083
188	0xbe7b58d1	-0.245456
189	0xbcc1782d	-0.023616875
190	0xbf61d840	-0.88220596
191	0xbe6cb5c0	-0.23116207
192	0x3d1828d3	0.037148308
193	0xbe6e512d	-0.23273154
194	0x3e59866c	0.21242684
195	0xbf23e23c	-0.6401708
196	0x3d86e6f9	0.06587023
197	0x3dee13db	0.11624881
198	0xbf0587b3	-0.52160186
199	0x3eb0abbb	0.3450602
200	0xbf9031ea	-1.1265233
201	0x3d826c69	0.06368334
202	0xbe97d7ba	-0.29656774
203	0x3e0b88ef	0.13626455
204	0x3d19cd61	0.03754938
205	0xbf0fae60	-0.5612545
206	0xbd224203	-0.039613735
207	0xbece6fca	-0.40319663
208	0xbd493455	-0.049122173
209	0xbdc6ec35	-0.09713022
210	0x3cf87e7c	0.03033375
211	0xbe835042	-0.2564717
212	0x3e8ba035	0.27270666
213	0xbf89dd4e	-1.0770662
214	0xbd9ad5f1	-0.07560337
215	0xbe172cbb	-0.14763157
216	0xbdfa7608	-0.12229544
217	0xbe4e6dea	-0.20159116
218	0x3dd4b1e0	0.103854895
219	0xbbe15f1d	-0.0068777935
220	0x3d08db10	0.03341204
221	0x3e7532ce	0.23945162
222	0x3e8daa8e	0.27669185
223	0x3e1ac79e	0.1511521
224	0x3e96aa7b	0.2942694
225	0x3f0e194d	0.55507356
226	0x3f951708	1.1647654
227	0xbc8fe60f	-0.017565755
228	0xbb63b254	-0.0034743743
229	0xbc25ec8b	-0.010127197
230	0x3d31361e	0.0432645
231	0xbf4abb73	-0.79192275
232	0xbcbfa3c7	-0.023393525
233	0x3d93d2c6	0.07217936
234	0x3cd19c8d	0.025587345
235	0xbbc565e3	-0.0060241087
236	0xbbcf28b5	-0.0063219913
237	0x3d42dfa9	0.04757658
238	0xbf9a8e2f	-1.2074641
239	0xbf483d65	-0.7821868
240	0xbbf9518f	-0.0076085995
241	0xbe8fef2a	-0.28112155
242	0x3daedfde	0.08538793
243	0xbe29bf1e	-0.16576812
244	0xbdea15ef	-0.11429965
245	0xbd1d7888	-0.038445026
246	0xbd50b941	-0.050957922
247	0xbc930431	-0.017946335
248	0x3e3e57c0	0.18588161
249	0x3ec55f26	0.38549155
250	0x3dbf3d9b	0.09337922
251	0x3e423233	0.18964462
252	0x3e029612	0.1275256
253	0x3ecafd43	0.39646348
254	0xbdcad7e9	-0.09904463
255	0x3df1966e	0.1179627

encoder_RNN.weight_hh_l0 f4 [150, 50]
0	0x3f1db1d3	0.61599463
1	0xbdc12a56	-0.09431903
2	0xbe4fe80d	-0.20303364
3	0x3ddcf30c	0.10788545
4	0x3e80f7e8	0.25189137
5	0x3e7761fc	0.24158472
6	0x3ddf35ab	0.10898908
7	0xbdf4aa4d	-0.11946545
8	0xbe746fa7	-0.23870717
9	0x3e3f7606	0.18697366
10	0x3e98b48d	0.2982525
11	0xbdf44714	-0.119276196
12	0x3e522308	0.20521176
13	0x3e2fd1df	0.17169903
14	0xbe00bf6c	-0.12573022
15	0xbdf1ff19	-0.11816234
16	0xbe88deed	-0.2673258
17	0x3f209daa	0.62740576
18	0x3ea70a7f	0.32625195
19	0xbe2f8614	-0.1714099
20	0xbc67c2ff	-0.014145612
21	0x3dfa4c2b	0.12221559
22	0xbdd6d4a8	-0.1048978
23	0xbe33fdba	-0.17577258
24	0x3e7bb9f2	0.24582651
25	0x3e1e4d30	0.15459132
26	0xbd83fc0c	-0.064445585
27	0x3e3b62cf	0.18299411
28	0x3dbd536a	0.092444256
29	0xbe04f015	-0.12982209
30	0xbef48c25	-0.47763172
31	0x3c67b502	0.014142277
32	0xbe93145f	-0.2872648
33	0xbde8f2ff	-0.11374473
34	0xbe3b9a76	-0.18320641
35	0xbe22e19c	-0.15906376
36	0xba52f647	-0.00080475624
37	0x3e94cc39	0.2906206
38	0xbdecc3ea	-0.11560805
39	0xbe735d65	-0.23766096
40	0xbe0fa3f6	-0.1402739
41	0x3d11c169	0.03558484
42	0x3dd044d2	0.101693764
43	0x3e744360	0.23853827
44	0x3de8defc	0.11370656
45	0xbd6ecfd8	-0.058303684
46	0xbdf1a787	-0.117995314
47	0x3d1ee5f7	0.03879353
48	0x3e95b086	0.2923624
49	0xbe8cb0ed	-0.27478734
50	0xbe8deb69	-0.27718666
51	0xbf574f59	-0.8410545
52	0x3e64600c	0.22302264
53	0x3e0782f2	0.13233545
54	0x3f6db897	0.92859787
55	0xbf4244a8	-0.7588601
56	0xbe7759a6	-0.24155292
57	0x3e2d8bae	0.16947815
58	0xbe4f37bc	-0.20236105
59	0xbe2af0f5	-0.1669348
60	0x3e59a1a2	0.21253064
61	0x3ec3876e	0.38189262
62	0x3d03b74a	0.03215722
63	0xbe0d5df8	-0.13805377
64	0x3e883ac4	0.26607335
65	0x3f4d1229	0.80105835
66	0xbe093467	-0.13398896
67	0x3dd523b0	0.104071975
68	0xbe20e1d1	-0.15711142
69	0x3ce6f8fc	0.028194897
70	0xbdb102e8	-0.086431324
71	0x3c987210	0.018609077
72	0xbe21419c	-0.15747684
73	0xbdf3b8d4	-0.119004875
74	0x3d52c397	0.05145606
75	0xbf3a0cb6	-0.72675645
76	0x3f80d704	1.0065618
77	0xba8bf1f9	-0.0010676972
78	0xbe4ff93a	-0.20309916
79	0x3e8f552f	0.27994677
80	0xbf08927c	-0.5334852
81	0xbe455ff7	-0.19274889
82	0x3e822f50	0.25426722
83	0x3ccab39f	0.024743853
84	0x3ec023f9	0.37527445
85	0x3f8bfb95	1.0936152
86	0x3e3cb653	0.18428926
87	0xbd844bda	-0.0645978
88	0xbe0e7d41	-0.13914968
89	0x3e0ebd37	0.13939367
90	0xbd8881a5	-0.06665353
91	0x3f4233a4	0.7586005
92	0xbec6d225	-0.38832203
93	0x3d330343	0.043704282
94	0x3da4f0dc	0.08053753
95	0xbdc779f3	-0.09740057
96	0xbf28bb7f	-0.65911096
97	0xbd9a916b	-0.075472675
98	0x3e1f26d2	0.15542153
99	0xbea6b58b	-0.3256038
100	0x3ebeb1a3	0.372449
101	0x3d3b8e3d	0.045789946
102	0x3f1591bb	0.5842549
103	0x3e8525f3	0.26005515
104	0xbe460815	-0.1933902
105	0xbed14f49	-0.40880802
106	0xbd3959f1	-0.04525179
107	0xbe16520a	-0.14679733
108	0x3dc602ad	0.09668479
109	0xbea52b8a	-0.3225978
110	0x3e2f303b	0.17108242
111	0x3d6eeedc	0.058333263
112	0xbe9da13c	-0.30787075
113	0x3f11d34d	0.56963044
114	0x3e43583b	0.19076626
115	0xbe32aa02	-0.17447665
116	0xbede7188	-0.43445992
117	0xbdbcd7ff	-0.092208855
118	0xbc5c5e95	-0.0134502845
119	0x3d718f2d	0.058974434
120	0x3e3a4e20	0.18193865
121	0x3cdf2f4b	0.02724423
122	0x3e479523	0.19490485
123	0x3c44e7ce	0.012018157
124	0x3e851e9c	0.25999916
125	0xbdefd6b4	-0.11710873
126	0x3e10078c	0.14065379
127	0x3e0b3872	0.13595751
128	0xbdb08cc7	-0.08620601
129	0x3ec6c291	0.38820317
130	0x3d390441	0.045170072
131	0x3e163dc5	0.14672
132	0x3e08478d	0.13308544
133	0x3eb68642	0.35649306
134	0xbec839cf	-0.39106604
135	0x3fab541d	1.3385044
136	0x3ef0c411	0.47024587
137	0xbeddcf95	-0.43322435
138	0x3e5a5486	0.21321306
139	0xbe2062ef	-0.1566274
140	0xbeb56019	-0.3542488
141	0x3d0d93c3	0.034564745
142	0xbf8122c2	-1.0088732
143	0x3e3b29f9	0.1827773
144	0x3e53fa8c	0.20701045
145	0x3d4fec36	0.050762378
146	0x3f41f4dc	0.7576425
147	0x3dbbf70b	0.09177979
148	0xbe6e21c3	-0.23255067
149	0xbf2f9105	-0.6858066
150	0xbdd43ca9	-0.103631325
151	0x3c81eb5e	0.015859302
152	0x3e859a0c	0.2609409
153	0x3eedbb95	0.46432176
154	0xbecb45c4	-0.39701664
155	0x3e0d07ec	0.13772553
156	0xbddb8610	-0.1071893
157	0x3d6035e4	0.054738894
158	0x3ee92769	0.4553788
159	0xbdd8e80b	-0.10591134
160	0x3e8bb014	0.27282774
161	0x3e2b94b8	0.1675595
162	0xbe376fc6	-0.17913732
163	0xbd83e96d	-0.06441007
164	0x3d2ae984	0.041726604
165	0x3e199d47	0.15001403
166	0xbebf673a	-0.37383443
167	0xbe58459f	-0.21120308
168	0xbed4c26a	-0.41554576
169	0x3d1838b2	0.037163444
170	0xbe7820ea	-0.24231306
171	0x3ebe803e	0.37207216
172	0xbedf836c	-0.43654954
173	0x3e59ab1e	0.21256682
174	0xbe30eef9	-0.17278661
175	0x3f1f05aa	0.6211802
176	0x3ca2c074	0.01986716
177	0xbdbda307	-0.092596106
178	0x3edf0f61	0.4356642
179	0x3f05f267	0.52323
180	0x3e9335ef	0.28752086
181	0xbe804f1c	-0.25060356
182	0x3e1a1465	0.15046842
183	0xbe3b74cb	-0.18306272
184	0x3d80badd	0.06285641
185	0xbf04a6f0	-0.51817226
186	0x3d7c091f	0.061532136
187	0xbe04554e	-0.12923166
188	0xbdfd9abe	-0.1238303
189	0x3eccc038	0.399904
190	0xbf2eb17f	-0.6823959
191	0xbe6dd9b6	-0.23227581
192	0xbf1649b0	-0.5870619
193	0x3dae3959	0.08507032
194	0xbf00c5b7	-0.5030169
195	0xbd2459d5	-0.040124733
196	0xbd8426e2	-0.06452729
197	0xbd8c0332	-0.06836547
198	0xbdcbed0e	-0.09957324
199	0xbf3ca051	-0.73682123
200	0x3c098604	0.008393768
201	0x3eff5f27	0.49877283
202	0x3e796245	0.24353893
203	0xbe770b83	-0.24125485
204	0x3eb05935	0.3444306
205	0x3e88fd01	0.26755527
206	0x3ef3ed60	0.4764204
207	0xbc9e3542	-0.019312505
208	0x3eafb9b9	0.34321383
209	0x3e9ef90e	0.3104939
210	0xbe204c80	-0.15654182
211	0xbde91cb4	-0.11382428
212	0x3e9a3e63	0.30125722
213	0x3dbe6b6c	0.09297833
214	0x3dec8ca2	0.11550261
215	0x3dee01dd	0.11621449
216	0xbefaefb9	-0.4901102
217	0xbe8dcd4c	-0.27695692
218	0xbd82be64	-0.063839704
219	0xbdaf6c2a	-0.085655525
220	0x3e8ce60f	0.2751927
221	0xbeeb7dd8	-0.4599445
222	0xbe045639	-0.12923516
223	0xbeb9e4ff	-0.36307523
224	0x3f05bf6e	0.52245224
225	0xbd9e3e57	-0.07726734
226	0x3e018bc0	0.12650967
227	0x3ec34d11	0.38144735
228	0xbe8cf8b0	-0.27533484
229	0xbe9fe43b	-0.31228814
230	0xbe1d2a4c	-0.15348166
231	0xbe2452ba	-0.16047183
232	0x3dc2ca95	0.09511296
233	0xbe38ed73	-0.1805933
234	0x3bd96c75	0.0066352435
235	0xbc83fad5	-0.016110817
236	0xbf3cc88a	-0.737435
237	0x3d287d8a	0.04113535
238	0xbe63ca38	-0.22245109
239	0x3da91e78	0.082577646
240	0x3ea68f1e	0.32531065
241	0xbd948675	-0.07252208
242	0x3ecf0b79	0.4043844
243	0x3e844679	0.25835016
244	0xbea704c3	-0.3262082
245	0x3eea7b32	0.45797116
246	0x3e569fca	0.20959392
247	0xbe93cf83	-0.28869256
248	0x3e758d4c	0.23979682
249	0x3f294a35	0.66128856
250	0x3e7b3839	0.24533166
251	0x3d957e03	0.072994255
252	0x3f0195c5	0.50619155
253	0xbedcc067	-0.4311554
254	0x3ed9e5d3	0.42558154
255	0x3ebd060e	0.36918682

encoder_RNN.bias_ih_l0 f4 [150]
0	0xbc516705	-0.012780909
1	0x3e909da7	0.2824528
2	0x3e830d01	0.2559586
3	0x3be77638	0.0070636533
4	0xbe336cba	-0.17521945
5	0x3e787d45	0.24266537
6	0xbe80e66f	-0.25175807
7	0xbea9ca59	-0.33162192
8	0x3e5a5b30	0.21323848
9	0x3d67498b	0.05646662
10	0x3e31ba71	0.17356278
11	0xbe0add68	-0.13561022
12	0xbdac0ad5	-0.084005035
13	0x3e76fbb8	0.2411946
14	0xbe36afa6	-0.17840442
15	0x3dfc6e60	0.1232574
16	0x3e0c1fd8	0.13684022
17	0x3df12ba6	0.117759034
18	0xbddb2324	-0.10700062
19	0x3e05896c	0.13040704
20	0xbd4f7aac	-0.0506541
21	0x3d6d1da4	0.057889596
22	0x3e1cc0c9	0.15307917
23	0x3ed08f9d	0.40734568
24	0x3e0762cb	0.1322128
25	0x3d90f558	0.070780456
26	0x3d2dc788	0.042426616
27	0xbd432215	-0.047639925
28	0x3efc0ba9	0.49227646
29	0x3dc6d568	0.09708673
30	0xbe0bc5c6	-0.13649663
31	0xbe0173ef	-0.12641881
32	0xbe90cf1a	-0.28283006
33	0xbd55be69	-0.052183542
34	0xbe1c5886	-0.15268144
35	0xbe14600f	-0.14489768
36	0x3e410192	0.18848255
37	0x3e613349	0.2199222
38	0x3d55701f	0.05210888
39	0x3e903cca	0.28171378
40	0xbe3ad80e	-0.18246481
41	0x3e8dcb8c	0.27694356
42	0xbe805c68	-0.250705
43	0x3d7e9911	0.062157694
44	0x3e53297e	0.20621297
45	0xbec108ec	-0.3770212
46	0xbdd4627b	-0.10370346
47	0x3e287e74	0.16454488
48	0xbd50e98e	-0.051003985
49	0xbe059c96	-0.13048014
50	0xbd569f20	-0.052397847
51	0x3f049755	0.51793414
52	0xbe447a9f	-0.19187401
53	0x3ec5d607	0.38639852
54	0x3f1bab50	0.6080828
55	0xbd95e86a	-0.0731972
56	0x3ea25e40	0.31712532
57	0x3ce9a17f	0.02851939
58	0x3ed3436a	0.4126237
59	0x3e957c59	0.29196432
60	0x3df1dd92	0.11809839
61	0x3f045b9b	0.5170228
62	0x3f81ea4f	1.014963
63	0xbd80d6d6	-0.06290977
64	0x3f9610a1	1.1723825
65	0x3df755e3	0.120769285
66	0x3db156e1	0.08659149
67	0x3e18bc02	0.1491547
68	0xbefa1ea7	-0.4885151
69	0x3f50a46d	0.81500894
70	0x3e3fcd16	0.18730578
71	0x3ebba6cc	0.36650693
72	0xbd8ddd68	-0.069269955
73	0x3ebdaeb1	0.3704734
74	0xbe5724e1	-0.21010162
75	0x3ef068de	0.46955007
76	0x3e251740	0.1612215
77	0x3ec87861	0.39154342
78	0x3e964778	0.293514
79	0x3f05eac2	0.52311337
80	0x3ebadeca	0.364981
81	0x3e0e4443	0.13893227
82	0x3d90271e	0.07038711
83	0x3e23cbcf	0.15995716
84	0x3ea72de6	0.32652205
85	0x3fac50a8	1.3462114
86	0x3dc28185	0.0949736
87	0x3d267314	0.04063709
88	0x3dd21907	0.1025868
89	0x3e528743	0.20559411
90	0x3e44dde0	0.19225264
91	0x3e81b692	0.25334603
92	0x3f4fc74c	0.8116348
93	0xbc0b51bd	-0.008503375
94	0x3ebd20fb	0.36939225
95	0x3e380ab9	0.1797284
96	0x3f3be192	0.7339107
97	0x3c5f8c18	0.013644241
98	0x3e1cd1bc	0.15314382
99	0x3ed92a13	0.42414913
100	0x3ded6d6d	0.11593137
101	0xbd8470b5	-0.0646681
102	0x3edc45bf	0.43021962
103	0xbea72fa5	-0.32653537
104	0x3e60d330	0.21955562
105	0xbeb581d5	-0.35450616
106	0x3eadda4a	0.33955604
107	0x3f87b318	1.060153
108	0x3e0e8360	0.13917303
109	0x3d706aec	0.05869572
110	0xbc4c96dc	-0.01248714
111	0x3d14b968	0.03630963
112	0x3d847bbb	0.06468912
113	0x3de2cb0a	0.11073883
114	0xbe807b7e	-0.25094217
115	0x3b669a6c	0.0035187257
116	0x3dcd71be	0.1003146
117	0x3e88f0a4	0.26746094
118	0xbe0229f8	-0.12711322
119	0x3e8fa153	0.28052768
120	0x3e969b09	0.29415157
121	0xbea99f10	-0.33129168
122	0xbe075813	-0.13217191
123	0x3d05a8c2	0.032631643
124	0x3d073360	0.03300798
125	0xbe2edd73	-0.17076664
126	0x3e48c2ec	0.19605607
127	0x3ec94e28	0.3931744
128	0xbe6b016e	-0.22949764
129	0x3ddacd81	0.10683728
130	0xbdbfb631	-0.09360922
131	0xbe0aea7e	-0.13566014
132	0x3e896461	0.26834396
133	0xbdec08e8	-0.11525136
134	0xbdf3850e	-0.118906125
135	0x3e4c0617	0.19924198
136	0xbe96040a	-0.29299957
137	0xbdb2010b	-0.08691605
138	0xbd8f9664	-0.070111066
139	0x3f08c3ca	0.5342375
140	0x3e98e453	0.29861698
141	0x3ce4ae20	0.02791506
142	0x3e1daa36	0.15396962
143	0xbe8192c5	-0.2530729
144	0xbe3d2ad7	-0.18473373
145	0x3e3a8a0c	0.18216723
146	0xbe3280c8	-0.17431939
147	0xbeb87439	-0.3602617
148	0x3ecdd9e4	0.402053
149	0x3dc8cbaf	0.098044746

encoder_RNN.bias_hh_l0 f4 [150]
0	0x3d112004	0.035430923
1	0x3e325e16	0.17418703
2	0x3d1eea96	0.038797937
3	0xbe09554e	-0.13411447
4	0xbe8cc5ba	-0.27494603
5	0x3d249179	0.040177796
6	0xbe76d3aa	-0.24104181
7	0xbe7cf637	-0.24703299
8	0x3dc77cc4	0.09740594
9	0xbd3b0ff1	-0.0456695
10	0x3d5c00bd	0.05371164
11	0xbe6d2288	-0.23157704
12	0xbe1a584b	-0.15072744
13	0x3e6ca811	0.23110987
14	0xbdfe913b	-0.12430044
15	0x3dba4994	0.09096065
16	0x3e01b063	0.12664942
17	0xbcae2a87	-0.021260513
18	0xbe36cd34	-0.17851716
19	0x3db67065	0.08908156
20	0x3d8df0cb	0.06930693
21	0x3e538f73	0.2066019
22	0x3e048f99	0.12945403
23	0x3e82fc39	0.25583056
24	0x3ce155a2	0.027506653
25	0xbd75b089	-0.05998281
26	0xbdb18a4c	-0.08668956
27	0x3db01e97	0.085995845
28	0x3f0b88ab	0.54505414
29	0xbd874b2b	-0.06606134
30	0xbe817655	-0.25285593
31	0xbe904042	-0.28174025
32	0xbe9f1f0b	-0.3107837
33	0xbe5e7276	-0.21723351
34	0xbe09db24	-0.13462502
35	0xbe8efa2a	-0.27925235
36	0x3c87be1d	0.016570145
37	0x3e9b35d7	0.30314514
38	0x3d2da5fd	0.042394627
39	0x3e212851	0.15738036
40	0xbdb05b3a	-0.0861115
41	0x3e92ad1c	0.28647697
42	0xbdc14cf0	-0.09438503
43	0xbda06c11	-0.07833112
44	0x3e40f087	0.18841754
45	0xbe56c040	-0.20971775
46	0xbd45a7c9	-0.048255716
47	0x3e0f4ea3	0.13994841
48	0xbe89e250	-0.26930475
49	0xbd80bc97	-0.06285971
50	0x3d00e031	0.031463806
51	0x3f111b51	0.56682307
52	0xbe88eefb	-0.26744828
53	0x3eec9865	0.46210018
54	0x3ef0f679	0.47063044
55	0xbda8f9fd	-0.082508065
56	0x3e83d9d5	0.2575213
57	0xbe29caf9	-0.16581334
58	0x3e8e8b59	0.2784069
59	0x3e78c8cc	0.24295348
60	0x3d813fc9	0.06310994
61	0x3ef26f9a	0.4735077
62	0x3f6007ee	0.875121
63	0xbe1ccf58	-0.1531347
64	0x3f9e2724	1.2355695
65	0x3caabfc3	0.020843392
66	0x3de7efd7	0.11325043
67	0x3e758283	0.23975568
68	0xbf04f008	-0.5192876
69	0x3f4ff4fd	0.812332
70	0x3e1a55ec	0.15071839
71	0x3ec78ca7	0.38974497
72	0xbe723aa3	-0.2365518
73	0x3e8f38a9	0.27972916
74	0xbe026a85	-0.12735946
75	0x3ec2f29d	0.38075724
76	0xbd231845	-0.039818067
77	0x3eba4a50	0.3638482
78	0x3e6f589d	0.23373647
79	0x3f1c681e	0.6109637
80	0x3e84f27e	0.25966257
81	0x3d31d9d0	0.043420613
82	0x3e4decb3	0.20109825
83	0x3e214dbd	0.15752311
84	0x3eee8e23	0.46592817
85	0x3f88baf6	1.0682056
86	0x3e3f9142	0.18707755
87	0x3e3a97ac	0.1822192
88	0x3dc64b84	0.09682372
89	0x3e61cb87	0.22050296
90	0x3e8bf198	0.2733276
91	0x3ebc6036	0.36792153
92	0x3f3dc176	0.7412332
93	0xbdfef4b0	-0.12449014
94	0x3f0e60e2	0.5561658
95	0x3e3a1153	0.18170671
96	0x3f7d6c69	0.98993546
97	0x3e60dab0	0.21958423
98	0x3e9ef8a8	0.31049085
99	0x3f120632	0.57040703
100	0x3ebf9a08	0.37422204
101	0xbdd8b03a	-0.105804875
102	0x3ef236e1	0.47307494
103	0xbdeaedbb	-0.11471125
104	0x3d35ac44	0.04435374
105	0xbf0cd594	-0.55013394
106	0x3f39129b	0.72294015
107	0x3e5d487a	0.21609679
108	0x3e965f33	0.29369506
109	0x3dd82cf0	0.10555446
110	0x3e383eaa	0.17992654
111	0xbd80d1d3	-0.06290021
112	0x3e0a6157	0.13513695
113	0x3d93cdd7	0.07216995
114	0x3dc065d2	0.09394421
115	0xbf0f2660	-0.5591793
116	0x3eaf7291	0.34267095
117	0x3e0f6bf9	0.14006032
118	0xbdea9715	-0.11454598
119	0x3e9182a8	0.28419995
120	0x3e8a05cc	0.26957548
121	0xbeb3e48a	-0.351353
122	0xbde0b828	-0.10972625
123	0xbb9ea344	-0.00484124
124	0x3e2ea341	0.17054464
125	0xbecbced8	-0.39806247
126	0x3e756f08	0.23968136
127	0x3e56345e	0.20918414
128	0xbeb4f3e6	-0.3534233
129	0xbe59a13f	-0.21252917
130	0xbcc3a963	-0.02388448
131	0xbf2b35da	-0.66879046
132	0x3e05b399	0.13056792
133	0xbecc3b2c	-0.39888895
134	0x3ddd4d85	0.10805801
135	0xbeabb7f9	-0.33538797
136	0xbec9643f	-0.39334294
137	0xbe980f5a	-0.29699212
138	0xbada6faa	-0.0016665359
139	0x3f0a34d2	0.5398685
140	0x3d975ce0	0.073907614
141	0x3bd0bf4f	0.006370462
142	0x3e1b8bdc	0.15190071
143	0x3dfadb91	0.1224891
144	0x3bb8e53b	0.005642561
145	0x3e185e12	0.14879635
146	0xbf01574a	-0.5052382
147	0xbeeef04d	-0.4666771
148	0x3e6a0cbb	0.22856419
149	0xbdc50164	-0.09619406

encoder_RNN.weight_ih_l1 f4 [150, 50]
0	0x3eb7da3b	0.35908684
1	0x3eca35a7	0.39494058
2	0x3ec691fe	0.38783258
3	0x3d88edbc	0.06685969
4	0xbf20d78b	-0.6282889
5	0x3ef836af	0.4847922
6	0xbe8705c8	-0.26371598
7	0xbe527f9b	-0.2055649
8	0xbe369c9f	-0.17833184
9	0xbf9538b0	-1.1657925
10	0xbe244d25	-0.16045053
11	0xbecd31f5	-0.40077177
12	0xbd5f5958	-0.054528564
13	0x3e340afb	0.17582314
14	0x3f069062	0.5256406
15	0xbf13e286	-0.5776752
16	0xbe1c6d58	-0.15276086
17	0x3ed226b6	0.4104516
18	0xbda75aa9	-0.08171589
19	0xbe2e2a24	-0.17008263
20	0xbdb29bde	-0.087211356
21	0xbed1417d	-0.40870276
22	0x3f124247	0.5713238
23	0xbe889389	-0.2667506
24	0xbd60fa2b	-0.05492608
25	0x3f785f15	0.97020084
26	0xbf450247	-0.769566
27	0x3f20b58d	0.62777025
28	0x3e9bd5a9	0.30436447
29	0xbe1215fe	-0.14266202
30	0xbe9941e1	-0.29933074
31	0xbe90af54	-0.28258765
32	0xbe9e17fa	-0.30877668
33	0xbc85a19e	-0.016312417
34	0x3d2f3864	0.042778388
35	0x38c3f8c2	9.344659e-05
36	0x3e82a89a	0.25519258
37	0x3eac3469	0.33633736
38	0xbe8b6029	-0.27221802
39	0xbeae5ea7	-0.3405659
40	0x3ce2042f	0.027589886
41	0xbf3b31ff	-0.73123163
42	0x3f41a6b6	0.75645006
43	0xbeee7682	-0.4657479
44	0x3f91daaf	1.1394862
45	0xbecacb33	-0.39608154
46	0xbd6faf86	-0.058517
47	0x3f094e15	0.5363477
48	0xbe905f20	-0.28197575
49	0x3d8b4354	0.06799951
50	0x3a037cde	0.000501586
51	0x3d298d95	0.04139479
52	0xbf4bfd75	-0.7968362
53	0xbe669f74	-0.22521764
54	0xbdce9888	-0.10087687
55	0x3e996ad6	0.29964322
56	0xbee4ff70	-0.44726133
57	0xbf164caf	-0.5871076
58	0x3ded82c2	0.11597206
59	0x3f03c07f	0.514656
60	0xbf03ec00	-0.5153198
61	0x3ebfb0dd	0.37439623
62	0x3e9c7240	0.30555916
63	0xbf7fd3de	-0.9993266
64	0x3e9fcc34	0.31210482
65	0x3e07876f	0.13235258
66	0x3e63587a	0.2220172
67	0x3dd6e738	0.1049332
68	0x3f86e969	1.0539981
69	0x3f61d3f1	0.8821402
70	0xbed19e15	-0.4094092
71	0x3e1ef594	0.15523368
72	0x3ec071e6	0.37586898
73	0xbf21f7c4	-0.63268685
74	0xbefd1335	-0.49428716
75	0xbd0f6965	-0.03501262
76	0xbd32a630	-0.04361552
77	0xbf4fbc24	-0.81146455
78	0x3eb61509	0.35562924
79	0x3f316f3f	0.69310373
80	0x3eb5bc54	0.35495245
81	0x3ef62b7a	0.48080045
82	0x3d74c0b5	0.059754092
83	0xbd99880a	-0.074966505
84	0x3ee58128	0.448251
85	0x3e702686	0.23452196
86	0x3d5848bd	0.052803744
87	0x3ea9a251	0.3313165
88	0xbd6b9568	-0.05751553
89	0xbeed7763	-0.46380147
90	0xbe33f4e2	-0.17573884
91	0x3da39b95	0.07988659
92	0x3dbd3450	0.092384934
93	0xbeac3b81	-0.33639148
94	0x3f35f9f6	0.71084535
95	0xbf4a6d06	-0.79072607
96	0xbf4a42eb	-0.7900836
97	0x3edf518e	0.4361691
98	0x3d02b35f	0.031909343
99	0xbeaa6b13	-0.33284816
100	0xbee8e3bd	-0.4548625
101	0x3de23881	0.110459335
102	0xbeb5ba3c	-0.35493648
103	0xbe1fd53c	-0.15608686
104	0x3e05ffc2	0.13085845
105	0xbec41521	-0.3829737
106	0xbf38d191	-0.7219477
107	0xbefcd8ef	-0.49384257
108	0xbf5e9872	-0.86951363
109	0x3d578061	0.052612666
110	0xbe6c9421	-0.23103382
111	0xbf23a51f	-0.6392383
112	0xbf28338d	-0.6570366
113	0x3e13a327	0.14417706
114	0x3f43bb80	0.7645798
115	0xbe90e3f7	-0.28298923
116	0x3dea0877	0.11427396
117	0x3dd68007	0.10473638
118	0x3d0c119a	0.034196474
119	0x3ef48662	0.47758776
120	0xbcf6fce6	-0.030149888
121	0xbe6e72e9	-0.23286022
122	0xbc6195a8	-0.013768591
123	0xbf3782b6	-0.71683824
124	0xbf24f479	-0.64435536
125	0x3e077785	0.13229187
126	0x3dac1362	0.084021345
127	0xbea4c9c9	-0.321852
128	0x3eb512f3	0.3536602
129	0xbe85d9b4	-0.26142657
130	0x3e6526db	0.22378103
131	0x3e21a688	0.15786183
132	0xbd791fd4	-0.06082137
133	0xbe8a2a92	-0.26985604
134	0x3ebc6363	0.36794576
135	0xbfaf7411	-1.3707296
136	0x3f036975	0.5133279
137	0xbe2ef7e1	-0.17086746
138	0xbdfea93b	-0.12434622
139	0xbeaba224	-0.3352214
140	0xbd65111b	-0.055924516
141	0xbe1bb53d	-0.15205856
142	0xbdb14d56	-0.08657329
143	0xbfae5b68	-1.3621645
144	0x3f46e5e6	0.7769455
145	0x3ed1406e	0.40869468
146	0xbf0cf88b	-0.55066746
147	0x3f8700ed	1.0547158
148	0xbeeebe79	-0.46629694
149	0x3ed2b2c8	0.41152024
150	0xbed5e12e	-0.4177336
151	0xbe1bfd16	-0.15233263
152	0x3f01090c	0.5040443
153	0x3e400d3b	0.18755047
154	0xbe230937	-0.15921484
155	0xbd9bfadb	-0.07616206
156	0xbeb0f075	-0.34558454
157	0xbc9c58f2	-0.019085381
158	0xbebef665	-0.3729736
159	0x3e8422e7	0.25807878
160	0x3f331e64	0.6996825
161	0xbeee5a6d	-0.46553364
162	0xbf19a6eb	-0.6002032
163	0x3df56ed1	0.11984027
164	0x3fbd146c	1.4771857
165	0xbf079c95	-0.529733
166	0xbe9db45e	-0.30801672
167	0x3df5a088	0.119935095
168	0xbd4d1619	-0.050069902
169	0xbe48a6fa	-0.19594947
170	0x3e9b9dc6	0.3039381
171	0xbe06d54c	-0.13167304
172	0x3f166005	0.58740264
173	0xbe15420a	-0.14575973
174	0x3f8a4dcc	1.0804992
175	0x3e4d83a4	0.20069748
176	0xbe5071fe	-0.20355985
177	0xbf2aef23	-0.66771144
178	0x3cff65a4	0.031176396
179	0x3db331fa	0.08749767
180	0xbd503f22	-0.05084146
181	0xbd9d0541	-0.07667018
182	0x3f148d75	0.58028346
183	0xbeb885dd	-0.3603963
184	0xbed4688a	-0.41486007
185	0xbcefc347	-0.02926792
186	0xbeaf88b2	-0.34283978
187	0xbf6fed6d	-0.9372166
188	0xbef04a15	-0.4693152
189	0xbe5b8452	-0.21437195
190	0x3f1b66a1	0.60703474
191	0x3e488ffa	0.19586173
192	0xbe07e05e	-0.13269183
193	0x3cd9561f	0.026530324
194	0xbea08346	-0.31350154
195	0xbead18cf	-0.3380799
196	0x3de31555	0.11088053
197	0x3e1a4546	0.15065488
198	0xbe9a298c	-0.30109823
199	0xbcda2875	-0.02663062
200	0xbe7ce9a0	-0.24698496
201	0x3cf16b1a	0.029470015
202	0xbeadba9f	-0.33931443
203	0xbddb9d45	-0.10723356
204	0xbf1a0ab6	-0.60172594
205	0xbf388682	-0.7208024
206	0x3ec38d04	0.38193524
207	0x3e73878b	0.23782174
208	0xbf243a14	-0.6415112
209	0xbef5bf2e	-0.4799742
210	0x3ed3cbae	0.41366333
211	0xbd21ef7f	-0.039535042
212	0x3d4983e7	0.049198058
213	0xbca7d4fb	-0.0204873
214	0xbf7da065	-0.9907287
215	0xbd0c54ca	-0.03426055
216	0x3f736355	0.95073444
217	0x3e50bb19	0.20383872
218	0x3e1b0a72	0.15140703
219	0x3f36cb26	0.7140373
220	0xbda845b6	-0.08216421
221	0x3ee230d2	0.44177872
222	0xbf054c4a	-0.5206953
223	0xbd86b7fa	-0.065780595
224	0x3e7eaac7	0.24869834
225	0xbdd43cab	-0.10363134
226	0x3e8ee320	0.27907658
227	0xbe81ed13	-0.25376186
228	0x3ee0594d	0.4381813
229	0xbdbb68e9	-0.091508694
230	0x3f7a8fe5	0.97875816
231	0xbf1b6d45	-0.6071361
232	0xbd41c772	-0.047309346
233	0x3eba869d	0.36430827
234	0xbf1d8eff	-0.6154632
235	0xbce69c94	-0.028150834
236	0x3f7c383b	0.985233
237	0xbe69c12e	-0.22827598
238	0x3d7ae17a	0.061250187
239	0x3e1037e6	0.14083824
240	0x3c971d4e	0.01844659
241	0xbe396f01	-0.18108751
242	0xbe7f11d1	-0.2490914
243	0xbe469897	-0.19394146
244	0x3f22d3af	0.63604254
245	0xbf58ea9b	-0.8473298
246	0xbf90e3bd	-1.13195
247	0x3f148c80	0.58026886
248	0xbdd966d1	-0.10615314
249	0xbcba132f	-0.022714226
250	0xbf66a31e	-0.9009265
251	0xbf290255	-0.66019183
252	0x3d8b7b06	0.06810574
253	0x3e4cee8e	0.20012876
254	0x3f0b2304	0.54350305
255	0x3e24cb6d	0.16093226

encoder_RNN.weight_hh_l1 f4 [150, 50]
0	0x3f4d43f8	0.8018184
1	0xbf183749	-0.5945936
2	0x3f012045	0.50439864
3	0x3d7d664a	0.06186513
4	0x3f032033	0.5122101
5	0xbd39ccca	-0.045361318
6	0x3e99fec4	0.30077183
7	0xbe474288	-0.19458973
8	0xbea6d859	-0.32586935
9	0xbea67a51	-0.32515195
10	0xbcbe1867	-0.023204995
11	0x3e00ce87	0.12578784
12	0xbeaa9f76	-0.33324784
13	0xbe3db5bd	-0.18526359
14	0x3f69a0e8	0.9126115
15	0xbe10919c	-0.14118046
16	0x3f4b9f18	0.7953963
17	0x3e4c9bcc	0.19981307
18	0xbe854099	-0.26025847
19	0xbe4c48b4	-0.19949609
20	0x3de0311a	0.109468654
21	0xbd30330e	-0.04301744
22	0x3eaeec6b	0.34164748
23	0xbe3abc66	-0.18235931
24	0xbf34a4e7	-0.7056412
25	0xbde9f33b	-0.11423346
26	0xbde98dbc	-0.11403987
27	0xbeb3163d	-0.34977904
28	0x3f21416d	0.62990457
29	0x3e8e46ad	0.27788296
30	0x3f92d96a	1.14726
31	0x3e8d2fe9	0.27575615
32	0x3e06a687	0.13149463
33	0x3ebf90bc	0.3741511
34	0x3e5e5084	0.21710402
35	0x3ec17ee5	0.37792125
36	0xbd6b0ed5	-0.05738719
37	0x3e46c58e	0.19411299
38	0xbe9b1409	-0.30288723
39	0xbf8aa742	-1.0832293
40	0xbd711fc8	-0.0588682
41	0x3f190349	0.5977064
42	0xbda076a3	-0.07835128
43	0x3da0ec6c	0.07857594
44	0x3dbf3766	0.09336738
45	0xbc0d0387	-0.008606798
46	0x3eac5d13	0.3366476
47	0x3d9434d5	0.072366394
48	0xbef2ce2f	-0.4742293
49	0x3f622b33	0.88347167
50	0x3f33f5c1	0.70296866
51	0x3ec071a2	0.37586695
52	0x3d17c88f	0.037056502
53	0x3efb8c75	0.49130598
54	0xbddcb0df	-0.10775923
55	0x3ed0bb3d	0.4076785
56	0x3ecffe9e	0.40623945
57	0xbcc597cf	-0.02412024
58	0x3f1feb00	0.62467957
59	0xbe06ea7b	-0.13175385
60	0xbe4608cb	-0.19339292
61	0x3d55acc3	0.05216671
62	0x3e93ca17	0.2886512
63	0x3e0876d1	0.13326575
64	0xbe484f18	-0.19561422
65	0xbe5ca3a5	-0.215468
66	0xbf55a28b	-0.83451146
67	0x3c5800a9	0.013183751
68	0x3e1d2180	0.1534481
69	0x3dd4cac0	0.10390234
70	0x3bf5e56c	0.007504156
71	0xbdcca38e	-0.09992133
72	0x3eee9e98	0.46605372
73	0xbe90ea68	-0.28303838
74	0xbf4e937f	-0.8069381
75	0xbf3fe727	-0.74962085
76	0xbee3dadd	-0.44502917
77	0x3e613b8e	0.21995375
78	0xbd267abf	-0.040644404
79	0xbc1ee49a	-0.009698058
80	0xbe77bfc8	-0.24194252
81	0xbf3caa58	-0.73697424
82	0xbe68c174	-0.22730047
83	0xbcedf9bd	-0.029049749
84	0xbce19f46	-0.027541768
85	0xbeb34794	-0.35015547
86	0x3e2e7f74	0.17040807
87	0x3b7b3d63	0.003833615
88	0x3ec2e785	0.3806726
89	0xbeded79f	-0.4352388
90	0xbe577a5e	-0.21042773
91	0x3db05659	0.086102195
92	0xbe8195f1	-0.2530971
93	0x3ea254b6	0.31705254
94	0xbe8e8173	-0.27833137
95	0xbe66f807	-0.22555552
96	0x3daaefa1	0.08346487
97	0x3d46a5a6	0.04849782
98	0xbfbe607b	-1.4873194
99	0x3e329b00	0.1744194
100	0x3efca197	0.49342033
101	0x3f546638	0.82968473
102	0xbeb0de20	-0.34544468
103	0x3f2c7dd1	0.6737948
104	0x3e6ee5e1	0.2332988
105	0x3ea1a1e2	0.3156882
106	0x3ee480d9	0.44629553
107	0x3ea2c772	0.3179279
108	0xbdd83325	-0.1055663
109	0xbed6df8f	-0.41967437
110	0xbe052452	-0.13002136
111	0xbe0731a3	-0.13202529
112	0xbdcab478	-0.09897703
113	0xbe9de1cb	-0.3083633
114	0x3e70a445	0.23500164
115	0xbeea621b	-0.45777974
116	0x3d8bac14	0.06819931
117	0x3e94a7f2	0.29034382
118	0xbe4d6f18	-0.2006191
119	0xbe05579e	-0.13021705
120	0x3dcd041a	0.10010548
121	0xbe2bdf34	-0.16784364
122	0xbe997858	-0.29974627
123	0xbeb8f3e2	-0.36123568
124	0xbd9c03ff	-0.0761795
125	0xbf2ed56c	-0.68294406
126	0xbd61234f	-0.054965314
127	0x3dcb7f63	0.099364065
128	0x3e2bc365	0.16773756
129	0x3e8ce56f	0.27518794
130	0x3c714a7f	0.014727234
131	0xbe9f7ec3	-0.311514
132	0x3e9316df	0.28728387
133	0x3bbaf966	0.005706
134	0x3e7d46eb	0.24734084
135	0x3e7dee34	0.24797899
136	0xbe088468	-0.13331759
137	0x3e7d4387	0.24732791
138	0x3f0ee2d7	0.5581488
139	0xbdf29f7b	-0.11846825
140	0xbde91475	-0.11380855
141	0x3e02d42e	0.12776253
142	0x3ecbb190	0.39783907
143	0x3e9c744c	0.30557477
144	0xbcae7e7a	-0.021300543
145	0x3e0d40ed	0.13794298
146	0xbe3e75ec	-0.18599671
147	0x3dd09d25	0.10186223
148	0xbe86af5b	-0.2630566
149	0x3d3ee3da	0.046604015
150	0x3bf7ee2f	0.0075662355
151	0x3ecafa0d	0.396439
152	0xbefe2d9c	-0.49644172
153	0x3ebe95a3	0.3722354
154	0xbdf8edff	-0.12154769
155	0xbe64b5e5	-0.22335012
156	0x3e7a0730	0.24416804
157	0xbe064f68	-0.13116229
158	0x3e36e450	0.17860532
159	0x3eed1185	0.4630243
160	0xbf06346c	-0.5242374
161	0x3c9e1ebe	0.019301768
162	0xbe77d589	-0.24202551
163	0xbe90e4e7	-0.2829964
164	0x3e93d579	0.28873804
165	0xbebad9a5	-0.36494175
166	0x3f75eb49	0.9606214
167	0xbd240716	-0.04004582
168	0xbd5fa4c2	-0.054600485
169	0x3db0b934	0.08629075
170	0x3d8e3b7e	0.06944941
171	0xbe76a77c	-0.24087328
172	0xbcd8e8fc	-0.026478283
173	0xbd8e1f71	-0.06939591
174	0xbf1d0aca	-0.6134459
175	0x3e0cf87a	0.13766661
176	0xbe9753e0	-0.2955618
177	0x3d2307e9	0.039802466
178	0x3d2ede1d	0.042692292
179	0x3e586289	0.21131338
180	0xbd082d16	-0.033246122
181	0x3de7e6f9	0.113233514
182	0x3ec67edc	0.3876866
183	0x3daf8540	0.08570337
184	0x3e7aa46c	0.24476784
185	0x3ed5b879	0.41742304
186	0xbd911326	-0.070837304
187	0x3e70c3fc	0.23512262
188	0x3e8d3f7a	0.2758749
189	0x3d81824b	0.063236795
190	0x3d67c867	0.056587603
191	0xbf11f9a6	-0.5702156
192	0x3eb08b96	0.34481496
193	0x3df66d6a	0.12032588
194	0x3ea98f58	0.33117175
195	0xbeb9d8c0	-0.3629818
196	0x3e68c3fc	0.22731012
197	0x3c1a9383	0.009434584
198	0xbf403e2c	-0.75094867
199	0x3e1b6fa5	0.15179308
200	0x3caf33d2	0.021387015
201	0xbd5cb347	-0.05388191
202	0xbe1c291a	-0.15250054
203	0x3e71d461	0.23616172
204	0x3e7a66c4	0.24453264
205	0xbf052da4	-0.5202277
206	0x3f477d18	0.7792525
207	0x3e18b522	0.14912847
208	0xbc5e5a79	-0.013571375
209	0xbd88a2c5	-0.06671671
210	0xbe16c0c2	-0.14721969
211	0x3f4fd0f0	0.8117819
212	0xbeaafdf8	-0.33396888
213	0x3ecd86f7	0.40142033
214	0x3bd33da9	0.0064465594
215	0x3ecea8eb	0.4036325
216	0x3d665952	0.056237526
217	0x3e292dec	0.16521424
218	0x3f8280a7	1.0195512
219	0x3e2987f7	0.16555773
220	0x3f6e5a1f	0.93106264
221	0xbe95d7e5	-0.29266277
222	0x3f498695	0.7872098
223	0x3d89a0e8	0.067201436
224	0xbee03e58	-0.43797565
225	0x3ed629fc	0.41828907
226	0xbe95cc92	-0.29257637
227	0x3ea98c07	0.33114645
228	0x3eee723c	0.4657153
229	0x3e97094a	0.29499274
230	0xbec458ca	-0.3834899
231	0x3e8dda33	0.27705535
232	0x3e47fdf2	0.19530466
233	0x3e76e3de	0.24110362
234	0x3e69148a	0.22761741
235	0xbe3b35b1	-0.182822
236	0x3f42f032	0.7614776
237	0x3d24147e	0.040058605
238	0x3f899d16	1.0751064
239	0xbd89e229	-0.0673259
240	0x3e8c56aa	0.2740987
241	0x3d93ce49	0.0721708
242	0x3dac01dd	0.08398793
243	0x3eb84124	0.35987198
244	0x3dd63e63	0.10461118
245	0xbe97fb04	-0.29683697
246	0xbea1bf0c	-0.3159107
247	0x3d877a4d	0.06615124
248	0xbec94dac	-0.3931707
249	0x3eec9509	0.46207455
250	0xbe8ac649	-0.27104405
251	0xbe982d76	-0.29722184
252	0x3ca137b2	0.019679878
253	0xbdf1a54a	-0.117991045
254	0x3d8c8c6d	0.068627216
255	0xbe8468c4	-0.2586118

encoder_RNN.bias_ih_l1 f4 [150]
0	0xbed1b646	-0.40959376
1	0xbe46b3c8	-0.19404519
2	0xbea8ac70	-0.3294406
3	0x3d99d17c	0.07510659
4	0xbd216ab0	-0.039408386
5	0x3ee2f4b5	0.44327322
6	0x3e438863	0.19094996
7	0xbdfa04d5	-0.12207953
8	0x3f49dd3d	0.7885321
9	0x3d71286e	0.058876447
10	0x3eebb145	0.46033683
11	0x3c841a5a	0.016125847
12	0xbb238772	-0.0024952558
13	0x3b99fb5b	0.0046991534
14	0x3da0e3eb	0.07855972
15	0x3d41d9c3	0.047326814
16	0xbdf9e39e	-0.12201618
17	0x3dbde0b2	0.09271373
18	0x3a6d011e	0.0009040999
19	0x3d114cb9	0.03547356
20	0xbd882352	-0.06647362
21	0x3c9ebf2e	0.019378271
22	0xbd8182f7	-0.06323808
23	0x3bd0f0ab	0.006376346
24	0xbe2adc47	-0.16685592
25	0x3e65e9bd	0.22452445
26	0x3e81c053	0.25342044
27	0x3ee2a735	0.44268194
28	0xbe7a8f83	-0.24468808
29	0xbd91f32f	-0.07126462
30	0x3dca7c71	0.098870166
31	0xbe327e62	-0.17431024
32	0x3d1679fc	0.036737427
33	0x3e2f6cde	0.17131373
34	0x3d3f07d0	0.04663831
35	0x3dc15fed	0.094421245
36	0xbe2a419c	-0.1662659
37	0x3e413e65	0.18871458
38	0x3e8a6d1e	0.27036375
39	0xbdaeea69	-0.08540804
40	0xbe847b07	-0.25875112
41	0xbdf05699	-0.11735267
42	0xbe1d4836	-0.15359578
43	0xbe348227	-0.17627774
44	0x3e16840c	0.1469881
45	0x3d5d21a1	0.05398715
46	0x3e136437	0.14393698
47	0xbe42b2a4	-0.19013458
48	0x3da4579d	0.080245234
49	0x3c099bc5	0.008398955
50	0x3f2f135f	0.6838893
51	0x3e8e2d40	0.27768898
52	0x3e9a3cda	0.3012455
53	0x3d2063f2	0.039157815
54	0x3eb10d61	0.3458052
55	0xbd9cb891	-0.07652391
56	0x3c2e8a98	0.0106531605
57	0x3dacd65b	0.084393226
58	0xbdef4872	-0.1168374
59	0xbe319968	-0.17343676
60	0x3e2aa33f	0.16663836
61	0x3eabd86f	0.33563563
62	0x3e4ec140	0.20190907
63	0x3e1ddda5	0.15416582
64	0x3ec457b4	0.38348162
65	0xbd67223c	-0.056429133
66	0x3e9075dc	0.2821492
67	0x3dd9e0c2	0.10638572
68	0x3e453bf3	0.1926115
69	0xbd62de60	-0.055387855
70	0xbc48af2a	-0.012248794
71	0x3ee0c89b	0.4390305
72	0x3e98291a	0.29718858
73	0x3e80dee8	0.25170064
74	0x3e2d6761	0.16933967
75	0x3e7be20e	0.24597952
76	0x3e5b979e	0.21444556
77	0x3eb2f57d	0.34952918
78	0x3ef26b62	0.47347552
79	0xbd3d8d92	-0.04627759
80	0x3eff134b	0.49819407
81	0x3e66a7b1	0.22524907
82	0x3ebcbd6e	0.36863273
83	0x3e3fa583	0.18715481
84	0x3e62b317	0.2213863
85	0x3e5cda78	0.21567714
86	0x3ebb9e60	0.36644268
87	0x3e8cda29	0.27510193
88	0x3ed6d816	0.41961735
89	0x3e3dcf17	0.1853603
90	0x3e863ae5	0.26216808
91	0x3e865857	0.26239273
92	0x3d89956b	0.06717952
93	0x3e36d458	0.1785444
94	0x3eac42de	0.33644766
95	0x3f11dc58	0.5697684
96	0x3e9bb58e	0.30411953
97	0x3d9332f4	0.07187453
98	0x3d744f13	0.059645724
99	0x3e1f4ec6	0.15557393
100	0xbe0281b2	-0.12744787
101	0xbdce2188	-0.10064989
102	0x3ea85f25	0.3288509
103	0x3e99188f	0.2990155
104	0x3e9ad13f	0.30237767
105	0xbf135346	-0.5754894
106	0x3d63b803	0.05559541
107	0x3e31b873	0.17355518
108	0xbe69ee8b	-0.22844903
109	0x3ea86356	0.32888287
110	0xbdd631ba	-0.10458703
111	0xbe07b304	-0.13251883
112	0xbdc72f78	-0.09725851
113	0x3ed74de5	0.42051616
114	0xbecf0901	-0.40436557
115	0xbe2f4d44	-0.17119318
116	0x3ea6285c	0.32452667
117	0xbd6ab420	-0.057300687
118	0xbd940942	-0.07228328
119	0x3ea729df	0.32649133
120	0xbe9c7608	-0.305588
121	0xbe421b4d	-0.18955727
122	0x3cf20344	0.029542573
123	0x3ef2329a	0.4730423
124	0xbd10e9f6	-0.035379373
125	0x3ba5ea65	0.0050633424
126	0x3eaf3fc9	0.34228352
127	0xbe7606cf	-0.24026035
128	0xbdab3cc1	-0.08361197
129	0xbf08e4db	-0.53474206
130	0x3e6447e7	0.22293054
131	0xbd89e78f	-0.067336194
132	0xbf0c4ffd	-0.5480955
133	0x3edb4c3a	0.42831594
134	0x3db587b8	0.08863777
135	0xbd1fa9fa	-0.03898046
136	0xbeac9438	-0.33706832
137	0x3e0a64d4	0.13515025
138	0x3de9ff74	0.11425677
139	0xbdfe26f0	-0.124097705
140	0x3dda2f49	0.1065355
141	0xbdcc8647	-0.09986549
142	0xbdca1c7b	-0.098687135
143	0x3e10bd57	0.14134727
144	0x3de11dd9	0.10992021
145	0x3e24a043	0.1607676
146	0xbeec7f4f	-0.4619088
147	0xbe0ac292	-0.13550785
148	0xbd154a93	-0.036448073
149	0x3c9dadc0	0.01924789

encoder_RNN.bias_hh_l1 f4 [150]
0	0xbe9e003e	-0.3085956
1	0xbe8f0bc0	-0.27938652
2	0xbeb5990d	-0.3546833
3	0x3dc2274d	0.09480152
4	0x3dd4d3e6	0.10391979
5	0x3ec0e0ee	0.37671608
6	0x3e4f41d0	0.20239949
7	0xbe0aba67	-0.1354767
8	0x3f6fab53	0.93620795
9	0xbd8acf18	-0.06777781
10	0x3edf63ea	0.43630916
11	0xbd40e0bc	-0.047089323
12	0x390698ad	0.00012836112
13	0x3e3547b4	0.17703134
14	0x3bd5d6cd	0.0065258504
15	0x3daf50df	0.08560347
16	0xbd22f2a3	-0.039782178
17	0x3e24bd08	0.16087735
18	0x3d275baf	0.04085892
19	0x3c829024	0.015937872
20	0xbdbea7dd	-0.09309361
21	0x3e69b463	0.22822718
22	0xbc85505c	-0.01627367
23	0x3c8afe29	0.016966896
24	0xbe158ab2	-0.1460369
25	0x3e14c46d	0.14528055
26	0x3e03cded	0.12871523
27	0x3e9604da	0.29300576
28	0xbdaa3b13	-0.08312049
29	0xbe04ee09	-0.12981428
30	0x3ca933f2	0.020654652
31	0xbdb44ef6	-0.08804123
32	0xbe342278	-0.17591274
33	0x3d8787af	0.066176765
34	0x3e10429f	0.14087914
35	0x3d2c8914	0.042122915
36	0xbdf53c6d	-0.11974416
37	0x3e617923	0.22018866
38	0x3ca66f6d	0.020316804
39	0xbd8ea7c4	-0.069655925
40	0xbdd3b062	-0.10336377
41	0xbe27b9b2	-0.16379431
42	0xbdcbd2ae	-0.09952293
43	0xbe1bb5b4	-0.15206033
44	0x3e2bd2f1	0.16779687
45	0xbd63f3b0	-0.05565232
46	0x3e7ccdc4	0.24687868
47	0xbe6641fd	-0.2248611
48	0x3d9f5c29	0.0778125
49	0xbcdb9e18	-0.026808783
50	0x3f06e91f	0.52699465
51	0x3ec74b01	0.3892441
52	0x3f014f49	0.50511605
53	0xbcccce3f	-0.02500069
54	0x3e67155a	0.22566739
55	0xbd3cf68c	-0.046133563
56	0x3e76c566	0.24098739
57	0x3e6b1d8b	0.22960488
58	0xbdd38d2d	-0.103296615
59	0xbe04c831	-0.12966992
60	0x3d9fa445	0.07795004
61	0x3dfcf5df	0.12351584
62	0x3ebe373d	0.37151518
63	0x3cd2eadd	0.025746757
64	0x3edb6f46	0.42858332
65	0xbe254db0	-0.16142917
66	0x3ece8bb2	0.40340954
67	0x3e330558	0.17482507
68	0x3e039220	0.12848711
69	0xbcd4fef1	-0.026000472
70	0x3e39668b	0.18105523
71	0x3ef451cb	0.47718653
72	0x3e5e8481	0.21730234
73	0x3e28afab	0.16473262
74	0x3e973d77	0.2953908
75	0x3d816b98	0.0631935
76	0x3e61d724	0.22054726
77	0x3e6eabd3	0.23307733
78	0x3f3175f2	0.69320595
79	0xbe51bbb9	-0.20481767
80	0x3f066b7b	0.5250775
81	0x3e3e4f7f	0.18585013
82	0x3e9725b3	0.2952095
83	0x3e899aa0	0.26875782
84	0x3e923569	0.28556374
85	0x3e973ff7	0.2954099
86	0x3e415b33	0.18882446
87	0x3e89f897	0.26947471
88	0x3ea84f8e	0.32873195
89	0x3e9d17de	0.30682272
90	0x3e5ca4c7	0.21547233
91	0x3e8ab604	0.27091992
92	0x3e4ce94e	0.20010874
93	0x3e869159	0.26282766
94	0x3eb88042	0.36035353
95	0x3ee37b7e	0.44430155
96	0x3e6abc49	0.22923388
97	0x3d8e159a	0.06937714
98	0x3e0a7eee	0.13524982
99	0x3e236ae6	0.15958747
100	0x3aad1e0f	0.0013207811
101	0xbedba7ee	-0.42901558
102	0x3e6f4e6e	0.23369762
103	0x3e604f63	0.21905284
104	0x3d8dce10	0.06924069
105	0xbed72a69	-0.42024544
106	0xbcd3cb48	-0.025853768
107	0x3e5e6546	0.2171832
108	0xbfab4622	-1.3380778
109	0x3e8e33ed	0.2777399
110	0xbbd49614	-0.0064876173
111	0x3db4641d	0.088081576
112	0xbe67c99c	-0.22635502
113	0x3f0326b5	0.5123094
114	0xbe280b26	-0.16410503
115	0xbe747582	-0.2387295
116	0x3dc2c751	0.09510673
117	0x3e5f0b6a	0.21781698
118	0xbe83813c	-0.25684536
119	0x3e979701	0.29607394
120	0xbddadc29	-0.106865235
121	0xbe88ceba	-0.2672022
122	0xbe646cca	-0.22307125
123	0x3f1496fd	0.5804289
124	0xbe7e9902	-0.24863055
125	0xbe79d6bb	-0.2439832
126	0x3e785f33	0.24255066
127	0xbe2ed444	-0.1707316
128	0xbd93b5e3	-0.072124265
129	0x3c89ba4f	0.016812472
130	0x3e8ee003	0.27905282
131	0xbefc7ff3	-0.49316368
132	0xbe9bc4b5	-0.30423513
133	0x3e33e4a4	0.17567688
134	0xbd6bebe3	-0.057598006
135	0x3e03bd55	0.12865193
136	0x3e152e61	0.14568473
137	0x3ddbb706	0.10728268
138	0x3e1b899a	0.1518921
139	0xbdaf9568	-0.08573419
140	0xbe2baafd	-0.16764446
141	0xbd2a2b79	-0.041545365
142	0xbe36532b	-0.17805164
143	0x3d518331	0.051150504
144	0x3d6365f3	0.05551715
145	0x3da7bfa0	0.081908464
146	0xbe3bfa7b	-0.1835727
147	0xbdfc277e	-0.1231222
148	0x3e1fad4b	0.1559345
149	0x3cef8d6d	0.029242242

encoder_linear.weight f4 [1, 50]
0	0x3e2204bb	0.15822117
1	0x3d1e040f	0.03857809
2	0x381f1379	3.792669e-05
3	0xbc4fba12	-0.01267864
4	0xbbf32d15	-0.0074211457
5	0xbe098a59	-0.13431682
6	0x3e2f43d7	0.17115723
7	0xbe272486	-0.16322526
8	0xbe2d1687	-0.16903125
9	0xbe12ddcf	-0.14342426
10	0xbcc89d2d	-0.02448901
11	0x3e40edf1	0.18840767
12	0x3d09cc5f	0.03364217
13	0x3d8e5b81	0.06951047
14	0x3e5b0410	0.21388268
15	0x39aa1ac9	0.00032444883
16	0x3dd8191e	0.10551666
17	0xbd25b0ae	-0.040451698
18	0x3dca7f2c	0.09887537
19	0xbdebdc09	-0.11516578
20	0x3df7d4de	0.12101148
21	0x3ddd1bd8	0.107963264
22	0x3e8923a1	0.26784995
23	0xbd28d239	-0.04121611
24	0x3c3b6f1c	0.011440065
25	0xbdb64da8	-0.089015305
26	0x3dadda0a	0.08488853
27	0xbdbc6cbb	-0.09200426
28	0x3dc50da4	0.09621742
29	0xbdd77a3f	-0.105213635
30	0xbcf713f4	-0.030160882
31	0x3d53e71c	0.051734075
32	0xbe4c1824	-0.19931084
33	0x3e440cf2	0.19145563
34	0x3d8b9496	0.0681545
35	0xbcfe28b6	-0.031025272
36	0x3d172c9a	0.03690777
37	0xbdc906f4	-0.09815779
38	0xbd194e4a	-0.037428178
39	0x3e1e5b59	0.15464534
40	0x3e14a3ab	0.1451556
41	0x3e39f0d1	0.1815827
42	0xbdcfee35	-0.10152856
43	0x3d960d56	0.073267624
44	0x3d50910a	0.05091957
45	0x3e16b73d	0.14718337
46	0x3debec70	0.11519706
47	0xbc8dc683	-0.017306572
48	0xbce5a0f9	-0.02803086
49	0x3d883381	0.066504486

decoder_RNN.weight_ih_l0 f4 [150, 1]
0	0xbdeb2f62	-0.11483647
1	0x3c32bd35	0.010909368
2	0xbeed3519	-0.46329573
3	0xbdcec19f	-0.10095524
4	0xbddba1b3	-0.10724201
5	0x3e9b2817	0.30304024
6	0x3f470bbb	0.77752274
7	0x3cd2817c	0.025696509
8	0xbc069fa3	-0.008216771
9	0x3e133d5c	0.14378875
10	0xbd425700	-0.04744625
11	0xbee15aae	-0.44014496
12	0x3e4c653c	0.19960493
13	0xbdd5d5fd	-0.10441206
14	0x3e9f1220	0.31068516
15	0x3e59cf66	0.21270522
16	0x3f0f663c	0.5601537
17	0x3eb60dc9	0.35557392
18	0xbd3a5e23	-0.045499932
19	0xbebc4c5a	-0.36777002
20	0xbdc93dab	-0.09826215
21	0xbdd64e6e	-0.10464178
22	0xbe8db7d2	-0.27679306
23	0xbc9dff41	-0.019286754
24	0xbdd6c826	-0.10487394
25	0x3d07437e	0.03302335
26	0x3d2d6ba2	0.042338975
27	0x3da4e140	0.080507755
28	0xbe18f05a	-0.14935437
29	0xbf1d7d73	-0.61519545
30	0x3f385438	0.7200351
31	0xbdeaa830	-0.114578605
32	0x3e890025	0.26757923
33	0x3f044c89	0.51679283
34	0x3eff5ab0	0.49873877
35	0x3dbd404c	0.09240779
36	0x3f44785a	0.7674614
37	0xbdca0ff9	-0.09866328
38	0xbdc3ccad	-0.09560523
39	0x3e851168	0.25989842
40	0x3d8f3a10	0.069934964
41	0xbf2ff052	-0.68726075
42	0x3eb1321f	0.34608552
43	0xbdc5a30d	-0.0965024
44	0x3d5f5487	0.05452397
45	0xbea21d2c	-0.3166288
46	0x3de673c0	0.11252546
47	0xbf1564e9	-0.583571
48	0x3f1876a9	0.5955606
49	0x3f17776d	0.59166604
50	0xbc5b5ee6	-0.013389325
51	0x3d8d218d	0.06891165
52	0x3c996d13	0.018728768
53	0xbc8b1dc4	-0.016981967
54	0x3e76193d	0.24033065
55	0x3c73a9bc	0.014872011
56	0xbe421376	-0.18952736
57	0x3d463bd0	0.048396885
58	0x3e80153c	0.250162
59	0x3c8381b3	0.016053056
60	0x3de9edbc	0.11422297
61	0x3e86abe7	0.26303026
62	0x3def3c83	0.116814636
63	0x3d309c4e	0.043117814
64	0xbdb30251	-0.08740676
65	0x3db59a8c	0.08867368
66	0x3e1ae5c0	0.15126705
67	0x3dc09289	0.09402949
68	0xbd264fd4	-0.040603474
69	0xbde22451	-0.11042083
70	0xbee0e49d	-0.43924418
71	0x3d17b245	0.037035245
72	0xbd938612	-0.07203306
73	0x3d068b2c	0.03284757
74	0xbe4ef131	-0.20209195
75	0xbdb2646c	-0.0871056
76	0xbde4a595	-0.11164395
77	0xbea1587e	-0.31512827
78	0xbe7650d1	-0.24054267
79	0x3d3b1ac9	0.04567984
80	0x3e0cd655	0.13753636
81	0x3d9cc6be	0.076550946
82	0x3df335ec	0.11875519
83	0x3e0edcb9	0.13951387
84	0xbe2fa972	-0.17154482
85	0xbd8c2946	-0.0684381
86	0x3ee70154	0.451182
87	0x3da85469	0.08219225
88	0xbdeb250a	-0.11481674
89	0xbd72c5af	-0.059270557
90	0x3d8827dd	0.06648228
91	0x3dbf406b	0.093384586
92	0x3ea38865	0.31939998
93	0x3bcc915e	0.006242915
94	0xbdbb9397	-0.0915901
95	0x3aa6869a	0.0012704909
96	0x3ccd50f9	0.025063025
97	0x3e768f9e	0.24078223
98	0x3d80ea45	0.06294683
99	0x3e571af1	0.21006371
100	0x3e18818a	0.14893165
101	0x3e0a3039	0.13494958
102	0xbb367625	-0.0027841416
103	0xbb43ef72	-0.002989736
104	0xbd985567	-0.07438164
105	0x3c16842c	0.009186786
106	0x3d8c14d9	0.06839914
107	0xbd48c1f5	-0.049013097
108	0xbaaaa2ff	-0.0013018547
109	0x3c96f5a2	0.018427674
110	0xbdf4f5ce	-0.11960946
111	0x3d803ddb	0.06261798
112	0xbc58d29d	-0.013233808
113	0xbb69b6a4	-0.003566184
114	0x3dcd636f	0.10028731
115	0x3e0c9e50	0.13732266
116	0x3db4ec66	0.08834152
117	0xbc63cb73	-0.013903487
118	0x3af1a5ef	0.0018436293
119	0xbcde0e9e	-0.02710658
120	0xbd000c65	-0.03126182
121	0x3c30b3fa	0.010785097
122	0xba332152	-0.0006833273
123	0x3d02fc39	0.03197882
124	0x3c501caf	0.012702151
125	0x3d77448b	0.060368102
126	0x3cc5f479	0.024164425
127	0x3e2a2ed5	0.16619428
128	0x3d4d3426	0.05009856
129	0x3d9a4624	0.075329095
130	0x3d97b6c8	0.0740791
131	0xbccab4e1	-0.024744453
132	0xbc9bf717	-0.01903872
133	0xbca53dc1	-0.020171048
134	0x3d140f86	0.036147617
135	0xbdaa8cda	-0.083276466
136	0xbd6d4b2e	-0.057933025
137	0x3e0fdb8b	0.14048593
138	0xbe0ade67	-0.13561402
139	0x3d190214	0.037355497
140	0x3e0fc3d6	0.14039549
141	0x3da68046	0.08129935
142	0x3dc5cf7f	0.09658717
143	0xbd28804c	-0.04113798
144	0xbe490202	-0.19629672
145	0x3e2cdd87	0.16881381
146	0x3da03f1a	0.07824536
147	0xbc88d0c1	-0.016701104
148	0x3cf0d2c4	0.029397376
149	0xbdc7b875	-0.09751979
