rnn_twc/saved_model/diff_rates/K1_K2_N(6_36_18)/bi_sigmoid/SNR1(1dB)SNR2(20dB)/model.pth (torch, 783733 bytes, 58 tensors)

weight_power1 f4 [18]
1.9914885 1.9913704 0.025504787 1.2990743 1.186935 -0.014797162 1.4303292 1.1779119e-05
1.3955 -0.00052936905 -0.000490447 0.029891556 0.50196403 0.8800225 0.9278755 1.0940716
-0.00054393394 0.9531495
00000000: 18e9 fe3f 3ae5 fe3f 6aef d03c 1148 a63f
00000010: 7ced 973f cc6f 72bc 0715 b73f ee9e 4537
00000020: be9f b23f 5bc5 0aba 5791 00ba 23df f43c
00000030: b780 003f 2849 613f 4089 6d3f 8a0a 8c3f
00000040: ca96 0eba 9b01 743f

weight_power2 f4 [18]
1.3411462 1.9687006 1.6533353 1.3254958 1.2702259 0.958364 0.7651491 0.76550084
0.76213014 0.8094042 0.7472709 0.75679684 0.7721586 0.9507987 0.9524488 0.6632749
0.74569714 0.7398269
00000000: aeaa ab3f 62fe fb3f 7ea0 d33f d9a9 a93f
00000010: c396 a23f 5857 753f d0e0 433f ddf7 433f
00000020: f61a 433f 1d35 4f3f 254d 3f3f 70bd 413f
00000030: 30ac 453f 8b67 733f afd3 733f 62cc 293f
00000040: 02e6 3e3f 4c65 3d3f

weight1_merge f4 [18, 2]
0.3635958 0.016274983 1.6893069 0.03488398 4.633679 0.04177582 -0.025913944 -0.08580221
-0.01580606 0.49090406 0.0121672135 5.702192 -0.012849355 1.0730257 -0.00634865 0.8235271
-0.0020616925 0.6098115 0.0061767884 -0.21306351 -0.0012144599 -0.045043074 -0.00041973012 -0.012666479
-0.00015996338 0.018405505 -0.0012249632 0.053197026 0.0059210337 0.09563743 0.0044745146 0.122592695
-0.0074064163 -0.023913868 0.0023475548 -0.021145264
00000000: 3b29 ba3e 1d53 853c 353b d83f 81e2 0e3d
00000010: 1947 9440 1f1d 2b3d 7b49 d4bc 12b9 afbd
00000020: b67b 81bc c757 fb3e fe58 473c 5b78 b640
00000030: 1a86 52bc e858 893f 5608 d0bb acd2 523f
00000040: 761d 07bb 9b1c 1c3f a866 ca3b 522d 5abe
00000050: 832e 9fba 167f 38bd 390f dcb9 1087 4fbc
00000060: d8bb 27b9 24c7 963c f28e a0ba 20e5 593d
00000070: 3b05 c23b 8fdd c33d f39e 923b e111 fb3d
00000080: 86b1 f2bb 04e7 c3bc 6fd9 193b d538 adbc

weight2_merge f4 [18, 2]
0.28220323 -0.013708812 0.16513775 -0.020954551 0.0040471754 0.0009038114 -0.00036107318 0.0012475649
0.13342334 0.005910792 0.21079183 0.003314971 -0.0016532295 0.005891961 0.22269498 -0.0010802299
3.9480038 -0.018090742 -0.0016030844 5.1235676 -0.0032641408 3.7118516 -0.0021997732 1.9819287
0.024200547 0.014794296 0.00068704784 0.0011643855 -1.1809711 0.623242 -0.00038093317 0.0012579346
-0.00080231397 0.14585082 -0.039615232 -0.00045561936
00000000: f17c 903e ed9a 60bc df19 293e e1a8 abbc
00000010: 2b9e 843b c2ed 6c3a 6c4e bdb9 5585 a33a
00000020: 21a0 083e 51af c13b d0d9 573e fc3f 593b
00000030: 2db1 d8ba 5a11 c13b 270a 643e 8096 8dba
00000040: 18ac 7c40 0933 94bc 961e d2ba 44f4 a340
00000050: 32eb 55bb fa8e 6d40 122a 10bb d7af fd3f
00000060: 3a40 c63c c663 723c 001b 343a 4b9e 983a
00000070: 102a 97bf ca8c 1f3f fcb7 c7b9 48e1 a43a
00000080: 6152 52ba eb59 153e 9543 22bd 32e0 eeb9

encoder1_RNN.weight_ih_l0 f4 [150, 7]
0.079634555 0.013571235 0.32870162 0.77328926 0.2060057 -0.24380343 -0.31810358 0.066224955
0.13048856 0.10586444 0.1029578 0.6928813 -0.07938674 -0.08631979 0.12860367 0.43653837
-0.011445196 -0.07278357 0.010112157 -0.24031003 -0.19857082 0.13312414 -0.03321779 0.6017192
1.1889256 -0.07617821 -0.0023841148 0.06356015 -0.11328872 -0.08175132 0.15678488 0.19476314
0.05178071 -0.4567037 -0.06978881 0.31618053 0.49281484 0.24460517 0.3054041 0.12057443
-0.27727714 -0.065548785 -0.16011974 0.18084566 -0.07320357 0.39756867 -0.21701887 -0.015907304
-0.19886504 -0.03806526 0.19199145 0.04778231 0.5426279 0.16570619 -0.14213096 0.48587978
0.37893566 0.15612713 0.03370552 -0.050826903 -0.764821 -0.045018107 0.06564288 0.12622328
0.3363128 0.2283052 0.17924576 -0.11761892 -0.31011462 -0.26467597 -0.20570363 0.7521374
0.33382973 0.027407587 -0.09644665 -0.33020094 0.04240458 0.16300392 0.009717413 0.050427347
0.84979826 -0.06291029 0.42208174 -0.17671071 -0.2881514 -0.566895 -0.016338443 0.21711576
0.1683116 -0.42880762 -0.28301448 0.14432384 0.08115615 -0.4112537 0.5750827 0.16725276
0.20151252 -0.31355453 0.14880924 -0.18877916 -0.5248093 0.039442785 0.08224102 -0.53389317
1.1938224 -0.023948751 0.30737394 0.37457755 0.07620297 0.34365308 0.14359029 0.12676707
-0.1543788 0.014241914 -0.19312514 0.4777164 -0.02999049 -0.0031586385 -1.1839993 0.108160645
0.2499404 0.29760092 0.33215427 -0.33257857 0.019556211 -0.33020622 -0.03864599 -0.10057628
-0.024388256 1.2589564 -0.06308172 -0.44191173 0.21917674 0.13562925 -0.21802774 0.10871044
1.0236139 0.091034345 -0.29174343 -0.07852775 0.17189495 -0.44956845 -0.26421046 0.3397116
0.16375823 -0.7418775 0.14466433 -0.118303716 0.025108332 -0.10402854 -0.05058949 -0.024416493
-0.13403109 1.3970983 0.11175557 -0.28653592 0.15268083 0.04402766 -0.04346563 -0.5422361
-0.34973505 -0.09348796 -0.47448266 0.24071434 0.20575 -0.41090003 0.17378555 0.47998452
-0.09115074 -0.2972852 -0.1504871 -0.29066783 -0.25294182 -0.37946162 0.14837897 -0.23814929
0.18313669 -0.07771265 0.59010667 -0.04092118 0.22659162 -0.0106566 -0.3204612 -0.5721484
-0.43825772 -0.3216634 -0.044265542 -0.38670483 -0.07332198 -0.04852014 -0.0762191 0.25707725
0.6027086 -0.01911704 0.0017997314 -0.76729184 -0.24044064 -0.075276375 -0.40271828 0.07079856
0.28527635 -0.47236866 -0.07722928 0.22643219 -0.092842236 -0.11643014 0.9236738 0.2003828
0.36809576 -0.56706023 -0.11210647 -0.164406 -0.015906628 -0.042691287 0.071220815 0.08255866
-0.15236427 -0.059944298 -0.11318735 0.05291883 0.23783934 0.14611526 -0.115227856 -0.24553823
0.035261493 -0.087888114 -0.2002338 -0.038665812 -0.11071822 -0.28634 0.9077719 0.039538227
0.14375663 -0.04645488 0.16312577 0.00920719 0.38650835 -1.5177796 0.29469636 0.1792042
0.18718627 1.0901421 0.43459094 0.291013 -0.60177755 -0.09244202 0.13293286 0.31441036
0.5376537 0.29472515 -0.29956755 0.15661243 -0.12453 -0.15843125 0.27160454 -0.08046902
00000000: 7117 a33d e359 5e3c 944b a83e 49f6 453f
00000010: 29f3 523e 9ba7 79be 79de a2be f3a0 873d
00000020: cb9e 053e 75cf d83d 8adb d23d ab60 313f
00000030: 8495 a2bd 6ec8 b0bd aeb0 033e f581 df3e
00000040: a284 3bbc 8d0f 95bd 76ad 253c d513 76be
00000050: 2656 4bbe b251 083e 610f 08bd 450a 1a3f
00000060: b72e 983f 5203 9cbd cf3e 1cbb d32b 823d
00000070: eb03 e8bd 3c6d a7bd 378c 203e fd6f 473e
00000080: 0318 543d 11d5 e9be 70ed 8ebd 6ae2 a13e
00000090: 3a52 fc3e c779 7a3e ed5d 9c3e baef f63d
000000a0: 45f7 8dbe 713e 86bd 6ef6 23be 9b2f 393e
000000b0: c1eb 95bd 1f8e cb3e 323a 5ebe 0950 82bc
000000c0: 47a3 4bbe 51ea 1bbd 6899 443e 62b7 433d
000000d0: a9e9 0a3f e2ae 293e c78a 11be 3cc5 f83e
000000e0: db03 c23e cadf 1f3e cd0e 0a3d df2f 50bd
000000f0: 4fcb 43bf e864 38bd c66f 863d ad40 013e
00000100: 3131 ac3e d7c8 693e 338c 373e 30e2 f0bd
00000110: 58c7 9ebe 9c83 87be f9a3 52be 148c 403f
00000120: bbeb aa3e e085 e03c d285 c5bd 1910 a9be
00000130: 6db0 2d3d 80ea 263e c935 1f3c e88c 4e3d
00000140: 618c 593f 1cd7 80bd 191b d83e a7f3 34be
00000150: 9588 93be 0820 11bf 33d8 85bc 9853 5e3e
00000160: e059 2c3e ac8c dbbe 46e7 90be a1c9 133e
00000170: 3235 a63d d88f d2be 9f38 133f 4f44 2b3e
00000180: 4c59 4e3e 388a a0be 7361 183e 534f 41be
00000190: e759 06bf c28e 213d fb6d a83d 39ad 08bf
000001a0: 2ccf 983f 2c30 c4bc 1e60 9d3e a1c8 bf3e
000001b0: 4e10 9c3d 4cf3 af3e 5509 133e 3acf 013e
000001c0: 7a15 1ebe eb56 693c 99c2 45be 3e97 f43e
000001d0: 9eae f5bc 2901 4fbb 4a8d 97bf 5483 dd3d
000001e0: 60f0 7f3e 265f 983e 2010 aa3e bd47 aabe
000001f0: 5934 a03c ca10 a9be 424b 1ebd f0fa cdbd
00000200: e1c9 c7bc 7c25 a13f fd30 81bd 4142 e2be
00000210: de6f 603e 65e2 0a3e aa42 5fbe 94a3 de3d
00000220: c805 833f 3770 ba3d 655f 95be 28d3 a0bd
00000230: 3b05 303e d62d e6be 9846 87be aeee ad3e
00000240: 3db0 273e afeb 3dbf e322 143e 3849 f2bd
00000250: fdaf cd3c ea0c d5bd ed36 4fbd 1905 c8bc
00000260: 723f 09be 1ed4 b23f 1be0 e43d d6b4 92be
00000270: 5d58 1c3e 5956 343d 0409 32bd fccf 0abf
00000280: 7910 b3be 9e76 bfbd 64ef f2be d27d 763e
00000290: 21b0 523e 7d61 d2be d7f4 313e 88c0 f53e
000002a0: 3dad babd c435 98be 4a19 1abe 6ad2 94be
000002b0: 9781 81be cb48 c2be a8f0 173e 68dd 73be
000002c0: 2f88 3b3e cf27 9fbd 3b11 173f f89c 27bd
000002d0: a207 683e 0599 2ebc 7e13 a4be 5178 12bf
000002e0: 5163 e0be 11b1 a4be c94f 35bd 2dfe c5be
000002f0: d629 96bd 0ebd 46bd c218 9cbd a19f 833e
00000300: 1c4b 1a3f 579b 9cbc f7e4 eb3a 3d6d 44bf
00000310: 1236 76be 802a 9abd 1731 cebe d6fe 903d
00000320: be0f 923e 4eda f1be 622a 9ebd d7dd 673e
00000330: 1224 bebd ed72 eebd e375 6c3f 2631 4d3e
00000340: 0c77 bc3e dc2a 11bf 1498 e5bd 0c5a 28be
00000350: 9e4e 82bc 0fdd 2ebd 38dc 913d 8414 a93d
00000360: 6105 1cbe 2788 75bd c5ce e7bd 6ac1 583d
00000370: 288c 733e 3d9f 153e 95fc ebbd 606e 7bbe
00000380: 5b6e 103d affe b3bd 170a 4dbe 0b60 1ebd
00000390: 3cc0 e2bd 289b 92be bd63 683f d6f2 213d
000003a0: f034 133e 7947 3ebd 710a 273e c1d9 163c
000003b0: 6ce4 c53e 9a46 c2bf 71e2 963e 4e81 373e
000003c0: c2ad 3f3e c789 8b3f b482 de3e a8ff 943e
000003d0: 180e 1abf 3e52 bdbd 8d1f 083e 65fa a03e
000003e0: aca3 093f 37e6 963e eb60 99be 025f 203e
000003f0: 9609 ffbd cd3b 22be c00f 8b3e f1cc a4bd

encoder1_RNN.weight_hh_l0 f4 [150, 50]
-0.3914979 0.09141277 0.018854009 0.30936947 0.10282209 -0.018178685 -0.21917152 -0.11088478
-0.4778443 0.1049285 -0.017470004 0.09222788 -0.07411508 -0.26438984 -0.10660348 -0.25625998
-0.23996276 0.16682617 0.0021090081 -0.024003938 0.033879943 0.37045303 0.109017015 0.042824723
0.08350723 -0.114764236 0.16698591 -0.35794187 -0.2702859 -0.12927069 -0.085623644 -0.18677002
0.06867537 0.0792898 -0.17652933 -0.72626907 0.033930752 0.0045569674 -0.15524748 -0.07058105
-0.030117141 -0.07504907 0.12345682 0.23697881 -0.6408398 0.122508824 0.34750766 0.04540504
0.24692024 0.11037301 -0.020245893 -0.13648587 -0.5724567 -0.20699668 0.31226498 0.17803311
0.06775185 0.62484944 -0.16071111 0.06457246 0.024110727 -0.5555584 -0.05003626 -0.02790684
0.2711965 0.13333793 -0.1894928 -0.2970054 0.025899742 0.25503665 -0.34399468 0.19442403
-0.0071024513 -0.70177984 0.27670568 0.34995165 -0.15063229 -0.18525217 0.04263008 -0.38779047
0.52425283 0.14719053 -0.23255175 -0.058365826 0.12944458 -0.1852416 -0.409549 -0.59992385
0.5121987 0.12893975 -0.27266303 0.5080703 0.10113063 -0.32626337 -0.49894387 -0.40614814
0.04321571 -0.6125631 0.13004284 -0.081511274 -0.267047 -0.22594029 0.21189117 -0.15642431
0.2072634 -0.097606674 -0.14988731 0.06494883 -0.14669341 -0.05596785 0.47934744 -0.34440833
0.50614566 -0.1948785 0.29520604 0.0107920645 0.2869807 0.12422837 -0.03690464 0.039909337
-0.2795065 -0.24971144 -0.10396112 0.044575807 -0.032592226 0.23079848 0.4493536 0.25567827
0.30272433 -0.23865122 -0.34339684 -0.3297433 -0.20170906 -0.36472586 -0.06557457 0.20764397
0.0152525855 0.26700455 -0.10592719 0.04395356 0.098838046 0.19558589 0.3310036 -0.07501274
-0.16132058 0.058269884 -0.37974593 0.04662718 -0.6650013 0.10663072 0.2377673 -0.1628335
-0.23221983 -0.35722062 0.3369609 -0.060388986 0.012619946 -0.24837214 -0.050228193 -0.06844119
-0.13942187 0.3345153 0.23176141 -0.4255625 0.38279903 0.13357177 0.24587895 -0.29123372
0.06837802 0.22630942 -0.08878253 0.14165762 0.07215216 -0.15507449 0.18390772 -0.32543945
-0.26751035 -0.37972313 0.14484765 -0.2681378 0.2532585 0.40872282 0.13452394 0.31540906
-0.072823934 -0.11821536 -0.2924125 -0.021321995 -0.13713285 0.100371026 -0.08711464 0.35085067
0.15064506 -0.2478434 -0.31622845 -0.048291154 -0.2280143 -0.27285284 0.44748747 0.07900074
-0.7260136 0.21545556 0.008440343 0.25473106 0.89660317 0.3021068 0.013089917 -0.09153885
0.022421252 0.18090406 0.015688585 -0.14062911 -0.438313 -0.7730923 0.27607042 -0.033963412
0.44843274 0.36196396 -0.019197255 -0.16790323 -0.046829943 0.2747403 -0.008869768 -0.22390649
-0.026422825 0.013739766 -0.32747504 -0.059868224 -0.29740822 0.6669388 -0.047061734 -0.23076265
0.13129976 -0.20108141 -0.3292611 -0.25766626 0.27095705 -0.27161816 0.32209763 -0.19602491
-0.06521221 -0.23323455 0.81982327 -0.13218072 -0.04891714 -0.8069372 -0.12831138 -0.617071
0.36191618 -0.03345162 -0.76997244 0.28447744 0.013022709 0.29278013 0.10197956 0.19147103
00000000: 6a72 c8be 9e36 bb3d b973 9a3c ad65 9e3e
00000010: 6394 d23d 77eb 94bc 806e 60be 8f17 e3bd
00000020: 02a8 f4be c1e4 d63d 411d 8fbc f9e1 bc3d
00000030: a6c9 97bd 1b5e 87be ed52 dabd 8234 83be
00000040: ccb8 75be 7bd4 2a3e 4937 0a3b e8a3 c4bc
00000050: b2c5 0a3d 05ac bd3e 5044 df3d fa68 2f3d
00000060: d705 ab3d 8309 ebbd 5bfe 2a3e 2844 b7be
00000070: ea62 8abe 895f 04be 735b afbd a440 3fbe
00000080: aca5 8c3d b162 a23d 1bc4 34be c5ec 39bf
00000090: f9fa 0a3d 9d52 953b 32f9 1ebe cc8c 90bd
000000a0: 39b8 f6bc 54b3 99bd eed6 fc3d 93aa 723e
000000b0: 140e 24bf e8e5 fa3d 86ec b13e a3fa 393d
000000c0: a9d8 7c3e 3f0b e23d b7da a5bc f4c2 0bbe
000000d0: 868c 12bf f0f6 53be 32e1 9f3e 504e 363e
000000e0: 7bc1 8a3d 22f6 1f3f 7491 24be 913e 843d
000000f0: dc83 c53c 1339 0ebf d2f2 4cbd e39c e4bc
00000100: 45da 8a3e bd89 083e 670a 42be 1711 98be
00000110: b22b d43c 2a94 823e 1220 b0be 1817 473e
00000120: aebb e8bb d8a7 33bf 5eac 8d3e dd2c b33e
00000130: 5a3f 1abe bfb2 3dbe e19c 2e3d 798c c6be
00000140: 6f35 063f 1db9 163e 0c22 6ebe 0111 6fbd
00000150: 1f8d 043e f9af 3dbe 68b0 d1be 9c94 19bf
00000160: 741f 033f c808 043e 7d9a 8bbe e510 023f
00000170: 931d cf3d fe0b a7be 9275 ffbe a6f2 cfbe
00000180: f502 313d efd0 1cbf f329 053e 62ef a6bd
00000190: 62ba 88be e45c 67be 00fa 583e b22d 20be
000001a0: db3c 543e 02e6 c7bd 0f7c 19be e403 853d
000001b0: cc36 16be 8b3e 65bd 076d f53e 4a56 b0be
000001c0: c392 013f 3b8e 47be 3f25 973e 33d1 303c
000001d0: 22ef 923e 726b fe3d 5229 17bd f977 233d
000001e0: 7a1b 8fbe 5bb4 7fbe 91e9 d4bd 1f95 363d
000001f0: 6d7f 05bd 7056 6c3e ad11 e63e 43e8 823e
00000200: affe 9a3e fc60 74be b6d1 afbe 1dd4 a8be
00000210: d28c 4ebe 59bd babe f64b 86bd 9fa0 543e
00000220: fbe5 793c d2b4 883e 5bf0 d8bd a608 343d
00000230: 9a6b ca3d ab47 483e 4e79 a93e 48a0 99bd
00000240: 3931 25be 67ac 6e3d 0f6e c2be 24fc 3e3d
00000250: 863d 2abf 3561 da3d 4579 733e d3bd 26be
00000260: 09cb 6dbe 9fe5 b6be 2486 ac3e 715a 77bd
00000270: e4c3 4e3c 4455 7ebe 14bc 4dbd e52a 8cbd
00000280: 9bc4 0ebe 9745 ab3e dd52 6d3e 54e3 d9be
00000290: 3cfe c33e 0ac7 083e b1c7 7b3e 961c 95be
000002a0: c609 8c3d a8bd 673e 9dd3 b5bd b20e 113e
000002b0: 83c4 933d d9cb 1ebe 4e52 3c3e 00a0 a6be
000002c0: 1ef7 88be 126b c2be f152 143e 5c49 89be
000002d0: 19ab 813e 1e44 d13e a5c0 093e 4c7d a13e
000002e0: b724 95bd e51a f2bd 17b7 95be 77ab aebc
000002f0: 8e6c 0cbe 538f cd3d 2969 b2bd b3a2 b33e
00000300: b342 1a3e a9ca 7dbe b2e8 a1be f2cc 45bd
00000310: 957c 69be 5eb3 8bbe 141d e53e 24cb a13d
00000320: 07dc 39bf 62a0 5c3e 5d49 0a3c 1c6c 823e
00000330: c987 653f bead 9a3e 1777 563c b878 bbbd
00000340: c6ac b73c ea3e 393e 5985 803c 1401 10be
00000350: 906a e0be 61e9 45bf 1a59 8d3e 381d 0bbd
00000360: fa98 e53e 5753 b93e 9043 9dbc d3ee 2bbe
00000370: c1d0 3fbd c3aa 8c3e 8152 11bc be47 65be
00000380: ae74 d8bc c11c 613c cfaa a7be 6238 75bd
00000390: e445 98be 80bc 2a3f cec3 40bd 0b4d 6cbe
000003a0: 7273 063e 49e8 4dbe e994 a8be d5ec 83be
000003b0: e2ba 8a3e 8911 8bbe fbe9 a43e c1ba 48be
000003c0: fb8d 85bd 0ad5 6ebe f0df 513f 625a 07be
000003d0: 575d 48bd 7093 4ebf 0f64 03be 5df8 1dbf
000003e0: 144d b93e 9104 09bd ea1c 45bf 07a7 913e
000003f0: 335d 553c 47e7 953e a9da d03d fb10 443e

encoder1_RNN.bias_ih_l0 f4 [150]
-0.16419417 0.21328244 0.018543145 0.042904373 -0.29258817 -0.019755898 -0.10884472 -0.067531
-0.087047145 0.014335801 -0.31017414 -0.018247956 -0.0154137835 -0.103110984 -0.20022771 0.22879009
-0.26375148 0.15330955 0.01803756 -0.044035617 -0.120859556 -0.12267498 -0.023326198 0.062786974
-0.5329988 -0.07641826 -0.5222973 -0.12574749 -0.024711192 -0.06895107 -0.17285149 0.034929156
-0.1418216 -0.1861373 0.2500475 0.12514724 0.23570938 -0.24060783 0.027486933 -0.12076378
-0.40246385 -0.12725605 0.26429072 -0.13550758 -0.5581495 0.03049779 -0.25824356 0.45676333
-0.18238972 -0.47238138 0.23285519 0.23969793 0.20823124 0.5235614 0.54014236 0.38609076
0.5365607 0.45146894 0.14725415 0.28744367 0.52996093 0.21624364 0.53439224 0.69189715
0.45528218 0.1352745 0.5233775 0.24347351 0.30372068 0.42987314 0.65207297 0.07153396
0.30103055 0.4141413 -0.058763433 0.3995212 0.6220815 0.64987147 0.121021025 0.54898024
0.36293644 0.3521346 0.5957492 0.5295246 0.3707396 0.12935773 0.5020295 0.60100436
0.45037487 0.4408977 0.8306768 -0.25911877 0.31079587 0.5000322 0.7592279 0.42690474
0.79743886 0.0702334 0.7352339 0.52789235 0.068368584 0.075083524 -0.19988444 0.4456432
-0.42034146 -0.34644315 -0.08721746 0.24142995 -0.20056435 0.4159946 -0.2893129 -0.24466264
-0.26449093 0.07296973 -0.1939214 0.30378526 -0.26253325 -0.3146787 0.34229597 0.36982647
0.11415157 -0.019795831 -0.12431578 -0.02177149 -0.08134301 0.32843974 0.42265156 -0.53950447
-0.0971709 0.07240851 0.43823394 0.23518084 -0.04815623 0.04286532 0.2016196 -0.40485775
-0.27126178 -0.057400174 0.18962078 0.27385786 -0.058833178 0.083496 -0.31755516 0.28304172
-0.059357267 0.14047362 0.004877389 -0.46770445 -0.22623332 0.218366
00000000: 8422 28be b666 5a3e cbe7 973c 7fbc 2f3d
00000010: 1ece 95be 1fd7 a1bc fbe9 debd b14d 8abd
00000020: c645 b2bd b5e0 6a3c 25cf 9ebe bd7c 95bc
00000030: 188a 7cbc da2b d3bd 7e08 4dbe f347 6a3e
00000040: 6f0a 87be 2efd 1c3e 81c3 933c b15e 34bd
00000050: 3785 f7bd 053d fbbd 9516 bfbc 7596 803d
00000060: 9c72 08bf 2d81 9cbd 47b5 05bf f3c3 00be
00000070: 206f cabc 3836 8dbd fbff 30be e011 0f3d
00000080: ae39 11be c79a 3ebe 3a06 803e 9926 003e
00000090: cd5d 713e e661 76be 472c e13c 0053 f7bd
000000a0: be0f cebe 694f 02be 1d51 873e 80c2 0abe
000000b0: e3e2 0ebf 80d6 f93c 8038 84be e2dc e93e
000000c0: 5fc4 3abe f9db f1be 9771 6e3e 6073 753e
000000d0: 923a 553e 1f08 063f c546 0a3f b0ad c53e
000000e0: 0b5c 093f f026 e73e cbc9 163e d12b 933e
000000f0: 85ab 073f f96e 5d3e eecd 083f 2c20 313f
00000100: bf1a e93e 6685 0a3e 11fc 053f 1f51 793e
00000110: 4781 9b3e 5518 dc3e 41ee 263f 6680 923d
00000120: ad20 9a3e 540a d43e edb1 70bd 0b8e cc3e
00000130: bc40 1f3f fa5d 263f dfd9 f73d f889 0c3f
00000140: ced2 b93e fc4a b43e 0583 183f ed8e 073f
00000150: 95d1 bd3e 5a76 043e 0185 003f 6cdb 193f
00000160: 8997 e63e 58bd e13e 3ca7 543f 37ab 84be
00000170: a320 9f3e 1c02 003f c25c 423f 4293 da3e
00000180: f424 4c3f 87d6 8f3d 4a38 3c3f f423 073f
00000190: d404 8c3d 64c5 993d 82ae 4cbe 582b e43e
000001a0: ff36 d7be ff60 b1be 119f b2bd 6a39 773e
000001b0: be60 4dbe 3ffd d43e d220 94be d888 7abe
000001c0: 5b6b 87be 2771 953d 5593 46be be89 9b3e
000001d0: c26a 86be 911d a1be 6b41 af3e e559 bd3e
000001e0: 4cc8 e93d de2a a2bc 4699 febd 205a b2bc
000001f0: 2a97 a6bd 4129 a83e c965 d83e f71c 0abf
00000200: 8901 c7bd ea4a 943d 3360 e03e 3fd3 703e
00000210: 783f 45bd 8c93 2f3d 5e75 4e3e 8449 cfbe
00000220: d3e2 8abe 721c 6bbd f32b 423e 1937 8c3e
00000230: 0ffb 70bd f3ff aa3d 9796 a2be d8ea 903e
00000240: 9b20 73bd 51d8 0f3e 81d2 9f3b f576 efbe
00000250: b5a9 67be 569b 5f3e

encoder1_RNN.bias_hh_l0 f4 [150]
-0.045033693 0.18151367 -0.040113553 0.14789715 -0.30090597 0.037478585 0.09750221 -0.018815992
-0.0027987275 -0.13004434 -0.35785386 -0.04995385 -0.20285289 0.11171695 -0.23878813 0.32150173
-0.3275594 0.12420872 -0.014688882 -0.119004406 -0.12731476 -0.24267283 -0.26739287 0.05944443
-0.5550268 -0.19293754 -0.3898869 -0.14629067 0.14372139 -0.08383373 -0.15808812 0.005842023
-0.008771242 -0.07143452 0.11621653 0.052558675 0.14923406 -0.17226061 0.09843563 -0.043571107
-0.4511236 -0.13694835 0.49810025 -0.14363125 -0.51576227 0.028472686 -0.39509463 0.38049805
-0.079526275 -0.46150643 0.3003096 0.2935398 0.271168 0.53336084 0.5224894 0.3833327
0.5526469 0.37960327 0.012882058 0.29515263 0.673772 0.27475992 0.41709208 0.9147989
0.5754178 0.2017012 0.6742594 0.103011236 0.39939168 0.43004435 0.68128484 0.096568964
0.47089013 0.4190102 0.15059218 0.3259238 0.6328937 0.52232975 0.3446035 0.51770216
0.29061466 0.2537042 0.556645 0.6267014 0.5780411 0.14291415 0.46577546 0.540069
0.44896835 0.32370093 0.84522796 -0.45867416 0.27314767 0.4508863 0.7816892 0.25256515
0.8225417 -0.016171357 0.73086 0.45005426 0.14223799 -0.16965969 -0.008509346 0.2776229
-0.13422842 -0.27960822 0.015850514 0.329725 -0.33340067 0.15883173 -0.1304799 -0.31498432
-0.21545026 0.3103234 -0.32505944 0.22583039 -0.3163967 -0.24747454 0.22486117 -0.061131056
-0.0020315985 -0.033875678 0.269386 -0.66350603 -0.23197034 0.30614224 0.23287883 -0.38219848
0.1027339 -0.020763353 0.12673874 0.10634574 -0.040323503 -0.16983527 0.20280777 -0.0744914
-0.36145878 -0.34029981 0.23092233 0.32671943 -0.33958924 0.2823165 -0.4165968 0.061545614
0.001574661 0.013857846 0.18448947 -0.476459 -0.23894241 0.14350554
00000000: 4075 38bd b8de 393e 1c4e 24bd 5a72 173e
00000010: 5910 9abe 2583 193d 3daf c73d ff23 9abc
00000020: db6a 37bb 582a 05be 9f38 b7be 699c 4cbd
00000030: abb8 4fbe dbcb e43d e084 74be e09b a43e
00000040: deb5 a7be 2461 fe3d a3a9 70bc 95b8 f3bd
00000050: cd5e 02be 3a7f 78be b8e7 88be 017c 733d
00000060: 3d16 0ebf 6b91 45be 419f c7be 39cd 15be
00000070: b32b 133e 05b1 abbd dae1 21be 716e bf3b
00000080: 41b5 0fbc 434c 92bd ef02 ee3d c447 573d
00000090: d0d0 183e 1665 30be 9f98 c93d 9e77 32bd
000000a0: acf9 e6be 303c 0cbe ff06 ff3e 1214 13be
000000b0: ff08 04bf 8d3f e93c d849 cabe a4d0 c23e
000000c0: acde a2bd 924a ecbe 2ec2 993e d94a 963e
000000d0: 88d6 8a3e 568a 083f dec1 053f 2f44 c43e
000000e0: 447a 0d3f 5c5b c23e 440f 533c 3f1e 973e
000000f0: 527c 2c3f 55ad 8c3e 188d d53e 4330 6a3f
00000100: 954e 133f c28a 4e3e 449c 2c3f 8ef7 d23d
00000110: 117d cc3e c62e dc3e af68 2e3f f3c5 c53d
00000120: 8318 f13e 8188 d63e d634 1a3e 7cdf a63e
00000130: 5205 223f 67b7 053f df6f b03e 2188 043f
00000140: 72cb 943e 84e5 813e 4980 0e3f 816f 203f
00000150: 80fa 133f 1658 123e 1f7a ee3e f641 0a3f
00000160: 2edf e53e 21bc a53e dc60 583f 57d7 eabe
00000170: 03da 8b3e 92da e63e c91c 483f 3850 813e
00000180: 1892 523f cb79 84bc a419 3b3f 836d e63e
00000190: d6a6 113e 45bb 2dbe c96a 0bbc 9724 8e3e
000001a0: 2d73 09be cf28 8fbe f0d8 813c b7d1 a83e
000001b0: 7eb3 aabe c9a4 223e 869c 05be a045 a1be
000001c0: fe9e 5cbe b5e2 9e3e 316e a6be 1540 673e
000001d0: c0fe a1be f769 7dbe 0242 663e 8f64 7abd
000001e0: 9124 05bb 39c1 0abd f6ec 893e 88db 29bf
000001f0: a289 6dbe adbe 9c3e ca77 6e3e 85af c3be
00000200: 2766 d23d e817 aabc cdc7 013e cccb d93d
00000210: 422a 25bd 4ce9 2dbe d7ac 4f3e f28e 98bd
00000220: 2011 b9be c73b aebe e776 6c3e c547 a73e
00000230: a4de adbe ca8b 903e 2d4c d5be 4117 7c3d
00000240: db64 ce3a 050c 633c cfea 3c3e 6ff2 f3be
00000250: 52ad 74be 1ef3 123e

encoder1_RNN.weight_ih_l1 f4 [150, 50]
0.5084737 0.105026424 0.049691837 0.5474514 -0.26123413 -0.27509466 0.1602574 -0.3025992
0.057751127 -0.5713067 0.51441 0.06474876 0.5579247 -0.8182185 -0.032696955 0.18489864
-0.32924482 0.1317696 0.059581883 -0.25924206 0.15330525 0.11969437 0.017181277 -0.094066374
-0.25620198 -0.18467523 0.5883164 0.2717126 0.1596068 0.20780717 -0.40312642 -0.036930293
0.3889227 0.09194917 -0.22188996 -0.4493711 0.3198654 0.08294649 -0.33288142 -0.12784664
-0.7129717 0.20255841 -0.50517535 -0.5036359 0.34357 0.65781087 0.100815825 0.6558776
0.5202761 0.26589656 -0.44677237 0.0072552366 -0.28995892 0.30526823 -0.0009036102 0.0605177
-0.007602316 -0.18191412 -0.09882472 -0.08096821 -0.04386396 -0.04005108 0.2470594 -0.007447529
-0.35907724 -0.09727824 0.41442505 0.23751244 0.35874972 -0.4364821 0.04111665 -1.2763398
-0.11662879 -0.36200514 -0.054967016 0.15787458 0.6455025 1.534255 -0.09385422 0.13800956
0.13772188 -0.12614459 0.22038807 -0.3535759 -0.08734 0.089689635 0.23000763 0.42525876
-0.086304106 -0.493342 0.22831607 0.3866762 -0.093685545 0.025789285 -0.6217766 0.027371313
-0.38473138 -0.2472409 -0.9221455 0.55208254 0.13258618 -0.17440227 0.90833825 0.8634147
-0.14897165 -0.67246586 0.015178917 0.06337983 -0.2128379 -0.36170474 0.41472316 -0.74193794
0.32098785 -0.3822013 -0.47525623 -0.48913 0.010790938 0.50612754 0.07324902 -0.06572047
0.25463158 0.008374652 -0.028304948 0.088288575 -0.14509097 0.09944094 -0.14250304 -0.19982591
-0.059708055 0.5588481 -0.22802135 -0.57517934 0.43267497 0.2593191 0.11891352 -1.1051593
0.47087044 0.012389435 -0.1427191 1.0412365 -0.19509588 0.025746386 0.3023493 0.031273317
0.00071565976 0.19117825 0.43163043 -0.68948466 0.41258153 0.21538441 -0.11078272 0.3561589
-0.29854256 0.06616775 0.56005234 -0.16787538 -0.046202827 0.21802622 -0.4642476 0.32083264
-0.41282254 -0.15019052 0.27918643 0.401548 0.21131957 -0.28365454 1.1173626 0.0111864945
0.2306709 0.34873492 -0.6337392 0.16311048 -0.11844912 0.2618925 0.74070615 0.2663666
0.17722744 0.4264635 -0.13851413 0.011291323 -0.29840666 -0.22245573 -0.26474154 -0.07095322
0.012206734 -0.027488831 -0.29672307 0.3786783 -0.19473533 0.12827975 0.61211824 -0.206103
0.114084765 0.502467 -0.6234935 -0.19539331 -0.4685912 0.20651457 -0.16488798 0.24875352
-0.40000919 0.21562095 1.2537673 0.37368062 -0.3574108 -0.06750212 -0.046014175 -0.40358505
-0.48108464 -0.3977087 0.07149987 -0.20554444 -0.064176865 0.11905296 -0.624766 -0.7787578
-0.35156435 -0.09517511 -0.118565775 -0.10696506 0.18401952 0.10022835 0.44650477 -0.6505833
-0.044158455 0.06789045 0.28822497 0.094247624 0.25813574 0.062412046 -0.5256155 -0.17328216
0.35817653 0.7811624 -0.11745407 -0.97206306 0.11360168 -0.09668712 -0.28672388 0.7347477
0.1932009 -0.10469443 -0.24334693 0.12513721 0.5833983 -0.0357561 0.20492005 0.09780586
-1.0540822 0.06537107 0.34814784 0.3885322 -0.055764817 0.47687992 -0.10063197 0.07543748
00000000: 552b 023f 1818 d73d ab89 4b3d c625 0c3f
00000010: 7bc0 85be 35d9 8cbe 841a 243e 48ee 9abe
00000020: 728c 6c3d 2841 12bf 60b0 033f ff9a 843d
00000030: 27d4 0e3f c576 51bf 3eed 05bd 1256 3d3e
00000040: c792 a8be 9cee 063e 220c 743d 60bb 84be
00000050: 0dfc 1c3e 5222 f53d c0bf 8c3c dfa5 c0bd
00000060: e82c 83be 811b 3dbe e79b 163f ea1d 8b3e
00000070: f76f 233e 67cb 543e 9666 cebe 3844 17bd
00000080: e020 c73e d94f bc3d 1f37 63be f813 e6be
00000090: 66c5 a33e d9df a93d 6f6f aabe 3bea 02be
000000a0: 5085 36bf 796b 4f3e 2c53 01bf 48ee 00bf
000000b0: 68e8 af3e 4b66 283f 8778 ce3d 98e7 273f
000000c0: d130 053f 9823 883e 59bf e4be 56bd ed3b
000000d0: 7f75 94be 1e4c 9c3e 41e0 6cba 68e1 773d
000000e0: d91c f9bb b247 3abe 9d64 cabd a9d2 a5bd
000000f0: b2aa 33bd 9a0c 24bd 24fd 7c3e 670a f4bb
00000100: f9d8 b7be d039 c7bd 852f d43e 7636 733e
00000110: 0bae b73e 957a dfbe ef69 283d 1a5f a3bf
00000120: 13db eebd bd58 b9be 1825 61bd e0a9 213e
00000130: a73f 253f 7862 c43f a436 c0bd 6152 0d3e
00000140: f706 0d3e 0c2c 01be 69ad 613e e607 b5be
00000150: 50df b2bd 33af b73d 1f87 6b3e 84bb d93e
00000160: 35c0 b0bd 5397 fcbe b0cb 693e 6cfa c53e
00000170: 35de bfbd 0d44 d33c c02c 1fbf ce39 e03c
00000180: 83fb c4be b82c 7dbe ba11 6cbf 4855 0d3f
00000190: acc4 073e 8296 32be db88 683f bf08 5d3f
000001a0: 068c 18be b926 2cbf feb0 783c 49cd 813d
000001b0: 2ef2 59be 5d31 b9be 9856 d43e a5ef 3dbf
000001c0: 8558 a43e e4af c3be c954 f3be 3f6f fabe
000001d0: 79cc 303c 9391 013f 9503 963d 7498 86bd
000001e0: 125f 823e d635 093c c7df e7bc a4d0 b43d
000001f0: ba92 14be b1a7 cb3d 51ec 11be 2a9f 4cbe
00000200: 6f90 74bd ab10 0f3f 6e7e 69be f43e 13bf
00000210: 9387 dd3e 79c5 843e ee88 f33d dc75 8dbf
00000220: ee15 f13e 0ffd 4a3c f524 12be 3d47 853f
00000230: 37c7 47be 16ea d23c 87cd 9a3e 7318 003d
00000240: 1d9b 3b3a 3bc4 433e aafe dc3e 1182 30bf
00000250: e33d d33e bb8d 5c3e 0de2 e2bd 765a b63e
00000260: 92da 98be f582 873d 975f 0f3f 86e7 2bbe
00000270: 2d3f 3dbd 4442 5f3e ddb1 edbe 2d44 a43e
00000280: 7a5d d3be 8bcb 19be 86f1 8e3e b397 cd3e
00000290: 2864 583e 2b3b 91be bd05 8f3f 8f47 373c
000002a0: fe34 6c3e 628d b23e bb3c 22bf 6f06 273e
000002b0: 7495 f2bd c616 863e eb9e 3d3f 3461 883e
000002c0: 1c7b 353e 6d59 da3e a6d6 0dbe 3eff 383c
000002d0: c2c8 98be 6fcb 63be 348c 87be ec4f 91bd
000002e0: c1fe 473c 4230 e1bc 16ec 97be 1fe2 c13e
000002f0: b368 47be c45b 033e c8b3 1c3f aa0c 53be
00000300: 46a5 e93d ada1 003f 459d 1fbf 2f15 48be
00000310: 30eb efbe 8e78 533e 65d8 28be 3eb9 7e3e
00000320: 01ce ccbe bdcb 5c3e 727b a03f 1153 bf3e
00000330: 8cfe b6be 8d3e 8abd 5c79 3cbd b3a2 cebe
00000340: ba50 f6be 7aa0 cbbe 866e 923d 3e7a 52be
00000350: 296f 83bd 0ad2 f33d aaf0 1fbf ac5c 47bf
00000360: 3e00 b4be 2beb c2bd 9dd2 f2bd 7f10 dbbd
00000370: 9d6f 3c3e 8544 cd3d 469c e43e a18c 26bf
00000380: 7fdf 34bd 260a 8b3d 3992 933e e604 c13d
00000390: 5e2a 843e c6a3 7f3d bd8e 06bf e170 31be
000003a0: ea62 b73e 42fa 473f c28b f0bd 20d9 78bf
000003b0: ffa7 e83d e603 c6bd 79cd 92be 6d18 3c3f
000003c0: 75d6 453e 096a d6bd f02f 79be f823 003e
000003d0: 9759 153f fd74 12bd 90d6 513e 704e c83d
000003e0: 2aec 86bf 44e1 853d 6f40 b23e b1ed c63e
000003f0: a669 64bd 9b29 f43e 2218 cebd f77e 9a3d

encoder1_RNN.weight_hh_l1 f4 [150, 50]
-0.32624823 0.26428115 -0.4065611 0.48018283 -0.66457766 -0.58556026 0.104228735 0.14325872
0.27956107 -0.49474636 0.8154266 0.25698942 0.3611485 0.22832945 -0.0056785364 -0.14270903
-0.3428476 0.14459471 -0.8209468 -1.0594301 0.1837293 -0.20005706 0.41438067 -0.22223921
-0.15117455 0.23752859 0.81255764 0.097160466 -0.48005295 0.03597521 -0.097356625 -0.39550346
-0.26039705 0.4099254 -0.25046226 0.38569936 -0.1943346 -0.9639451 -0.010576556 -1.9245355
0.36505917 0.25667098 -0.21329413 -0.47070363 0.23382102 0.12541597 -0.29452375 0.05187166
0.17806697 -0.16782336 0.09943607 0.26181293 0.17040999 -0.0814317 -0.20517573 -0.001637409
0.08398309 0.38367775 -0.47021067 0.6341566 0.32452592 0.00034157146 0.3445058 0.29093724
0.09248799 0.06991329 -0.13415198 0.012774262 0.036030874 0.037217747 0.115276396 0.14434996
-0.046546575 -0.068224765 -0.04432614 -0.10464961 0.7719452 -0.2904228 0.14700899 0.3337215
-0.4165042 0.045435354 -0.24168228 0.23135631 -0.2880652 0.013424514 0.066315 -0.23301284
-0.85545355 -0.40161362 0.18668067 -0.16959621 -0.010513191 -0.22106329 0.61023706 0.00014254372
-0.034289796 -0.038487095 0.036965102 -0.009692555 -1.1225333 -0.6008716 -0.71123135 0.7842854
-1.3302038 1.0241939 -0.18324023 0.2266428 0.84489805 0.507756 0.17811322 -0.5651526
1.3795556 1.1590409 -0.26147693 1.0564309 0.07363812 0.049025226 0.073493846 0.041570242
0.12608737 -0.4167353 0.49295008 0.42466208 -0.7754884 0.4599476 0.10466873 0.39374775
-0.17883231 0.45570734 -0.46951267 0.057205398 0.75323486 -0.33388117 -0.06259324 0.7061311
-0.51264626 0.19154406 0.7714168 -0.5140203 -0.018285407 -0.15926959 0.44609758 0.59591603
0.16961648 0.2108605 0.0064960173 0.03618422 0.4035843 -0.35607943 -0.8098362 0.10599705
-0.35819504 0.9312575 -0.08907276 -0.3770517 -0.19404334 -0.28564623 0.1272757 -0.03566051
0.25107366 0.33463398 -0.31261185 -0.34802172 -0.44433206 -0.45461378 0.2550941 -0.09767436
-0.10272782 -1.0025144 0.17457417 0.5124738 0.5276481 -0.29021075 0.33538312 0.17565846
0.43200514 0.2820704 0.049287688 -0.14894214 -0.35119274 -0.82401866 0.21221489 0.7474426
-0.074501805 0.044307705 1.4437428 0.5177462 0.3582251 -1.361995 0.02043242 -0.1454116
0.8459053 0.09776402 -0.2573021 0.046087828 0.22030596 -0.57048196 -0.12540002 0.17056043
0.38904536 -0.12674852 0.60411984 -0.38872546 0.07960965 -0.07809419 0.21960834 -0.43788454
-0.8145529 -0.11817751 -0.9054919 -0.21748604 0.10035911 -0.16366771 0.6292155 -0.0320503
0.25998244 -0.120525956 -0.7532983 3.3035972 -0.028780257 0.29650447 -0.5991379 -0.5275686
-0.11797936 0.35075662 -0.08105462 -0.36559635 -0.22761728 0.31562856 -0.08566511 0.5462046
-0.25800917 -0.89995414 -0.66594183 -0.28517717 -0.58201367 -0.16506346 -0.36753264 0.31848666
-0.42292407 -0.39411464 1.1371843 0.8136462 0.20692441 -0.34754813 0.19189252 -0.2105677
-0.1949868 -0.09039194 -0.26113164 0.30900243 0.4592511 -0.055676293 0.15367277 -0.33723605
00000000: 020a a7be dc4f 873e c728 d0be 86da f53e
00000010: c321 2abf 47e7 15bf e075 d53d 6ab2 123e
00000020: a122 8f3e 654f fdbe ccbf 503f 1e94 833e
00000030: 75e8 b83e 32cf 693e 0413 babb 5122 12be
00000040: b889 afbe a310 143e 9229 52bf 689b 87bf
00000050: 8923 3c3e c2db 4cbe b429 d43e ad92 63be
00000060: 80cd 1abe b23a 733e c703 503f 11fc c63d
00000070: 80c9 f5be be5a 133d e962 c7bd 6e7f cabe
00000080: c352 85be bee1 d13e 973c 80be 637a c53e
00000090: a6ff 46be 1bc5 76bf 4b49 2dbc 2e57 f6bf
000000a0: 09e9 ba3e 616a 833e c769 5abe 1100 f1be
000000b0: c76e 6f3e 0b6d 003e d1cb 96be 6177 543d
000000c0: 3057 363e e3d9 2bbe 23a5 cb3d 580c 863e
000000d0: f57f 2e3e aac5 a6bd 9619 52be 549e d6ba
000000e0: 54ff ab3d 6971 c43e 74bf f0be 1658 223f
000000f0: 4328 a63e f214 b339 1063 b03e baf5 943e
00000100: 586a bd3d b32e 8f3d 235f 09be 234b 513c
00000110: 1c95 133d a371 183d 0816 ec3d 7ad0 133e
00000120: 9fa7 3ebd 6db9 8bbd 548f 35bd 8952 d6bd
00000130: 339e 453f 4cb2 94be 8689 163e 8bdd aa3e
00000140: 0a40 d5be 6c1a 3a3d 8f7b 77be abe8 6c3e
00000150: 487d 93be 7ef2 5b3c 29d0 873d eb9a 6ebe
00000160: 01ff 5abf 4da0 cdbe 3829 3f3e a1aa 2dbe
00000170: 853f 2cbc 6a5e 62be 7f38 1c3f ca77 1539
00000180: 7573 0cbd a5a4 1dbd b868 173d 86cd 1ebc
00000190: 2caf 8fbf b9d2 19bf 4213 36bf eec6 483f
000001a0: 1e44 aabf c918 833f 54a3 3bbe 0d15 683e
000001b0: 3d4b 583f 4cfc 013f 5063 363e d7ad 10bf
000001c0: 4795 b03f 745b 943f 4ee0 85be 2139 873f
000001d0: 95cf 963d adce 483d f183 963d 8f45 2a3d
000001e0: 0c1d 013e 545e d5be f463 fc3e 4f6d d93e
000001f0: 6886 46bf 407e eb3e 8f5c d63d 4e99 c93e
00000200: d11f 37be 7952 e93e f763 f0be 3550 6a3d
00000210: 00d4 403f 79f2 aabe e230 80bd 02c5 343f
00000220: c93c 03bf 2024 443e 927b 453f d696 03bf
00000230: 47cb 95bc 9117 23be e766 e43e f48d 183f
00000240: f1af 2d3e d1eb 573e 8bdc d43b e835 143d
00000250: 9aa2 ce3e 0b50 b6be 6d51 4fbf fb14 d93d
00000260: 5765 b7be e466 6e3f c76b b6bd ec0c c1be
00000270: 4cb3 46be 3940 92be 9054 023e c110 12bd
00000280: ba8c 803e 2555 ab3e a90e a0be e72f b2be
00000290: 7e7f e3be 23c3 e8be b29b 823e 7f09 c8bd
000002a0: f762 d2bd 6452 80bf 92c3 323e 7c31 033f
000002b0: f213 073f 8196 94be 56b7 ab3e d0df 333e
000002c0: c72f dd3e 886b 903e e3e1 493d 4a84 18be
000002d0: 89cf b3be e3f2 52bf dc4e 593e 6658 3f3f
000002e0: 6794 98bd ff7b 353d 90cc b83f 048b 043f
000002f0: 4869 b73e da55 aebf e461 a73c c7e6 14be
00000300: 408d 583f 8138 c83d 1abd 83be 97c6 3c3d
00000310: e397 613e 1b0b 12bf dd68 00be 65a7 2e3e
00000320: f430 c73e 5dca 01be 99a7 1a3f 0607 c7be
00000330: 620a a33d d9ef 9fbd 02e1 603e 6732 e0be
00000340: 8a86 50bf 0d07 f2bd 51ce 67bf a9b4 5ebe
00000350: 1489 cd3d 8298 27be 4414 213f 2d47 03bd
00000360: 6b1c 853e 50d6 f6bd 28d8 40bf 236e 5340
00000370: 93c4 ebbc 6fcf 973e 1a61 19bf bc0e 07bf
00000380: 2a9f f1bd 5f96 b33e f7ff a5bd 722f bbbe
00000390: 8114 69be 119a a13e 3071 afbd 11d4 0b3f
000003a0: c719 84be 6563 66bf 2a7b 2abf be02 92be
000003b0: d9fe 14bf 6506 29be 3d2d bcbe af10 a33e
000003c0: 8189 d8be 65c9 c9be 418f 913f 1e4b 503f
000003d0: fee3 533e d4f1 b1be 797f 443e 0f9f 57be
000003e0: 9faa 47be 691f b9bd 0cb3 85be 9135 9e3e
000003f0: f622 eb3e d30c 64bd 655c 1d3e 34aa acbe

encoder1_RNN.bias_ih_l1 f4 [150]
0.019038899 0.30179238 0.18373819 -0.035729557 0.055653017 -0.118457586 0.12781955 0.39097205
0.19442095 0.19813605 -0.13413544 -0.18966548 0.10770166 0.5162237 -0.14404222 0.078515984
0.35593042 0.06561018 -0.1455913 -0.06937508 0.32655382 0.22045392 -0.12802844 -0.3700097
0.15082729 0.035916556 -0.16656074 -0.00025542124 0.043746684 0.8264552 0.14710227 0.17106338
0.014334954 0.2477725 -0.10172252 -0.09686011 -0.16895568 0.002681125 0.19429702 0.059602465
-0.059967715 0.004946226 -0.095356844 0.7571056 0.21195303 -0.33624545 0.13789916 0.09025935
0.23496976 0.3038517 0.24518026 -0.035830654 0.03247419 0.5894205 -0.57801855 1.0448557
0.585962 0.33722788 -0.94736254 0.5190384 0.7470431 0.66395634 0.53197914 0.28264332
0.34361178 -0.0047201896 0.18056895 0.5155453 0.66183704 0.5377085 0.23616752 0.25054342
0.3830979 0.99273974 0.5458167 0.38995454 0.6704255 0.265477 0.41045764 -0.44847256
0.25066268 -0.21745746 0.14137182 0.2866027 -0.12477553 0.51848173 0.32417786 0.42297286
-0.10118062 0.16958548 0.6008308 -0.018174753 0.7366623 -0.11096828 0.3577377 0.35332912
0.2798166 0.5479191 -0.028589278 0.38436788 -0.05515923 -0.401066 0.066916235 0.2703721
-0.2321109 0.015196656 -0.32588962 0.39288232 -0.32971215 0.21865378 0.1331868 -0.07629174
0.45304033 0.48192775 -0.25886926 0.27210155 -0.30463105 -0.28855842 0.32863182 0.09884819
0.5610377 0.01796156 -0.13411416 0.2104471 -0.3749385 -0.17132409 0.13308555 -0.09339294
0.14544313 0.55567205 0.1079246 0.3060029 0.45771694 0.16858897 -0.46831715 -0.055217396
-0.06756744 -0.21681817 -0.3723193 0.15071107 0.1785536 0.13749264 0.020314516 0.39502138
-0.31168467 -0.03498715 -0.021184977 0.24072954 0.040739167 0.14747627
00000000: 77f7 9b3c 8884 9a3e dd25 3c3e 2859 12bd
00000010: 6bf4 633d e499 f2bd 21e3 023e 7d2d c83e
00000020: 4916 473e 2de4 4a3e cd5a 09be ab37 42be
00000030: b092 dc3d 3d27 043f ce7f 13be fdcc a03d
00000040: 833c b63e a15e 863d e315 15be 8614 8ebd
00000050: 1032 a73e acbe 613e e319 03be e971 bdbe
00000060: 7872 1a3e 3d1d 133d e68e 2abe 0fea 85b9
00000070: b92f 333d 9192 533f faa1 163e 3d2b 2f3e
00000080: 28dd 6a3c 13b8 7d3e e653 d0bd 985e c6bd
00000090: b802 2dbe d0b5 2f3b ccf5 463e b721 743d
000000a0: b5a0 75bd f313 a23b 734a c3bd acd1 413f
000000b0: 370a 593e 5d28 acbe 7035 0d3e e5d9 b83d
000000c0: ea9b 703e 7392 9b3e 8910 7b3e 2ac3 12bd
000000d0: a803 053d 43e4 163f 06f9 13bf d5bd 853f
000000e0: 9b01 163f 22a9 ac3e 5a86 72bf b3df 043f
000000f0: 373e 3f3f 0bf9 293f c92f 083f a0b6 903e
00000100: e2ed af3e d2ab 9abb 11e7 383e c7fa 033f
00000110: 276e 293f 44a7 093f e6d5 713e 3a47 803e
00000120: 6825 c43e 3124 7e3f a5ba 0b3f 1fa8 c73e
00000130: 01a1 2b3f 9aec 873e 8127 d23e 329e e5be
00000140: dc56 803e 2bad 5ebe c6c3 103e 97bd 923e
00000150: 508a ffbd 38bb 043f a4fa a53e e68f d83e
00000160: c937 cfbd d1a7 2d3e 0cd0 193f 38e3 94bc
00000170: e795 3c3f 5643 e3bd 6529 b73e 8ee7 b43e
00000180: 1f44 8f3e 6d44 0c3f 1034 eabc decb c43e
00000190: a5ee 61bd 8658 cdbe 610b 893d 366e 8a3e
000001a0: 7bae 6dbe 65fb 783c 01db a6be df27 c93e
000001b0: 08d0 a8be c7e6 5f3e 1f62 083e d83e 9cbd
000001c0: e7f4 e73e 3cbf f63e 838a 84be e550 8b3e
000001d0: 9af8 9bbe eebd 93be 6e42 a83e eb70 ca3d
000001e0: 2ba0 0f3f 1f24 933c 3955 09be 727f 573e
000001f0: f0f7 bfbe 956f 2fbe 9447 083e cc44 bfbd
00000200: 0bef 143e 8640 0e3f 9307 dd3d 69ac 9c3e
00000210: e059 ea3e 96a2 2c3e 44c7 efbe a32b 62bd
00000220: cc60 8abd 9505 5ebe a3a0 bebe 0154 1a3e
00000230: c1d6 363e dfca 0c3e a16a a63c 3e40 ca3e
00000240: 2295 9fbe b04e 0fbd 1e8c adbc ce81 763e
00000250: 1dde 263d 0504 173e

encoder1_RNN.bias_hh_l1 f4 [150]
0.044124994 0.26594082 0.3913286 -0.19364715 0.06703838 -0.20323998 0.29822102 0.36062324
0.42091826 0.30964372 -0.049608823 -0.29048645 0.13551651 0.57399803 -0.04077381 0.11156302
0.52203465 -0.045290355 -0.13486029 0.1724578 0.33835897 0.30537942 -0.028158925 -0.4681888
0.019723846 -0.04302925 -0.12212761 0.06279877 -0.0148778055 0.7078372 0.33087125 -0.04080389
-0.0905598 0.36256912 -0.097996674 -0.11321553 -0.1823043 -0.04046605 0.20057636 0.14046557
-0.071813226 0.083964095 0.061309714 0.7129753 0.042140484 -0.40106162 0.35195348 -0.039478566
0.37158012 0.33576763 0.4705988 0.06198059 0.041213423 0.5403749 -0.6043151 1.1224492
0.5613478 0.3650038 -0.67694896 0.48770687 0.6531272 0.59556234 0.4383564 0.08975014
0.39258236 -0.072922625 0.02309302 0.50850624 0.81685394 0.5341688 0.1808445 0.28424725
0.43985817 1.1260211 0.42765313 0.38624603 0.53591615 0.15363403 0.4091144 -0.40347138
0.08693061 -0.27443445 0.3842606 0.37280333 -0.20965499 0.4314797 0.50561124 0.17483285
-0.079687834 0.1969404 0.572824 0.024614688 0.79758817 -0.13998348 0.43888852 0.45198837
0.36272308 0.56498355 -0.08550981 0.21958522 0.08391115 -0.48407766 -0.32214937 0.15650468
-0.303275 -0.08244706 -0.36040676 0.5112094 -0.55294603 0.43320704 0.16120353 -0.056755133
0.72171813 0.82792217 -0.45276532 0.30866212 -0.37169507 -0.11372813 0.37902698 0.04411561
0.2740411 0.06196224 -0.22268224 0.08503825 -0.2047508 -0.03450648 0.42194033 0.0340447
0.014772362 0.6753104 0.24103373 0.3958527 -0.101007536 0.13651411 0.089658566 -0.2299768
-0.26718843 0.044289503 -0.1762456 0.82574207 0.007020223 -0.1563636 -0.061173756 0.35490194
-0.45006672 0.45304 0.17244688 0.0787505 -0.06552691 0.19494973
00000000: 69bc 343d 6529 883e 395c c83e 704b 46be
00000010: 6b4b 893d 241e 50be 6db0 983e 9ca3 b83e
00000020: 9982 d73e 9f89 9e3e 9f32 4bbd a4ba 94be
00000030: d7c4 0a3e 89f1 123f 7002 27bd 277b e43d
00000040: 10a4 053f 6182 39bd d118 0abe c798 303e
00000050: 633d ad3e b15a 9c3e 8cad e6bc 71b6 efbe
00000060: e793 a13c 703f 30bd 0a1e fabd a49c 803d
00000070: 0ac2 73bc d234 353f f567 a93e fb21 27bd
00000080: 6b77 b9bd a9a2 b93e 7bb2 c8bd 8bdd e7bd
00000090: faad 3abe bbbf 25bd e463 4d3e 35d6 0f3e
000000a0: d012 93bd 5ef5 ab3d e51f 7b3d 8d85 363f
000000b0: 809b 2c3d f357 cdbe 3f33 b43e 47b4 21bd
000000c0: c03f be3e bce9 ab3e 53f2 f03e 5cdf 7d3d
000000d0: 68cf 283d 0256 0a3f 65b4 1abf 6aac 8f3f
000000e0: 7db4 0f3f c7e1 ba3e 874c 2dbf b7b4 f93e
000000f0: 5833 273f c676 183f 4070 e03e ecce b73d
00000100: 8e00 c93e 7558 95bd 932d bd3c 772d 023f
00000110: 571d 513f 49bf 083f 4d2f 393e db88 913e
00000120: 1735 e13e 7621 903f 5af5 da3e 0ac2 c53e
00000130: cd31 093f 3d52 1d3e 7177 d13e cd93 cebe
00000140: ad08 b23d ac82 8cbe cebd c43e 14e0 be3e
00000150: ccaf 56be e8ea dc3e bd6f 013f 6207 333e
00000160: 6033 a3bd bfaa 493e 98a4 123f bea4 c93c
00000170: bd2e 4c3f d457 0fbe ffb5 e03e 056b e73e
00000180: d7b6 b93e c3a2 103f c41f afbd f3da 603e
00000190: 9cd9 ab3d 07d9 f7be c3f0 a4be c342 203e
000001a0: dc46 9bbe 01da a8bd 3c87 b8be 9fde 023f
000001b0: df8d 0dbf 50cd dd3e 8a12 253e 1278 68bd
000001c0: 85c2 383f b5f2 533f dbd0 e7be f608 9e3e
000001d0: d14e bebe 4bea e8bd d30f c23e 92b2 343d
000001e0: 1d4f 8c3e 1ecc 7d3d d006 64be 8928 ae3d
000001f0: 32aa 51be ab56 0dbd 9008 d83e 7572 0b3d
00000200: c707 723c 24e1 2c3f 8cd1 763e 35ad ca3e
00000210: 0add cebd 5bca 0b3e e99e b73d 0a7f 6bbe
00000220: eccc 88be e968 353d ba79 34be d563 533f
00000230: e609 e63b c81d 20be 5591 7abd b5b5 b53e
00000240: 256f e6be dcf4 e73e ea95 303e f147 a13d
00000250: f932 86bd e7a0 473e

encoder1_linear.weight f4 [1, 50]
0.11159336 0.16833368 0.20782296 0.025646638 0.0795845 -0.016313102 0.15559931 0.38469496
-0.4599918 -0.43236303 -0.123103045 0.004322673 0.3626536 -0.3634132 -0.03733304 0.14617193
0.6214058 0.032826893 -0.0013245172 -0.20857166 0.116913594 -0.026854215 0.007048986 0.0499298
-0.18320383 -0.028529357 0.013261748 0.04265841 -0.0188403 -0.031695336 -0.031146154 -0.07926318
0.38354158 0.008007413 -0.020136539 -0.13209988 -0.013190445 -0.019760793 0.005186245 -0.16517343
-0.060234215 -0.11315116 -0.035803735 -0.1868265 0.0041740034 0.007245287 0.30034974 -0.014138056
0.10976434 -0.2041971
00000000: 0f8b e43d aa5f 2c3e 8bcf 543e e618 d23c
00000010: 33fd a23d 0ea3 85bc 6d55 1f3e bdf6 c43e
00000020: 0c84 ebbe b05e ddbe 731d fcbd 36a5 8d3b
00000030: bcad b93e 4c11 babe 88ea 18bd 18ae 153e
00000040: 7314 1f3f 7e75 063d 6c9b adba cf93 55be
00000050: 6570 ef3d 5ffd dbbc 2efb e63b 3183 4c3d
00000060: c999 3bbe 66b6 e9bc cd47 593c 96ba 2e3d
00000070: f956 9abc f8d2 01bd 3826 ffbc bc54 a2bd
00000080: 905f c43e 8631 033c 62f5 a4bc 3145 07be
00000090: bc1c 58bc 63e1 a1bc 60f1 a93b 3923 29be
000000a0: 27b8 76bd ccbb e7bd f0a6 12bd 724f 3fbe
000000b0: 14c6 883b df69 ed3b 71c7 993e 4ea3 67bc
000000c0: 20cc e03d 0b19 51be

encoder2_RNN.weight_ih_l0 f4 [150, 37]
-0.13931228 -0.05161689 0.60017073 0.108735375 0.05972791 -0.65441734 0.38964194 0.27676028
0.25695986 -0.07186228 0.70984805 0.17338683 0.45944738 0.48572657 -0.14896765 -0.20617928
0.16508137 -0.25784218 0.16034448 0.06610324 0.27009413 -0.32769278 -0.45521593 0.001492656
-0.63620275 0.5063921 -0.3363559 0.03914469 0.32173425 -0.56644636 0.11749248 0.16871257
-0.15951078 -0.18656853 0.19264154 0.31433207 -0.22410743 0.0987158 -0.12846263 -0.27855113
-0.1787267 -0.39971057 0.07400383 0.11765867 -0.22632971 -0.121717185 0.10708297 -0.078665294
0.11643153 0.1754764 0.0057328218 0.13064876 -0.114253804 0.008966889 0.15798485 -0.07563997
-0.2860575 0.09660234 0.20556231 -0.33004647 0.120585136 -0.37918967 -0.03283633 0.012554387
-0.03619188 -0.2122384 0.19926992 0.23535655 -0.11093675 -0.3629211 0.02117116 -0.39569962
-0.25710028 -1.6227338 0.08276909 0.06153722 0.06358848 0.056424715 0.06448832 -0.06873771
0.05508935 0.019674217 0.018730544 0.01984229 -0.029550672 -0.9430726 0.04247894 0.05545048
0.036771156 -1.1746246 0.0784989 -1.053651 0.05553773 0.045583405 0.024953559 0.031669393
-0.060560793 0.033080466 -0.0014609654 0.0300778 0.032158416 0.07471814 -0.019559314 -0.13806006
0.020246467 -0.011504909 0.038516924 0.033572685 0.04362132 0.07107086 -0.0068296054 0.1657532
0.089536354 0.21880656 0.086672395 -0.065557875 0.09602504 0.12514982 0.024934508 0.04762238
0.12784836 0.31195998 0.13186699 0.0125376675 0.08652312 0.07338122 0.039238896 -0.051484324
0.15347588 0.12986523 0.11145054 0.10606969 0.12629078 0.22355282 0.1885174 -0.05546312
0.09163718 0.091998786 0.075131536 0.03466179 0.27815527 0.105616085 0.0742173 0.09533932
0.1381335 0.070500635 -0.013616395 -1.5364852 -0.4222139 -0.11205055 0.010875084 -0.006013134
0.72172725 -0.26982367 -0.58525413 0.7707437 0.08322462 -0.19496861 0.05611098 0.24347615
-0.56592137 -0.12980188 -0.11493911 0.49256665 0.21585895 0.06531334 -0.045267 -0.47268906
-0.9815265 0.23116449 0.2724962 -0.050639614 -0.32851705 0.27793863 0.26097748 1.2792195
-0.18943433 -0.38934442 -0.021820154 -2.333579 -0.633194 -0.3036716 0.22867858 0.7970322
-0.54729956 -0.04276465 -0.083048955 -0.015932176 0.084760986 0.025753465 -0.09017837 0.031979922
0.0010161609 0.014618562 -0.005770239 -0.0142629575 -0.04186668 0.014263382 -0.030489251 -0.029781155
-0.005439658 0.013621311 0.0297297 0.010087783 0.015551979 0.07300592 -0.072840415 -0.14155842
-0.005750958 0.16859344 -0.024671823 0.0578784 -0.04616242 -0.025237981 -0.08939089 0.014774996
-0.08122401 -0.024033189 -0.037992906 -0.038063347 0.06363343 0.21440966 -0.16565123 0.09916958
0.7149292 -0.03162749 -0.11316228 -0.0191578 -0.13163228 -0.027595129 0.02878191 -0.0795512
-0.07443996 -0.056705244 -0.032801297 -0.025056787 -0.016779134 -0.028917853 -0.062190324 -0.21339124
-0.09840127 -0.147634 -0.40618572 0.032563407 0.059591122 0.04617979 -0.4624104 -0.09707731
0.26526865 -0.09853498 -0.14720364 -0.15944885 -0.0730472 -0.12123544 -0.039702117 -0.042991847
00000000: e1a7 0ebe 3b6c 53bd caa4 193f a7b0 de3d
00000010: 41a5 743d e587 27bf 267f c73e 86b3 8d3e
00000020: 3e90 833e 882c 93bd 9ab8 353f 518c 313e
00000030: b03c eb3e 27b1 f83e fa8a 18be a920 53be
00000040: 170b 293e e403 84be 5831 243e 2361 873d
00000050: c749 8a3e 59c7 a7be 1012 e9be 39a5 c33a
00000060: 2fde 22bf eaa2 013f d736 acbe 2f56 203d
00000070: 5aba a43e a102 11bf e69f f03d fdc2 2c3e
00000080: cb56 23be d20b 3fbe d343 453e 22f0 a03e
00000090: 6b7c 65be 822b ca3d b58b 03be 419e 8ebe
000000a0: 2204 37be dda6 ccbe 528f 973d 07f7 f03d
000000b0: fac2 67be dc46 f9bd 514e db3d 451b a1bd
000000c0: a773 ee3d 16b0 333e 65da bb3b cac8 053e
000000d0: e6fd e9bd dce9 123c c8c6 213e 21e9 9abd
000000e0: 2176 92be 73d7 c53d ed7e 523e dafb a8be
000000f0: 57f5 f63d 2625 c2be 637f 06bd eab0 4d3c
00000100: f03d 14bd 0655 59be 6a0d 4c3e 4f01 713e
00000110: cf32 e3bd cbd0 b9be 246f ad3c 2499 cabe
00000120: a6a2 83be beb5 cfbf d782 a93d 740e 7c3d
00000130: ad3a 823d 9a1d 673d 7412 843d 5bc6 8cbd
00000140: 5fa5 613d d32b a13c cc70 993c 4c8c a23c
00000150: 4014 f2bc 356d 71bf 66fe 2d3d 0b20 633d
00000160: 5a9d 163d 195a 96bf 08c4 a03d 09de 86bf
00000170: 887b 633d aab5 3a3d 686b cc3c c4b7 013d
00000180: 980e 78bd 627f 073d dd7d bfba b865 f63c
00000190: 8bb8 033d d305 993d db3a a0bc 9e5f 0dbe
000001a0: ebdb a53c 167f 3cbc ecc3 1d3d 8383 093d
000001b0: 45ac 323d 998d 913d e2ca dfbb 35bb 293e
000001c0: d65e b73d d40e 603e 4c81 b13d 3543 86bd
000001d0: c7a8 c43d 4627 003e 7443 cc3c af0f 433d
000001e0: aeea 023e 38b9 9f3e 2408 073e ca6a 4d3c
000001f0: 0933 b13d e548 963d f7b8 203d 3ae1 52bd
00000200: c828 1d3e 64fb 043e 2e40 e43d 113b d93d
00000210: 5f52 013e 08eb 643e b50a 413e 4c2d 63bd
00000220: 46ac bb3d dc69 bc3d 90de 993d 85f9 0d3d
00000230: 5e6a 8e3e 3f4d d83d 3dff 973d 4341 c33d
00000240: de72 0d3e a362 903d 4d17 5fbc 8cab c4bf
00000250: 6c2c d8be c27a e5bd 692d 323c d309 c5bb
00000260: 1ec3 383f 5426 8abe 37d3 15bf 764f 453f
00000270: ab71 aa3d daa5 47be a1d4 653d d051 793e
00000280: 39e0 10bf c9ea 04be 3265 ebbd b231 fc3e
00000290: 210a 5d3e 00c3 853d e469 39bd 4d04 f2be
000002a0: 5245 7bbf 62b6 6c3e 9f84 8b3e 7c6b 4fbd
000002b0: 6333 a8be f94d 8e3e d79e 853e 77bd a33f
000002c0: 13fb 41be 2758 c7be 2ec0 b2bc 5c59 15c0
000002d0: 0119 22bf d87a 9bbe b82a 6a3e 4d0a 4c3f
000002e0: d31b 0cbf fc29 2fbd 9215 aabd 3284 82bc
000002f0: 2b97 ad3d eef8 d23c 70af b8bd 61fd 023d
00000300: b430 853a b182 6f3c 4614 bdbb 2eaf 69bc
00000310: 657c 2bbd f6b0 693c 98c4 f9bc 9cf7 f3bc
00000320: 293f b2bb eb2b 5f3c b38b f33c 3b47 253c
00000330: bacd 7e3c 2184 953d 5b2d 95bd b1f4 10be
00000340: 8872 bcbb c2a3 2c3e 901c cabc e711 6d3d
00000350: ce14 3dbd e2bf cebc 9212 b7bd d312 723c
00000360: c658 a6bd 40e1 c4bc 739e 1bbd 50e8 1bbd
00000370: 3e52 823d 358e 5b3e 7aa0 29be 6c19 cb3d
00000380: 9a05 373f d48b 01bd a0c1 e7bd d2f0 9cbc
00000390: 9dca 06be 2e0f e2bc 0ac8 eb3c bdeb a2bd
000003a0: fa73 98bd c243 68bd a75a 06bd e443 cdbc
000003b0: 6574 89bc 22e5 ecbc 48bb 7ebd 3c83 5abe
000003c0: 9b86 c9bd 5e2d 17be 93f7 cfbe 3561 053d
000003d0: d215 743d 0527 3d3d 0ec1 ecbe 78d0 c6bd
000003e0: 4bd1 873e b5cc c9bd 8dbc 16be 8f46 23be
000003f0: c599 95bd 494a f8bd b09e 22bd 3818 30bd
