rnn_twc/saved_model/diff_rates/K1_K2_N(1_2_3)/bi_sigmoid/SNR1(1dB)SNR2(20dB)/model.pth (torch, 697397 bytes, 57 tensors)

weight_power1 f4 [3]
0	0x3fa79d4b	1.3094877
1	0x38db1ed4	0.00010448476
2	0x3f75483e	0.9581336

weight_power2 f4 [3]
0	0x3f052b69	0.52019364
1	0x3fdf2dfe	1.7435911
2	0x3ef5e266	0.4802429

weight1_merge f4 [3, 2]
0	0x3f636fdf	0.88842577
1	0x3f5f3855	0.8719533
2	0x3f10263b	0.56308335
3	0x3f20e3a4	0.6284735
4	0x3f9e529d	1.2368962
5	0x3f9cbb7e	1.2244718

weight2_merge f4 [3, 2]
0	0x3f7b6f1f	0.9821643
1	0x3f8c770c	1.097383
2	0xbaddbe8a	-0.0016917747
3	0x3e3cce66	0.1843811
4	0x3fb23f2d	1.392553
5	0x3fa95b5d	1.3231007

encoder1_RNN.weight_ih_l0 f4 [150, 2]
0	0x3e3ed2b8	0.1863507
1	0xbdff5901	-0.12468148
2	0x3e062b23	0.13102393
3	0x3becf8dc	0.007231815
4	0x3eb2fff0	0.3496089
5	0xbdb8b5b0	-0.09019029
6	0xbd818bd3	-0.063254975
7	0x3e21a1d5	0.1578439
8	0xbf08fe4f	-0.53513044
9	0x3ed9beca	0.42528373
10	0xbd57bc94	-0.052670076
11	0x3e2cefaf	0.16888307
12	0x3ed48206	0.4150545
13	0x3d191e8b	0.037382644
14	0x3d91b2a1	0.07114149
15	0xbe28c159	-0.16480006
16	0x3eae9b0f	0.34102675
17	0xbe401fff	-0.18762206
18	0xbe8f9057	-0.2803981
19	0x3e9d2d71	0.30698732
20	0x3dcb23de	0.099189505
21	0xbf650a73	-0.8946907
22	0x3e556c3c	0.2084207
23	0x3d4c6eb3	0.04991026
24	0xbe0f5641	-0.13997747
25	0x3ff254d4	1.8932137
26	0xbdb406ae	-0.087903365
27	0x3e2ad985	0.1668454
28	0x3e33ca1b	0.17557566
29	0xbf585206	-0.8450016
30	0xbeeab8e0	-0.45844173
31	0x3d7d6ef6	0.0618734
32	0x3e40b066	0.1881729
33	0x3dc2fea0	0.09521222
34	0xbe9d2771	-0.30694154
35	0xbda34e9c	-0.07973978
36	0xbe8091dc	-0.25111282
37	0x3f641665	0.8909667
38	0xbdee61de	-0.116397604
39	0xbdd3cc81	-0.103417404
40	0xbdf18613	-0.11793151
41	0x3daddd7a	0.08489509
42	0xbe467f94	-0.19384605
43	0xbddda040	-0.10821581
44	0xbcce3fa0	-0.025176823
45	0x3e38056d	0.1797082
46	0x3dc26083	0.094910644
47	0xbdc80fd7	-0.09768646
48	0x3d2a4443	0.041569006
49	0xbdcb7290	-0.099339604
50	0x3c0a2590	0.008431807
51	0xbe8d5793	-0.27605876
52	0xbe02a1f2	-0.1275709
53	0x3d53e53c	0.051732287
54	0x3f235a7b	0.6380994
55	0xbe53b568	-0.2067467
56	0x3da2ef53	0.07955804
57	0x3d231270	0.039812505
58	0xbd4ea357	-0.05044874
59	0xbe715967	-0.2356926
60	0x3e0ce8e5	0.13760717
61	0x3e056720	0.1302762
62	0xbd9d9682	-0.07694723
63	0x3d659857	0.056053486
64	0x3d28cef7	0.041213002
65	0x3d0e192f	0.034691986
66	0x3e2e9341	0.1704836
67	0xbe02d1df	-0.12775372
68	0x3dd8e76c	0.10591015
69	0xbd947cf6	-0.07250397
70	0xbc3905a4	-0.011292849
71	0x3da223d1	0.07916988
72	0xbc96ad96	-0.01839332
73	0xbd075c37	-0.033046927
74	0x3e401288	0.18757069
75	0x3de75692	0.11295809
76	0x3ea797a2	0.32732874
77	0xbca64ec3	-0.020301228
78	0xbc72cb1b	-0.014818932
79	0xbeb1b421	-0.3470774
80	0x3e8a9826	0.27069205
81	0x3d4a51f7	0.049394574
82	0x3e6c774b	0.23092382
83	0xbd425142	-0.047440775
84	0xbe8ce2a5	-0.27516666
85	0x3d991355	0.074743904
86	0xbee69c51	-0.45041135
87	0x3e462e1e	0.1935353
88	0x3d3b8bd3	0.045787644
89	0xbe0037cf	-0.1252129
90	0xbca0620a	-0.019577999
91	0xbb298400	-0.0025866032
92	0x3e40af08	0.18816769
93	0xbde985f7	-0.11402505
94	0xbe08822c	-0.13330907
95	0x3c35bb02	0.011091949
96	0xbd812a13	-0.06306853
97	0x3df8fb8c	0.12157354
98	0x3d2135db	0.039358
99	0x3d83f4e3	0.06443193
100	0xbdb0a092	-0.08624376
101	0x3d250e95	0.04029711
102	0xbe6ce487	-0.23134051
103	0xbefe0745	-0.4961492
104	0x3e4cd9c3	0.20004945
105	0xbe909e0e	-0.28245586
106	0x3e5ab332	0.2135742
107	0xbbe869bf	-0.007092684
108	0x3f009e77	0.502418
109	0x3fa1dda0	1.264576
110	0x3f5e828e	0.8691796
111	0x3e6e8907	0.2329446
112	0x3f062265	0.5239623
113	0xbcf1f45c	-0.029535465
114	0xbe27a07c	-0.16369814
115	0x3e61ba40	0.22043705
116	0x3f1d1146	0.6135448
117	0x3e270a21	0.16312458
118	0x3fa4abe7	1.286496
119	0x3d433ea8	0.047667176
120	0x3f6cb93b	0.9247014
121	0x3f117a2c	0.56827044
122	0x3d334164	0.043763533
123	0xbbb95dbd	-0.0056569264
124	0x3e1fd1c7	0.15607367
125	0x3f46b40e	0.7761849
126	0x3f313b2c	0.69230914
127	0x3ebab371	0.36465028
128	0x3ec67ae8	0.38765645
129	0x3f2c70e9	0.6735979
130	0x3e9b1534	0.30289614
131	0x3f24ac3c	0.6432531
132	0xbedf54dc	-0.4361943
133	0xbd4aa362	-0.04947222
134	0x3df92eca	0.121671274
135	0x3e84fea0	0.25975513
136	0x3e19003e	0.14941499
137	0x3f60246a	0.87555563
138	0x3e7848b2	0.24246481
139	0xbd51397e	-0.05108022
140	0x3e4c3c70	0.1994493
141	0x3f0128a3	0.5045263
142	0x3ebd5d23	0.3698512
143	0xbe68f4fc	-0.22749704
144	0xbdacf1d8	-0.084445655
145	0x3ebadd1e	0.36496824
146	0x3ebd9736	0.37029427
147	0x3e1410e4	0.14459568
148	0x3ea3dd46	0.32004756
149	0xbd758e75	-0.05995031
150	0x3e1c5da8	0.15270102
151	0x3efe6556	0.49686688
152	0x3ebaab3b	0.36458763
153	0x3eb94ba0	0.3619051
154	0xbe8a32e7	-0.2699196
155	0xbf674751	-0.90343195
156	0xbedcbe16	-0.43113774
157	0x3ed83fb8	0.42236114
158	0x3eb56593	0.35429057
159	0x3d756a20	0.05991566
160	0x3bcd2d87	0.006261531
161	0xbe1b33fb	-0.15156548
162	0x3ecbb6bd	0.39787856
163	0xbc3d6011	-0.011558549
164	0x3eb0a51a	0.34500962
165	0x3da674dc	0.08127758
166	0x3e959bc4	0.29220402
167	0x3ec6506a	0.38733226
168	0x3d76d4e1	0.06026161
169	0xbc7737b8	-0.015088968
170	0x3e17ae06	0.14812478
171	0x3e6e99f9	0.23300923
172	0x3e90ddf0	0.28294325
173	0x3da47f6f	0.080321185
174	0xbe9fdc49	-0.31222752
175	0x3d4d3d01	0.050107006
176	0xbf2215fe	-0.6331481
177	0xbdc8f500	-0.09812355
178	0x3e9cd2e8	0.3062966
179	0x3e9e18c7	0.3087828
180	0x3b8fa002	0.004383088
181	0x3cbb84cd	0.022890473
182	0xbec1cc92	-0.37851387
183	0xbe618a96	-0.22025523
184	0x3f48d833	0.78454894
185	0x3e6ba5bf	0.23012446
186	0x3e9ec81e	0.31012052
187	0x3f83611e	1.0264013
188	0x3f1e7547	0.618977
189	0x3d0085bc	0.03137754
190	0x3eb54b55	0.35409036
191	0xbdfdb7cf	-0.12388574
192	0xbbe97098	-0.007124018
193	0x3da6b01c	0.08139059
194	0xbe7d8c7b	-0.2476062
195	0xbcd34192	-0.025788102
196	0x3e33b686	0.17550096
197	0x3ec54440	0.38528633
198	0xbe54ace1	-0.20769073
199	0x3e0ea47a	0.1392993
200	0x3e1ef68d	0.15523739
201	0xbde0ed09	-0.10982711
202	0xbdfc6be5	-0.12325267
203	0xbdcff9fc	-0.101551026
204	0x3e73d050	0.23809934
205	0xbdd30294	-0.10303226
206	0xbd3dc1ab	-0.046327274
207	0xbe41a449	-0.18910326
208	0xbe720fc1	-0.23638822
209	0x3eb305f4	0.3496548
210	0xbba71221	-0.0050985967
211	0x3c4ccd22	0.012500079
212	0xbc1a0164	-0.009399746
213	0xbd8d6e1e	-0.06905769
214	0x3d4d6c56	0.050152145
215	0xbd893e7c	-0.06701371
216	0xbd1b8a64	-0.037973776
217	0xbc35ef4a	-0.011104414
218	0x3e794c37	0.2434548
219	0xbea8524e	-0.32875293
220	0xbc79e4eb	-0.015252332
221	0x3ed43e37	0.41453716
222	0x3da4b88d	0.08043013
223	0x3be77fed	0.0070648105
224	0x3dd78737	0.10523837
225	0xbea60851	-0.3242822
226	0xbe8b5219	-0.27211073
227	0xbe09ebe9	-0.13468899
228	0x3c6ef83c	0.014585551
229	0x3c95040d	0.018190408
230	0x3ec89a96	0.3918044
231	0xbe57cb17	-0.21073566
232	0x3eb2eb22	0.34945017
233	0x3e2902b6	0.1650494
234	0xbbe3550c	-0.0069376286
235	0xbde08cc8	-0.10964352
236	0xbe820b70	-0.2539935
237	0x3e5c3eee	0.21508381
238	0x3bc569c6	0.006024572
239	0xbbb2da8b	-0.0054581813
240	0xbc8cb3bb	-0.017175546
241	0x3e72dc28	0.23716795
242	0x3b9b8fb2	0.0047473544
243	0xbc40a324	-0.011757646
244	0x3dcf2eec	0.101163715
245	0xbdb1e857	-0.086868934
246	0x3949e440	0.00019253884
247	0x3bd84d7c	0.0066010337
248	0xbd043e7c	-0.032286152
249	0xbc4eb194	-0.01261558
250	0x3cee1c75	0.029066304
251	0xbded6f93	-0.11593547
252	0xbe8fd94a	-0.28095466
253	0x3df47dd3	0.119380616
254	0x3f1dbc01	0.61614996
255	0xbe1c7656	-0.15279517

encoder1_RNN.weight_hh_l0 f4 [150, 50]
0	0x3e989f69	0.2980912
1	0xbed9f1b9	-0.42567232
2	0x3cd417d7	0.025890274
3	0x3e999aa8	0.30000806
4	0x3e897efc	0.26854694
5	0x3e1547d9	0.14578189
6	0x3dab64f8	0.08368868
7	0x3f1e29cd	0.6178253
8	0x3ea84625	0.32866016
9	0xbea26524	-0.3171779
10	0x3eea6f69	0.45788124
11	0x3f425ede	0.75926006
12	0xbef8b8e6	-0.48578566
13	0x3e8abf71	0.27099183
14	0x3de3f344	0.111303836
15	0xbf23c5d8	-0.6397376
16	0x3e55f380	0.20893669
17	0x3ee6108c	0.449345
18	0x3f014cf3	0.5050804
19	0x3ee130f1	0.43982652
20	0xbe91b541	-0.28458598
21	0xbe024fd4	-0.12725765
22	0x3f2dd73f	0.67906564
23	0x3cb3acc7	0.021932973
24	0xbec8f35f	-0.39248177
25	0x3eaf16b6	0.34197015
26	0x3e41a30d	0.18909855
27	0x3e46bd70	0.19408202
28	0xbeb332f6	-0.34999818
29	0x3e84aa97	0.259114
30	0x3f02be5b	0.5107171
31	0x3e7faa95	0.24967416
32	0xbbeac3d3	-0.0071644573
33	0xbe248407	-0.1606599
34	0xbeefa3a9	-0.4680455
35	0x3eb9c446	0.36282557
36	0x3f00e41a	0.50348055
37	0x3e594a84	0.21219832
38	0xbc47a3a5	-0.012185012
39	0xbefa9521	-0.489419
40	0xbe6344b8	-0.22194183
41	0x3efc7cbb	0.49313912
42	0xbf034b38	-0.5128665
43	0xbf1dcc7e	-0.61640155
44	0xbed561c7	-0.4167616
45	0x3ef61c9f	0.4806871
46	0x3e019985	0.1265622
47	0xbe58fcba	-0.21190158
48	0xbed2ed86	-0.4119684
49	0xbeb46a57	-0.3523738
50	0x3e9bca52	0.30427796
51	0xbf06e321	-0.5269032
52	0x3e84e350	0.25954676
53	0x3d3009d0	0.042978108
54	0xbd53f881	-0.051750664
55	0xbe28e91d	-0.16495176
56	0x3d88b937	0.06675952
57	0x3f626a34	0.88443303
58	0x3dbb8981	0.09157086
59	0xbd7cca47	-0.061716344
60	0x3db2f32e	0.08737789
61	0x3e55f83e	0.20895478
62	0xbeddb46f	-0.43301722
63	0x3ed21868	0.41034245
64	0x3e858e24	0.26085007
65	0xbe9e2f64	-0.3089553
66	0x3e92306e	0.28552574
67	0x3eb6001a	0.35546952
68	0x3b6a5166	0.0035754084
69	0x3daf5080	0.08560276
70	0xbe9d89ca	-0.30769187
71	0xbdd562c7	-0.10419231
72	0x3ec4ac66	0.3841278
73	0xbdd1c9d2	-0.10243572
74	0xbd58bd04	-0.052914634
75	0x3e8cb57d	0.27482215
76	0xbeb691d0	-0.3565812
77	0x3eafbc1c	0.34323204
78	0xbf746190	-0.9546137
79	0x3e2b8009	0.1674806
80	0x3eaee9ad	0.34162655
81	0x3eeeb639	0.466234
82	0xbb10aa26	-0.0022074073
83	0xbe535f75	-0.20641883
84	0xbf07e946	-0.5309032
85	0xbd942b12	-0.072347775
86	0x3eb6c548	0.3569739
87	0x3e716242	0.23572639
88	0xbea4bde8	-0.32176137
89	0xbe88328c	-0.26601064
90	0x3d41bce0	0.047299266
91	0x3f23dd41	0.6400948
92	0xbe98b798	-0.2982757
93	0xbeb10495	-0.34573808
94	0xbe3dce4e	-0.1853573
95	0x3ec76853	0.3894678
96	0x3df171d3	0.11789288
97	0x3e5342f8	0.20631015
98	0xbedbad0c	-0.42905462
99	0xbf583004	-0.84448266
100	0xbebc2ff2	-0.3675533
101	0x3f26f3a1	0.652155
102	0xbf17f42f	-0.5935697
103	0x3ec1e1d1	0.37867597
104	0x3c8ff2a1	0.01757175
105	0xbe299078	-0.16559017
106	0x3ca5683b	0.020191303
107	0xbf3a6d60	-0.72823143
108	0xbe6c09bd	-0.2305059
109	0x3ecc129a	0.39857942
110	0xbe84032b	-0.25783667
111	0xbe9cc3e2	-0.30618197
112	0xbdab4534	-0.08362809
113	0xbd23e9bf	-0.04001784
114	0xbea08027	-0.31347772
115	0x3eaeca41	0.34138682
116	0xbe37cc4d	-0.17949028
117	0xbf73baf0	-0.9520712
118	0xbd8a4acc	-0.067525476
119	0xbec33b6b	-0.3813127
120	0x3e6a422d	0.22876807
121	0x3e6599b4	0.22421914
122	0xbee2bedc	-0.4428624
123	0x3d3d6736	0.046241008
124	0x3e857be9	0.26071098
125	0xbe4935c0	-0.1964941
126	0x3e8f46d6	0.2798373
127	0xbf0047f2	-0.5010978
128	0x3f712f1f	0.94212526
129	0xbed93906	-0.42426318
130	0xbef49107	-0.47766897
131	0x3e111f9b	0.14172213
132	0x3dd6b781	0.10484219
133	0x3d72218e	0.05911403
134	0x3ecdf055	0.4022242
135	0xbcaf322a	-0.021386225
136	0xbece32ca	-0.40273124
137	0xbe16f4da	-0.14741841
138	0x3ea38350	0.3193612
139	0x3eba89ff	0.36433408
140	0x3dcbe670	0.09956062
141	0xbf144db8	-0.5793109
142	0x3e7240db	0.23657553
143	0x3ecda022	0.40161234
144	0x3de1d16b	0.110262714
145	0xbdc0f261	-0.0942123
146	0xbd7ed9ee	-0.062219553
147	0xbd85fbc1	-0.06542159
148	0x3e60bdd1	0.21947409
149	0x3f2052e0	0.6262646
150	0xbf321c70	-0.6957464
151	0x3f628373	0.88481826
152	0xbeb5dcba	-0.35519964
153	0x3e465afd	0.19370647
154	0xbebe0df6	-0.37120026
155	0x3ec4e2f8	0.38454413
156	0x3dabf9f0	0.08397281
157	0xbf65bfd9	-0.8974586
158	0xbf026b6b	-0.50945157
159	0x3f0bfc13	0.5468151
160	0xbec8626a	-0.39137584
161	0xbe20a686	-0.15688524
162	0x3edf6727	0.43633386
163	0xbd437039	-0.047714446
164	0xbf18b9d0	-0.5965853
165	0x3f074fc0	0.52856064
166	0xbeb131cc	-0.34608305
167	0xbf75035d	-0.95708257
168	0xbcd125ce	-0.025530722
169	0xbe08a733	-0.13345031
170	0x3f21a4ee	0.6314229
171	0x3f075631	0.5286589
172	0xbeb5e880	-0.35528946
173	0xbd81c81e	-0.063369974
174	0x3cfd7f14	0.030944385
175	0xbed26253	-0.4109064
176	0x3d2afcdf	0.041745063
177	0xbf925ae3	-1.1433986
178	0x3eebd6fa	0.46062452
179	0xbef511cc	-0.4786514
180	0xbf0b75fa	-0.5447689
181	0xbe277e5e	-0.16356799
182	0xbea7d5d7	-0.32780334
183	0xbd5f9f6a	-0.05459539
184	0x3dfd46b9	0.12367005
185	0x3deee057	0.11663883
186	0xbf1d176c	-0.61363864
187	0xbebd5740	-0.3698063
188	0x3ec42a88	0.383137
189	0x3eff5bd1	0.49874738
190	0xbe034a48	-0.12821305
191	0xbedf59b1	-0.43623117
192	0x3e598c58	0.21244943
193	0x3f72b4e5	0.94807273
194	0x3e80d688	0.25163674
195	0x3dc1acb9	0.09456772
196	0x3d5168d9	0.05112538
197	0xbe6fbca9	-0.23411812
198	0x3f2ddbfe	0.67913806
199	0x3f5043c5	0.8135341
200	0xbf611734	-0.8792603
201	0x3f055774	0.5208657
202	0xbecf5a35	-0.4049851
203	0x3e490d68	0.1963402
204	0xbf03a051	-0.514165
205	0x3e8656a5	0.2623798
206	0xbddf5499	-0.109048076
207	0xbeb30ad5	-0.34969202
208	0x3dd54621	0.10413767
209	0x3ea55a75	0.32295576
210	0xbe94c484	-0.2905618
211	0xbd1cf292	-0.03831727
212	0x3ea21095	0.31653276
213	0xbe0a1ba0	-0.134871
214	0xbecdf5ca	-0.40226585
215	0x3ebc97f8	0.36834693
216	0xbea537a6	-0.3226902
217	0xbeab8fdc	-0.33508193
218	0xbe89fab9	-0.269491
219	0x3d27b510	0.04094416
220	0x3f435a26	0.7630943
221	0x3ed1e9e0	0.40998745
222	0xbf9da7ef	-1.2316874
223	0x3cf59d79	0.029982315
224	0x3e038dc7	0.12847053
225	0xbef1c4ec	-0.47220552
226	0x3e924a4a	0.28572303
227	0xbf06b65a	-0.52621996
228	0x3ed8983e	0.42303652
229	0xbf4ee947	-0.808247
230	0xbf745415	-0.954408
231	0x3eed2223	0.46315107
232	0xbe9989bd	-0.29987898
233	0x3ed76eef	0.42076823
234	0x3e4d7c00	0.20066833
235	0xbe1b0b37	-0.15140997
236	0xbf6208c9	-0.88294655
237	0xbeb66756	-0.35625714
238	0x3ee8c30d	0.45461312
239	0x3f76c254	0.9639027
240	0xbe82784e	-0.2548241
241	0xbe7fd4c8	-0.24983513
242	0x3f066e25	0.5251182
243	0x3f0b6c98	0.54462576
244	0x3f2aaacd	0.6666687
245	0xbeb43645	-0.35197654
246	0xbdf8ec38	-0.1215443
247	0xbe941760	-0.28924084
248	0x3f75f46a	0.9607607
249	0x3ea5ad95	0.32358995
250	0xbea2710d	-0.31726876
251	0x3e9bdabb	0.30440316
252	0xbe77e594	-0.24208671
253	0xbe199827	-0.14999448
254	0xbe28b003	-0.16473393
255	0x3dd548d5	0.10414282

encoder1_RNN.bias_ih_l0 f4 [150]
0	0x3ee58108	0.44825006
1	0x3f069d55	0.5258382
2	0xbf13499d	-0.575342
3	0xbe96d580	-0.29459763
4	0xbe13d51b	-0.14436762
5	0xbebb9cb5	-0.36642995
6	0xbf6e2629	-0.9302698
7	0x3e971c91	0.29513982
8	0xbe296ee5	-0.16546209
9	0xbf35f5f1	-0.710784
10	0xbf618139	-0.88087803
11	0x3e93bdd8	0.28855777
12	0xbe3defbc	-0.18548483
13	0xbea8a9cf	-0.32942054
14	0xbebe1568	-0.37125707
15	0xbef2e354	-0.47439063
16	0xbf612664	-0.87949204
17	0xbe8a111b	-0.26966175
18	0xbe61f971	-0.2206781
19	0x3e7c60a1	0.24646236
20	0xbe9d116f	-0.30677363
21	0xbe85c347	-0.26125547
22	0x3f51b1ec	0.8191211
23	0xbe7cc1d6	-0.24683318
24	0x3dee1316	0.11624734
25	0xbee594b5	-0.44840017
26	0xbf36b18f	-0.7136468
27	0x3e17fa6d	0.14841624
28	0x3edee45f	0.43533608
29	0xbdc155cd	-0.09440193
30	0x3f2a5dd8	0.66549444
31	0x3cec9a6c	0.028882228
32	0xbdbba293	-0.09161868
33	0xbf451782	-0.76988995
34	0x3cfd0888	0.030887857
35	0xbf2df9c4	-0.6795924
36	0xbf01ede5	-0.50753623
37	0xc0088ede	-2.13372
38	0xbedc0419	-0.42971876
39	0x3e94e0ef	0.2907786
40	0xbffb63b0	-1.9639797
41	0xbf843b9d	-1.0330693
42	0x3c367396	0.011135956
43	0x3d86036d	0.06543622
44	0xbdac570f	-0.084150426
45	0xbe37b9b7	-0.17941938
46	0xbfd05ee0	-1.6278954
47	0xbf1ade00	-0.60494995
48	0xbdeab059	-0.11459417
49	0x3e92eb73	0.28695258
50	0xbe0100a2	-0.12597898
51	0xbd86f998	-0.06590575
52	0x3f04631b	0.5171372
53	0x3f2827ba	0.6568562
54	0x3f1bad9d	0.6081179
55	0x3f2ffec5	0.6874812
56	0x3f0e7e99	0.5566192
57	0x3dcc547c	0.099770516
58	0x3f41e026	0.7573265
59	0x3ec59b9f	0.38595292
60	0x3ee1dd25	0.44114032
61	0x3e73023f	0.23731326
62	0x3e63c33d	0.22242446
63	0x3dce8c19	0.10085315
64	0x3f246bdf	0.642271
65	0x3ca777ec	0.020442925
66	0x3d90d372	0.0707158
67	0x3edf2daa	0.43589526
68	0xbc4816fc	-0.012212511
69	0x3f17e787	0.5933766
70	0x3e58b9c2	0.21164611
71	0x3f3e137c	0.7424848
72	0xbe10827d	-0.14112277
73	0x3f213261	0.629675
74	0x3e4480b8	0.19189727
75	0x3ef105a2	0.4707461
76	0x3f29619b	0.6616456
77	0x3d5e66b8	0.05429718
78	0xbdf9e0ae	-0.122010574
79	0x3f08b556	0.53401697
80	0xbe3a3daa	-0.18187585
81	0x3ee6cdd5	0.45078912
82	0x3f0b669c	0.54453444
83	0x3f1842e1	0.5947705
84	0xbd8304a9	-0.06397373
85	0xbd8d7674	-0.06907359
86	0x3f01b4ac	0.5066631
87	0xbc9fae35	-0.019492248
88	0xbe0e8d95	-0.13921197
89	0x3f223a1b	0.6336991
90	0xbdb90590	-0.09034264
91	0x3e265c55	0.1624616
92	0xbe51a67f	-0.2047367
93	0xbd68611e	-0.056733243
94	0x3f16ac52	0.5885669
95	0x3f8009dc	1.0003009
96	0xbd83f0ae	-0.064423904
97	0xbd105085	-0.03523304
98	0x3eec89bc	0.46198833
99	0x3e80dfdd	0.25170794
100	0x3ee57d5e	0.4482221
101	0xbf15aaed	-0.5846394
102	0x3d87c4b1	0.06629313
103	0xbd0f5e9f	-0.035002347
104	0x3e93362a	0.2875226
105	0x3bfd2478	0.0077252947
106	0x3cb7e21f	0.02244669
107	0x3f043de4	0.5165694
108	0xbd3a6bf7	-0.04551312
109	0xbebbe4c8	-0.36697984
110	0x3e748be7	0.23881494
111	0x3ea577b2	0.32317883
112	0x3b66e4e6	0.003523165
113	0x3e70d242	0.23517707
114	0x3d747416	0.05968102
115	0xbf31a749	-0.6939588
116	0x3e0cb2d5	0.13740094
117	0x3e2210a4	0.1582666
118	0x3eeaafec	0.45837343
119	0x3d8f87e4	0.07008341
120	0xbe93eb4c	-0.28890455
121	0xbb8839bc	-0.004157273
122	0x3efadb71	0.48995546
123	0x3c2efcb0	0.010680363
124	0xbde33ae5	-0.110952176
125	0x3ea88df4	0.32920802
126	0xbc944be2	-0.01810259
127	0x3f38c160	0.72170067
128	0xbecda357	-0.4016368
129	0x3e871f59	0.26391104
130	0x3f0877df	0.5330791
131	0x3e053db5	0.1301182
132	0xbbbeae0f	-0.0058190892
133	0xbe080eaa	-0.13286844
134	0xbe94b1ab	-0.290418
135	0x3e90da34	0.28291476
136	0x3dd9079c	0.105971545
137	0x3d3e741e	0.046497457
138	0xbe195f90	-0.1497786
139	0xbe7932ac	-0.24335736
140	0xbe186fc7	-0.1488639
141	0x3e8a18ba	0.2697199
142	0xbef68fcb	-0.4815658
143	0xbf84bd74	-1.0370317
144	0xbda58e2c	-0.08083758
145	0xbab608e6	-0.001388815
146	0xbe695920	-0.22787905
147	0xbbf2344d	-0.0073914886
148	0xbe110b9f	-0.1416459
149	0xbf03fdb7	-0.51559013

encoder1_RNN.bias_hh_l0 f4 [150]
0	0x3e8a1a4a	0.26973182
1	0x3efa45bd	0.4888133
2	0xbf196031	-0.599124
3	0xbe88299d	-0.26594248
4	0xbe71edca	-0.23625866
5	0xbe8e8bd0	-0.27841043
6	0xbf70c482	-0.9404985
7	0x3ed2d7e1	0.41180328
8	0xbd617886	-0.05504658
9	0xbf03073e	-0.51182926
10	0xbf43381b	-0.76257485
11	0x3e99dbcc	0.30050504
12	0xbe1d57e2	-0.15365556
13	0xbe6a2a69	-0.2286774
14	0xbecfe0f3	-0.4060131
15	0xbe9c57fb	-0.30535874
16	0xbf50ced9	-0.81565624
17	0xbe79e3c9	-0.244033
18	0xbe51f8ce	-0.20505068
19	0x3d307f98	0.043090433
20	0xbe573f9e	-0.21020362
21	0xbe3af97d	-0.18259235
22	0x3f364739	0.7120243
23	0xbeba92ad	-0.3644003
24	0xbaadb9b8	-0.0013254201
25	0xbed03432	-0.40664822
26	0xbf32ce13	-0.69845694
27	0x3ea4e311	0.32204488
28	0x3eed8a78	0.46394706
29	0xbddbea1e	-0.10738014
30	0x3f0d114b	0.5510451
31	0xbe01136e	-0.12605068
32	0xbd2fb94e	-0.04290133
33	0xbf28c60f	-0.65927213
34	0x3e603907	0.21896754
35	0xbf6e2ffd	-0.93041974
36	0xbea3e7e3	-0.32012853
37	0xc00a7d12	-2.1638837
38	0xbf08ed46	-0.5348705
39	0x3cf0f565	0.029413888
40	0xbff2423d	-1.8926464
41	0xbf7be57f	-0.9839706
42	0xbe101a1c	-0.1407246
43	0x3d935756	0.071943924
44	0xbddc8e6d	-0.10769353
45	0xbed1bffa	-0.4096678
46	0xbfd06b17	-1.6282681
47	0xbf2ea4ac	-0.6822002
48	0x3d166fc5	0.036727685
49	0x3ec4f89b	0.3847092
50	0xbe0bf6e3	-0.13668399
51	0xbd9c209c	-0.07623407
52	0x3f09dd3a	0.5385319
53	0x3f2c7d6b	0.6737887
54	0x3f1c75b9	0.6111713
55	0x3f28c475	0.6592477
56	0x3f3f2786	0.7466968
57	0x3e6c96fe	0.23104474
58	0x3f217a7a	0.6307751
59	0x3ea1c258	0.31593585
60	0x3f0b288e	0.54358757
61	0x3e6a235e	0.22865054
62	0x3e448de0	0.19194746
63	0xbca84653	-0.020541346
64	0x3edc70f5	0.4305493
65	0xbdf52698	-0.11970252
66	0x3dc89721	0.097944506
67	0x3ebb0d8a	0.36533767
68	0xbdc7f153	-0.09762826
69	0x3f03ac58	0.5143485
70	0x3ecc01dd	0.39845172
71	0x3f2bedcc	0.67159724
72	0xbe6aaf66	-0.22918472
73	0x3f1e7355	0.6189473
74	0x3ea2b44e	0.31778187
75	0x3f0c10ab	0.54712933
76	0x3f119d16	0.5688032
77	0xbbf94486	-0.0076070456
78	0xbd2d399f	-0.04229128
79	0x3ee9b72a	0.45647556
80	0xbdf65b1e	-0.12029098
81	0x3f0fb785	0.56139404
82	0x3f1709c5	0.5899928
83	0x3ee8b7d6	0.45452756
84	0x3e117033	0.14202957
85	0x3d59de3c	0.053190455
86	0x3f0eacd3	0.5573246
87	0x3e6af4cd	0.22944947
88	0x3d85c23f	0.0653119
89	0x3f253f1d	0.6454943
90	0x3dbe5999	0.09294433
91	0x3e693604	0.22774512
92	0xbe5a5f6b	-0.21325462
93	0xbc31b3d1	-0.010846094
94	0x3f45eba6	0.77312696
95	0x3f800aa3	1.0003246
96	0xbe175fc0	-0.1478262
97	0xbe0d4a7c	-0.13797945
98	0x3ef0eed4	0.4705721
99	0x3e962c3a	0.29330617
100	0x3f1f6791	0.62267405
101	0xbeecd742	-0.4625798
102	0xbd40d35a	-0.04707656
103	0x3e659a48	0.22422135
104	0x3e6aa456	0.22914252
105	0xbd218c58	-0.039440483
106	0xbcb638aa	-0.022243816
107	0x3f01029a	0.50394595
108	0x3e97075f	0.2949781
109	0xbe1240fe	-0.14282605
110	0x3e4ab0dc	0.19794029
111	0x3dca57ac	0.09880003
112	0xbf0a6615	-0.54062015
113	0x3e92ab31	0.28646234
114	0x3df9cdb9	0.121974416
115	0xbea98104	-0.33106244
116	0x3d170a3b	0.03687499
117	0x3d16d03f	0.036819693
118	0x3d84c63d	0.064831235
119	0x3d2c24e2	0.04202736
120	0xbe639af1	-0.22227074
121	0xbd31cf5a	-0.043410636
122	0x3f221fa6	0.6332954
123	0xbd09ab68	-0.03361073
124	0xbda83356	-0.082129166
125	0x3df5e5cc	0.12006721
126	0xbd6e1d11	-0.05813319
127	0x3edf856c	0.4365648
128	0xbea2bba6	-0.3178379
129	0x3e04eb5b	0.12980406
130	0x3f191f1a	0.5981308
131	0x3d164e99	0.03669605
132	0x3c67fd33	0.0141594885
133	0x3d62ac33	0.055340003
134	0xbc0d92ce	-0.008640958
135	0x3dc33fd2	0.09533657
136	0x3d8a5cd4	0.06755987
137	0x3b7398a4	0.0037169838
138	0xbe32bd80	-0.17455101
139	0xbeb329a4	-0.34992707
140	0xbbe1f4cc	-0.006895637
141	0x3d317f6e	0.043334417
142	0xbede0af0	-0.4336772
143	0xbeff6397	-0.4988067
144	0x3dc28bf3	0.094993494
145	0xb9852b07	-0.00025399795
146	0x3af59618	0.0018736748
147	0xbdede5c7	-0.11616092
148	0xbe7bcd36	-0.2459
149	0xbe99441a	-0.2993477

encoder1_RNN.weight_ih_l1 f4 [150, 50]
0	0xbe5c6cc2	-0.21525863
1	0x3e58a00f	0.21154808
2	0xbdc8a550	-0.09797156
3	0xbc3be3fe	-0.011467932
4	0x3da37ffc	0.079833955
5	0x3ddfa3eb	0.10919937
6	0xbd991979	-0.07475562
7	0xbdf89acf	-0.121389024
8	0xbdab7218	-0.08371371
9	0xbd97ebbf	-0.07418012
10	0xbd7b10a7	-0.061295178
11	0x3cc3709c	0.023857407
12	0x3e3aa56e	0.18227169
13	0xbe8e797d	-0.27827063
14	0xbdc4dda0	-0.09612584
15	0x3e52bc04	0.20579535
16	0x3db0b58e	0.08628379
17	0x3d93ee89	0.07223231
18	0xbe5be89c	-0.21475452
19	0x3d8f03f2	0.069831744
20	0x3e1bfd80	0.15233421
21	0x3dabb709	0.083845206
22	0xbeb2f64b	-0.34953532
23	0xbdffd938	-0.12492603
24	0xbde66163	-0.11249044
25	0xbd86a55b	-0.06574508
26	0x3e5fbe23	0.21849875
27	0xbe816e22	-0.25279337
28	0x3d9b54a8	0.07584506
29	0xbe368562	-0.17824319
30	0xbdd81437	-0.10550731
31	0xbcf7b7cf	-0.030239014
32	0xbde76300	-0.112981796
33	0xbb60c526	-0.0034297197
34	0xbc34eb71	-0.011042462
35	0xbeb6f943	-0.35737047
36	0xbdd68b36	-0.10475771
37	0x3d8c897f	0.06862163
38	0x3db47bb8	0.0881266
39	0x3df14b68	0.11781961
40	0x3d91a0d2	0.07110752
41	0xbe3b5bc3	-0.18296723
42	0x3e7c6016	0.24646029
43	0x3d9d2d09	0.076746054
44	0x3e0f44e8	0.1399113
45	0xbd7e28aa	-0.0620505
46	0x3e121eea	0.14269605
47	0x3d8fa066	0.070130154
48	0x3e31c2dc	0.17359489
49	0x3e200699	0.15627517
50	0x3e18d227	0.14923917
51	0x3de6f3ed	0.11276994
52	0x3cea9d01	0.028639318
53	0xbdae1ab6	-0.085011885
54	0xbe3f8f6d	-0.18707056
55	0x3dd3f8b3	0.1035017
56	0xbda09733	-0.07841339
57	0xbd51b15a	-0.051194526
58	0xbe9d9d83	-0.30784234
59	0x3eb02076	0.34399766
60	0xbd6de725	-0.058081765
61	0x3de529c3	0.11189606
62	0x3e2000bd	0.15625282
63	0xbf041250	-0.5159044
64	0xbe53827a	-0.20655242
65	0x3f0d41ba	0.55178416
66	0x3e656d5b	0.22404997
67	0x3ba60e13	0.0050675957
68	0xbe7ff6e9	-0.24996532
69	0xbd7e08d0	-0.062020123
70	0x3dfde8da	0.123979285
71	0x3ddecfa8	0.10879451
72	0x3c88ee4c	0.016715191
73	0xbbd23d28	-0.006415982
74	0xbca7bf46	-0.020476948
75	0xbec1efcd	-0.37878266
76	0xbe2195d5	-0.15779813
77	0x3dd1c6f5	0.10243026
78	0x3d9a5bde	0.075370535
79	0xbcc8ff15	-0.024535695
80	0xbaa925e9	-0.0012904975
81	0x3e28582a	0.16439882
82	0xbc68189b	-0.014166023
83	0x3e4157d5	0.18881162
84	0xbe181e17	-0.14855228
85	0xbed6e64c	-0.41972578
86	0xbbe1fd69	-0.006896664
87	0x3e905306	0.28188342
88	0xbe018921	-0.12649967
89	0x3e1e571a	0.15462914
90	0x3ec00029	0.37500122
91	0x3e085eab	0.13317363
92	0x3ec9ad31	0.39389947
93	0x3e412905	0.18863304
94	0xbd812885	-0.063065566
95	0xbd97d457	-0.074135475
96	0x3e8ec3c9	0.27883747
97	0x3e5872e8	0.21137583
98	0x3da3f93c	0.08006522
99	0x3e2022aa	0.15638223
100	0xbece295c	-0.4026593
101	0x3ea43411	0.32070974
102	0xbe08a529	-0.13344254
103	0xbd9ff604	-0.07810596
104	0x3d220382	0.039554127
105	0x3ccede45	0.02525247
106	0xbe3fb295	-0.18720467
107	0xbe084f89	-0.1331159
108	0x3d0d00c8	0.034424573
109	0x3cb20c8f	0.021734504
110	0x3db4646e	0.08808218
111	0x3ec46966	0.38361663
112	0xbda9a0c7	-0.08282619
113	0xbe83dcdb	-0.25754437
114	0xbec0ed76	-0.37681168
115	0x3decf821	0.11570764
116	0xbcc8f662	-0.024531547
117	0xbc2b880b	-0.010469447
118	0xbdf32d56	-0.118738815
119	0x3cdbe473	0.026842332
120	0x3ed295a2	0.41129786
121	0x3de955cd	0.11393318
122	0xbe670924	-0.2256208
123	0xbd9341f7	-0.07190316
124	0xbe2341c5	-0.15943058
125	0xbe320759	-0.17385615
126	0xbd525c51	-0.05135757
127	0xbf382327	-0.7192864
128	0x3eab457e	0.33451456
129	0xbedebe88	-0.4350474
130	0xbe885801	-0.26629642
131	0x3e96c643	0.29448137
132	0xbdfb2b6f	-0.12264144
133	0x3eb7e9b3	0.35920486
134	0xbd2eb686	-0.042654537
135	0xbe1534e5	-0.14570959
136	0xbe17529a	-0.14777604
137	0x3e1d88c6	0.15384206
138	0x3e217e31	0.15770794
139	0x3e6a42a6	0.22876987
140	0x3df4395b	0.11925002
141	0xbe487aa7	-0.19578038
142	0x3e040306	0.12891778
143	0x3ec1a2c1	0.37819484
144	0x3e911daa	0.28342944
145	0x3ddc3816	0.10752885
146	0x3e3cda7e	0.18442723
147	0x3d3499a8	0.04409185
148	0x3df28398	0.11841506
149	0x3e63284f	0.22183345
150	0xbed1af2a	-0.40953952
151	0x3ec67791	0.38763097
152	0xbe97d574	-0.2965504
153	0xbda100a5	-0.07861451
154	0x3d8f37bf	0.069930546
155	0x3d3a9366	0.045550726
156	0xbc9090e1	-0.017647209
157	0x3c7a1102	0.015262844
158	0x3d4f16e6	0.050558947
159	0xbe07b521	-0.13252689
160	0x3d92e721	0.071729906
161	0x3c8c549b	0.017130187
162	0x3d8b78ed	0.06810174
163	0xba505d0d	-0.0007948436
164	0xbd84a545	-0.06476835
165	0xbdf2b445	-0.1185079
166	0xbe24a16f	-0.16077207
167	0x3c8535bd	0.016260976
168	0x3e6881e0	0.22705793
169	0xbd436e24	-0.04771246
170	0x3ecddaaa	0.4020589
171	0x3ef37b64	0.47555077
172	0xbddfee74	-0.10934153
173	0xbe013336	-0.12617192
174	0xbe2e49ba	-0.17020312
175	0xbd3a726d	-0.04551928
176	0x3ea87516	0.3290183
177	0xbf4fbdb3	-0.81148833
178	0x3e6dfa31	0.23239972
179	0xbeb7b60b	-0.35881075
180	0xbe95c57a	-0.29252225
181	0xbe117e27	-0.1420828
182	0xbe944921	-0.28962043
183	0x3cb40c26	0.02197845
184	0x3de9f5f9	0.11423869
185	0x3e0539ec	0.13010377
186	0xbe38b059	-0.18036021
187	0xbe6a3793	-0.22872762
188	0x3ddbeeee	0.107389316
189	0x3e3a196e	0.18173763
190	0xbe28e6ff	-0.16494368
191	0xbe3594d5	-0.17732556
192	0xbdd59248	-0.104282916
193	0x3e1f3bdb	0.15550177
194	0x3e4762b5	0.19471247
195	0x3be72530	0.0070539936
196	0xbdf75d37	-0.12078326
197	0xbe4854a2	-0.19563535
198	0x3ef2e046	0.47436732
199	0x3e95c4f5	0.2925183
200	0xbee8dd7c	-0.4548148
201	0x3e934996	0.2876708
202	0xbe301d5a	-0.17198697
203	0xbe10b679	-0.14132108
204	0xbe426e8d	-0.18987484
205	0x3e45d2b6	0.19318661
206	0xbedce1a6	-0.43140906
207	0x3db55ea8	0.08855945
208	0xbd72ccae	-0.05927723
209	0x3db9a426	0.09064512
210	0x3d219735	0.039450843
211	0x3e44e99a	0.19229737
212	0xbceea5b8	-0.029131755
213	0xbec51a06	-0.38496417
214	0x3b71e465	0.0036909815
215	0x3e4fa0ab	0.20276134
216	0x3e8cd505	0.2750627
217	0xbd429c13	-0.047512125
218	0xbe163c22	-0.14671376
219	0xbda012c4	-0.07816079
220	0x3f00e012	0.50341904
221	0x3d379d07	0.044827487
222	0xbe7b6913	-0.24551801
223	0xbdcd00fc	-0.100099534
224	0xbe674bb1	-0.22587468
225	0xbd4a8753	-0.04944546
226	0x3e352eb6	0.176936
227	0xbe56b2cd	-0.20966645
228	0x3e8475a9	0.25871018
229	0xbe582e9c	-0.2111153
230	0xbe350a0c	-0.17679614
231	0x3dabf1f4	0.08395758
232	0xbdee94bf	-0.11649465
233	0x3e81cf8c	0.25353658
234	0x3e4b3a1a	0.19846383
235	0xbf103a7a	-0.5633923
236	0xbea74815	-0.32672182
237	0x3eaf36fd	0.3422164
238	0x3d417b92	0.047236986
239	0x3e2e7be8	0.17039454
240	0x3d8ce610	0.068798184
241	0xbd9cd226	-0.0765727
242	0x3e51de87	0.20495044
243	0x3dec6c3f	0.11544084
244	0x3e86b3c0	0.26309013
245	0xbdf20326	-0.11817007
246	0x3ead3f7e	0.33837503
247	0x3e8d5172	0.276012
248	0x3eacd474	0.3375584
249	0x3d42e418	0.04758081
250	0xbf59d50a	-0.85090697
251	0x3f607400	0.87677
252	0xbe26a4a0	-0.16273737
253	0xbe392b2a	-0.18082872
254	0x3e144fe0	0.14483595
255	0x3e545454	0.20735294

encoder1_RNN.weight_hh_l1 f4 [150, 50]
0	0x3e0d8273	0.13819294
1	0x3ebfb73f	0.37444493
2	0xbe67ad8d	-0.22624798
3	0x3dca9ead	0.09893546
4	0x3e4f984e	0.20272943
5	0x3eda6aed	0.42659703
6	0x3d1e8046	0.03869655
7	0x3e6a6cdd	0.2289309
8	0xbe44dee9	-0.19225658
9	0xbe3bdf16	-0.1834682
10	0xbd1d573f	-0.038413282
11	0xbeb9b46f	-0.36270472
12	0x3d9c7e26	0.076412484
13	0x3e0582c3	0.13038163
14	0x3ed28fe4	0.41125405
15	0xbec77ae7	-0.38960955
16	0x3e88b247	0.26698515
17	0x3e18d93e	0.14926621
18	0xbdaa18df	-0.08305525
19	0xbe1f54e5	-0.15559728
20	0xbb52d2c1	-0.0032169076
21	0xbe848acb	-0.2588714
22	0xbd7b9da3	-0.06142963
23	0x3dd2ed19	0.10299129
24	0x3bf65069	0.00751691
25	0xbe214f5d	-0.15752931
26	0xbd1381bb	-0.036012392
27	0x3e8fa15d	0.28052798
28	0xbed34e25	-0.41270557
29	0xbe0fe9ce	-0.14054033
30	0xbd3cba23	-0.04607595
31	0xbd42553c	-0.047444567
32	0xbe048736	-0.12942204
33	0xbd7174a0	-0.058949113
34	0xbe9b1c80	-0.3029518
35	0xbe66e873	-0.2254961
36	0xbea8e720	-0.32988834
37	0x3d6a3332	0.05717773
38	0xbe8fc734	-0.28081667
39	0xbe81cfa6	-0.25353736
40	0x3d05c5a2	0.03265918
41	0x3d9b60bb	0.07586809
42	0xbe26c914	-0.16287643
43	0x3c4a65f5	0.01235341
44	0xbc8e4fd4	-0.01737205
45	0xbe6498c8	-0.22323906
46	0xbe9ff764	-0.31243432
47	0xbec2cddf	-0.38047692
48	0x3d88c3b6	0.06677954
49	0x3df1bf06	0.11804013
50	0x3e6d7035	0.23187335
51	0x3f2e7490	0.6814661
52	0xbde54af4	-0.11195937
53	0x3df2a2d7	0.118474655
54	0x3ef26a61	0.47346786
55	0x3dcd5730	0.10026395
56	0xbdb4f758	-0.088362396
57	0x3ea94e6e	0.3306765
58	0xbdf61f36	-0.12017672
59	0xbe053646	-0.13008985
60	0xbd6927c2	-0.05692268
61	0xbf1527ec	-0.5826404
62	0x3e93f6e4	0.288993
63	0x3dcd8aa6	0.10036211
64	0x3e46e84f	0.19424556
65	0xbe9cbd82	-0.30613333
66	0x3e4ac549	0.19801821
67	0x3e91c4ae	0.28470367
68	0x3da27b4a	0.07933672
69	0x3ca75b3d	0.020429248
70	0x3eb4b20b	0.35292086
71	0xbe2a05be	-0.16603753
72	0xbddd1420	-0.10794854
73	0x3e0b406f	0.13598798
74	0xbe243aec	-0.16038102
75	0xbe2adef5	-0.16686614
76	0x3e9408d7	0.28912994
77	0x3ee1b9ee	0.44087166
78	0xbed50b81	-0.4161034
79	0xbdc8c39e	-0.09802936
80	0xbea71bc2	-0.32638365
81	0xbe5ab45d	-0.21357866
82	0xbe8d0fbd	-0.2755107
83	0xbd2d1577	-0.0422568
84	0xbec40e4a	-0.38292152
85	0xbe88f4ea	-0.26749355
86	0xbee8398f	-0.45356414
87	0xbd8e8e2b	-0.0696071
88	0xbec93d9d	-0.3930482
89	0xbe758b57	-0.23978935
90	0x3de5f399	0.11228103
91	0x3c82bd05	0.015959272
92	0x3d8f7718	0.07005137
93	0xbe3cef70	-0.18450713
94	0x3e8dd68f	0.27702758
95	0xbddff181	-0.10934735
96	0xbe9232fe	-0.2855453
97	0xbf31348e	-0.6922082
98	0x3e21147f	0.15730475
99	0x3e261966	0.16220626
100	0x3e772ff6	0.2413939
101	0x3e67e98e	0.22647688
102	0xbe14e392	-0.14539936
103	0x3ea9319b	0.33045658
104	0x3df5e8a7	0.120072655
105	0xbdae8874	-0.0852212
106	0xbee05af6	-0.43819398
107	0x3d961a85	0.07329277
108	0x3d9aeb47	0.07564407
109	0xbeb80739	-0.3594301
110	0xbc91c95f	-0.017796217
111	0xbdcdcf19	-0.10049266
112	0xbac97efa	-0.0015372925
113	0x3b8fa2f3	0.0043834387
114	0x3e5f5156	0.21808371
115	0xbe192c3b	-0.14958279
116	0x3d2e96f5	0.042624433
117	0x3e1eaf62	0.1549659
118	0x3e39309a	0.18084946
119	0xbe0196f3	-0.12655239
120	0x3e8080fa	0.250984
121	0xbea92b23	-0.33040723
122	0xbe48a22d	-0.19593115
123	0x3e26c2a0	0.16285181
124	0xbe328aaf	-0.17435716
125	0xbe219750	-0.15780377
126	0xbe0ba8b3	-0.13638572
127	0x3e25a9cd	0.16178055
128	0xbe9b23dc	-0.30300796
129	0xbea7364d	-0.32658616
130	0xbe0b5906	-0.13608178
131	0xbe6e8189	-0.23291601
132	0xbe9831db	-0.29725537
133	0xbe662b87	-0.22477542
134	0xbeedcbfc	-0.4644469
135	0xbe7e2a6e	-0.24820873
136	0xbd785b82	-0.060634144
137	0x3e05d32c	0.13068837
138	0xbec8ff9a	-0.3925751
139	0xbe5efb76	-0.21775612
140	0x3da2548b	0.079262815
141	0xbd937604	-0.07200244
142	0xbd05d24f	-0.03267127
143	0xbd021e4f	-0.031767186
144	0x3b16a303	0.0022985346
145	0x3dc15944	0.09440854
146	0xbf020c6b	-0.508002
147	0xbe06da4a	-0.13169208
148	0xbd1e9644	-0.038717523
149	0x3def2906	0.116777465
150	0x3dac58ad	0.08415351
151	0x3e12a365	0.14320143
152	0x3dcef18e	0.10104667
153	0x3e4b1b30	0.1983459
154	0x3d807a79	0.0627336
155	0xbe142e7e	-0.1447086
156	0xbe8c70bc	-0.2742976
157	0xbd30bd03	-0.043149006
158	0xbc97ccfd	-0.018530363
159	0xbecb0917	-0.39655373
160	0x3e0e971c	0.13924831
161	0x3cbde126	0.023178648
162	0x3d85d2ac	0.06534323
163	0x3d1a64c8	0.03769377
164	0xbe12cc66	-0.14335784
165	0xbda6eeac	-0.08150992
166	0x3e970841	0.29498485
167	0x3d176bc1	0.036967997
168	0x3e729073	0.23687916
169	0xbd5ba3b4	-0.053622916
170	0xbd93fabc	-0.07225558
171	0xbebdfa32	-0.37104946
172	0xbe99de00	-0.30052185
173	0x3e4c3016	0.19940218
174	0xbd96dd95	-0.07366482
175	0x3cee98f0	0.02912566
176	0xbe39704a	-0.18109241
177	0x3d9e34ac	0.0772489
178	0xbddcbc41	-0.10778094
179	0xbe35c26a	-0.17749944
180	0xbeb0d9c3	-0.3454114
181	0xbe8b1678	-0.2716558
182	0xbed67b99	-0.41891173
183	0xbec1f410	-0.37881517
184	0xbda57f0e	-0.080808744
185	0xbd1285fe	-0.035772316
186	0x3dd8d4c5	0.105874576
187	0xbc37dc5e	-0.011221973
188	0xbe8f2b32	-0.27962643
189	0xbe58b79e	-0.21163794
190	0xbdf289a6	-0.118426606
191	0x3da415e1	0.080119856
192	0xbdbacf18	-0.09121531
193	0x3e436532	0.19081572
194	0xbb04b075	-0.0020246778
195	0x3e0b3983	0.13596158
196	0xbdc7c2a9	-0.09753925
197	0xbe3d3136	-0.18475804
198	0xbe98fd2c	-0.29880655
199	0x3e1e4253	0.15454988
200	0x3e9b8df9	0.30381754
201	0x3e7d1ab5	0.24717219
202	0x3d605b96	0.054774843
203	0x3d38e59e	0.045140855
204	0x3eb499f4	0.35273707
205	0x3d362850	0.04447204
206	0xbe8b11e2	-0.2716208
207	0x3e0caffa	0.13739005
208	0xbe962d3b	-0.29331383
209	0xbe662004	-0.2247315
210	0x3a8af8d7	0.0010602725
211	0xbe8e7651	-0.27824643
212	0x3e436113	0.1908
213	0x3daaecc9	0.083459444
214	0x3e53f6d4	0.20699626
215	0xbea870bf	-0.32898518
216	0x3d943e96	0.072385
217	0x3e352c8a	0.17692772
218	0xbc904c65	-0.017614553
219	0xbd4cdccf	-0.050015267
220	0x3da5be81	0.08092976
221	0xbf0989af	-0.53725713
222	0xbe9ae8bc	-0.30255687
223	0x3e06a63f	0.13149355
224	0x3d7af678	0.061270207
225	0xbe1eb4c7	-0.15498649
226	0xbe84acd8	-0.2591312
227	0x3ef17fa7	0.47167704
228	0xbe15de3a	-0.14635554
229	0xbdf9b868	-0.12193376
230	0xbe58f4a7	-0.21187077
231	0xbeb5407e	-0.35400766
232	0xbf17596a	-0.5912081
233	0xbe23f17b	-0.16010086
234	0xbea7da64	-0.32783806
235	0xbe089952	-0.13339737
236	0xbde0d24e	-0.109776124
237	0x3d99214b	0.07477053
238	0xbebf7d03	-0.37400064
239	0xbe847677	-0.25871632
240	0x3d8cbfff	0.06872558
241	0x3ebecb6d	0.37264577
242	0x3d73222c	0.05935876
243	0xbd805ebb	-0.062680684
244	0x3dff8c05	0.124778785
245	0x3d21b4fa	0.039479233
246	0xbecc7627	-0.39933893
247	0xbe9b2756	-0.30303448
248	0xbdc135d2	-0.094340935
249	0x3e31a47b	0.173479
250	0x3ed0d88a	0.40790206
251	0x3f21e4e8	0.6323991
252	0xbdd67551	-0.10471595
253	0x3e34a9ea	0.17642942
254	0x3ea0126f	0.31264064
255	0x3dfed005	0.1244202

encoder1_RNN.bias_ih_l1 f4 [150]
0	0xbe3ae9cc	-0.18253249
1	0xbda7bfce	-0.08190881
2	0xbe54c6d4	-0.20778972
3	0xbdc40e3e	-0.09573029
4	0xbdf18f7d	-0.11794946
5	0xbf13d73c	-0.57750297
6	0xbe883b38	-0.2660768
7	0xbe2dd032	-0.16973951
8	0xbdec481b	-0.115371905
9	0x3caae73b	0.020862212
10	0xbe4d03ad	-0.20020933
11	0xbd4882d2	-0.048952885
12	0xbe901d77	-0.2814748
13	0xbd588c20	-0.05286801
14	0xbefec0c3	-0.4975644
15	0xbf24b627	-0.6434044
16	0xbe87465a	-0.2642086
17	0xbed8359f	-0.4222841
18	0xbe6e71ad	-0.23285551
19	0xbcb57749	-0.022151606
20	0xbde8365c	-0.11338493
21	0xbe2650b6	-0.16241726
22	0xbe4011e7	-0.18756829
23	0xbee71505	-0.45133224
24	0xbdd5bde9	-0.10436613
25	0xbe9ebe13	-0.3100439
26	0xbf3ab273	-0.7292854
27	0xbe23d08e	-0.15997526
28	0xbd8d8345	-0.06909803
29	0xbe34cf6b	-0.17657249
30	0xbd9e1c34	-0.07720223
31	0xbd0439df	-0.032281753
32	0x3e88407f	0.26611707
33	0xbebd1f59	-0.3693798
34	0xbd98f5fc	-0.07468793
35	0x3e45108a	0.1924459
36	0xbdbc1e37	-0.091854505
37	0xbd52752c	-0.051381275
38	0xbe951abe	-0.29121965
39	0xbd7eedec	-0.06223862
40	0xbecea9da	-0.4036396
41	0xbe7b3384	-0.2453137
42	0x3d40eaa8	0.047098786
43	0xbe9ff919	-0.31244734
44	0xbf0713c1	-0.5276452
45	0xbdea9c81	-0.11455632
46	0x3efd5e71	0.49486116
47	0xbe3f977a	-0.18710127
48	0xbeb6dc12	-0.35714775
49	0xbee33dc6	-0.44383067
50	0x3f8c6718	1.0968962
51	0x3f08cc1a	0.53436434
52	0x3efc350c	0.49259222
53	0x3f0a15d7	0.53939575
54	0x3f2af0da	0.6677376
55	0xbea0d987	-0.3141596
56	0x3f10389d	0.56336385
57	0x3efa3fe9	0.48876885
58	0x3f15fcf7	0.5858912
59	0x3f196d34	0.59932256
60	0x3ecac998	0.3960693
61	0x3f4accda	0.7921883
62	0x3f6634a7	0.8992409
63	0x3f251017	0.64477676
64	0xbea83c2e	-0.32858413
65	0xbedfaa65	-0.43684688
66	0x3f062100	0.52394104
67	0x3f209443	0.6272623
68	0x3f1e2be1	0.61785704
69	0x3f1f879f	0.62316316
70	0x3f0713cf	0.527646
71	0x3f7793b6	0.96709764
72	0x3f246fd5	0.6423314
73	0x3f3b62b5	0.7319749
74	0x3f1d85e3	0.6153242
75	0x3eca65f9	0.39530924
76	0xbe879634	-0.26481783
77	0x3f184304	0.5947726
78	0x3f4175f0	0.75570583
79	0x3f2f675d	0.68517095
80	0x3f290117	0.6601729
81	0x3f08e02a	0.5346705
82	0x3f303f53	0.68846625
83	0x3f4fb5b5	0.8113664
84	0x3f3cf244	0.7380717
85	0x3f3c53a4	0.73565125
86	0x3f27891c	0.6544359
87	0x3f3821c4	0.7192652
88	0x3f24aa1b	0.6432206
89	0x3f0e9bac	0.55706286
90	0x3f388b1b	0.7208726
91	0x3f329c91	0.6977015
92	0x3f062227	0.5239586
93	0x3f3e17ee	0.74255264
94	0xbec6bc20	-0.38815403
95	0x3ed7825c	0.42091644
96	0x3f2bb209	0.67068535
97	0x3f31f853	0.6951954
98	0x3f26a100	0.65089417
99	0x3f0078ee	0.50184524
100	0xbeb8450c	-0.3599018
101	0xbe5074a8	-0.20357001
102	0x3d0a853a	0.03381846
103	0xbe5d623a	-0.21619502
104	0xbe9f8663	-0.31157216
105	0xbd8aa33b	-0.06769415
106	0x3e1d9bfc	0.15391535
107	0xbd234669	-0.03986207
108	0x3e2c2424	0.16810662
109	0x3df22a5c	0.11824486
110	0x3dab3065	0.0835884
111	0x3da5e842	0.0810094
112	0x3d0c0174	0.034181073
113	0xbe0f2e96	-0.13982615
114	0xbe3af093	-0.18255834
115	0x3eaeca4d	0.34138718
116	0xbe36c3d0	-0.17848134
117	0x39ec578d	0.00045078658
118	0xbe25bc9f	-0.16185234
119	0xbdcb6878	-0.09932035
120	0xbb88e0c9	-0.004177187
121	0xbd0e287c	-0.034706578
122	0x3e47568e	0.19466612
123	0xbe2a80cf	-0.16650699
124	0x3e0b1a40	0.13584232
125	0x3d0621dc	0.032747135
126	0x3e7d7a91	0.24753787
127	0xbdfb290d	-0.12263689
128	0x3debb620	0.11509347
129	0x3ca06a04	0.019581802
130	0x3e134cd5	0.14384778
131	0x3e2861ff	0.16443633
132	0x3e35080c	0.17678851
133	0x3e01e8fb	0.12686531
134	0x3e9a5a02	0.30146796
135	0x3ec7921e	0.38978666
136	0x3e029118	0.12750661
137	0xbdab1d5f	-0.083552115
138	0x3e7fe29a	0.24988785
139	0x3d2a9be8	0.04165259
140	0x3cc944db	0.024568966
141	0xbc227862	-0.009916397
142	0xbde22c4f	-0.110436074
143	0xbe1add0a	-0.15123382
144	0x3e14792f	0.14499353
145	0xbd32eb03	-0.043681156
146	0x3dfa06a1	0.122082956
147	0x3dc57fea	0.09643538
148	0x3db2c4bc	0.0872893
149	0xbde02777	-0.10945027

encoder1_RNN.bias_hh_l1 f4 [150]
0	0xbe995913	-0.2995077
1	0xbd97605d	-0.07391427
2	0xbea6db6f	-0.3258929
3	0xbd6bfd29	-0.05761448
4	0xbe463923	-0.19357733
5	0xbf160aa0	-0.5860996
6	0xbe865294	-0.26234877
7	0xbeae4efe	-0.3404464
8	0xbd8240cf	-0.063600175
9	0xbe422bc4	-0.18962008
10	0xbe43f1d1	-0.19135214
11	0x3df553e5	0.11978892
12	0xbdb0d8f5	-0.08635131
13	0xbe1f6e3a	-0.15569392
14	0xbede9db3	-0.4347969
15	0xbed4a734	-0.41533816
16	0xbdedd4a8	-0.116128266
17	0xbeb3d3a3	-0.35122404
18	0xbe28c31c	-0.16480678
19	0xbde77a1e	-0.11302589
20	0xbd164bd4	-0.03669341
21	0xbdb38bea	-0.08766921
22	0xbe3d0853	-0.18460207
23	0xbea3d976	-0.32001847
24	0xbc11c843	-0.008897844
25	0xbdda4e07	-0.10659414
26	0xbf4f78e7	-0.8104386
27	0xbd80bcdb	-0.06286021
28	0xbe69c3ed	-0.22828646
29	0xbdd06372	-0.10175218
30	0xbe75f3cd	-0.24018784
31	0x3c99f233	0.018792247
32	0x3ea66795	0.32500902
33	0xbe67d58d	-0.22640057
34	0xbea34312	-0.31887108
35	0x3df8020e	0.12109767
36	0xbe5a387e	-0.21310613
37	0xbdc90a9b	-0.09816476
38	0xbd9ae953	-0.07564034
39	0xbe83fbe9	-0.2577813
40	0xbed97eb2	-0.42479473
41	0xbe522311	-0.2052119
42	0x3cb84ea0	0.022498429
43	0xbe330a48	-0.1748439
44	0xbedf74ab	-0.43643698
45	0xbe3102d0	-0.17286229
46	0x3ef6710c	0.48133123
47	0xbe8b50f5	-0.27210203
48	0xbea12e8d	-0.31480828
49	0xbef78bd2	-0.48348862
50	0x3f9c2bd1	1.2200872
51	0x3f192897	0.5982756
52	0x3ec01412	0.37515312
53	0x3f26af73	0.65111464
54	0x3ee91161	0.45521072
55	0xbec4ae2f	-0.38414142
56	0x3f0c4758	0.5479636
57	0x3f1c4c8d	0.6105431
58	0x3f348ebe	0.7053031
59	0x3f0e9eb2	0.557109
60	0x3f06bc92	0.52631485
61	0x3f3889fd	0.72085553
62	0x3f2caa14	0.6744702
63	0x3f192799	0.59826046
64	0xbeac8f85	-0.33703247
65	0xbea6f002	-0.32604986
66	0x3f07c53b	0.53035325
67	0x3f0e652d	0.5562313
68	0x3eff9171	0.4991565
69	0x3f04b851	0.51843745
70	0x3f4c04d8	0.7969489
71	0x3f6cab60	0.92449
72	0x3f15c21b	0.58499306
73	0x3f2a0848	0.66418886
74	0x3f081913	0.5316326
75	0x3f0aadb4	0.541713
76	0xbe619c1e	-0.2203221
77	0x3f0211dd	0.5080851
78	0x3f21ebfb	0.632507
79	0x3f1ddb8e	0.6166314
80	0x3f2dfd7e	0.67964923
81	0x3f09a3f1	0.5376578
82	0x3f305ee9	0.6889482
83	0x3f7e87b3	0.9942581
84	0x3f34d65a	0.70639575
85	0x3f317887	0.69324535
86	0x3f296c16	0.6618055
87	0x3f5940f5	0.8486474
88	0x3f31cdd4	0.69454694
89	0x3f31cd7e	0.6945418
90	0x3f68b3c8	0.90899324
91	0x3effd9e0	0.49970913
92	0x3f2c551a	0.67317355
93	0x3f21a006	0.631348
94	0xbebe2ce5	-0.37143627
95	0x3f02b068	0.51050425
96	0x3f4851ec	0.7825
97	0x3f5abed9	0.8544746
98	0x3f08f32e	0.5349606
99	0x3ef0cee7	0.47032854
100	0xbe5a2071	-0.21301438
101	0xbe392b4e	-0.18082926
102	0x3d12a2df	0.035799857
103	0xbc9f3c42	-0.019437913
104	0xbe6cd2ee	-0.23127338
105	0xbcf46ada	-0.029836107
106	0x3c849678	0.01618503
107	0xbe0c95e2	-0.13729051
108	0xbc8cbb3d	-0.017179126
109	0x3e6e3c81	0.23265268
110	0x3d239e27	0.039945748
111	0x3e36a1f3	0.17835216
112	0xbe0c1238	-0.13678825
113	0xbd48fff6	-0.04907223
114	0xbd0caddf	-0.034345504
115	0x3de177a9	0.110091515
116	0xbc6388bf	-0.013887583
117	0xbbd1fedc	-0.0064085554
118	0xbdbdff22	-0.09277178
119	0xbd3b3bef	-0.045711454
120	0xbd0610c9	-0.03273085
121	0x3c2b7a1f	0.010466128
122	0xbc907da9	-0.017638044
123	0xbd97bcb4	-0.07409039
124	0x3cdbe362	0.026841823
125	0x3db7dffe	0.0897827
126	0xbce2b374	-0.02767346
127	0xbe83fdf5	-0.2577969
128	0x3e1e8cde	0.15483424
129	0x3dd7a400	0.105293274
130	0x3dbe7666	0.092999265
131	0x3c7a2aa1	0.015268953
132	0x3e8a1926	0.26972312
133	0x3cbc9d4a	0.02302422
134	0x3e7c322c	0.24628514
135	0x3e82aa54	0.25520575
136	0x3e30d77d	0.17269702
137	0xbdfd9dce	-0.123836145
138	0x3e1c798c	0.15280741
139	0xbcc9c816	-0.024631541
140	0xbc352367	-0.011055804
141	0x3b912bde	0.004430278
142	0xbd6d3513	-0.057911944
143	0x3d2dc740	0.042426348
144	0xbe04a9bd	-0.12955375
145	0x3cb055b9	0.02152525
146	0x3deb0cad	0.11477027
147	0xbd28b769	-0.04119054
148	0xbcf60658	-0.030032322
149	0x3d29fc1a	0.04150019

encoder1_linear.weight f4 [1, 50]
0	0xb9ad0997	-0.00033004276
1	0x396ffaa3	0.00022886186
2	0xb7c8d505	-2.3941053e-05
3	0x39cbdb2b	0.0003888247
4	0x3cfcd54c	0.030863427
5	0x3e8c44be	0.27396196
6	0x38d74268	0.00010264368
7	0xb99704ba	-0.00028804486
8	0xb9fb301d	-0.00047910298
9	0xb7466d94	-1.1827233e-05
10	0x390a4420	0.00013186084
11	0xba08272d	-0.0005193826
12	0x38a38bcf	7.798487e-05
13	0x39417677	0.00018450046
14	0x3e23da2d	0.16001196
15	0xbdaf9c47	-0.085747294
16	0xb9f81023	-0.0004731427
17	0x39155525	0.00014241466
18	0x3895f14f	7.149821e-05
19	0x39bce952	0.00036031991
20	0xb8989de8	-7.277337e-05
21	0x3a4ed708	0.00078903185
22	0xb9895f82	-0.00026201835
23	0xb9e3777b	-0.00043385834
24	0xb9e24ce1	-0.00043163358
25	0x3881b5da	6.185072e-05
26	0x3ea60f30	0.32433462
27	0x396845be	0.00022151225
28	0xba9618b0	-0.0011451449
29	0x39e4811d	0.00043583746
30	0xb9c7d1e9	-0.00038112633
31	0x39aca6df	0.00032930725
32	0x399b02c1	0.00029565956
33	0xb95fc507	-0.00021340336
34	0x397262ee	0.00023115773
35	0xba459d81	-0.00075384235
36	0xb9acddab	-0.00032971552
37	0x3a1a72a5	0.0005891717
38	0x39a3b57b	0.00031224996
39	0x3a0e30e7	0.0005424157
40	0x3a53767e	0.0008066668
41	0xb9d0e1e2	-0.00039841147
42	0x39ea2240	0.00044657476
43	0x38906f46	6.8871814e-05
44	0x3e6a30be	0.22870156
45	0x38de14ee	0.000105896834
46	0x394de8ee	0.00019637097
47	0x391e5511	0.00015099744
48	0x390518e7	0.00012693145
49	0xb7d617a5	-2.5521798e-05
