rnn_twc/saved_model/diff_rates/K1_K2_N(3_3_9)/bi_sigmoid/SNR1(-1dB)SNR2(10dB)/model.pth (torch, 704053 bytes, 58 tensors)

weight_power1 f4 [9]
000000 2e ac b3 3f 67 08 b7 3f b3 03 bb 3f b0 d3 90 3f
       1.403692 1.4299439 1.4610504 1.1314602
000010 46 4d 98 3f 4b 4f 9a 3f 45 0f 91 3f 4e d8 7f 3f
       1.1898582 1.2055448 1.1332785 0.9993943
000020 ff b4 80 3f
       1.0055236

weight_power2 f4 [9]
000000 5f 21 9d 3f 24 e1 8c 3f f5 04 90 3f 4c 59 8b 3f
       1.2275809 1.1006207 1.1251513 1.0886626
000010 f5 71 8b 3f c6 b5 8f 3f 0c 3b 7f 3f 22 8d 83 3f
       1.0894152 1.1227348 0.99699473 1.0277445
000020 31 d9 86 3f
       1.0535032

weight1_merge f4 [9, 2]
000000 29 ef 96 3f 07 ea f1 3f fc 27 a6 3f 41 02 a7 3f
       1.1791736 1.8899544 1.2980952 1.3047563
000010 b1 54 c6 3f 9b 6d e0 3d 1a 08 2e 40 09 e4 35 ba
       1.5494596 0.109584056 2.7192445 -0.0006938582
000020 c1 d5 1a 3d be 21 24 3a 02 22 11 3c ab c0 04 ba
       0.037801508 0.00062611315 0.008858206 -0.000506411
000030 19 1a e9 b9 d8 8c 90 3d 68 ee 09 3a 91 9d d1 3e
       -0.00044460667 0.07058114 0.00052616606 0.40940526
000040 f9 c8 ae 39 a4 f6 b7 3f
       0.00033337603 1.4372144

weight2_merge f4 [9, 2]
000000 8f 65 2c 3f 91 68 7e bb c1 75 e5 3f 37 77 1b 3d
       0.67342466 -0.003881965 1.7926561 0.03795549
000010 cb af 4a 40 f7 06 b4 3c c8 c7 de 3f 6f 19 4a 3f
       3.1669796 0.021975977 1.7404718 0.7894506
000020 2b af 07 3c 4f e2 45 40 9b 2d fb bb a0 c1 03 bc
       0.008281509 3.0919378 -0.0076653487 -0.008041769
000030 10 55 48 bc f3 1d 9f 3a c3 e3 94 bd f0 b0 ea 3f
       -0.012227312 0.0012139663 -0.072700046 1.8335247
000040 18 46 2c 3d 1d 31 57 3f
       0.042059034 0.84059316

encoder1_RNN.weight_ih_l0 f4 [150, 4]
000000 f1 94 9c bf d2 03 0b bd ea 24 66 3e 34 78 2d bd
       -1.2232953 -0.03393919 0.22475019 -0.042350963
000010 71 22 91 be ee 3e b7 be cf 4a 65 3e 53 7d 04 bf
       -0.2834659 -0.357902 0.22391818 -0.5175373
000020 b6 bc ef 3d ab 19 23 3f 02 38 40 be ad 89 5b 3d
       0.11705916 0.6371104 -0.18771365 0.053598095
000030 a3 5e 45 3e 24 3f 26 bf 64 78 f5 3e 7c 22 47 bf
       0.19274382 -0.64940095 0.47943413 -0.77786994
000040 58 4e 3c be 44 9e 4a bb ac 45 38 be ec 16 7f bd
       -0.18389261 -0.0030917088 -0.17995328 -0.06227772
000050 52 55 42 be 1d 83 f1 be 25 54 d9 3e e9 79 41 3f
       -0.1897786 -0.47170344 0.4244701 0.75576645
000060 1a 8b 19 3d 32 a3 49 be 37 1f 8d 3d db 8c 3b 3e
       0.037486173 -0.1969116 0.068907194 0.18315451
000070 44 86 24 be 2c 72 b3 3e 32 6a 13 bf 3d 6c f2 bd
       -0.16066843 0.35048044 -0.57583916 -0.11837051
000080 31 2d aa 3c e2 70 32 bf 36 8f 9f be f7 3b aa bf
       0.020773502 -0.69703496 -0.3116395 -1.329955
000090 a2 a0 b5 3e 1c 33 5e 3e ec 23 2a 3d 6e a6 d1 3e
       0.35474116 0.21699184 0.041538164 0.40947288
0000a0 20 79 ec 3e 15 57 7b 3e 67 7c af 3e a8 c6 64 3e
       0.4618616 0.24544938 0.342746 0.22341406
0000b0 b7 2a 78 3d 5f 54 c5 3e 2c fb 35 bd 9f 3a 19 3f
       0.06058761 0.38540933 -0.04442899 0.59855074
0000c0 35 d0 86 bf 38 97 88 3e 20 63 0b bf 68 a4 95 3c
       -1.053229 0.2667787 -0.5444813 0.018266872
0000d0 8a f1 cb be 28 1d 71 3e 43 7b 0d bf 66 5e a3 bf
       -0.39832717 0.23546278 -0.5526621 -1.2763183
0000e0 44 a1 9d 3c 25 61 81 3e 55 a1 55 bf 8a 63 30 bd
       0.019241937 0.25269428 -0.834493 -0.043063678
0000f0 1c 73 d4 be 5a ec 6a be 91 00 82 3f 70 ea f2 bd
       -0.4149407 -0.22941723 1.0156423 -0.11861122
000100 02 ef 3f 3f 20 70 af bf 55 39 e1 be 31 09 83 bf
       0.7497407 -1.3706093 -0.43989053 -1.023718
000110 31 56 0e 3e 28 62 d1 3c 5b c2 d7 3e 1f 2c 5f 3e
       0.13900067 0.0255595 0.4214047 0.21794175
000120 85 f3 a9 be 30 fb c9 3e cb b4 ab bc 47 a4 2b 3e
       -0.33193603 0.39449453 -0.020960232 0.16761886
000130 57 8b 88 bd 34 e2 ae be 68 c0 12 be b0 e4 2a bf
       -0.06667202 -0.34156954 -0.1433121 -0.667552
000140 39 26 f8 3d 88 4e a7 bf b9 4a 6c be b9 ec d2 bf
       0.121166654 -1.3070841 -0.2307538 -1.6478492
000150 b0 d9 c3 be 31 b4 c2 bd 0e 3d f8 3e b5 e3 85 3e
       -0.3825202 -0.09507025 0.4848408 0.2615029
000160 fd 6c a1 be 8f d7 99 3e 11 be 8d be c7 a6 55 3e
       -0.31528464 0.3004727 -0.27684072 0.20864402
000170 cb 22 18 bc a7 3c 9d 3d df 1b 79 be 46 88 37 3f
       -0.009285639 0.07677584 -0.24327038 0.7169231
000180 88 87 af 3c 37 f4 ac bf df cf 1e 3e c9 6d 51 3d
       0.021426931 -1.3512028 0.15508984 0.05113009
000190 9f b7 1a bf 5c eb 8e 3e e8 4f 0a 3e bb c4 f1 be
       -0.60436434 0.2791394 0.13507044 -0.47220406
0001a0 c3 d6 7c 3e 36 ce a7 bc 80 4d a3 3f 9a 0c 18 bd
       0.246913 -0.020484071 1.2758026 -0.037121393
0001b0 55 77 01 3f d6 8a 03 be 14 c0 42 be 43 78 1b 3e
       0.5057271 -0.1284593 -0.19018584 0.15182595
0001c0 fe b9 87 bf c7 11 a4 3e b4 5e 37 3e e8 a6 25 be
       -1.0603635 0.32044813 0.1790722 -0.16176951
0001d0 9e c8 17 bf 0f 4b 35 3f 12 31 55 bf 65 2c 3f be
       -0.5929049 0.70817655 -0.83278 -0.18669279
0001e0 74 a3 23 3f 95 96 13 bf 94 da 78 be 6c b1 3d 3e
       0.63921285 -0.57651645 -0.24302131 0.18524712
0001f0 e9 8a 81 3e 36 89 03 bf c0 22 57 3e 6c f8 6d bf
       0.25301293 -0.5138124 0.2100935 -0.92957187
000200 2e e3 b5 3c a6 d8 b5 be 9c 41 1d 3e ea 3b a3 3f
       0.022203054 -0.35516852 0.15357059 1.2752659
000210 d5 68 08 3f 8d b8 6a bf f3 2f 0d 3e cd 63 6d 3c
       0.5328496 -0.9168785 0.13787822 0.014489126
000220 ea cd fd be b5 5f ba 3e b2 d8 9a bf d8 e0 9d 3e
       -0.49571162 0.36401144 -1.209738 0.30835605
000230 1a 02 13 3f a0 9e 73 3e 1a 38 d7 3d b5 ac 90 3c
       0.5742508 0.2379098 0.105087474 0.017660478
000240 58 1c f2 3e 36 f9 b6 bd 19 c3 c9 bd ed a3 fa bd
       0.4728725 -0.08934252 -0.09851665 -0.122382976
000250 bf fc 38 3f 72 0e 25 3f fb 6e cf 3d 2a 7b 1c 3e
       0.7226066 0.64475167 0.1012859 0.15281358
000260 4c 29 35 3f 32 e1 eb bd 87 ee 63 3f 2e 22 65 3e
       0.7076614 -0.11517562 0.8903584 0.2237632
000270 25 48 8c 3e 2d 5e 20 be e4 59 1f be b9 3a 10 3f
       0.27398792 -0.15660925 -0.15561634 0.56339604
000280 ef 7d 36 3f 81 61 ae 3d 49 2b 4f be e8 3a ca 3d
       0.7128591 0.08514691 -0.20231356 0.09874517
000290 3e c4 bc be a3 90 8f bc 7c d9 95 3e 22 23 81 3d
       -0.3686847 -0.017525023 0.2926749 0.06305529
0002a0 34 7c b0 be 6e ba 8d bd c5 58 f7 be ca ce 29 bd
       -0.3446976 -0.06920324 -0.48309913 -0.041456975
0002b0 fa 8d 97 3d 7f 5c 80 bf 7e b1 6c be e8 ce 43 bb
       0.07400127 -1.0028228 -0.23114583 -0.0029877964
0002c0 42 e6 98 be 26 31 61 be 87 21 bc be f5 67 fd 3e
       -0.29863173 -0.21991405 -0.3674433 0.49493375
0002d0 17 90 67 3f 75 e1 4f be 59 87 2c 3f 49 b4 ab 3d
       0.9045424 -0.20300849 0.67394024 0.08383996
0002e0 99 67 aa 3d b2 a5 20 40 f7 9c 11 bf c4 6f 55 3e
       0.08320541 2.5101132 -0.56880134 0.20843416
0002f0 58 13 f0 bb 26 81 9f be 9a 92 42 3d aa 74 d2 3c
       -0.0073265247 -0.3115322 0.04750309 0.025690395
000300 26 a4 15 bf 76 9b 0b bf da 74 81 be f7 30 09 40
       -0.58453596 -0.5453409 -0.25284463 2.1436136
000310 eb c7 65 bd f4 df 12 bf 0d 17 7f be b8 62 5a bf
       -0.05609886 -0.57372975 -0.24911137 -0.8530688
000320 a0 02 cf 3f 81 fb 1b 3e 1f 55 1c 3f 01 8e 38 be
       1.6172676 0.1523266 0.61067384 -0.1802292
000330 21 26 94 be 76 96 c8 3e b0 9e 39 bf e0 a9 4d bc
       -0.2893534 0.39177293 -0.7250776 -0.012552708
000340 52 af 2c 3f c9 c7 90 3e 6f f0 94 3f 0c 74 8f 3e
       0.6745502 0.28277424 1.1635875 0.28018224
000350 e9 a4 cf be b7 0c 72 3e 41 40 99 be e0 ce 46 3e
       -0.40555504 0.23637663 -0.29931834 0.19414854
000360 15 7e 87 3e ce 93 f0 3d 37 7b 21 3e 63 4f a2 ba
       0.2646338 0.117469415 0.15769659 -0.0012383278
000370 e3 98 47 3f 06 aa 2e 3f f9 55 18 be 8c 74 e2 be
       0.7796766 0.68228185 -0.14876546 -0.44229543
000380 28 62 bf 3e 9e a3 83 3d f8 60 20 3e 77 cb a5 3e
       0.37379575 0.06427692 0.1566199 0.32381794
000390 e7 c5 61 3f 57 90 65 3e af 7a 92 be 5a b3 89 3d
       0.881926 0.22418343 -0.28609225 0.06723662
0003a0 47 04 e8 3d 99 b4 bb bc 40 a3 ae 3e 70 ea 14 3f
       0.11328941 -0.022913264 0.34108925 0.58170223
0003b0 59 5e eb 3e 2b 8c 36 be 1c 51 14 3f c4 ae 83 3e
       0.4597042 -0.17826907 0.57936263 0.25719273
0003c0 03 a1 4e be 6a 26 6a 3d 42 bd 8c be 91 61 96 be
       -0.20178609 0.05716554 -0.27488142 -0.29371312
0003d0 52 19 23 40 6a da cb 3e 79 e6 e8 3e be 60 51 bd
       2.5484204 0.39815074 0.45488337 -0.05111765
0003e0 43 22 6a 3f d6 00 92 be 98 31 36 3e b1 14 81 3d
       0.9145853 -0.28516263 0.17792356 0.06302775
0003f0 56 23 37 3e a7 80 c8 3e 40 40 19 be 30 29 a7 bc
       0.17884573 0.39160654 -0.14965916 -0.020405382

encoder1_RNN.weight_hh_l0 f4 [150, 50]
000000 95 04 a6 be 7d 5f 5f 3e 11 6d 0e bf 79 59 43 bd
       -0.3242537 0.2181377 -0.5563517 -0.04769275
000010 e1 3f e6 3e 8e 05 42 3e 04 5b b5 be f5 1e a5 bb
       0.4497061 0.18947431 -0.35421002 -0.0050390908
000020 b8 61 21 3f 3c 6e 7a bd a8 91 55 be 64 fb 0a bf
       0.6303973 -0.061140284 -0.20856345 -0.5428984
000030 e5 fb 8d 3f 75 f0 e4 be 26 a9 78 3d e1 0d 8a bf
       1.1092497 -0.44714704 0.060708188 -1.0785486
000040 83 62 33 bf 68 97 01 be 4c 87 18 be 3e 1c bd be
       -0.7007219 -0.12655413 -0.14895362 -0.3693561
000050 eb ac 43 3e a4 96 5d bf 46 1f cc 3e df 35 d9 be
       0.19108932 -0.86557984 0.3986761 -0.42423913
000060 af f2 1b bf 70 5f aa 3e 41 1b f0 bc 01 c1 6a be
       -0.6091718 0.33275938 -0.02930987 -0.22925188
000070 61 28 1c 3e c5 e9 3d be b7 91 2c bd 69 0e 07 bf
       0.15249778 -0.18546207 -0.042131152 -0.52756363
000080 ed 15 2a bf 21 a9 0d bd 62 ac a9 be 96 c2 1e 3f
       -0.66439706 -0.034585122 -0.3313933 0.62015665
000090 e6 8b 34 3f e1 b0 3b 3f 51 00 0c 3a 5b 2e 81 3f
       0.7052597 0.7331677 0.00053406233 1.0092272
0000a0 b5 b5 4d 3e ad bb 9e 3f 48 5d f0 3d 88 af 24 3e
       0.20088847 1.2401024 0.11736542 0.16082585
0000b0 ce e7 00 bf f7 17 b9 be 74 ef c8 be f6 20 7e be
       -0.50353706 -0.36151096 -0.39245188 -0.24817261
0000c0 2d 63 3a be b3 ba 06 bf fe c9 28 bd 30 b6 8b be
       -0.18201895 -0.5262863 -0.04120826 -0.27287436
0000d0 0e 51 fd 3e 37 be 0f bf 6f e8 10 3d 16 e0 8e 3c
       0.49475902 -0.5614962 0.035377916 0.017440837
0000e0 5d 3a cf 3e a5 0e 8f 3e 19 f5 69 3e 5a ef 94 be
       0.40474215 0.2794086 0.22847404 -0.2908886
0000f0 25 b0 9b be ef 02 be 3c 21 51 36 3d 97 8e 5e 3d
       -0.30407825 0.023194758 0.044510964 0.054335203
000100 7d 77 85 3e e2 1b 10 bf ef d0 d6 3e 18 78 f9 be
       0.26067725 -0.56292546 0.4195628 -0.48724437
000110 db fc 66 be fc 64 1e bf 0e 53 b4 be 96 62 fa 3d
       -0.22557394 -0.6187284 -0.35219616 0.12225835
000120 6c bb 62 3d ff a8 64 bd cf df 69 3e fa 9d 17 bc
       0.05535452 -0.05582523 0.22839282 -0.009253973
000130 00 19 35 3f c7 04 f7 3d d1 cb 57 3d 93 b5 0b bf
       0.7074127 0.12061458 0.05268461 -0.54573935
000140 5c d4 a9 3c 7a 6e 97 bb 8e fb e3 bb 8f c4 1a 3f
       0.020731144 -0.004621324 -0.006957478 0.60456175
000150 d0 b7 75 3d 46 80 81 3f a8 8e 11 be 6b 82 3e bf
       0.05998975 1.0117271 -0.14214575 -0.7441775
000160 af b8 bd 3e 14 ca 81 be df b1 58 3e 8c cb dc 3e
       0.37054965 -0.25349486 0.21161602 0.43124044
000170 30 6d a6 3e f7 0a bd be e8 59 5d 3f e9 b7 4d be
       0.32505178 -0.36922428 0.8646531 -0.20089687
000180 05 ae 39 be 8b ae 91 bf 54 47 e2 3c 18 34 b4 bd
       -0.1813279 -1.1381391 0.027621903 -0.087989986
000190 10 3b 63 be 9a 4f 9a be 6a c4 96 be 3c 89 fd be
       -0.221905 -0.30138856 -0.29446727 -0.49518764
0001a0 4b b8 8e 3e 88 ea 2b 3f 06 80 4a bf 8f a7 79 bd
       0.2787498 0.6715474 -0.791016 -0.060950812
0001b0 b0 52 cb be 01 d4 89 3e eb d2 37 be 89 e3 dc 3d
       -0.39711523 0.2691956 -0.17951553 0.107855864
0001c0 a0 3e ce 3d b6 6e fe be 89 c7 b6 be d2 11 8b be
       0.100705385 -0.4969384 -0.35699108 -0.27162033
0001d0 a1 06 46 3f e7 94 09 bb 4c 1e 8f be 96 8c 89 3c
       0.77353865 -0.0020993294 -0.27952802 0.01679067
0001e0 7c 7e bc be ca d3 8d bf 39 9f 63 3f 06 1d 56 be
       -0.3681525 -1.1080258 0.8891483 -0.20909509
0001f0 3a 40 8c be 7a 2c b5 3d 2e dc 20 3f bc 10 e7 be
       -0.2739275 0.08846374 0.6283597 -0.45129955
000200 2c fe b6 bf 67 08 a5 3e 71 bb e7 bd 63 8c cd be
       -1.4296317 0.32232973 -0.113150485 -0.4014617
000210 7b 92 0c 3f 84 27 2d 3f 73 6e e9 3c 0e 16 66 3f
       0.5491101 0.6763842 0.02849505 0.898774
000220 a1 38 61 3f ef 77 40 3f 49 32 56 be 77 76 0f 3f
       0.87977034 0.75183004 -0.2091762 0.5604014
000230 b5 3c bb be 23 75 0f 3f 49 be 88 be 49 9c 31 3f
       -0.36569753 0.5603811 -0.26707676 0.693791
000240 c5 da 8d be f6 83 cf be 1c f7 ec bd 61 81 0e bf
       -0.2770597 -0.40530366 -0.1157057 -0.55666167
000250 36 ee e4 3d 6f b1 1e 3f 47 a8 9b be c0 24 0d 3e
       0.11178248 0.6198949 -0.30401823 0.1378355
000260 b9 9f 9b 3d 29 0d c0 3e 3b bf 52 3e 6d f9 16 3f
       0.07598824 0.3751004 0.20580761 0.58974344
000270 7b a6 cb be 65 76 05 bf b2 c2 2a 3e d2 62 48 3e
       -0.39775452 -0.5213378 0.16675833 0.19568947
000280 b1 09 18 3e bd 3e d0 be 6d 3d e0 be 89 4d f5 3e
       0.14847447 -0.40672866 -0.43796864 0.47910717
000290 bf 78 92 bd af 62 45 3f 96 23 de 3d 5f 8c df 3e
       -0.07151937 0.77103704 0.10846631 0.43661782
0002a0 83 98 ff 3d bc 3f 5d 3e da d3 9b 3e b5 f3 20 3e
       0.12480261 0.21606344 0.30435067 0.15717967
0002b0 05 af 9a be ed 10 9b bd 08 4c ab be 64 18 44 bc
       -0.30211654 -0.07571588 -0.33456445 -0.011968706
0002c0 02 fa 40 3e 2a 5c af 3d b1 b5 99 bd b9 a8 c4 3c
       0.1884537 0.08562501 -0.07505358 0.024006234
0002d0 c0 33 af be 0d e7 b9 be f9 55 28 bf c9 d6 e5 be
       -0.3421917 -0.3630909 -0.65756184 -0.4489043
0002e0 0f e4 00 bf 46 9c 2f 3d 50 70 1b 3f 88 eb 10 3f
       -0.5034799 0.042873643 0.6071825 0.5660939
0002f0 60 23 af be 1c 93 0d 3e b6 2f 3e 3e e1 5c 4f be
       -0.34206676 0.13825649 0.18572888 -0.20250274
000300 a2 f7 57 bf 04 1c 31 3e a4 73 56 bd 5d 7a 05 bf
       -0.8436223 0.17295843 -0.052356377 -0.52139837
000310 b7 4c e7 3e 70 54 0b 3e d9 f9 e5 3c 3f f5 69 3c
       0.45175716 0.13606429 0.028073238 0.014279663
000320 6f 07 10 bf fc 90 e9 3c cf 9f bb 3e b6 2f 25 bf
       -0.5626134 0.028511517 0.36645362 -0.64525926
000330 cd 88 a4 be a3 22 08 3e c5 33 46 3e 8d cf 05 3e
       -0.3213562 0.13294463 0.19355686 0.13067456
000340 a7 f4 4d 3e 7a d3 ee be 7a 8d 80 bd 70 18 fa be
       0.20112859 -0.4664572 -0.062769845 -0.4884677
000350 de 88 81 3e 09 27 a7 3e 99 a1 10 be 7d 61 60 3f
       0.25299734 0.3264697 -0.14124145 0.87648755
000360 26 25 8c 3f b2 79 5e 3e 91 11 18 be 72 97 13 bd
       1.0948837 0.2172611 -0.14850451 -0.0360331
000370 f0 11 58 be de 0a c6 3e 0b c6 0d bf 50 f0 3f 3f
       -0.21100593 0.38680166 -0.55380315 0.7497606
000380 94 48 d4 be 85 99 6f be 9a d3 7b be 04 a1 e9 3e
       -0.41461623 -0.23398407 -0.24592438 0.45630658
000390 e9 cb ce be e5 76 ec be 52 6d 13 bf 7e ab 55 bf
       -0.40389946 -0.4618446 -0.57588685 -0.834648
0003a0 67 14 c1 be dc 45 93 3e 26 98 ff be 81 08 22 bf
       -0.37710878 0.28764236 -0.49920768 -0.63294226
0003b0 9c a3 7f 3e af 35 de 3d b6 20 f9 be 74 b3 88 3e
       0.24964756 0.10850083 -0.4865777 0.26699412
0003c0 d6 d4 66 3f 26 76 21 be b9 d3 5b be ea 31 be 3d
       0.9016851 -0.15767726 -0.21467485 0.09286864
0003d0 b7 9c 93 3e 20 13 e8 be 02 f2 3b 3e cb 11 6a be
       0.288305 -0.4532709 0.18354037 -0.2285835
0003e0 e8 69 a1 3d 87 49 40 3f 25 ea d5 3c 49 31 14 3f
       0.07881528 0.75112194 0.026112625 0.57887703
0003f0 5e 1c e1 3e 45 11 7b 3e ab bb d6 bd 8e 54 f6 3c
       0.43966955 0.24518307 -0.104850136 0.030069616

encoder1_RNN.bias_ih_l0 f4 [150]
000000 69 ba 81 bd 88 37 57 3e d6 1e b7 bd 75 e1 b6 be
       -0.06334383 0.21017277 -0.08941428 -0.35718885
000010 45 9c 78 be 7e 25 c3 bd b9 4d 6c be 21 9c 80 bd
       -0.24278362 -0.095286354 -0.23076524 -0.06279779
000020 db 82 ba be 82 8c a4 bd 19 ed 1e 3e d7 47 09 bf
       -0.3642796 -0.08034612 0.15520133 -0.53625244
000030 b8 45 6c bd 29 fa e3 bd 52 cb f8 3d 2f cf 80 3d
       -0.057683676 -0.11131699 0.12148155 0.06289517
000040 82 1d b9 be 63 9e 86 3d b9 ea 0a bf 88 87 47 bf
       -0.36155325 0.065731786 -0.5426441 -0.7794118
000050 44 1f c6 be 80 fa e2 be 04 d7 8c be 0e 49 57 3d
       -0.3869573 -0.4433174 -0.27507794 0.052559905
000060 78 07 68 be 08 00 f7 be 9d 44 ab be e0 b5 24 bd
       -0.22659099 -0.4824221 -0.33450785 -0.040212512
000070 0b 6d b4 3d 76 31 47 3d a7 da e4 3e 26 75 11 be
       0.08809861 0.048631154 0.44698068 -0.14204845
000080 d8 2f c8 be 6a 7a 84 be 77 19 f4 3d 04 d6 cc 3e
       -0.39099002 -0.25874645 0.119189195 0.4000703
000090 a7 cc 26 3e bc b4 1f 3e 8e 74 6d be 7d ba cd 3d
       0.16289006 0.15596288 -0.23188993 0.100453354
0000a0 39 27 3d 3d f0 83 a1 3e be 7b 6e be 8f e1 d2 be
       0.046179984 0.31545973 -0.23289391 -0.41187713
0000b0 4c 1b 15 be e9 c8 da bd 08 36 a1 be c9 75 45 be
       -0.14561194 -0.10682852 -0.31486535 -0.19283213
0000c0 c4 21 e0 be 26 22 e1 be 2f 71 67 3e bf 24 41 be
       -0.4377576 -0.43971366 0.2260177 -0.18861674
0000d0 0b d7 8d 3f 74 1d 34 3e 79 15 6b 3e 3b 65 a6 3e
       1.1081251 0.1758936 0.2295741 0.32499108
0000e0 6d ec 61 3f 1b 4b b4 3e db 42 51 3f c2 10 1d 3f
       0.8825138 0.3521355 0.8174264 0.61353695
0000f0 51 c5 b1 3d c2 8c 68 3f 6f 7b 5b 3d 81 79 28 be
       0.08680213 0.9083978 0.053584512 -0.164526
000100 28 4a 2b bf 2a c8 16 bd ca b6 a1 3f 4b bd 0d 3f
       -0.6691003 -0.036811985 1.2633908 0.55366963
000110 b0 f6 43 3f 42 65 40 3f 10 8e de 3e ff a2 bc bd
       0.7654829 0.7515451 0.4346776 -0.092107765
000120 10 48 ea 3e f8 d8 80 3f 31 e4 5e 3f 1f e2 40 3e
       0.45758104 1.0066214 0.8706694 0.18836258
000130 a4 53 07 3f fb c6 8e bf f7 a5 4a 3e 50 1f 36 be
       0.52862 -1.1154474 0.19789873 -0.17785382
000140 62 20 96 be fc d0 2c 3f 8b 14 ad 3e 8c 78 d8 3e
       -0.2932158 0.67506385 0.33804736 0.4227947
000150 dd 36 02 3e ab ab 7d 3e 68 73 8f 3e b8 d7 6b 3e
       0.12716241 0.24772517 0.28017735 0.23031509
000160 d2 46 97 bd b7 a9 2d 3f e5 86 43 be 68 8c a5 bd
       -0.07386555 0.6783709 -0.19094427 -0.08083421
000170 29 f0 74 be a7 9b ab 3e 85 d9 f8 3d b2 64 4a 3d
       -0.23919739 0.3351719 0.121508636 0.049412437
000180 8c 87 7c 3e 37 b2 35 3f e5 a8 b7 be 5e 3d 57 3e
       0.24661082 0.7097506 -0.35871044 0.21019503
000190 70 c1 fd bd 36 06 3c be 6c 03 e2 3d 62 b9 04 3e
       -0.12390411 -0.18361744 0.11035809 0.12961343
0001a0 26 6e a0 3d 06 64 35 3d a0 ed 3a 3e f1 89 03 3e
       0.07833509 0.044284843 0.18254709 0.12845589
0001b0 0e 65 5f 3e 00 d8 35 3e 6b 78 37 bd 43 1b 80 bd
       0.21815893 0.17758179 -0.044792574 -0.062552
0001c0 f8 85 b4 be 08 1f 93 3e 96 45 89 bd cb 44 94 3e
       -0.3525846 0.28734612 -0.067027256 0.28958735
0001d0 d9 40 0a be c8 f2 d6 bc 64 cc 9d 3c d4 77 04 be
       -0.135013 -0.026238814 0.0192625 -0.12936336
0001e0 05 9e 82 be 6f f6 df 3e ee cd 48 be a7 ab eb 3e
       -0.25511184 0.437427 -0.19609806 0.46029398
0001f0 8e e6 89 bc 11 73 e9 bd 18 97 99 3d 1f a1 4e be
       -0.01683357 -0.113989 0.07499522 -0.2017865
000200 13 3b 78 3e 95 5d a9 be 40 87 8f 3e 8d bd ae 3e
       0.24241285 -0.3307921 0.28032875 0.3412899
000210 f3 2f 17 bd 04 29 c9 bd 89 45 0e bd 52 28 f0 be
       -0.036910962 -0.09822276 -0.034734283 -0.46905762
000220 ac 1f cc 3b 8c 83 1e bd 21 78 12 be ce 56 b6 3c
       0.0062293615 -0.03869967 -0.14303638 0.022258189
000230 ba 62 d3 3e 8c 49 c3 be f3 76 b6 3c ce 87 9a be
       0.4128626 -0.3814205 0.022273516 -0.30181736
000240 7f 2b 44 3d 41 f6 db be fc 6d 05 3f 20 b7 a3 be
       0.047893044 -0.42961314 0.5212095 -0.3197565
000250 e8 13 9c 3e df 75 51 3d
       0.30483937 0.0511378

encoder1_RNN.bias_hh_l0 f4 [150]
000000 ac 9d 90 3c 44 7d eb 3c 5a ee 87 bc e8 c8 bc be
       0.017653309 0.028746255 -0.016593147 -0.3687203
000010 2c 15 58 be b0 a1 ff bd 09 16 82 be 61 7f c9 bd
       -0.21101826 -0.12482011 -0.25407436 -0.09838749
000020 6b 49 76 be 19 7f 95 be b5 dc 48 3e 0e bd 00 bf
       -0.24051444 -0.2919853 0.19615443 -0.50288475
000030 64 41 a4 bb 62 56 f6 bc 0a 4e 84 3e f6 7e 2b 3e
       -0.005012678 -0.030070487 0.2584079 0.1674765
000040 70 59 e8 be c0 43 16 3c 51 0f 0d bf ab ef 2a bf
       -0.45380735 0.009171426 -0.55101496 -0.66771954
000050 c0 07 f8 be ed 7c e4 be 0d 42 4c be a5 3c 84 3d
       -0.48443413 -0.4462656 -0.19947071 0.064568795
000060 76 bc 38 be a2 16 09 bf 2a 63 a5 be 47 51 cf bd
       -0.18040642 -0.5355016 -0.3230222 -0.10122924
000070 d7 2a a3 3d 81 98 fb 3c 66 1b 99 3e 49 a0 76 be
       0.079671554 0.030712368 0.29903716 -0.24084581
000080 b3 6f 5b be ab b2 90 be c5 1c 3f bd 4a a0 f4 3e
       -0.21429329 -0.28261313 -0.046658296 0.4777854
000090 74 a4 1d 3e b0 2c b9 3e 38 2b 4d be 89 ba 1c 3b
       0.15394765 0.36166906 -0.20036018 0.0023914895
0000a0 12 10 05 3d fc 75 8d 3d 73 d1 c2 bd fd c6 bd be
       0.03248603 0.06907269 -0.095126055 -0.3706588
0000b0 b0 74 80 bd 0b 3e 43 3d b9 da 97 be 96 99 7e be
       -0.062722564 0.04766659 -0.2965906 -0.24863276
0000c0 aa 16 11 bf 7e 06 a0 be 41 3c 72 3e 50 91 9f be
       -0.5667521 -0.31254953 0.23655798 -0.31165552
0000d0 7a aa 72 3f 9c 22 61 3c 69 fe 8e 3e 98 90 af 3e
       0.94791377 0.013741162 0.27928475 0.34290004
0000e0 6b bb 44 3f a5 8f 41 3e 89 a4 42 3f 5e 4d 12 3f
       0.7684848 0.18902452 0.7603231 0.571493
0000f0 7b 39 f6 3d c3 c4 76 3f 4a 02 4a be fe 73 99 3d
       0.12022682 0.96393985 -0.19727436 0.07492827
000100 fc 46 51 bf 85 51 49 3d 17 2d af 3f 0f b0 34 3f
       -0.8174894 0.04915001 1.3685635 0.70581144
000110 52 1e 36 3f 85 90 3a 3f 3d d6 a1 3e a4 8a 7c be
       0.71140015 0.7287677 0.31608763 -0.24662262
000120 c2 68 23 3f eb c5 55 3f 2d 1b 82 3f 98 62 b6 3d
       0.6383172 0.83505124 1.0164543 0.08905524
000130 68 7d c5 3e 07 78 7f bf 3a 5d 3e 3e 18 36 30 be
       0.3857224 -0.9979252 0.1859025 -0.17208135
000140 03 ec a0 be c3 e1 17 3f db b9 a5 3e 36 4e c5 3e
       -0.31430063 0.5932886 0.3236836 0.38536233
000150 99 9b 8b 3e 3a b8 dc 3d 65 6e c4 3e 71 83 d8 3e
       0.2726715 0.10777326 0.38365474 0.42287782
000160 77 49 e0 3d f5 51 f4 3e 6c 05 aa be 5a 51 3b be
       0.10951512 0.47718778 -0.33207262 -0.18292752
000170 af 84 ed bd 78 2b c8 3e 70 4f 29 3e b8 b3 2e 3e
       -0.11597573 0.39095664 0.16534209 0.17060745
000180 75 34 83 3e 9b 04 10 3f 9b 4f e2 be b5 23 5a 3e
       0.2562596 0.5625703 -0.4420136 0.21302684
000190 34 f9 d9 be 00 5a 43 be f1 42 32 3e d6 ce 9c 3d
       -0.4257294 -0.19077301 0.17408349 0.07656638
0001a0 1a 2b 4d be 55 26 73 3d 47 d1 24 bc 49 71 8f 3e
       -0.20035973 0.05936273 -0.010059661 0.28016117
0001b0 1b 54 5a 3e 23 79 ad 3e a2 04 ec bd d0 0b c1 bd
       0.21321146 0.33881482 -0.11524321 -0.09426081
0001c0 07 f8 66 be 5f 29 54 3f f5 a6 20 be 7d d4 08 3f
       -0.22555552 0.8287563 -0.15688689 0.5344923
0001d0 a7 7c 87 3d 5c 0e 92 3e 3d 9a f8 3d 03 43 2a 3e
       0.066155724 0.2852658 0.121387936 0.16627125
0001e0 d9 dc ce be 32 7e 65 3e d9 5c 79 bd 5e 1f 9d 3e
       -0.40402868 0.22411421 -0.060879562 0.30687994
0001f0 4e 74 e6 3c 7a cb cf 3e 07 78 d7 bd 3b 83 c0 bd
       0.02813163 0.40584928 -0.1052094 -0.0940003
000200 0f e0 01 3f f9 bf 6c bf c4 8c b6 3e ee b7 7e bd
       0.5073251 -0.9248043 0.3565427 -0.062187128
000210 d8 11 a4 3e 43 46 e3 bd b8 15 41 be 8d 5c 03 be
       0.32044864 -0.11097386 -0.18855941 -0.12828274
000220 22 46 a8 bd 0f 7e db 3d a3 19 a6 be 3f 46 90 bc
       -0.08216502 0.10717403 -0.32441434 -0.017611621
000230 5a 20 09 3f 8c b0 e9 be cc 44 a0 3e 76 4f a4 bd
       0.5356499 -0.45642507 0.31302488 -0.080229685
000240 fb 53 a0 3e 30 f4 1a bf a6 6a 0c 3f 2d 5e 6b bd
       0.31314072 -0.6052885 0.5485023 -0.05746286
000250 19 14 a9 3e 9a ea 6c be
       0.33023146 -0.23136368

encoder1_RNN.weight_ih_l1 f4 [150, 50]
000000 9b 0a 36 be 9b fd 73 be e6 6b 26 bf eb 34 83 be
       -0.17777483 -0.23827212 -0.6500839 -0.2562631
000010 7c ec 12 3e 20 23 a2 3b eb 53 0c 3d 0a 91 4f 3e
       0.14348024 0.004948035 0.034259718 0.20270172
000020 1a 53 45 bf 07 8e ca bd 89 11 15 bb d5 fa f4 be
       -0.7707993 -0.09890371 -0.0022746047 -0.4784762
000030 47 59 03 be fe 35 e2 be 38 6e 9a be f0 63 73 3d
       -0.12827025 -0.44181818 -0.30162215 0.05942148
000040 46 0c fb be ad f7 92 be 84 f1 8e 3e 59 ed c0 3e
       -0.490328 -0.28704587 0.27918637 0.37681082
000050 e7 bd 64 3d b2 9d b5 bf a1 63 19 3f 10 38 67 3d
       0.055845167 -1.418875 0.59917647 0.05644995
000060 c7 8f 89 be 0d 4c 23 3e c8 ce 46 3e cb 08 63 3f
       -0.26867506 0.1594698 0.19414818 0.8868529
000070 a0 27 06 be d0 af 5a bd 77 94 9c be 44 40 6e bf
       -0.13101053 -0.053390324 -0.3058202 -0.9306681
000080 80 e0 72 3d 6b c0 05 3f 5f 56 6c be a3 1f 03 3f
       0.05929613 0.5224673 -0.23079823 0.5122015
000090 98 71 73 3e df 84 e2 be 0f 8c 64 be 24 f2 7c 3d
       0.23773801 -0.44241998 -0.22319053 0.06175436
0000a0 78 1d bc 3e 1d bb f0 3e e6 a8 28 3e 87 1a a7 3f
       0.36741233 0.47017756 0.1647068 1.305497
0000b0 b4 1e bd be d3 23 6f 3d 29 c2 9c bf 57 a1 a6 3e
       -0.36937487 0.058383774 -1.2246753 0.32544968
0000c0 20 74 ae bb 55 3b 86 3e cc 6f d9 bc 59 0a 75 be
       -0.005323902 0.26217142 -0.026542567 -0.23929729
0000d0 1f 08 b1 3e 05 74 07 3f e9 d6 6b be 47 61 e8 3e
       0.34576508 0.52911407 -0.230312 0.45386717
0000e0 81 08 d1 3e 29 ad 11 bf 59 56 13 bf 80 7c 81 bd
       0.408268 -0.56904846 -0.5755363 -0.063225746
0000f0 15 c0 7c be af c3 5b 3f 9e 74 cb bd 41 b6 41 3f
       -0.24682648 0.85845464 -0.09934352 0.7566872
000100 f8 97 88 be 7c b7 ee be 93 ad 91 3e 81 ff a3 bd
       -0.26678443 -0.46624362 0.2845274 -0.08007718
000110 1e 33 7f bf da 3c a3 3e 72 5b 55 3d 74 38 98 be
       -0.99687374 0.31882364 0.052089162 -0.2973057
000120 05 0e be be 4e 21 e7 3d 11 f1 07 3f a9 68 4e bf
       -0.3712007 0.11285649 0.53102213 -0.8062845
000130 00 f0 33 bd e4 7d 56 3e ed ca 19 3f 4d cc 2c bf
       -0.043930054 0.20946461 0.60075265 -0.6749924
000140 80 82 e2 3d bb f2 da bd f1 ee ac be 4d d0 81 be
       0.11060047 -0.106908284 -0.33776048 -0.25354233
000150 58 7c db be 9e cd 90 bf 19 f0 d0 be 77 28 40 bd
       -0.42868304 -1.1312749 -0.4080818 -0.04691359
000160 97 77 d9 3e d0 42 27 be 16 be 99 be df 48 98 bc
       0.42474052 -0.1633408 -0.30027837 -0.018589435
000170 bd f7 c8 3d bf c9 d8 bd a1 41 92 bf 9d 40 b0 3e
       0.09812877 -0.10585355 -1.1426278 0.34424296
000180 c2 e1 43 3d 21 13 89 3e ce 40 80 3e 6c 2f 1e bf
       0.04782272 0.26772407 0.25049442 -0.6179111
000190 56 31 1a 3e e4 13 a4 3f 8e f7 85 be cf f4 6d be
       0.15057883 1.281857 -0.26165432 -0.23237918
0001a0 37 fe 40 be d4 14 d6 be 83 66 70 be 29 6b 3e 3e
       -0.18846975 -0.41812766 -0.23476605 0.18595566
0001b0 0b ca c3 3f 83 2e 93 bf fc 65 22 be 25 b8 47 bf
       1.5296034 -1.1498569 -0.15859216 -0.7801536
0001c0 7f ef 15 be 4e 4c c9 be 2d 9a b4 3e 16 7c 0d bf
       -0.14642142 -0.39316028 0.35273877 -0.55267465
0001d0 43 60 c2 3e b1 4d 94 be 84 8c 8b bd 0a ad c6 3f
       0.37964067 -0.28965524 -0.068139106 1.5521557
0001e0 0e 72 54 bf 0e e9 bf bd 7e d6 21 be 5d f2 65 3f
       -0.82986534 -0.093706235 -0.15804479 0.8982294
0001f0 7a d0 98 3d d5 a6 9a 3f d4 be b4 be 00 62 90 3f
       0.07461639 1.2082163 -0.3530184 1.1279907
000200 c0 f1 0f 3f e3 ac cb bf 0e 08 c4 be cd 98 3d bf
       0.56228256 -1.5912136 -0.38287395 -0.7406128
000210 a5 28 3f c0 96 19 64 bc 3e 45 b0 3d 34 1f 8d 3e
       -2.9868557 -0.013922116 0.08606957 0.2756287
000220 c0 f0 98 3e c8 40 5e bf 52 a8 2b bf 28 4d 99 3e
       0.29871178 -0.868176 -0.6705371 0.29941678
000230 5f 68 38 3f cf a4 05 3f 07 38 60 3f 3e 8b 06 3f
       0.7203426 0.522046 0.8758549 0.52556217
000240 af c1 99 be 04 90 f3 3e 1a 7d 62 3e 22 a8 ac be
       -0.3003058 0.47570813 0.22118035 -0.33722025
000250 5f 12 d1 bf bd 12 35 3e 9b e3 04 bf fd 0c e9 3d
       -1.6333731 0.1768293 -0.519098 0.113794304
000260 60 01 3e bf 25 1e c2 be f0 19 bc be 28 5a a0 bf
       -0.7422085 -0.37913623 -0.3673854 -1.2527514
000270 60 55 06 be c2 53 c9 3f f6 7e 03 bf da c5 02 bf
       -0.13118505 1.5728686 -0.513656 -0.5108315
000280 78 35 6f 3e 99 3d 3f bf a2 0e 27 bf f4 4e e7 bd
       0.2336024 -0.74703366 -0.652567 -0.11294356
000290 88 45 14 be cd 91 3e 3f bc 0d d6 bd 14 89 cb 3e
       -0.14479649 0.74441224 -0.104518384 0.3975302
0002a0 e3 6e c9 3e 89 46 c6 3e bf e3 1e 3f e1 d7 4a bf
       0.39342412 0.3872569 0.6206626 -0.79235655
0002b0 c5 d3 66 3f a1 3e 39 3e 7b 36 09 bf b0 72 cf 3e
       0.90166885 0.18090297 -0.53598756 0.40517187
0002c0 9f c3 10 3f 19 5d 99 3f 8a a5 eb be 37 b6 a0 3c
       0.56548494 1.1981536 -0.46024734 0.019618137
0002d0 6c d8 0a bf 23 43 87 bf 11 2c 11 bf 20 40 d3 3d
       -0.54236484 -1.0567364 -0.56707865 0.10314965
0002e0 50 8a 7a 3f c4 a4 a0 3c 13 76 a4 3d e4 78 cc be
       0.978673 0.019609816 0.08030333 -0.39935982
0002f0 52 61 d0 be 09 7b 7d 3e b0 07 23 3f ca fa 2b bf
       -0.4069925 0.24753965 0.63683605 -0.6717955
000300 b6 4a d1 3e 80 49 e5 3f 7a 90 d9 3e 65 bd 00 3e
       0.40877312 1.7913055 0.4249304 0.12572248
000310 c1 4e 2b c0 c8 d8 85 bd be f4 1e be 5d c5 d2 3e
       -2.6766818 -0.06535488 -0.15523049 0.411662
000320 35 15 13 bf 65 27 3c 3e e6 b0 3b bd 5f a6 b1 be
       -0.57454234 0.18374403 -0.045823 -0.34697244
000330 af 80 45 3e 5f 2f 96 be f4 b6 36 3d a7 9d 44 bf
       0.1928737 -0.29333016 0.04460807 -0.7680306
000340 43 1c 04 3e 3a 53 1d bf bd 36 47 3d 6e bd e5 3e
       0.12901406 -0.6145512 0.048636187 0.44871086
000350 a4 8d 87 3e ac d7 4d 3f 43 cb c5 3d 15 a0 39 be
       0.2647525 0.80407214 0.0965791 -0.18127473
000360 8b 1a 53 3c 2a ae cf bd bd 2e 3e bf 94 bf 87 3f
       0.012884746 -0.10140641 -0.74290067 1.060534
000370 83 a9 db 3e 47 f9 20 bf 00 67 f1 be d6 cb ef bc
       0.42902765 -0.6288037 -0.47148895 -0.029272001
000380 24 aa b3 be c8 6a 3f 3e 0f 3b 14 3e 68 87 c0 3e
       -0.35090744 0.18693078 0.14475654 0.37603307
000390 67 3e 6a bf ed 6f 6c 3e a9 7a 74 be 7c e8 4c 3d
       -0.9150147 0.23089571 -0.23874916 0.050026402
0003a0 91 11 63 bf f9 56 a3 3d ac e2 47 be f6 73 05 3e
       -0.8869868 0.07975573 -0.19520062 0.13032517
0003b0 49 19 96 bc d7 50 3b 3e 65 d2 c0 bd bb 51 a2 3e
       -0.018322604 0.18292557 -0.094151296 0.3170298
0003c0 2a c0 8b be bc 19 af 3e ec f3 92 bf 81 87 36 3f
       -0.27295047 0.3419932 -1.1480689 0.7130051
0003d0 87 3a 13 bf 3e 13 10 3b 15 83 d6 be 27 be db 3e
       -0.5751118 0.0021984125 -0.41896883 0.42918512
0003e0 6c 34 f8 be bf cd d0 bd 1b 89 f2 be bc d9 82 3e
       -0.48477495 -0.10195493 -0.47370228 0.25556743
0003f0 13 87 d4 bd a0 2f 90 3b f7 bd 75 be de db d0 3e
       -0.10377326 0.0044002086 -0.23998247 0.40792745

encoder1_RNN.weight_hh_l1 f4 [150, 50]
000000 d9 d4 d1 bd d5 40 01 bf 98 6f c5 3d 92 20 86 3d
       -0.102456756 -0.5048955 0.096404254 0.06549181
000010 3d c2 0d 3f 58 30 60 bf 87 4f a2 be d9 e0 25 bb
       0.5537451 -0.87573767 -0.317013 -0.0025311022
000020 6f 1d ca bd 1b 9e 59 be 6f ca 29 bf 32 39 8f 3e
       -0.09868895 -0.21251719 -0.66324514 0.27973324
000030 14 10 c4 3e 71 77 51 bd 6b 4e 3a 3d 34 f6 12 3d
       0.38293517 -0.0511393 0.04548494 0.03587933
000040 42 bb c4 3d 0b db 59 3d 0b 1b 27 bf a3 56 13 3f
       0.09606029 0.05318741 -0.6527564 0.5755407
000050 de c4 82 bd 38 e5 cc 3e c9 87 be bd 6e 9a 00 bf
       -0.06385206 0.4001863 -0.09303243 -0.5023564
000060 49 56 d4 3e 82 61 fd 3d ec 06 7b be 7e 96 38 3f
       0.4147208 0.12372114 -0.24514359 0.7210463
000070 0d aa f0 be 14 93 a9 3d ab 2e 8c 3e a4 8d 2e 3e
       -0.47004738 0.08280006 0.27379355 0.17046219
000080 d2 c4 a2 3e 0b e7 2e 3d a6 90 f9 3e f4 4c e2 bd
       0.31790787 0.04270081 0.4874317 -0.11049834
000090 8e 3a c3 bd 4e 92 b8 3d c7 c4 ea be 5e d6 24 be
       -0.09532653 0.090122804 -0.45853254 -0.160974
0000a0 68 78 ce 3d 42 6d 8c be b8 78 75 bd 39 bc 40 3e
       0.100815594 -0.27427107 -0.05992958 0.18821801
0000b0 e3 fe ab be 8a 46 48 3c 70 ac b6 be 97 fc 17 3f
       -0.335929 0.012223849 -0.35678434 0.59369797
0000c0 53 05 91 3e ec 0f 45 be 69 6a cc 3d 02 28 ed 3d
       0.28324375 -0.19244355 0.099812336 0.115798965
0000d0 4e ca 0b be 4f fe eb be cd fa 52 bf 18 f2 a5 be
       -0.13651392 -0.4609246 -0.8241394 -0.32411265
0000e0 34 6c b0 3f 49 47 a9 3e 64 f7 82 3e bf 0f 51 3e
       1.3783021 0.330622 0.2557937 0.20416163
0000f0 88 f7 11 bf f1 d5 48 3e 43 24 de be f2 7e 68 bf
       -0.5701833 0.19612862 -0.4338704 -0.90818703
000100 89 89 b2 3e 11 d9 70 3e 15 3f 28 bf e0 88 01 bf
       0.34870556 0.23520304 -0.65721256 -0.5059948
000110 99 03 b5 3e 32 57 9a be ff 91 74 bf e3 1b 0e 3d
       0.35354307 -0.3014465 -0.9553527 0.034694564
000120 6f 1b 98 3e 16 c8 83 bd ff f1 40 be 15 c4 17 be
       0.2970843 -0.06434648 -0.18842314 -0.14820893
000130 d8 48 58 be 58 a3 98 bd 8e f0 e1 3e 5d 43 84 be
       -0.21121538 -0.0745303 0.4412884 -0.25832644
000140 5e 0d ae 3e 5e b9 60 be 4c cf bb be 6c 62 b8 3e
       0.33994573 -0.21945712 -0.36681592 0.3601259
000150 49 a0 f0 bd ca 5b e3 3e 2d 85 b7 3d 82 53 36 3d
       -0.11749322 0.44405967 0.08960948 0.044513233
000160 8c 3d b3 3e 8c 77 18 3e 62 cb f1 3e 69 ac 95 be
       0.35007894 0.14889354 0.4722548 -0.292331
000170 98 b1 02 3f d7 df 19 bf 39 5b 9c 3e 63 26 c6 be
       0.51052237 -0.6010718 0.30538347 -0.38701162
000180 98 84 e5 3e fb 07 31 be 64 12 7e be d4 1e f6 be
       0.44827724 -0.172882 -0.24811703 -0.48070395
000190 14 6e 17 be 6c 63 bc bf 77 56 8a 3e 4d 54 39 be
       -0.14788085 -1.4717841 0.27019092 -0.18098564
0001a0 f8 c4 65 bf cb 7a 77 3e 82 33 53 be 13 27 46 be
       -0.89753675 0.24167936 -0.20625117 -0.19350843
0001b0 e0 14 63 bf 95 e8 79 3e 7a b4 c8 3e 7c 30 2c be
       -0.8870373 0.24405129 0.39200193 -0.1681537
0001c0 89 6d dd 3f c1 7d 02 be 24 a3 e9 3e 89 d5 c2 be
       1.7299052 -0.12743284 0.4563228 -0.3805354
0001d0 ea 55 04 bf 2b ee f5 be f4 14 38 3f 07 8a 28 3f
       -0.51693594 -0.4803327 0.7190697 0.65835613
0001e0 92 68 b6 3d 30 36 ec bd c7 fb 1c 3e f7 e8 9b 3e
       0.08906664 -0.11533773 0.1533042 0.30451176
0001f0 ef 4a cd be 76 2b 25 3e 0e 53 d9 3e 13 a7 1a bf
       -0.40096232 0.1612986 0.42446178 -0.60411185
000200 84 c9 1f be d9 34 c6 bb 62 9a 41 bf 46 25 b1 be
       -0.15604216 -0.0060487804 -0.75626194 -0.3459875
000210 81 88 fa 3f 5d ca 0e bd ed 44 dd 3e a7 6b 97 be
       1.9572908 -0.034860957 0.4321665 -0.2957432
000220 8a 17 c4 3d e4 5d 7a be 6a e3 9d bf f4 f8 7e be
       0.09574802 -0.24449879 -1.2335026 -0.24899656
000230 dc 1d d0 be 02 7b 82 bf 92 ff 6b 3e c2 e8 33 3e
       -0.4064778 -1.0193789 0.23046711 0.17569259
000240 37 cb f1 bd dd fc 52 bd aa 5e 95 bf 69 e2 eb be
       -0.11806338 -0.05151068 -1.1669514 -0.46071175
000250 83 45 ac bf 12 ff cf 3f 26 19 80 be 32 7b c6 be
       -1.3458713 1.6249716 -0.25019187 -0.38765866
000260 65 4b fa 3e 84 3e dd 3d 9c 62 c2 be 49 4c 2d bf
       0.48885646 0.108029395 -0.37965858 -0.67694527
000270 68 45 39 bf fd fd 09 be a9 a5 d0 3e 89 7b 0a bf
       -0.7237153 -0.13475795 0.4075139 -0.5409475
000280 10 05 72 bf 26 d6 ed be 21 42 01 be e1 30 9b 3e
       -0.94538975 -0.46452445 -0.12622882 0.3031073
000290 ee 5b 5d bf ff 51 84 3e 83 13 aa bf aa 55 99 be
       -0.864684 0.25843808 -1.3287205 -0.2994817
0002a0 c5 5f 70 be cc db 40 3f e2 14 84 3d 28 fa 3b bd
       -0.23474033 0.75335383 0.064492956 -0.045892864
0002b0 b7 2c 60 bd b3 69 a4 be b5 c8 e1 3d de 65 ab 3c
       -0.054730143 -0.32111892 0.1102461 0.020922597
0002c0 20 bc f3 bf 75 e9 74 3e 55 dd 64 3c c7 cf b4 3d
       -1.9041786 0.23917182 0.013968785 0.08828693
0002d0 b3 1d 53 be 3e 6c 57 3f 32 cd 0c 3f de 18 b8 be
       -0.20616798 0.8414954 0.55000603 -0.35956472
0002e0 4a a2 d5 be f3 0e ab 3e 49 d4 d8 bf fc e4 3d 3f
       -0.4172538 0.33409843 -1.6939784 0.7417753
0002f0 b9 1d 2d be 69 29 a3 3e 60 7f 4d 3f 0e 59 fe 3e
       -0.1690587 0.3186753 0.80272484 0.49677318
000300 8a 07 e8 3c 0b bd da 3e e0 17 91 3e 16 26 ed 3c
       0.028323907 0.42722353 0.28338528 0.028948825
000310 7a e8 61 3f 24 a6 dc 3e a2 a1 05 3f 51 b9 a2 bf
       0.88245356 0.43095505 0.5219976 -1.2712804
000320 b6 34 1d be cd 43 00 bf 44 75 3f be 48 b7 e3 bd
       -0.15352139 -0.50103456 -0.18697077 -0.111189425
000330 c4 c6 0b be f1 da 9b be f1 b4 13 be d5 5d fc 3d
       -0.13650042 -0.30440477 -0.14424492 0.123225845
000340 c7 a1 34 3f e0 02 c9 3c cf e0 2f be 80 4c 7d bf
       0.7055935 0.024537504 -0.17175601 -0.98944855
000350 f1 e9 35 3e 5a 9d 30 3f 7b 4d 34 c0 4f cf a0 3a
       0.17765023 0.689901 -2.817229 0.0012268814
000360 e7 bd 6a bf 82 ab 7e bf 61 55 d6 3d b3 28 88 3f
       -0.9169602 -0.9948045 0.104655035 1.063742
000370 7b 60 8d 3e 0f d3 99 be 1a 9d d4 be f1 56 52 bd
       0.2761267 -0.30043837 -0.4152611 -0.051352445
000380 14 79 68 3e 3f 29 86 3d a2 64 e7 3c a6 f9 0a 3f
       0.22702438 0.06550836 0.028246228 0.54287183
000390 bb b8 d3 be 2e 34 e9 3e 00 dd 4f 3e 67 c6 05 3e
       -0.41351876 0.45547622 0.20299149 0.13063966
0003a0 e1 bc 5d 3e e6 27 3a 3e 41 5c 06 bf 58 af 2f be
       0.21654083 0.18179283 -0.5248452 -0.17156732
0003b0 8a ea d0 bf 66 5e ad bf 5d b6 ab 3e c1 75 ae be
       -1.6321576 -1.3544433 0.3353757 -0.34074214
0003c0 74 95 a8 be 72 42 28 be d1 4f 0e be 5d f9 44 3e
       -0.32926524 -0.16431597 -0.13897635 0.1923575
0003d0 b8 f0 d2 3e b1 e9 ca bd 42 e6 02 bf 1c 6d 8f 3e
       0.4119928 -0.09907854 -0.51132596 0.2801293
0003e0 4a a3 2c bf 82 b7 89 3e 21 a3 0a bf d4 f2 2d 3f
       -0.6743666 0.26897818 -0.54155165 0.6794865
0003f0 2b c1 a1 3d a7 9d fd be a1 aa 16 bf 16 db a8 3e
       0.07898172 -0.49534342 -0.5885411 0.3297965

encoder1_RNN.bias_ih_l1 f4 [150]
000000 3c a7 1d 3e 8c ce 70 bd 5b 72 4c bd 73 bc 63 be
       0.15395826 -0.05879073 -0.049913745 -0.22239856
000010 c1 ff 0d bf a8 e8 25 bf 6a 9c be be 8a f7 04 be
       -0.55468374 -0.6480813 -0.3722871 -0.12985054
000020 18 ed a9 3e d5 75 a7 3e 2f 1c 29 3e 22 ba 61 be
       0.331887 0.32707086 0.16514657 -0.2204366
000030 e3 6e 39 bd 13 15 d1 3e 0a 89 e8 bc 5e 24 eb 3d
       -0.045271765 0.4083639 -0.028385658 0.11481546
000040 60 36 c1 3e 30 bf 4f 3d d4 8e 42 3e 59 38 0f bf
       0.37736797 0.05071944 0.18999797 -0.55945355
000050 86 7c ea 3d 2c de e5 3d ba 45 31 3f 0f 6b bb 3e
       0.11449532 0.112240165 0.6924702 0.36605117
000060 56 55 1e 3c 74 14 16 bf 26 c5 c1 bd a7 ec 4b 3d
       0.0096639 -0.5862496 -0.09461431 0.049786236
000070 48 1e b4 bd 66 e8 e5 3e 57 52 b2 3d 6d 0a 18 be
       -0.08794838 0.44903868 0.08707111 -0.14847727
000080 ea d2 f3 3e f4 ca 53 be 01 e0 99 be 3f 96 76 3e
       0.47621852 -0.20682889 -0.30053714 0.24080752
000090 73 dc 1a bd 65 3d 6c 3b 9e 5c b3 3e f5 9e 91 3e
       -0.037807893 0.0036047336 0.350316 0.28441587
0000a0 df 93 de be 83 47 19 3e 09 19 5e be 41 7c 9b be
       -0.43472192 0.14968686 -0.21689238 -0.30368236
0000b0 70 a4 1d be 90 a2 30 3e 0e 39 76 3e 81 8f 7d bc
       -0.15394759 0.17249513 0.24045202 -0.0154761085
0000c0 eb 44 fd be 53 0e f7 be 66 9c 2a 3d a9 80 0b 3f
       -0.49466643 -0.48253116 0.04165306 0.54493195
0000d0 68 96 7b 3f 36 a8 94 be 5a e0 4c 3f 98 fc 8c 3f
       0.98276377 -0.29034585 0.80029833 1.1014585
0000e0 59 16 bc 3f 43 e9 09 3f d3 02 a9 bc a9 8b ce bf
       1.469432 0.53871554 -0.02063123 -1.6136371
0000f0 c8 13 1c 3f c9 3c 9f 3f 43 2d 6b 3f be 74 56 bf
       0.60967684 1.2440425 0.9186594 -0.83771884
000100 c8 31 ab 3f 87 87 41 3f 16 24 8b 3f 83 99 a8 3f
       1.3374567 0.75597423 1.0870388 1.3171848
000110 c8 39 28 be 7a a9 88 3f a3 c6 da 3f 50 c1 1b bd
       -0.16428292 1.067672 1.7091869 -0.038026154
000120 a4 cd 55 3d c1 97 bb 3d 38 1e 86 bf ba 39 c6 3f
       0.052198067 0.09159804 -1.0477972 1.5486367
000130 b4 6a 8b 3e 03 10 66 3f 5c 06 9d 3e ef f1 4d be
       0.27229846 0.8986818 0.30668914 -0.20111822
000140 c5 ff c1 3f b4 98 ab 3f 11 a7 e1 3e db 26 8a 3f
       1.515618 1.3405976 0.44072774 1.0793108
000150 3a f1 65 3f 32 49 91 3d 64 49 26 3f 93 40 3d 3f
       0.8982121 0.07094039 0.64955735 0.7392666
000160 ec e1 94 3e 24 d5 3b 3d d7 99 7e 3f f6 a1 b8 3f
       0.29078615 0.045857564 0.9945349 1.4424427
000170 d3 d6 96 3b 3e 0e e3 3f 15 44 df 3e 4d 2b 4d 3e
       0.0046032458 1.7738721 0.4360663 0.20036049
000180 ea 70 59 3f 23 2e 6e 3f 2a ef 6a 3f d3 70 3b 3f
       0.8493792 0.9303915 0.91771185 0.7321903
000190 c3 c1 52 be 65 77 dd 3d 21 f4 42 bf 3e b4 34 bf
       -0.20581727 0.10813788 -0.7615376 -0.7058753
0001a0 29 31 c5 3d 54 c6 9a be 14 96 93 3d 21 b8 6b 3e
       0.09628517 -0.30229437 0.072063595 0.23019458
0001b0 27 0f 4a bc 22 81 fa 3e 2f 0b ad be e2 1c a2 bd
       -0.012332714 0.48926646 -0.33797595 -0.07915665
0001c0 4a 73 26 bd 05 f7 01 3f 16 26 9d 3d c5 4c 88 bd
       -0.040637292 0.50767547 0.0767328 -0.066552676
0001d0 54 20 0e 3e 69 50 9b be 56 4d 8f be dc d0 4d 3e
       0.1387952 -0.30334786 -0.2798869 0.20099205
0001e0 a1 73 7d be e0 88 46 3f 0c 78 d7 be be 8c 1f bf
       -0.2475114 0.77552605 -0.42083776 -0.6232413
0001f0 53 4b 06 bf e1 9d 31 be bf 8f b1 3d 33 17 22 3e
       -0.52458686 -0.17345382 0.086699955 0.15829162
000200 86 05 e1 be d5 24 95 bf 93 40 8a bd 5d ad 19 3d
       -0.43949527 -1.1651865 -0.06750598 0.037518848
000210 67 8b ae be 9f 22 4f 3e 2a 4d 47 bd 2e e3 88 be
       -0.3409073 0.2022805 -0.048657574 -0.26735824
000220 07 15 d4 bd 54 0e d4 3d 96 cf 36 3c 54 9f 5a 3e
       -0.10355573 0.103542954 0.011157891 0.21349841
000230 00 22 ac bd 9d 58 6a 3d 0d 3c 92 3e 5a 58 39 bd
       -0.084049225 0.057213414 0.2856144 -0.045250274
000240 47 ec 17 3e 95 9b c7 be 34 85 c6 bd 72 a6 3a 3e
       0.14836226 -0.38985887 -0.09693375 0.18227556
000250 1b f3 90 3e 48 aa 34 be
       0.28310475 -0.17643082

encoder1_RNN.bias_hh_l1 f4 [150]
000000 ae 6e f1 3c 4f 82 9a bd b0 2a 00 bd 92 39 98 bd
       0.029471722 -0.07544386 -0.03129071 -0.07432856
000010 58 67 b7 be a1 c9 fa be 2f bb 5d be a8 0e 64 bd
       -0.35821033 -0.48981956 -0.21653436 -0.05567804
000020 c5 6c 87 3e 77 84 95 3e 7a 19 a3 3e 4d 77 89 be
       0.26450172 0.29202625 0.31855375 -0.26848832
000030 08 47 f7 3d 25 9a e1 3e c1 91 eb bd 58 17 01 3e
       0.12074095 0.44062915 -0.1150241 0.12606561
000040 bd 29 59 3e 2d 18 d1 3d 7d 94 88 3e 5e 2f b1 be
       0.21207328 0.10209689 0.26675788 -0.3460645
000050 35 c1 84 3e 0f e3 01 3e 0e 50 36 3f 72 67 b9 3e
       0.25928655 0.12684272 0.71215904 0.36211735
000060 17 57 23 3d 7d 11 1a bf 80 12 be bd 0f 92 b0 3d
       0.039877977 -0.60182935 -0.09280872 0.086216085
000070 c4 5d 67 bd 2c c5 bd 3e 99 5a e6 3d b0 58 8d 3d
       -0.056485906 0.37064493 0.11247749 0.069016814
000080 ea 3a f4 3e a0 c6 4e be 5b 6e 5f be cf 31 90 3e
       0.47701198 -0.20192957 -0.21819441 0.28163
000090 6b e1 76 bd ab ed 4f 3e ac 50 b3 3e 26 41 49 3c
       -0.06027357 0.20305507 0.35022485 0.012283599
0000a0 63 47 bb be 85 fb 1e ba ef fc f4 bd 3a cf cf be
       -0.365779 -0.0006064701 -0.11962306 -0.4058779
0000b0 ae ef 9a be 1a c4 87 3e 5c 81 fd 3d 4c aa 49 be
       -0.30260986 0.265168 0.12378189 -0.1969387
0000c0 8d 78 dd be 63 12 cd be 00 0d 20 3e 70 50 3c 3f
       -0.43256035 -0.4005309 0.15629959 0.7356024
0000d0 a7 8c 76 3f 85 b7 c7 bd dd 39 3f 3f 99 b5 8a 3f
       0.9630837 -0.097518004 0.7469767 1.0836669
0000e0 66 7c c8 3f a9 2a d0 3e a9 7a 6f bd 52 8a ac bf
       1.5662963 0.40657547 -0.058466587 -1.3479712
0000f0 af 05 ff 3e 4c 91 83 3f ff f6 42 3f 45 5d 47 bf
       0.49809024 1.0278716 0.76158136 -0.77876693
000100 ff 76 ae 3f a5 e4 54 3f c1 25 81 3f 64 ea b2 3f
       1.3630065 0.83161384 1.0089647 1.397778
000110 c8 88 10 bd 76 73 8c 3f e0 06 db 3f 31 11 a5 bd
       -0.035286695 1.0972736 1.7111473 -0.080599196
000120 75 2b e8 3d 4d 99 48 3d be 7a 86 bf 96 e9 bd 3f
       0.11336414 0.048974324 -1.0506208 1.483691
000130 92 49 7a 3e ec aa 66 3f e7 76 8f 3e cb f4 85 be
       0.24442127 0.90104556 0.28020403 -0.26163325
000140 74 95 d6 3f 74 62 a5 3f 50 ab 9d 3e 3e 84 6b 3f
       1.676436 1.292067 0.30794764 0.9199866
000150 a3 79 64 3f 4e 98 cb bd cf 91 07 3f 4f 72 0d 3f
       0.892481 -0.09941159 0.5295686 0.55252546
000160 44 01 ef 3e 44 9c df bd f4 e5 8b 3f 00 90 9e 3f
       0.46680653 -0.10918477 1.0929551 1.2387695
000170 d0 dd 98 3d 0c 2f da 3f a1 f6 d7 3e 68 9e 6b 3d
       0.074641824 1.7045608 0.4218035 0.057524115
000180 74 c7 6a 3f 81 a8 8f 3f 56 2f 48 3f 31 98 08 3f
       0.9171059 1.1223298 0.7819723 0.53357226
000190 55 20 72 be 38 00 bc bd c4 e5 79 3d d9 3a 35 bf
       -0.23645146 -0.09179729 0.061010137 -0.7079292
0001a0 7c 4c 84 3e e1 d9 9d be aa b1 97 bd 31 06 5b 3d
       0.25839603 -0.3083029 -0.074069336 0.0534727
0001b0 b1 d1 19 3d 25 2a f4 3e ab 1a 76 be 1d 9e 43 3d
       0.037553493 0.47688404 -0.2403361 0.04775821
0001c0 f5 c4 bc bc b0 66 f8 3e 88 62 0b be 70 b1 18 be
       -0.023043135 0.48515844 -0.13611805 -0.14911437
0001d0 b9 d0 27 3e 09 87 cf be 99 b6 50 be 83 f6 27 3d
       0.16388215 -0.4053271 -0.20382155 0.041006576
0001e0 76 86 35 be 2f 10 d7 3e 79 a2 b3 be cc c4 9f bf
       -0.17727074 0.42004535 -0.35084894 -1.2481933
0001f0 43 15 36 be a7 c5 8c bd 13 d3 8a be ed aa 4b bd
       -0.17781548 -0.06873637 -0.27114162 -0.049723554
000200 1f 65 0d 3d c2 02 b4 bf 9f c3 35 be 98 e0 61 3d
       0.034520265 -1.4063342 -0.17750405 0.05514583
000210 d7 68 0f be c5 b8 db ba a2 9b 82 bc 68 2b db 3c
       -0.14004837 -0.001676344 -0.015943352 0.026754096
000220 21 95 64 3e 3d 79 2e 3d ad 31 24 3b ef 31 16 3e
       0.22322513 0.04259609 0.0025054023 0.14667486
000230 eb a6 60 3c 16 49 84 bd 7a 60 24 3f 94 f0 42 bd
       0.013711671 -0.064592525 0.6420971 -0.047592714
000240 5f 19 a5 3d 16 e2 1b bf cf d5 51 3d d2 f7 3d bc
       0.0806148 -0.60891855 0.051229294 -0.0115947295
000250 30 7c 39 3e 75 c7 92 bd
       0.1811378 -0.0716695

encoder1_linear.weight f4 [1, 50]
000000 1c 6e 56 bd 58 a2 73 3b b6 42 ef 3d 18 f0 a3 be
       -0.052351102 0.0037175622 0.11682646 -0.32019114
000010 cf e3 dd 3c 5f 8d 58 3e d0 52 5a 3d 06 ab 84 3e
       0.027086167 0.21147679 0.053301632 0.2591173
000020 e9 e1 ab 3b 1e 0f 2c bf d1 d0 9e bd 17 a5 bf 3d
       0.0052454364 -0.67210567 -0.07754672 0.0935766
000030 4b 8e a1 3c 8c d0 87 3c 20 b9 35 3b 98 4a 03 3d
       0.01972117 0.016578935 0.0027728751 0.03205356
000040 ca 93 7e bb 67 68 5c bd 33 29 4e 3c 82 31 bc 3c
       -0.0038845413 -0.053810503 0.012583065 0.022972826
000050 c8 35 b5 bd ac 54 ed 3d 43 bc e5 3d 4f cb 6e bd
       -0.088481486 0.115884155 0.11217549 -0.05829936
000060 0c f7 80 3e 1f fa 9f bd 50 01 7a bb 6a ed ec 3b
       0.25188482 -0.07811379 -0.0038147755 0.0072304504
000070 b5 97 f6 bd 74 4d f0 bd 3e 76 dc bc 76 c4 15 bb
       -0.120406546 -0.11733523 -0.026911851 -0.0022852696
000080 24 4a a7 3b b6 d2 58 3d 4e fa 05 3d d6 eb ce 3b
       0.005105274 0.052935325 0.032709412 0.006314735
000090 49 46 5a bb 50 4e 28 3c f6 90 27 ba 9f 09 21 bd
       -0.0033306053 0.010272577 -0.00063921453 -0.039315816
0000a0 2f 0c 74 3c ee c8 77 3d 04 a9 4e 3c 3f db fd bd
       0.014895483 0.060494356 0.012613539 -0.123953335
0000b0 6c 65 ff bc a1 16 b9 3a c6 7b 8d 3c 71 a9 b4 3c
       -0.031176291 0.0014121124 0.017270934 0.022053452
0000c0 13 04 0c 3d 48 ae 42 bb
       0.034183573 -0.002970593
