rnn_twc/saved_model/diff_rates/K1_K2_N(3_3_9)/bi_sigmoid/SNR1(-1dB)SNR2(6dB)/model.pth (torch, 704053 bytes, 58 tensors)

weight_power1 f4 [9]
000000 9f 65 aa 3f 35 32 b5 3f 2b 62 9a 3f 59 03 81 3f
       1.3312262 1.4155947 1.2061208 1.0079147
000010 8c 9f 61 3f 1e 00 7b 3f 84 40 66 3f f8 dd 72 3f
       0.88134074 0.98047054 0.89942193 0.9486995
000020 af c2 90 3f
       1.1309413

weight_power2 f4 [9]
000000 07 7f 84 3f 8b 77 a8 3f 91 fb 92 3f 0b ac 9d 3f
       1.0351266 1.3161482 1.1483022 1.2318128
000010 d9 a9 52 3f 83 38 89 3f 09 5b 68 3f 67 d5 87 3f
       0.82290417 1.0720371 0.9076391 1.0612
000020 25 63 7d 3f
       0.9897941

weight1_merge f4 [9, 2]
000000 6a 6a fd 3e 9c 31 1a 3e 93 a4 8a 3e fc 6d 52 3e
       0.4949525 0.15057987 0.27078685 0.20549768
000010 ed c4 6d 3f 01 10 54 3f e2 9f 86 3f eb 85 75 3f
       0.9287861 0.8283692 1.0517542 0.9590747
000020 7f 52 3e 40 49 0d 09 40 4a dc b5 3f 35 84 f8 3f
       2.9737852 2.1414359 1.4207852 1.9415346
000030 83 4c 17 3f 41 75 64 3f 7b b7 12 3f 95 0b 1a 3f
       0.5910112 0.89241415 0.5731122 0.6017392
000040 fb a0 9b bd 6b 2f 75 3f
       -0.07599064 0.9577548

weight2_merge f4 [9, 2]
000000 75 e5 0e 3a 0b fd 66 bd 1f 03 23 3f 7c 99 ea 3d
       0.0005451062 -0.056393664 0.6367664 0.11455056
000010 58 32 88 40 a4 e2 3e be 8c a8 7e ba fb 2e de 3c
       4.2561455 -0.18641144 -0.00097144465 0.027122011
000020 6f 4a ec 3c 2b 0f 48 40 34 b2 9a 3d 66 97 39 3e
       0.028844086 3.1259258 0.07553521 0.1812416
000030 22 e0 f3 3d 38 c4 62 3f 09 11 ee 39 ce 0f 39 3f
       0.11907984 0.88580656 0.0004540759 0.7228974
000040 77 64 52 bb d2 c4 03 40
       -0.0032103339 2.058888

encoder1_RNN.weight_ih_l0 f4 [150, 4]
000000 85 24 95 bd 33 2c 4b bd 2c aa ae 3e 4f 09 21 be
       -0.07282356 -0.0496027 0.34114206 -0.15726207
000010 ee f0 32 bf 67 d7 32 be fb af f9 3d 8e f7 85 3f
       -0.6989888 -0.17464982 0.12191769 1.0466173
000020 ed d8 4f 3d d3 ab e7 bd 76 e2 89 3e 7a d7 99 bd
       0.050743986 -0.1131207 0.26930588 -0.07511802
000030 59 81 1c 3e fc e2 70 3b db 0b 6b be 44 9b 73 3f
       0.15283717 0.0036756387 -0.22953741 0.9515879
000040 df e7 2c 3e fe 4c ab be af b8 94 bd 47 f5 31 3e
       0.16885327 -0.33457178 -0.07261788 0.17378722
000050 95 cb b9 bc b1 82 0e be a0 1b cd 3e d2 1c 77 3f
       -0.022680083 -0.13917042 0.4006014 0.9652835
000060 48 c9 30 bf 10 6b 49 bc 39 2c 2a bb 13 c5 91 3f
       -0.6905713 -0.012293592 -0.00259663 1.1388267
000070 c2 8d 92 3e 02 49 0a bf 22 13 92 be 2f 34 a1 be
       0.28623778 -0.5401765 -0.28530222 -0.31485125
000080 6c 58 54 3f 74 29 ae 3e 8b 94 33 3f a2 a6 9c bd
       0.8294742 0.34016 0.70148534 -0.0764897
000090 41 95 dd 3d 64 ae 0e bf de 5a 7e be af bb b8 3e
       0.108194835 -0.5573485 -0.2483935 0.3608069
0000a0 59 d2 8b 3d 63 bf fc be 41 8d 40 bd 3e c0 c3 be
       0.0682723 -0.49364766 -0.04700971 -0.38232607
0000b0 df f4 4e be e3 5a 07 be 3b 70 25 3f 0c 10 13 bc
       -0.20210598 -0.13218264 0.64624375 -0.008975994
0000c0 96 65 84 be 6e 4a 01 bd cf 25 c2 be ed f3 d3 bd
       -0.25858754 -0.031565122 -0.3791947 -0.103492595
0000d0 90 ab 1d bc 71 27 5c 3e 57 32 47 3d 77 e3 f1 be
       -0.009623423 0.2149942 0.048631992 -0.47243854
0000e0 18 d7 fc bd 21 51 04 3e 47 37 00 3f ef 6a 09 3d
       -0.123457134 0.12921573 0.50084347 0.033549245
0000f0 7a 86 a4 be 19 5a 3b 3f 6e af 34 3e a1 5f 8b bd
       -0.32133847 0.73184353 0.17645046 -0.06805349
000100 47 d3 a0 be 50 f7 93 be d3 dd 34 bd 33 1c 80 bf
       -0.31411192 -0.28899622 -0.04415686 -1.0008606
000110 1f 92 13 bd 60 12 a0 3d c7 08 7c be 6e 94 56 3f
       -0.036028024 0.07816005 -0.24612723 0.83820236
000120 01 7e 7d bd a5 15 a2 be 87 41 e4 be a3 c7 a8 bf
       -0.061887745 -0.31657138 -0.44581243 -1.3185924
000130 ec a1 6c be d5 db b8 39 89 74 1b 3e 61 c5 28 3e
       -0.23108643 0.00035259002 0.15181173 0.16481544
000140 2b 75 8c be 03 1f 15 3e 88 b0 ba 3e 23 c6 79 bf
       -0.27433142 0.14562611 0.36462808 -0.9756796
000150 5b 0b c8 be 61 85 8c be df a1 44 be 90 12 88 bf
       -0.39071164 -0.2744551 -0.19202374 -1.0630665
000160 47 8f 17 bf dc 28 92 3e cd de 26 3e b0 00 e8 be
       -0.59203 0.28546798 0.16295929 -0.45313025
000170 d7 9a 41 bf 12 fa 29 be 6a d2 e5 bd 5b ae c7 be
       -0.7562689 -0.165993 -0.11221774 -0.3900021
000180 cf 56 61 bc 04 77 3e be 3a 4c 11 3f 97 ef 83 3d
       -0.013753607 -0.18600088 0.5675694 0.064421825
000190 8c 30 b1 bc 62 8c 3b 3d 4a df 32 3e 61 16 c6 3e
       -0.021629594 0.045788176 0.1746799 0.3868895
0001a0 21 ce fd bd cf ee 7a 3c 28 e9 02 3f 58 e4 a1 be
       -0.123928316 0.0153157255 0.5113702 -0.31619525
0001b0 9e 9b 26 3d 1b a3 7a bd 05 94 c6 be fc 83 e4 bd
       0.040675752 -0.061190706 -0.38784805 -0.111579865
0001c0 d2 93 e2 bd fc 28 f9 be 4a b0 58 be 23 fb 43 3f
       -0.11063351 -0.4866408 -0.21160999 0.7655508
0001d0 f9 07 df be 16 76 40 3d f3 b3 9e 3e f1 aa 94 bd
       -0.4356077 0.046987616 0.30996665 -0.07259167
0001e0 8a a7 26 bd 3a 47 02 3e 7e ae 67 be 3f 35 d8 bd
       -0.04068712 0.12722483 -0.22625157 -0.10557031
0001f0 85 af 67 bf 97 57 23 3d 9d b3 e9 3e 09 2e 2b 3e
       -0.90502197 0.039878454 0.45644847 0.1671678
000200 b2 0e 52 be 3c f7 4a bf 15 ad 82 bd dd b7 01 40
       -0.20513418 -0.792835 -0.06380669 2.0268471
000210 24 aa 4d be b0 5d 97 3e 97 2c d9 3d fa 64 c7 3d
       -0.20084435 0.29563665 0.10604208 0.097360566
000220 62 c4 c5 be 13 94 d0 be 96 9b 7c be 44 d7 e6 bb
       -0.3862639 -0.40737972 -0.24668726 -0.0070447046
000230 72 cd 6c bf ee 40 d8 3d 62 f6 b4 be bf 01 61 bf
       -0.92500985 0.10559259 -0.35344225 -0.8789329
000240 b0 96 e0 bc 51 e2 30 3d b7 28 ed 3d 9b 5a 3d bb
       -0.027415603 0.043184582 0.11580031 -0.0028893116
000250 73 dc 5b be 3b 24 03 be 4f 96 4f 3e db af 02 c0
       -0.21470813 -0.1280679 0.20272182 -2.0419834
000260 22 93 0a be 09 9d ba be 82 2a 3a 3e 83 3f e8 be
       -0.13532689 -0.36447933 0.18180278 -0.45360956
000270 8e 0a cd 3c 07 c3 d3 3d e5 60 d5 3e b6 4e 7a be
       0.025029447 0.10339933 0.41675487 -0.24444088
000280 97 54 83 be 40 56 63 3c fc d5 fc 3e b1 9b 4f 3e
       -0.25650474 0.013875544 0.49382007 0.20274235
000290 ab 54 08 3f ef 07 96 bf fc 03 57 3b 63 fd 82 3d
       0.53254193 -1.1721171 0.0032808771 0.06395986
0002a0 ab 06 d4 3e 30 10 15 3e 4e f4 14 3d 06 51 c8 be
       0.41411337 0.14556956 0.0363658 -0.39124316
0002b0 f7 28 89 be e4 b3 59 be cb d8 dd 3e da bd 12 be
       -0.26789066 -0.21260029 0.43329462 -0.14330235
0002c0 f7 52 fe 3e ff 8f 97 be b6 e9 35 be ad fe da 3e
       0.49672672 -0.29602048 -0.17764935 0.42772427
0002d0 6a 78 31 3f ba aa 03 3f 33 30 a8 bc d6 b4 37 be
       0.6932436 0.51432383 -0.020530796 -0.17940077
0002e0 ea 5f 05 bf b9 08 b3 3d d9 04 80 3a 70 db 0f 3f
       -0.5209948 0.08741898 0.000976707 0.5619421
0002f0 f3 b6 53 3e b9 17 3b be 1a f9 e7 3e b7 28 2d c0
       0.20675258 -0.18270768 0.45307237 -2.70561
000300 f4 3e cb 3d 3c 33 13 3d 7f 1b 8d bd bc c1 27 bf
       0.09924117 0.035937533 -0.0689001 -0.6552999
000310 67 de 59 3e 1d a1 c9 be 51 04 41 3e 99 de 22 bd
       0.21276246 -0.39380732 0.18849303 -0.039763067
000320 d7 01 85 3e d8 5c bd 3e 10 16 87 bd f4 d4 dd 3e
       0.25977966 0.36984897 -0.06596005 0.43326533
000330 71 b3 31 3e 8b 7b 86 be 7c a8 86 3f 86 52 12 3e
       0.17353608 -0.2626613 1.0520167 0.14289293
000340 5a 49 93 bf 62 4d 83 3e e7 0e 87 3e e7 dd 13 3e
       -1.150676 0.25644976 0.26378557 0.14440118
000350 6b 92 0a 3f 89 9b c4 3e f3 38 ab 3e c2 44 05 3f
       0.54129666 0.38399914 0.33441886 0.5205804
000360 30 6e 5e bf 30 b5 40 3f a9 b2 9a 3e 03 e1 00 be
       -0.8688688 0.7527647 0.30214432 -0.12585835
000370 34 07 a7 3e 18 46 b2 3e 30 25 96 bb b3 4e d2 3d
       0.32622683 0.34819102 -0.00458207 0.10268917
000380 80 40 3a be c1 6e 70 3e 96 c1 f9 3c a3 9f fe 3d
       -0.18188667 0.2347975 0.030487817 0.12432792
000390 ad 8c b1 3c fa ff 21 3f 07 bf d4 3e 53 ef 87 be
       0.021673525 0.63281214 0.41551992 -0.26549777
0003a0 50 0f 07 bf 72 a1 91 be 66 35 c9 3e fd d8 79 3e
       -0.5275774 -0.28443485 0.39298552 0.2439918
0003b0 0b 02 c0 3d d2 f5 5c 3e 4f 98 f4 3d 1e bc 4d be
       0.0937539 0.21578148 0.11943113 -0.20091292
0003c0 bc 0c 5b bf 93 e1 8e bd de 24 34 3d 92 13 d2 3e
       -0.85566306 -0.069766186 0.04398047 0.41030556
0003d0 cc 73 01 3f f6 da 40 3e e1 8d b3 3d 4d 35 8a bd
       0.50567317 0.18833527 0.08767296 -0.067484476
0003e0 f6 24 f0 be 45 57 9f be 05 2b 32 3f 41 28 1c 3d
       -0.469032 -0.3112127 0.6959689 0.038124327
0003f0 7e 18 7b bf a6 bd 03 3f 42 c0 9c 3e 00 71 9d 3d
       -0.9808425 0.51461256 0.3061543 0.07687569

encoder1_RNN.weight_hh_l0 f4 [150, 50]
000000 f0 f5 dd 3d e0 90 30 3e 1a 1a a2 3c 18 75 3d 3e
       0.108379245 0.17242765 0.019787837 0.18501699
000010 a3 ce 22 bf eb f8 fd bd e2 28 03 3e 87 6f 1d bf
       -0.6359655 -0.12400993 0.12808564 -0.614983
000020 b8 43 73 bd d2 9e fd be bd 31 9e 3c 88 22 d2 3d
       -0.059390754 -0.49535233 0.019310826 0.102604926
000030 81 b9 8f bd 72 5a 2b be e2 25 0b be 65 c2 5e 3e
       -0.07017804 -0.16733721 -0.1358867 0.21753843
000040 e3 11 40 3b c8 18 c7 3e 1a 88 d0 be 87 bc a1 be
       0.0029307536 0.38886094 -0.40728837 -0.31589147
000050 bf 11 b8 3e da 74 27 be f1 6c 50 3d af e7 b3 bd
       0.3595104 -0.16353169 0.050885145 -0.087844245
000060 d5 41 e3 be b2 c1 11 bc e0 fd 88 3d 33 e8 85 3e
       -0.44386163 -0.008896278 0.06689048 0.26153716
000070 77 e5 99 3d 2f 5e 31 3d 51 a8 fd 3e e3 68 80 3c
       0.0751447 0.04330271 0.49542478 0.015675014
000080 66 66 3e 3d 41 de 38 bd b0 4f 27 3d c1 ef 94 bd
       0.046484374 -0.045133833 0.04084748 -0.07272292
000090 37 25 69 be 4a 53 b8 3e ec d7 80 3e 17 b5 ca 3e
       -0.22768103 0.36001045 0.25164735 0.39591286
0000a0 a8 23 2a bd 87 f1 6a 3e 3c 21 16 3e fa 12 a8 3e
       -0.04153791 0.22943698 0.14661115 0.32826978
0000b0 7f 7f cc 3e 33 10 80 be ec e1 4d be 68 02 ac 3e
       0.39941022 -0.2501236 -0.20105714 0.33595586
0000c0 e7 5e 04 bf 9b db 87 be 0a 99 37 bf 04 43 ab bf
       -0.5170731 -0.26534733 -0.71717894 -1.3379827
0000d0 4c e8 56 3e b0 6d 02 3f 49 f0 9b be 9a a7 8b 3f
       0.20987052 0.5094862 -0.3045676 1.0910523
0000e0 2f 9d 7f be a6 b2 a2 3e bb 62 86 be 6c b9 74 3d
       -0.24962305 0.31776923 -0.262472 0.059747145
0000f0 c9 94 65 be ed 93 4d bf c3 1c 16 3d c4 8d 3d bd
       -0.22420038 -0.8030384 0.036648523 -0.046277776
000100 1f 83 b6 3e 7d 4c a5 be 1d f0 91 3e 8d 30 82 be
       0.35646912 -0.32284918 0.28503504 -0.25427666
000110 d4 29 75 3f 6a a2 8d 3e 93 94 3e 3f ff d8 a7 be
       0.9576695 0.27662975 0.74445456 -0.32782742
000120 f1 ef 42 be 9f eb 2a bd ac a2 28 3d 1e 30 9f 3e
       -0.19036843 -0.041728612 0.04117076 0.31091398
000130 7b 45 aa 3c 36 c8 f1 bf ec d4 d1 3e 87 e1 fe be
       0.020785084 -1.8889225 0.4098276 -0.4978144
000140 ac 82 c7 3e 61 e8 63 3e 1d a3 1b bf 89 46 83 3e
       0.38966882 0.22256614 -0.60795766 0.25639752
000150 43 44 9e 3e 18 33 b0 be 5a 4b 48 bb e2 7f 90 be
       0.30911455 -0.3441398 -0.003056249 -0.28222567
000160 d3 c6 4c be 43 6a 63 3e f5 8a e8 3e 7a 37 e1 bd
       -0.1999772 0.22208504 0.45418516 -0.109969094
000170 f4 47 83 be 82 f4 05 bf 7a b6 1d bf b0 d6 1e bf
       -0.25640833 -0.52326214 -0.6160656 -0.6204634
000180 2e 38 37 bf 36 28 16 3e 65 71 99 be e6 f3 b6 bd
       -0.715701 0.14663777 -0.29969326 -0.08933239
000190 43 a3 c5 3e ec 51 61 bd c0 91 0d be ee 9a 6e be
       0.3860112 -0.055009767 -0.1382513 -0.23301288
0001a0 51 c4 23 bf 33 38 b7 be e2 ea b7 3e 25 55 b2 3d
       -0.6397143 -0.35785064 0.3592139 0.08707646
0001b0 38 75 61 bd 4c 19 a9 3e 4b 67 5c 3e f3 1b b6 3e
       -0.05504343 0.33027112 0.21523778 0.355682
0001c0 7b 7e 35 3e e2 87 09 3e 11 b0 04 bf 45 13 4c 3c
       0.1772403 0.13430741 -0.51831156 0.012455766
0001d0 8e 07 59 3e 9b a6 85 be 7b 27 06 3d 75 26 c0 3d
       0.21194288 -0.26103672 0.032752495 0.09382335
0001e0 0a 0b ce 3d d0 e4 24 3f 4e 8b 27 bf 97 47 a9 ba
       0.10060699 0.6441164 -0.6544694 -0.0012915012
0001f0 4e 44 c1 be dd cf b8 be b9 0e 6a bd e9 dc 15 3e
       -0.37747425 -0.36096087 -0.057142947 0.14635052
000200 4f 71 96 be 3c ff 12 3f 70 39 7c be 71 ab 62 3d
       -0.29383323 0.57420707 -0.24631286 0.05533928
000210 d8 16 02 be b1 17 3b 3e 9b 51 2c be 93 2a de be
       -0.12704027 0.18270756 -0.16828005 -0.43391857
000220 e8 f8 bc bc c6 26 68 3d 39 aa 1f be 2b ad c8 3e
       -0.023067906 0.056677602 -0.15592279 0.39194617
000230 a0 23 eb be bf 55 33 3e 1e c0 13 3e 67 9a e6 3e
       -0.45925617 0.17513178 0.14428756 0.45039675
000240 6b f7 47 be 24 d3 59 3d 11 26 29 3f 96 d8 ab be
       -0.19527976 0.053179875 0.6607371 -0.3356368
000250 f0 cc 0c 3f d0 58 5f be 3e 90 aa 3d fb df 1f 3f
       0.5500021 -0.21811223 0.08328293 0.6245114
000260 2d e9 44 bd 39 ed cc 3d 0b d1 52 bd 4f 75 43 3d
       -0.048073936 0.10006184 -0.05146889 0.047719296
000270 29 59 8a 3e 28 00 cc be 97 4b b2 be ca b5 d2 be
       0.2702115 -0.3984387 -0.34823295 -0.4115432
000280 da 4d 17 3f 36 99 b6 3e ff fe c9 3e bf a6 39 3f
       0.5910317 0.35663766 0.3945236 0.7252006
000290 8c 88 d4 be e8 6a be 3d e4 94 9a be 0b 9f 00 bc
       -0.41510427 0.092977345 -0.3019172 -0.007850419
0002a0 65 89 82 be ef 18 ea 3e 3f 10 4d 3f 78 c6 b6 bd
       -0.2549545 0.45722148 0.80102915 -0.08924574
0002b0 4e c6 a7 be ec 32 12 bf 8f dc 34 be 63 3a 81 be
       -0.32768482 -0.5710895 -0.17662261 -0.25239858
0002c0 3b 54 1d be b3 ab 61 be 11 75 3c bf c3 10 e2 3e
       -0.15364163 -0.22038154 -0.7361613 0.44153413
0002d0 c9 8c ca be 93 8d 6e 3e b1 c7 49 3f 0e e1 71 be
       -0.39560536 0.23296194 0.7882033 -0.23621008
0002e0 18 c9 91 be 3e d5 82 bf 06 90 18 bf d8 10 17 bd
       -0.28473735 -1.0221326 -0.5959476 -0.036881298
0002f0 7e ae 22 be 3b 8b 14 3e c9 d5 6e be fa 6e 93 bb
       -0.15886876 0.14506237 -0.2332374 -0.0044993134
000300 56 37 37 3e 64 e3 80 3e 34 9d 99 3f 53 6a ec be
       0.17892203 0.25173485 1.20011 -0.4617487
000310 04 84 13 be 32 3b e5 3d 33 f8 31 bf 1a 71 24 bd
       -0.14405829 0.11192931 -0.69519347 -0.040146925
000320 ee d7 dc 3c fa 2d 08 bf 8d a8 09 3f cd ee f5 3c
       0.026958432 -0.53195155 0.53772813 0.030021096
000330 d8 ef bf 3e a6 81 51 3e 1c 0e 87 be c3 39 de be
       0.37487674 0.20459613 -0.26377952 -0.43403444
000340 5b bd ce be 17 00 c6 be 90 0b b7 3d ea 53 32 bd
       -0.40378842 -0.38671944 0.08937752 -0.043537058
000350 0d 6b b8 be 78 32 04 bf 1b c3 59 be 42 83 7b be
       -0.36019173 -0.5163951 -0.21265833 -0.2456179
000360 92 80 87 3e 03 42 89 3d 65 36 ce 3d da c9 6d 3c
       0.2646528 0.06702044 0.10068969 0.014513457
000370 0d 40 c0 3d cf d7 09 be ce 62 97 be 66 44 93 3e
       0.09387217 -0.1346123 -0.2956757 0.2876312
000380 56 d0 d2 3e 5e f1 11 3e 06 fb 15 bf c1 5e 8a 3e
       0.41174573 0.1425223 -0.58586156 0.27025416
000390 77 fe 9b be 4f ca fb 3e 72 b6 3c be ed 42 8a 3e
       -0.3046758 0.49177787 -0.18428972 0.27004185
0003a0 69 2a 86 3d a9 cb 15 3f 39 e6 7e be 4c f5 1f bf
       0.06551058 0.58513886 -0.2489251 -0.6248367
0003b0 69 c7 88 3e e6 8a c6 3e cb 17 52 3e 10 32 15 bf
       0.26714638 0.38777846 0.20516889 -0.58279514
0003c0 7f a2 70 3e d6 79 45 bd 76 f9 94 be 5e fa a7 be
       0.23499487 -0.048211895 -0.29096574 -0.32808203
0003d0 65 ad db 3e ae b3 f2 ba e7 d6 82 be 51 87 ef be
       0.42905727 -0.0018516683 -0.25554582 -0.46782926
0003e0 36 db 6c 3e 96 4a c3 be f5 89 19 be 94 a5 a6 3e
       0.23130497 -0.38142842 -0.14994033 0.325482
0003f0 fa 36 85 3e e1 12 2a 3f 5d 35 e5 3d 38 98 80 bd
       0.26018506 0.66435057 0.11191819 -0.062790334

encoder1_RNN.bias_ih_l0 f4 [150]
000000 f1 03 86 3e 4c f0 09 bf 48 ee ff bd 46 41 b7 3c
       0.26174882 -0.5388229 -0.124966204 0.022369992
000010 3d 11 15 be bd 1a ff 3d 6a fa 9c be da ec 22 3e
       -0.14557357 0.12456272 -0.306598 0.15910664
000020 e4 a6 55 3d 12 02 67 bc ca 3c 07 bf 77 12 01 3e
       0.052161112 -0.014099615 -0.5282713 0.126047
000030 4b 52 65 be db 47 53 be 13 9b 43 be 23 5b 94 be
       -0.22394674 -0.2063288 -0.19102125 -0.28975782
000040 8a 8d 0b 3e aa dd 08 bf ef ca 16 bf 8e 66 cc bc
       0.13628212 -0.5346323 -0.589034 -0.024951246
000050 39 52 c5 bd 34 be 7e be 11 c6 f1 3d dc f1 ca be
       -0.09634823 -0.24877244 0.11805356 -0.3963765
000060 32 31 38 bd 70 b4 13 be ae b5 e2 be 59 9e a2 bd
       -0.04496879 -0.144243 -0.44279236 -0.07940359
000070 1d 64 07 bf 79 ae 2b bd d7 f7 af 3d 7e 13 34 be
       -0.52887136 -0.041914437 0.085921936 -0.1758556
000080 0e a1 29 bf 13 c9 2e be ed fa c2 be 7b 0c 1f be
       -0.66261375 -0.17068891 -0.38082066 -0.15532105
000090 d1 26 c2 be a9 8c a8 bf d8 24 bb be 54 d4 e8 bd
       -0.3792024 -1.3167926 -0.36551547 -0.113686234
0000a0 41 78 da bd e2 74 03 3f 26 1d d4 bd 40 86 c7 bd
       -0.10667468 0.51350224 -0.10357122 -0.09742403
0000b0 57 65 9c be 13 6a d7 3e 1d 2f 99 3d 14 d9 6b be
       -0.30546066 0.42073116 0.07479689 -0.23032027
0000c0 38 bc f0 bd cc 49 98 3e df 5b 82 3e f2 80 08 3f
       -0.1175465 0.29743803 0.25460717 0.53321755
0000d0 53 cb c3 3e 19 67 aa 3e d3 ce ad 3e d1 a1 39 3e
       0.38241062 0.33281782 0.33946857 0.18128134
0000e0 18 28 a3 3e 17 70 27 3f 66 b4 8a 3e a6 d6 6b 3e
       0.31866527 0.6540541 0.27090758 0.230311
0000f0 4b 4f 98 be cd 5f b0 3e 9b df 73 3e b6 10 d3 3e
       -0.29747996 0.3444809 0.23815767 0.41223687
000100 73 ed ea 3e 5b 7f 0f 3f ea 4e ce 3d 8a 95 40 3e
       0.45884284 0.56053704 0.100736454 0.18807045
000110 76 38 c9 3e 48 2b 0f 3f a3 52 a1 3e 92 30 e6 3e
       0.3930089 0.55925417 0.3150836 0.4495893
000120 3b b9 9b be ce 2d 01 3f 01 c7 82 3d 3a 96 f3 3e
       -0.30414757 0.5046052 0.06385613 0.4757555
000130 a7 07 c3 3c 94 8f 2f 3e 04 c6 db 3e 64 7a a7 3e
       0.02380736 0.17144614 0.4292451 0.32710564
000140 9e ca c1 3e e2 cb ea 3e 4f 1a 37 3e be fd 66 3e
       0.37849897 0.45858675 0.1788113 0.22557732
000150 98 10 28 bf 8b c2 38 3f c7 a4 13 3f f6 4a e8 3e
       -0.6565032 0.7217185 0.57673305 0.4536969
000160 60 85 55 3f 43 ea 4f 3e d3 fd 8b 3e b9 06 72 3e
       0.8340664 0.20304208 0.2734209 0.23635377
000170 00 c7 18 3e b8 07 9f 3e ca 9d 04 3f 7c 94 db bd
       0.14919662 0.31060576 0.51803267 -0.107216805
000180 29 13 a1 3e 32 66 b1 3e d6 de 14 3e af ec 7a be
       0.3145993 0.3464828 0.1453813 -0.2450435
000190 e9 7b 01 3e 6c fa 9d 3e dc 7b 11 3e 59 e4 70 3e
       0.12644924 0.3085512 0.14207405 0.23524608
0001a0 94 84 a5 be df e5 c0 bd 73 39 76 be ff 90 1d be
       -0.32327712 -0.094188444 -0.24045353 -0.15387343
0001b0 2f 46 71 bd 9b f1 20 be ee de ff 3d 2a df 3c bd
       -0.058904823 -0.15717165 0.12493692 -0.046111263
0001c0 b6 ad 4c bd 53 48 85 bd ad 86 c9 3d 2f f3 cf bd
       -0.04997035 -0.065079354 0.098401405 -0.101538055
0001d0 f0 b6 6a 3d 4d cc ff 3d 49 ad 0b be 4a 8b 75 be
       0.05730337 0.12490139 -0.13640322 -0.23978916
0001e0 bb 33 ca 3e ee 9d 40 be 7d fa 0f 3f 20 e6 d8 bd
       0.39492592 -0.18810245 0.5624159 -0.10590768
0001f0 40 20 cf bc 22 83 39 3d 86 d3 4c bd 96 f6 d3 3d
       -0.025283933 0.045291074 -0.050006412 0.10349767
000200 b3 c3 00 3f 32 41 92 be 35 84 08 3e ad ed c7 3c
       0.50298613 -0.28565365 0.13331683 0.024405325
000210 63 6f 95 bd 3c 8d 06 3e 3f 2e 97 bd 6f 7d 99 3e
       -0.07296636 0.13139814 -0.073818676 0.2997851
000220 08 6a 56 be 33 ca 52 3e d2 02 93 3e 09 40 47 3d
       -0.20938885 0.20584945 0.2871309 0.048645053
000230 a1 9c 1a 3e 3d 38 66 be aa 6b f6 bc 9a d7 a4 bc
       0.15098812 -0.2248239 -0.030080635 -0.020122338
000240 21 98 45 3e a3 97 0b 3e 1e 11 8c bc 0c 69 b1 be
       0.19296314 0.13632064 -0.017098006 -0.34650457
000250 31 e9 c7 3e a1 16 5c 3e
       0.39045098 0.21493007

encoder1_RNN.bias_hh_l0 f4 [150]
000000 a2 d8 0a 3e 9f bf 05 bf 54 5a a1 3c ad b9 5b bd
       0.13559201 -0.52245516 0.019696392 -0.05364387
000010 94 37 01 3c a2 ef 1c 3e 93 bb af bd 99 fb 24 bd
       0.007886786 0.15325788 -0.08580699 -0.040279005
000020 2e 07 0a 3e 10 cf a9 3b 6b b1 41 bf 9a a4 80 3e
       0.13479301 0.0051821545 -0.75661343 0.2512558
000030 44 92 03 be 96 6c aa be f5 24 33 be b8 f8 65 be
       -0.12848765 -0.3328597 -0.17494567 -0.2245816
000040 34 45 19 3d 08 71 ad be 67 9b 12 bf 8a c1 7d bd
       0.037419513 -0.33875299 -0.57268375 -0.06195215
000050 e5 c4 0b be 3d 15 f0 be ed 1e 02 3e 05 7c ac be
       -0.13649328 -0.46891204 0.1270711 -0.3368837
000060 75 b2 94 3b 23 d0 49 be 1a bd ef be cc b8 8d be
       0.0045378753 -0.19708304 -0.4682396 -0.2768005
000070 a1 14 cd be 8d c2 1b bd df f0 0c 3e fe b8 fa bd
       -0.400548 -0.038027335 0.1376376 -0.12242316
000080 09 23 50 bf 83 b4 6a bd 4f 9e c6 be fd 54 d2 bd
       -0.8130346 -0.057301056 -0.38792655 -0.102701165
000090 0e 79 0a bf 6d ec 8a bf 40 35 ea be 73 43 c3 3d
       -0.54090965 -1.0853401 -0.45743752 0.09534349
0000a0 d0 c7 bd bd 11 68 fe 3e e8 57 b8 ba 53 09 d8 bd
       -0.09266627 0.4968877 -0.0014064284 -0.105486535
0000b0 98 e6 35 be 9a 43 dc 3e fb cf 4f 3d f6 2b 2d be
       -0.17763746 0.43020326 0.050735455 -0.16911301
0000c0 74 99 99 be f6 41 80 3e 56 99 83 3e 70 b6 cd 3e
       -0.29999888 0.25050324 0.25702924 0.4017825
0000d0 fb bc 6d 3e d6 81 0c 3f 5d 3d 68 3e 2a c3 d0 3e
       0.23216622 0.54885614 0.22679658 0.40773898
0000e0 d1 01 0e 3f dd a2 12 3f fe bf d1 3e d1 45 9c 3e
       0.5547152 0.5727976 0.4096679 0.30522016
0000f0 47 60 9d be 6c 6b cf 3e 1c 73 8e 3d ab c9 d6 3e
       -0.30737516 0.40511644 0.06955549 0.41950735
000100 83 a6 9c 3e da 95 b7 3e ad c1 64 3c 1d 5d 4a 3e
       0.30595788 0.35856515 0.0139621915 0.19762082
000110 82 1a 11 3f 30 05 09 3f ac 93 7c 3e 18 83 fd 3e
       0.5668107 0.5352354 0.24665707 0.4951408
000120 63 e2 36 be 68 26 03 3f b9 47 70 3e fb 84 f7 3e
       -0.17859797 0.5123048 0.2346486 0.48343644
000130 52 d7 45 3e 30 31 8c 3e 32 f4 b8 3e d0 99 c3 3e
       0.1932042 0.27381277 0.36123806 0.38203287
000140 48 a1 f6 3e 0f ce 9d 3e 6c 38 89 3b 05 1c 83 3e
       0.48169923 0.30821273 0.004187634 0.25607315
000150 a4 a0 3b bf 12 3e 15 3f 9b 3c 11 3f 35 4e 21 3f
       -0.73291993 0.58297837 0.567331 0.6300996
000160 46 33 3a 3f d8 cc 40 3e 62 1c b8 3e 07 58 33 3e
       0.7273449 0.18828142 0.35959154 0.17514049
000170 a3 c8 df 3d 88 53 0b 3e 32 4a da 3e 66 ad 93 bd
       0.1092694 0.13606083 0.42634732 -0.072108075
000180 fd 45 81 3e fc 81 01 3f 75 af b4 3e 37 77 04 3c
       0.2524871 0.50588965 0.35290113 0.008085064
000190 aa 64 e7 bc b6 f6 c4 bc 07 a8 36 3c f9 36 29 3d
       -0.028246243 -0.024043422 0.011148459 0.04131219
0001a0 96 d1 38 be 4e 39 3a bd db 10 2a bd 88 1a 33 be
       -0.180487 -0.045464806 -0.04151998 -0.1749059
0001b0 c4 36 1f be 50 83 8b be c1 2f 59 3e df 05 3a bd
       -0.15548235 -0.2724862 0.21209623 -0.045415755
0001c0 b7 a3 8f bd 87 c5 40 bd 7e 4d 03 3e 54 58 0d be
       -0.07013648 -0.047063377 0.1282253 -0.13803226
0001d0 9c 11 7b be 94 24 bb 3d 9c 19 0e 3e cf 0b 25 3d
       -0.24518436 0.09137836 0.13876957 0.040294465
0001e0 98 14 20 3e 6d 35 2b be df 38 02 3f 93 8a 03 be
       0.15632856 -0.16719599 0.5086803 -0.1284583
0001f0 cf 71 fb bd 56 36 e2 3d f5 32 a2 3d 68 72 0d 3c
       -0.12277567 0.1104552 0.079198755 0.008633234
000200 19 b0 5d 3e 0d 96 f5 bd 95 d0 22 3d f4 bf 7c 3e
       0.21649207 -0.119915105 0.0397497 0.246826
000210 48 56 f8 3c ec b7 c5 bd 28 79 c7 3d 91 b7 93 3e
       0.03031458 -0.09654221 0.097399056 0.28850988
000220 ae 28 42 be 6e 2b 8a be 81 a8 5a 3d 46 b3 eb bc
       -0.1896083 -0.2698626 0.053383354 -0.028772008
000230 b0 af d4 3d 35 39 fd bc 2e 40 4d be 46 88 db bc
       0.10385072 -0.030911068 -0.20044014 -0.026798379
000240 b1 fd f3 3d 8e d1 41 3e 63 d3 d2 bd 23 dc 16 be
       0.11913622 0.18927595 -0.10294225 -0.14732413
000250 17 2a 3c 3e 3a d6 d5 3e
       0.18375431 0.41765004

encoder1_RNN.weight_ih_l1 f4 [150, 50]
000000 e2 7a 44 bd f8 dc 04 3f 14 2d b4 bc 61 15 d1 bd
       -0.047968753 0.5189967 -0.021994151 -0.10209156
000010 bb 12 e9 3e 4d 0a 0a be 96 50 a7 be 57 23 c6 3d
       0.45522103 -0.13480492 -0.3267867 0.09674709
000020 33 1e 0d 3d c2 6b ba 3d 28 16 93 3e c4 17 8b 3e
       0.03445263 0.091025844 0.2872784 0.2716657
000030 be 82 8c bc a0 9b 3d be ee 99 1c bf 9c 8b 64 3e
       -0.017152186 -0.18516397 -0.6117238 0.22318882
000040 82 f0 b0 3e fe 4f 19 3e 8b 76 69 3e 35 db a2 3e
       0.34558493 0.14971921 0.22799127 0.31807867
000050 74 e9 e7 bd 05 d7 7e bd 78 50 f6 be 41 f7 47 3e
       -0.113238245 -0.062216777 -0.48108268 0.19527914
000060 65 a2 9c 3d d7 c4 84 be 18 2c 35 bd 16 56 1e bf
       0.07648162 -0.25931427 -0.044231504 -0.61850107
000070 10 68 cb be fa 96 17 3f 42 97 34 3c 6a 40 a9 be
       -0.3972783 0.59214747 0.011022391 -0.33056957
000080 29 40 cf bc 3d ae 97 be b8 4b c2 bc 27 bc c2 be
       -0.025299149 -0.2962512 -0.023717746 -0.38034174
000090 38 3e 48 be 73 07 1c 3e 1a 71 bd bd 4d 6c 8a be
       -0.19554985 0.15237217 -0.09250088 -0.27035752
0000a0 ab 8d c7 be 2d 1a 0e bf 4e b9 55 3e 3b 39 74 3e
       -0.38975272 -0.5550869 0.2087147 0.23849957
0000b0 28 f7 ac be 91 c3 9a be 28 fe 0b 3b 57 ea 39 3d
       -0.33782315 -0.3022733 0.0021361206 0.0453895
0000c0 6e 8b 74 be b8 d6 2f be 4b 36 a5 be d4 41 dc be
       -0.23881313 -0.17171752 -0.32267985 -0.43018973
0000d0 9d 5d 0b 3f c6 8d a7 3e bd 11 20 3e fb 63 0f 3f
       0.5443972 0.32725352 0.15631767 0.56011933
0000e0 05 57 a9 be e2 ff 88 3e dd df c3 3c bf e8 e4 bd
       -0.33074203 0.26757723 0.023910457 -0.11177205
0000f0 95 6d 9a bd a2 51 64 bf 2c ab 01 3e 2f 86 8e be
       -0.07540432 -0.8918706 0.12662953 -0.2783675
000100 ab 17 2a 3f be 3f af 3e 1d cc 55 3f ef 17 b2 be
       0.66442364 0.3422832 0.8351458 -0.34783885
000110 8b 3b d7 be d1 77 22 bf a6 f7 56 3f f8 d1 84 bd
       -0.42037615 -0.63464075 0.8397163 -0.06485361
000120 5d 97 a7 bc f0 be 9b 3e ba 55 0e 3f 61 c3 c6 3e
       -0.020457918 0.3041911 0.5559956 0.38820937
000130 65 3e 34 3e 03 5d 2b bf 5c 86 db 3e 9a 45 d6 be
       0.17601927 -0.669388 0.42875946 -0.41849977
000140 97 97 68 3e 90 59 0e bf a4 89 46 be a4 2a 2e 3e
       0.22714077 -0.5560541 -0.19388443 0.17008454
000150 59 06 a4 be 1a f4 b9 3e a1 4a 30 be 3f 29 0f bf
       -0.32036093 0.36319047 -0.17215969 -0.5592231
000160 18 d8 f8 3e 88 81 20 bd 2c 5f e5 3e f6 5c 2d bf
       0.48602366 -0.03918603 0.44799173 -0.6771997
000170 19 a0 91 bd 41 31 93 be 4b f7 2f bf 53 5b 28 bf
       -0.07110614 -0.28748515 -0.68736714 -0.6576435
000180 1d 75 d1 be 82 9e c3 3b cf 37 03 bf 49 a3 cb be
       -0.40909663 0.0059698233 -0.5125703 -0.39773014
000190 7f 53 c8 3e 9f 7b d1 bd aa 52 49 bf 46 03 a7 bd
       0.39126202 -0.10228657 -0.7864176 -0.08154921
0001a0 d5 20 b8 bf 52 3d ad bd 7d 73 26 3f dd ff 79 bf
       -1.438502 -0.084589615 0.6501997 -0.9765604
0001b0 de 14 2c bf 8d 0a 0c bf cc 77 ee bd a5 24 d4 3b
       -0.6721934 -0.547036 -0.11643943 0.006474095
0001c0 dc 06 65 3f 91 01 71 3f 2f 7b 2d 3e 46 83 d4 be
       0.8946359 0.94143015 0.16941522 -0.41506404
0001d0 59 0a 8a 3e ac 40 4f 3f e8 4e 8d be 0c dd 5f 3e
       0.2696102 0.80958056 -0.27599263 0.21861666
0001e0 c2 34 a6 3f 52 ed c5 be 0a 19 47 3f fa 47 b9 bf
       1.298485 -0.38657624 0.7777258 -1.447509
0001f0 f0 6f 97 be 80 b9 4d be 5b 22 08 bf 4e 17 02 3e
       -0.2957759 -0.20090294 -0.5317742 0.12704203
000200 f2 ae a4 3e 88 38 ae be 87 33 8c be 68 87 06 3e
       0.32164723 -0.34027505 -0.27383062 0.13137591
000210 1b a0 67 3c d8 29 1f 3e 94 e5 e2 3e d7 3f af be
       0.014137293 0.15543306 0.4431578 -0.34228393
000220 1d 54 af be 6d 5d 99 3e 83 20 89 3e c6 c4 a0 3f
       -0.3424386 0.2995409 0.26782617 1.256005
000230 49 32 f6 3d 99 b9 33 3f c2 4a 01 3f 83 7e af 3d
       0.1202131 0.70205075 0.50504696 0.08569052
000240 82 8e 0a 3f b4 3e 02 3f 6c 14 20 3d 1a 0e 64 bd
       0.541237 0.5087693 0.039081976 -0.05567751
000250 04 51 04 bd 66 ac 8c 3e 96 97 9c be e2 e8 30 3e
       -0.032303825 0.2747528 -0.305844 0.17276338
000260 5f 36 42 bd 88 c6 2c 3e 59 91 e6 3e 8c 76 d9 3e
       -0.047415134 0.16872609 0.45032766 0.42473257
000270 d2 9b ce bd 4c 8a 3d 3e e0 c2 ea be a3 43 9f be
       -0.10088314 0.18509787 -0.45851803 -0.3110629
000280 8c a0 bd bc df 72 b9 be 0b 9b 91 3d 97 4b ca 3d
       -0.023147844 -0.36220452 0.0710965 0.09877699
000290 00 10 d1 3d 0a b4 92 be cf 81 13 3f 6f 74 6b be
       0.1020813 -0.28652984 0.5761995 -0.22993635
0002a0 9c 6e c3 3e b7 e1 a1 be da 17 02 be c0 41 0d be
       0.38170326 -0.3161752 -0.12704411 -0.13794613
0002b0 88 ca f5 bc 11 ad 06 3d dd 3f af 3e 26 59 30 bc
       -0.030003801 0.032879893 0.3422841 -0.010763442
0002c0 e7 2e b1 be a6 a1 6f bf 3e 82 a0 3e a4 1f 8d be
       -0.34606096 -0.9360603 0.31349367 -0.27563202
0002d0 ca 03 b0 3c 16 42 6c be 06 6e e4 be 88 46 ef 3d
       0.021486182 -0.23072085 -0.4461519 0.11683375
0002e0 17 61 65 be b8 28 15 3d 02 e0 2d be e7 b8 31 3f
       -0.22400318 0.036415786 -0.16979983 0.69422764
0002f0 bd 61 0e 3d 32 38 81 be e4 a8 12 3e 8b 37 12 3f
       0.03476118 -0.25238186 0.14322239 0.57116
000300 27 8a 42 be 90 61 99 be ef b0 68 3e 78 a6 e5 be
       -0.18998013 -0.29957247 0.22723745 -0.44853568
000310 e9 9b db be 26 5a b6 be cf 69 a1 be 8e 16 71 be
       -0.42892388 -0.35615653 -0.31526038 -0.2354376
000320 9e 2b 0d bf b3 37 2b be 4d aa b8 3e eb 2e f9 3e
       -0.5514468 -0.16720466 0.3606743 0.48668608
000330 f8 0d 10 3f c8 68 98 3d c3 34 7b be c5 7e da be
       0.56271315 0.074418604 -0.24531846 -0.42674842
000340 ed 26 75 3e 72 c8 d9 3e ea dd 83 bf 7f 7d 84 3d
       0.2394063 0.4253574 -1.0302098 0.06469249
000350 b3 d7 11 bd 06 5f ab be a5 bb 68 3e 17 fa 1a 3f
       -0.035606097 -0.33470935 0.2272783 0.60537857
000360 d3 35 6d 3e 7b 8b 6d bf fd fc ac 3e 10 a9 61 bd
       0.23165064 -0.92790955 0.33786765 -0.05509287
000370 09 5d cc 3d 98 a8 f0 3e 29 c5 86 3e a3 0d f4 3e
       0.099786825 0.47003627 0.26322296 0.47666654
000380 bc 75 ad 3e d7 82 76 3e af 02 3f 3e a9 31 4d 3d
       0.33878887 0.24073349 0.18653367 0.050096188
000390 82 98 e8 3d dd f5 80 3d a0 c1 f5 3d 74 9a 90 3d
       0.113572136 0.06296895 0.11999822 0.070607096
0003a0 1b b6 77 3f f8 cf 69 bd 83 d5 1c be 1d f3 5c 3a
       0.96762246 -0.0570831 -0.15315823 0.00084285607
0003b0 01 b0 78 bd 12 10 ec 3e c3 0a e6 3e 07 3f 57 3e
       -0.060714725 0.4610601 0.44930086 0.21020137
0003c0 b2 9c 9e 3b 1f 6f 67 bf 92 16 80 3e e7 ad 67 3b
       0.004840457 -0.9040393 0.2501722 0.0035351457
0003d0 98 78 34 bf 61 35 db be 89 68 de be 2f 35 d0 bc
       -0.7049651 -0.42814162 -0.4343913 -0.025415985
0003e0 e5 22 07 bf 89 1f 44 bf 05 53 a5 be 8c f6 7b 3c
       -0.5278762 -0.7661062 -0.322899 0.015378606
0003f0 bd 78 01 3f 3d e7 f3 3e 4d a6 de bd 7f 33 4a 3e
       0.50574857 0.47637358 -0.10871563 0.19746207

encoder1_RNN.weight_hh_l1 f4 [150, 50]
000000 4f f0 5c be be 6d ae 3e 51 56 6f 3f 84 a1 b5 3e
       -0.21576045 0.34068102 0.93491083 0.3547479
000010 4d 8d 6b 3f 0b e5 b6 3e 3e 52 ed 3c 0e 0d eb be
       0.9201248 0.3572162 0.02896988 -0.45908397
000020 c0 e8 b1 be a0 5b e4 be 36 46 0e bf 0f 71 35 3e
       -0.34747887 -0.44601154 -0.55575883 0.1771891
000030 26 c8 9f be be e1 b3 bd 6e 27 af be 57 f1 dd 3e
       -0.3120739 -0.08783291 -0.3420977 0.4334819
000040 32 f3 7b be 09 04 e4 be c9 94 9c be 3a 5b fd 3e
       -0.2460449 -0.4453433 -0.30582264 0.49483663
000050 9d 62 85 be 0b 8e 3c bd ae fc ca bd 26 54 3f be
       -0.26051798 -0.0460339 -0.09911476 -0.18684444
000060 9f d0 e6 3d 0d 0c dc bd cd 82 a9 3f 38 24 8c be
       0.1127026 -0.10744486 1.3243042 -0.27371383
000070 d8 9d ff 3e 6c 99 42 bf 10 a4 2a be cb bc 00 3f
       0.49925113 -0.76015353 -0.16664147 0.50288075
000080 22 d0 59 bf 3c 25 29 3d 2c 3d 37 3e df 20 28 3e
       -0.8508321 0.041295275 0.17894429 0.1641879
000090 b0 03 d2 bc 39 e8 ba 3e e4 74 58 bf d4 e6 a1 bf
       -0.025636524 0.36505297 -0.8455336 -1.2648568
0000a0 b4 51 53 be f0 2d ae 3e 95 0d b1 3e a8 a0 76 3f
       -0.20636636 0.34019423 0.34580675 0.9633889
0000b0 b7 10 49 bf 88 f8 07 3e 00 1e c4 3e ff 1a 2b 3e
       -0.7854113 0.13278401 0.38304138 0.16709517
0000c0 6e 07 95 3e 43 c0 44 3d 42 76 8f bd c7 e4 bb bd
       0.2910723 0.048034918 -0.07004978 -0.09174495
0000d0 d1 e3 62 be bf e2 5f bf be e8 c6 be 57 4b 45 3f
       -0.22157218 -0.8745536 -0.38849443 0.77068084
0000e0 e4 8e 6b be 13 ff 16 bd 76 fe ae 3e 92 05 2d 3d
       -0.23003727 -0.03686435 0.34178513 0.04224164
0000f0 b5 a5 e5 be 0f 12 06 be 3c f5 32 be 6a 74 21 bd
       -0.44852987 -0.13092826 -0.17476362 -0.03941766
000100 6e 02 ca 3c 3d 7e 21 be e4 b0 51 3f 83 83 32 3e
       0.024659362 -0.15770812 0.8191054 0.1743298
000110 30 e3 34 bf 0e af 44 3e 07 c0 e5 3e 6d 78 69 3f
       -0.7065916 0.19207403 0.44873068 0.9119938
000120 c3 36 2f 3e a0 df 41 3d 92 3b 8b be fc 2b 90 bf
       0.17110734 0.047332406 -0.27193886 -1.1263423
000130 cb de ae bc 0a 14 87 3e ea c9 28 bf 64 ea 42 bf
       -0.02134647 0.26382476 -0.65933096 -0.761389
000140 69 26 b8 bd e2 a7 89 3d 0c 05 e4 3d 47 60 24 be
       -0.08991701 0.06721474 0.11133775 -0.16052352
000150 21 c7 94 be 39 ae e3 be 4b 56 9d be 60 df 0f 3f
       -0.29058173 -0.4446886 -0.307299 0.5620022
000160 25 76 54 bd 34 31 09 bd 8c 39 cd 3e 5f 13 d6 be
       -0.051870484 -0.03349419 0.40082967 -0.41811654
000170 06 fe 6e bf 4d 04 93 3e 3f 24 d7 be b5 d2 10 bd
       -0.9335636 0.2871422 -0.4201984 -0.035357196
000180 a2 03 3c 3e 39 0d 0f 3e 91 44 22 be 95 d2 a3 3e
       0.18360761 0.13969888 -0.15846469 0.319966
000190 a7 64 09 bf 95 ea 46 bf 44 56 98 be bd ad 34 bf
       -0.5366921 -0.77701694 -0.29753315 -0.70577604
0001a0 9c 9d 82 bf 33 a8 34 be 3f fb 23 3f 09 63 eb 3a
       -1.0204349 -0.17642288 0.64055246 0.0017958592
0001b0 85 c0 00 bf 17 1f f9 3b 83 19 f4 3e 4e ea 5f bd
       -0.5029376 0.007602583 0.47675714 -0.05466681
0001c0 c8 37 d2 be c3 70 0b bf ec 2d ec 3e 2e 17 be be
       -0.41058183 -0.54468936 0.46128786 -0.3712706
0001d0 1e 84 cc 3e e0 6d 49 3f dc f3 78 be 93 b4 d8 bd
       0.39944547 0.7868328 -0.24311775 -0.10581317
0001e0 2a 49 4e 3f a5 5b 18 3f 80 e9 54 3f d8 b7 06 3f
       0.8058039 0.5951484 0.8316879 0.52624273
0001f0 b5 9b 94 3e 65 39 bb 3e 88 95 0f 3e ff 00 0e 3f
       0.29025045 0.36567226 0.14021885 0.5547027
000200 b3 ea 8a 3b 45 fe 07 3f 17 a0 0b 3e 16 b3 4e bf
       0.004239404 0.5312236 0.13635288 -0.80742013
000210 c8 5a ba 3e 5c ba 80 3e bf 96 51 3c ce 2e 06 bf
       0.36397386 0.2514218 0.012792288 -0.5241517
000220 03 38 15 be b5 81 0b be b5 2d 56 3f b6 db f0 3e
       -0.14572148 -0.13623698 0.83663493 0.47042626
000230 fe f4 61 3f ec ca 4b bf 0e fc 7f be f9 55 7c be
       0.88264453 -0.7960651 -0.24998495 -0.24642171
000240 19 a6 4a 3f 9f 73 8f be 50 74 bc bf 33 31 1d bf
       0.79159695 -0.280179 -1.4722996 -0.614032
000250 1c 1b e8 3e 4e 4d 3f 3e 60 25 8e be 5f 62 15 bf
       0.45333183 0.18681833 -0.2776289 -0.5835323
000260 5c 31 12 bf 64 31 77 bd 37 cc 39 bf 51 bf 09 3f
       -0.57106566 -0.060349837 -0.7257723 0.5380755
000270 fc 84 c8 3d ee b9 82 be 58 fb ef 3c 8c c4 14 3f
       0.0979099 -0.25532478 0.029294655 0.58112407
000280 44 f3 f8 3e 19 52 75 3e 61 e0 3e bf 84 59 95 bd
       0.48623097 0.23957099 -0.74561125 -0.072924644
000290 ef 72 de 3e f3 0b a8 be 4a 54 2c 3f 02 a5 11 3f
       0.43447062 -0.32821617 0.67316115 0.56892407
0002a0 b2 05 40 be 72 e9 2b be 14 74 80 3f b3 3b 74 bd
       -0.18752173 -0.16788271 1.0035424 -0.059627246
0002b0 25 9f f2 3e 8e 9c 8c 3e 04 5d 9c 3e db 0f bd be
       0.47387043 0.27463192 0.30539715 -0.3692616
0002c0 db c4 94 bc 26 19 8d 3e 2c fa 2e be 08 0b e8 bd
       -0.018160274 0.2755825 -0.1708762 -0.11330229
0002d0 c0 c2 80 bc 02 79 20 bf 4e e4 c1 bd 04 4c 2f 3f
       -0.015717864 -0.62684643 -0.09467374 0.68475366
0002e0 22 2d 95 be 69 28 1d be af d7 2d be c5 11 68 3e
       -0.29135996 -0.15347447 -0.16976808 0.22663029
0002f0 db 17 73 3e d6 b7 e4 3d 71 ea 9c 3f 59 50 03 bf
       0.23739569 0.111678764 1.2259046 -0.51294476
000300 33 3b fa bd 42 9e 76 be d3 75 c4 3e 66 59 46 bc
       -0.122183226 -0.24083808 0.38371143 -0.012106275
000310 4b 0c fe be ab 75 25 bf af af 37 3e 90 9e 0e 3f
       -0.49618754 -0.6463267 0.17938112 0.557107
000320 0e c1 cc 3e b1 07 bf be 8e 2e 82 be 3d 56 8f be
       0.3999104 -0.37310556 -0.25426143 -0.27995482
000330 ea 8f 59 3e 15 64 7b 3f 76 4e cd 3d cb ef 27 bf
       0.21246305 0.9819959 0.10024731 -0.6560027
000340 d4 21 25 bf d6 18 a3 3d 56 cf 2f 3f 13 5c 95 3e
       -0.6450474 0.079637215 0.68675745 0.2917181
000350 c9 98 79 bc ba 82 85 3e 02 16 db 3d 04 6e 5b bf
       -0.015234181 0.260763 0.10697557 -0.85714746
000360 60 ed 08 3f dd 26 7b be 84 3b 8f be 77 ae 35 3f
       0.53487206 -0.24526544 -0.27975094 0.7096934
000370 dc e7 19 be 06 1a 5f be 4d 18 2b 3d 82 da 24 be
       -0.15029854 -0.21787271 0.041771222 -0.16098979
000380 b9 34 7a 3d f8 7c a5 3c 79 1a 96 3e 94 77 12 bd
       0.061085436 0.020201191 0.29317072 -0.03575857
000390 9f e2 34 3d 55 03 6f bf 3e 1b 8c 3e be 86 95 be
       0.044161435 -0.9336446 0.27364534 -0.29204363
0003a0 bd ee c1 be 61 df 8a be 85 0d 79 be 3c 6c 74 be
       -0.37877455 -0.2712355 -0.24321564 -0.23869413
0003b0 59 cf 66 bd 67 27 49 3f 7b 61 2c be 66 cb 9a be
       -0.056350086 0.7857575 -0.16834061 -0.30233306
0003c0 5f 30 69 bd f1 ef 4b 3e 8f 68 e6 be 68 34 fd 3d
       -0.056930896 0.19915749 -0.45001647 0.12363511
0003d0 c9 f1 0b 3f d4 83 bf 3d aa 5d cf bd f9 a8 76 be
       0.5466581 0.09351316 -0.10125287 -0.24087895
0003e0 be 5f f0 be b0 f3 01 3e b7 57 84 bf 76 f3 24 3d
       -0.46948045 0.12690616 -1.0339268 0.040271245
0003f0 d5 69 14 3f 90 93 66 3e ef a3 d1 be c9 84 81 3e
       0.57973987 0.22517228 -0.40945384 0.2529662

encoder1_RNN.bias_ih_l1 f4 [150]
000000 fa e7 4f bd cb 46 16 be 14 13 0d 3f f5 e6 a3 be
       -0.05075834 -0.14675443 0.55107236 -0.32012144
000010 f8 76 65 be f0 a7 b0 be 42 27 73 3e 5c 83 65 3d
       -0.22408664 -0.34503126 0.23745444 0.056033477
000020 04 2e 60 be 62 0b fc 3d ea 54 cc be 1b 59 74 bb
       -0.21892554 0.123068586 -0.39908534 -0.0037284556
000030 c1 61 b0 bd ba ae 00 3f b9 8f a2 bd c6 c0 f6 bd
       -0.08612395 0.5026661 -0.07937569 -0.12048487
000040 e5 05 83 be 99 56 38 be 85 4a 50 be eb 49 f1 bd
       -0.25590435 -0.18001784 -0.20340927 -0.11781677
000050 1d 7f 63 3c 93 fc 1a bf 34 3e 2e be b6 ac a6 3e
       0.013885287 -0.6054165 -0.17015916 0.32553643
000060 2f 77 8e be f7 13 70 bf f1 6a e8 3e 53 91 86 3e
       -0.27825305 -0.93780464 0.4539409 0.2628275
000070 d4 b8 88 3e ad 26 79 3e e6 15 11 bf 96 6e 68 bd
       0.26703513 0.2433116 -0.5667404 -0.056746088
000080 6c 23 81 3f 45 60 7f be 80 f7 cb bc fd 92 54 be
       1.0088935 -0.24939068 -0.02489829 -0.20759197
000090 2e 04 5b 3f 81 99 bc be a3 a9 35 be 8f c0 3b 3f
       0.8555325 -0.36835864 -0.17740493 0.73340696
0000a0 94 95 c3 3e af 79 ad 3e 5b 3a 15 bf 7a a3 b5 3e
       0.38200057 0.338819 -0.5829217 0.35476285
0000b0 fd 2c 4b be d0 94 10 bf 94 48 e2 3e 38 d7 db bd
       -0.1984138 -0.5647707 0.44195998 -0.10734409
0000c0 2c 0f fd 3e 01 b4 fe bd e2 35 2e 3f 63 4b 1d 3f
       0.49425638 -0.12436677 0.6805097 0.61443156
0000d0 08 7e 2e bf ef fe 58 3f d2 c9 2b 3e 18 7c 33 3f
       -0.6816106 0.84764 0.16776207 0.7011123
0000e0 3a 18 07 3f 7d d0 36 be cb bd 2d 3f c7 f2 e0 3d
       0.5277134 -0.1785297 0.67867726 0.10983806
0000f0 88 a7 30 3f df c9 ba be 09 fa 19 3e 3b dc cf 3e
       0.6900563 -0.3648214 0.15036787 0.4059771
000100 46 48 62 3f 41 b8 02 3f 25 ca 26 3f a0 9b 1a be
       0.8839153 0.510624 0.651522 -0.15098429
000110 57 88 3c 3f 3b 67 fc 3d 48 54 8d 3e b3 3f 09 3f
       0.7364554 0.12324377 0.27603364 0.5361282
000120 da c3 16 3f c7 63 46 be 42 db 2d 3f f9 1d 85 3f
       0.58892596 -0.19374 0.67912686 1.0399772
000130 d4 73 a1 be ff 83 10 3f a3 a0 84 3e e1 67 f7 be
       -0.31533682 0.5645141 0.25903806 -0.4832144
000140 e9 db 1e 3f c9 b7 aa 3e 07 b2 2c be 9b f7 3a 3f
       0.62054306 0.33343342 -0.16864787 0.73034066
000150 c5 46 fc 3d cf 68 13 3f 8e 3e 0b bf c4 d0 1f bc
       0.12318186 0.575818 -0.54392326 -0.009754363
000160 04 f8 b7 3d 3f 7a 1a bf c9 1f 9e be 6e 37 34 be
       0.08982852 -0.6034278 -0.30883625 -0.1759927
000170 f0 72 41 3f e2 db 1d be 43 b6 1c 3f ce 70 34 3f
       0.75566006 -0.1541591 0.6121561 0.70484626
000180 77 33 14 3e cb a5 f9 3e 85 22 94 3e 21 64 97 3e
       0.14472757 0.48759302 0.28932586 0.2956858
000190 f3 3d 9d be 90 a8 33 3e 47 99 73 bd bb 31 1d 3d
       -0.30711326 0.1754477 -0.05947235 0.038377505
0001a0 3f 2a a8 3d 95 9e ce 3e 96 df b7 bd 5c 49 e6 be
       0.08211183 0.40355363 -0.089781925 -0.44977844
0001b0 89 cc 15 be 0a 3c 53 be e6 03 c0 3d 91 d6 a5 3e
       -0.14628805 -0.20628372 0.093757436 0.32390264
0001c0 85 00 aa 3d 20 fe 03 3f ae 22 72 bd 12 0e 7a 3e
       0.0830088 0.5155964 -0.059115104 0.2441943
0001d0 d1 8e 34 3e 56 d4 d9 bd 99 64 c9 3d 8c 27 c4 3e
       0.17632605 -0.10636203 0.098336406 0.38311422
0001e0 e4 71 52 be 6c 13 2c 3e 31 35 89 be 99 6e 16 be
       -0.20551258 0.16804284 -0.26798394 -0.14690627
0001f0 63 99 d8 bd 88 46 f3 3a 76 7c 32 3e 8c f7 9e bd
       -0.10576131 0.0018560449 0.1743029 -0.077620596
000200 0b d9 e6 3e dc 24 7c 3d 86 f3 b5 3d ac b1 a9 3c
       0.45087466 0.06155859 0.08884339 0.020714603
000210 d2 3f 0c bf 8c e2 af bd ca cf 05 bf a4 95 c4 3d
       -0.5478488 -0.08588132 -0.52270186 0.09598854
000220 da 17 2d be 93 18 28 3f 8f f2 ee 3b 54 1e e8 3d
       -0.1690363 0.656625 0.007292099 0.1133391
000230 3f ef 12 bf 67 81 90 bd e9 b3 cc 3d 8e 0c 63 be
       -0.5739631 -0.070559315 0.09995253 -0.22172758
000240 10 67 a2 bc 40 fd 6a 3e dc f5 02 3e 11 88 98 3d
       -0.019824535 0.2294817 0.127891 0.074478276
000250 7f b1 bc 3d 07 b7 55 3d
       0.09213542 0.0521765

encoder1_RNN.bias_hh_l1 f4 [150]
000000 86 be ae bd 23 c8 a0 be bc c4 28 3f f4 a0 9a be
       -0.08532433 -0.31402692 0.6592519 -0.30200922
000010 ce b8 9b be 74 4b a2 be 33 f0 84 3e 96 d9 28 3d
       -0.30414432 -0.3169819 0.25964507 0.04122313
000020 09 a1 0c be 33 85 c8 3d b5 ae b1 be 2a 29 67 3e
       -0.13733305 0.09791031 -0.34703603 0.22574297
000030 d1 b7 7c bd 21 81 e0 3e 37 87 b6 bd 0e 51 96 bc
       -0.06169874 0.43848518 -0.08912509 -0.018349197
000040 fe 4b b8 be 58 2f 2a be 25 d2 9d be 75 56 68 be
       -0.35995477 -0.16619623 -0.3082439 -0.2268923
000050 3f 7e 9f 3d 76 b6 ec be 08 34 c1 be 6a 00 02 3f
       0.077877514 -0.46232957 -0.3773501 0.5078188
000060 9b a3 8c be e1 80 4f bf 90 8e db 3e d2 fc 82 3e
       -0.2746857 -0.8105603 0.42882204 0.25583512
000070 99 78 ce 3e 31 d3 85 3e 97 e2 df be 17 40 a9 3c
       0.40326384 0.2613769 -0.43727562 0.020660443
000080 4b c5 87 3f e5 7a 2e be 16 2b 92 3d 7e 96 5b be
       1.0607084 -0.17039068 0.07137124 -0.21444127
000090 41 aa 70 3f fb 4d 0a bf ef 08 a4 3d 79 be 09 3f
       0.94009787 -0.5402524 0.080095164 0.53806263
0000a0 2b 6d d7 3e d1 eb b7 3e 23 b7 27 bf 7a 07 30 3e
       0.42075476 0.359221 -0.6551382 0.17190352
0000b0 44 39 b4 be 3e bf f2 be 49 bc df 3e 94 a0 1d 3d
       -0.3519994 -0.4741153 0.43698338 0.038483217
0000c0 24 84 2b 3f b8 55 6e bd 4f d1 e7 3e a0 72 11 3f
       0.66998506 -0.058187217 0.45276877 0.5681553
0000d0 69 7e 34 bf bd f5 44 3f f5 58 ac 3e 44 66 19 3f
       -0.70505387 0.76937467 0.3366162 0.5992167
0000e0 bc 24 1d 3f 17 85 a9 bd 62 7d 16 3f 9d 67 48 3e
       0.6138418 -0.08277338 0.5878507 0.19570775
0000f0 2f 63 2e 3f c2 9e 34 be 04 5b 9e bd fd b1 a6 3e
       0.6812009 -0.17638686 -0.077322036 0.3255767
000100 12 1f 69 3f 16 dd 30 3f 3e c4 40 3f a1 cb 3b be
       0.91063035 0.6908735 0.7529944 -0.18339397
000110 a7 41 29 3f 2c a3 16 3e 50 ae be 3e c0 e0 0c 3f
       0.661158 0.14710683 0.37242365 0.5503044
000120 b2 f9 02 3f 79 20 3b be ee 87 28 3f 40 de 53 3f
       0.51162255 -0.18274106 0.6583241 0.82761
000130 43 f6 77 be 1f 27 ff 3e b3 c5 aa 3e a7 63 13 bf
       -0.24215035 0.49834535 0.33353958 -0.5757393
000140 ee 93 3b 3f 66 f2 00 3f fd 80 01 be e6 0a 28 3f
       0.732726 0.5036987 -0.12646861 0.6564163
000150 f9 1a ae 3d b2 34 c0 3e 62 13 ef be cf 11 25 be
       0.085012384 0.37540203 -0.46694475 -0.16120075
000160 10 ca 83 3e d0 92 ef be 7d 77 aa be 86 98 22 be
       0.257401 -0.46791697 -0.33294287 -0.15878496
000170 f1 cb 73 3f 21 32 76 bd 76 cf 40 3f 28 7c ff 3e
       0.95233065 -0.0601064 0.7531656 0.4989941
000180 d1 7a 9f 3e c9 fd 1a 3f c2 ab 06 3e 98 4c 9d 3e
       0.3114839 0.60543495 0.13151458 0.307225
000190 a3 12 d5 bd 26 80 13 3e 36 13 18 bf 9e 2a 50 be
       -0.10403945 0.14404353 -0.59404314 -0.20328757
0001a0 47 dc 38 3c 06 84 5a 3e 46 7a 0d bd a2 89 13 bf
       0.011282987 0.21339425 -0.034540437 -0.57631886
0001b0 b9 b3 90 be e9 76 a7 bb 63 a0 4b 3d 0e c6 56 3e
       -0.28262118 -0.0051106107 0.049713504 0.2097399
0001c0 dd 72 6a 3e 0d 29 e7 3e d0 1a 77 bd 9c 98 ab 3c
       0.2289538 0.45148507 -0.060328305 0.020946793
0001d0 a8 7a 05 be a5 29 84 be 37 ea 55 3d 40 2f 15 bd
       -0.13035071 -0.25813022 0.052225318 -0.036422014
0001e0 e5 b1 57 be d2 e5 bf 3d 13 db 50 bd 23 81 4c bf
       -0.21063955 0.093700066 -0.050990175 -0.79884547
0001f0 a6 6e 48 be 77 8e 31 3d b7 bd 08 3c 1c 55 9a bd
       -0.19573459 0.043348756 0.008346013 -0.075357646
000200 c7 a9 ef 3e 03 7e b1 3d d5 80 86 bd 15 45 2a 3e
       0.46809217 0.08666613 -0.065675415 0.16627915
000210 a5 e7 af be 71 77 38 3c a9 34 63 bd 4a d2 eb bc
       -0.34356418 0.011258946 -0.055470143 -0.028786797
000220 65 ec a1 be 21 70 c6 3e db 35 fc be dd 77 04 3e
       -0.31625667 0.38757423 -0.49259838 0.12936349
000230 a2 db 1a bf 15 3e 8f 3e ba 77 8d 3e 60 d5 1a be
       -0.60491383 0.27977052 0.27630407 -0.15120459
000240 87 a8 df bd 6e 35 b2 3d 8b fe f9 3e e6 d7 1e 3d
       -0.10920816 0.08701597 0.48827013 0.038780116
000250 b6 d8 62 3e 19 e7 f2 bd
       0.22152981 -0.11860485

encoder1_linear.weight f4 [1, 50]
000000 01 32 23 3e 3f e2 cd bd 34 e8 0f be ec 20 da bd
       0.15937044 -0.10052919 -0.14053422 -0.106508106
000010 52 81 ab bd 7b 10 9b bd 88 97 1a 3e d4 b3 10 3d
       -0.08374275 -0.07571503 0.15096867 0.035327747
000020 da 3a 4e 3e 06 25 36 bd b7 16 a0 3d 79 2d 53 be
       0.20139638 -0.044468902 0.078168325 -0.20622815
000030 fa 45 85 3c 4f 0d 45 be 52 93 84 be b9 48 55 be
       0.016268719 -0.19243358 -0.25893646 -0.20828523
000040 20 c5 e3 3c bf cf b1 bd 5f b3 24 3d 08 86 2a be
       0.027803957 -0.086822025 0.040210124 -0.16652691
000050 11 d5 a9 3b 3a 1e 2a bd 29 93 ce bd e5 76 d9 bd
       0.00518287 -0.041532733 -0.10086662 -0.106183805
000060 ae a5 87 3c da 68 81 3e d6 82 f5 3c a0 c4 b3 3d
       0.016558494 0.25275308 0.029969614 0.087777376
000070 0d aa f9 bd 5e 9c 86 3d 1f cc ff bd 90 51 84 3d
       -0.12190638 0.065727934 -0.12490105 0.06460869
000080 67 b3 69 3d 8a 4a 60 3e 9c 97 30 bb b2 eb a0 bd
       0.057055857 0.21903434 -0.0026945835 -0.07857455
000090 f0 d3 c6 3d 36 a9 40 be 37 80 11 be 9d 61 ff 3d
       0.097083926 -0.18814549 -0.14209066 0.1246979
0000a0 08 15 d2 3d 42 02 37 3d b3 7e 61 be bf 40 7a 3e
       0.10257918 0.044679888 -0.22020988 0.24438761
0000b0 b3 ac 2a be ea cd 1f be d8 cd 53 3e 87 a0 54 3e
       -0.16667442 -0.15605894 0.20683992 0.20764361
0000c0 d2 52 0c 3e fb 8c 97 bd
       0.13703468 -0.07399937
